SimMTM-main/SimMTM-main/SimMTM_Forecasting/outputs/pretrain_checkpoints/ETTh2/ckpt_best.pth (torch, 350404 bytes, 37 tensors)

enc_embedding.value_embedding.tokenConv.weight f4 [16, 1, 3]
000000 34 29 23 3f 63 d0 02 c0 73 b9 e7 3f 3d d5 76 40
       0.63734746 -2.043969 1.810347 3.856765
000010 4f 31 ad bf b3 9d 60 c0 00 b0 03 c0 a2 1d 3d c0
       -1.3530673 -3.5096252 -2.0576172 -2.9549336
000020 71 5c 45 bf 5c c3 e8 bf 37 f0 7e 40 7e ea fe bf
       -0.7709418 -1.8184619 3.9834116 -1.9915311
000030 37 1c 54 bf 98 d7 50 3e 39 ef 2b 3f 50 fe 97 40
       -0.8285555 0.20394742 0.671619 4.749794
000040 ed 70 54 c0 bb 3a 03 40 7b 8f 10 40 c3 38 25 40
       -3.3193924 2.0504596 2.2587574 2.5815895
000050 87 8d b9 3f 78 12 83 3f b3 1a 35 bf 76 0e 18 40
       1.4496316 1.0240011 -0.70743865 2.3758826
000060 51 23 7e 3e fb 3d b1 3e 0b ca 42 40 81 fa 88 c0
       0.2481816 0.346176 3.0435817 -4.280579
000070 e8 1a ea bf ff 94 84 bf 99 c2 23 3d b0 1f 10 41
       -1.8289461 -1.035797 0.039980505 9.007736
000080 e6 ea f2 3d 0d f8 60 3f 58 d0 d8 3f f0 22 2a c0
       0.118612096 0.87878495 1.6938581 -2.6583824
000090 aa a3 c8 3c 9c 14 8b c0 45 a9 74 3c af f2 01 c0
       0.024492104 -4.346266 0.014932935 -2.0304372
0000a0 03 e6 01 40 09 81 24 3f c9 27 0d c0 47 a5 be b8
       2.0296638 0.6425939 -2.2055533 -9.090691e-05
0000b0 8e ea 9f 3b 0f d9 fa 3f ea 00 b6 bf c8 d3 1c bf
       0.004880256 1.9597491 -1.4219029 -0.6126065

enc_embedding.position_embedding.pe f4 [1, 5000, 16]
000000 00 00 00 00 00 00 80 3f 00 00 00 00 00 00 80 3f
       0.0 1.0 0.0 1.0
000010 00 00 00 00 00 00 80 3f 00 00 00 00 00 00 80 3f
       0.0 1.0 0.0 1.0
000020 00 00 00 00 00 00 80 3f 00 00 00 00 00 00 80 3f
       0.0 1.0 0.0 1.0
000030 00 00 00 00 00 00 80 3f 00 00 00 00 00 00 80 3f
       0.0 1.0 0.0 1.0
000040 a4 6a 57 3f 41 51 0a 3f 3e 39 9f 3e 6b 4e 73 3f
       0.84147096 0.54030234 0.3109836 0.9504153
000050 76 75 cc 3d 98 b8 7e 3f 5b 81 01 3d 3c df 7f 3f
       0.099833414 0.9950042 0.031617504 0.99950004
000060 57 d6 23 3c b9 fc 7f 3f 1c 3e 4f 3b ac ff 7f 3f
       0.009999833 0.99995 0.0031622713 0.999995
000070 6d 12 83 3a f8 ff 7f 3f 61 cb a5 39 ff ff 7f 3f
       0.0009999998 0.9999995 0.00031622782 0.99999994
000080 b7 c7 68 3f 33 11 d5 be 1b 54 17 3f ec 7b 4e 3f
       0.9092974 -0.41614684 0.5911271 0.8065784
000090 f8 6f 4b 3e a5 e5 7a 3f c8 70 81 3d f9 7c 7f 3f
       0.19866931 0.9800666 0.063203394 0.9980007
0000a0 3e d4 a3 3c e5 f2 7f 3f d8 3d cf 3b b1 fe 7f 3f
       0.019998666 0.9998 0.006324511 0.99998003
0000b0 68 12 03 3b df ff 7f 3f 60 cb 25 3a fd ff 7f 3f
       0.0019999985 0.99999803 0.0006324556 0.9999998
0000c0 c3 81 10 3e 26 70 7d bf c2 09 50 3f 58 2f 15 3f
       0.14112 -0.9899925 0.8126489 0.58275366
0000d0 6c 4e 97 3e ef 90 74 3f c0 ff c1 3d 4f d9 7e 3f
       0.2955202 0.9553365 0.094726086 0.99550337
0000e0 1f b9 f5 3c 83 e2 7f 3f 0d 6e 1b 3c 0d fd 7f 3f
       0.0299955 0.99955004 0.009486687 0.999955
0000f0 92 9b 44 3b b5 ff 7f 3f 10 b1 78 3a f9 ff 7f 3f
       0.0029999954 0.9999955 0.00094868336 0.9999996
000100 cf bd 41 bf 30 55 27 bf de 1d 74 3f b1 2e 9a 3e
       -0.7568025 -0.6536436 0.95358074 0.30113748
000110 d7 61 c7 3e a7 ca 6b 3f 88 2e 01 3e 69 f4 7d 3f
       0.38941833 0.921061 0.12615407 0.99201065
000120 db cb 23 3d 94 cb 7f 3f c9 3c 4f 3c c2 fa 7f 3f
       0.039989334 0.9992001 0.01264877 0.99992
000130 57 12 83 3b 7a ff 7f 3f 5e cb a5 3a f3 ff 7f 3f
       0.003999989 0.999992 0.0012649109 0.9999992
000140 10 7c 75 bf 2c 3c 91 3e 7f fc 7f 3f e9 72 29 bc
       -0.9589243 0.2836622 0.99994653 -0.010342338
000150 43 77 f5 3e 40 a9 60 3f 1d 3c 21 3e 81 ce 7c 3f
       0.47942552 0.87758255 0.15745588 0.987526
000160 f4 b6 4c 3d 19 ae 7f 3f 7e 85 81 3c cf f7 7f 3f
       0.049979165 0.99875027 0.015810724 0.999875
000170 dd d6 a3 3b 2e ff 7f 3f 33 3e cf 3a eb ff 7f 3f
       0.004999979 0.9999875 0.0015811383 0.99999875
000180 8c 0f 8f be b8 cd 75 3f 4e 78 72 3f 6d 3f a4 be
       -0.2794155 0.96017027 0.9471482 -0.3207964
000190 68 8c 10 3f 32 49 53 3f 6e 20 41 3e e3 67 7b 3f
       0.5646424 0.8253356 0.18860027 0.98205394
0001a0 d1 9c 75 3d 12 8a 7f 3f 43 6c 9b 3c 34 f4 7f 3f
       0.059964005 0.99820054 0.018972522 0.99982
0001b0 58 9b c4 3b d2 fe 7f 3f 08 b1 f8 3a e2 ff 7f 3f
       0.0059999637 0.999982 0.0018973658 0.9999982
0001c0 46 30 28 3f bd ff 40 3f 6e e8 4c 3f bc 74 19 bf
       0.6569866 0.75390226 0.8004216 -0.5994375
0001d0 72 eb 24 3f b3 cc 43 3f 50 d3 60 3e ea c0 79 3f
       0.6442176 0.7648422 0.2195561 0.9755999
0001e0 32 3e 8f 3d 81 5f 7f 3f a2 52 b5 3c f2 ef 7f 3f
       0.06994285 0.997551 0.022134129 0.999755
0001f0 c5 5f e5 3b 65 fe 7f 3f ed 11 11 3b d7 ff 7f 3f
       0.006999942 0.9999755 0.0022135929 0.99999756
000200 95 46 7d 3f f6 fd 14 be 7e 06 13 3f e5 91 51 bf
       0.98935825 -0.14550003 0.5743178 -0.8186324
000210 a5 a4 37 3f 5f 5b 32 3f 51 26 80 3e 02 da 77 3f
       0.717356 0.6967067 0.25029233 0.9681703
000220 50 aa a3 3d 65 2e 7f 3f 8a 38 cf 3c 08 eb 7f 3f
       0.07991469 0.9968017 0.025295515 0.99968004
000230 12 12 03 3c e7 fd 7f 3f 55 cb 25 3b ca ff 7f 3f
       0.007999914 0.999968 0.0025298197 0.9999968
000240 32 01 d3 3e d5 3f 69 bf ee 1f 95 3e a2 e6 74 bf
       0.4121185 -0.91113025 0.29125923 -0.9566442
000250 1c 88 48 3f d5 21 1f 3f 2d c2 8f 3e a9 b3 75 3f
       0.78332686 0.62161 0.28077832 0.95977265
000260 3e 12 b8 3d c2 f6 7e 3f ea 1d e9 3c 76 e5 7f 3f
       0.089878544 0.9959527 0.028456647 0.99959505
000270 3a 74 13 3c 59 fd 7f 3f bc 84 3a 3b bc ff 7f 3f
       0.008999879 0.9999595 0.0028460464 0.99999595
000280 f8 44 0b bf 64 cd 56 bf 97 70 a9 bc fb f1 7f bf
       -0.5440211 -0.8390715 -0.02068357 -0.9997861
000290 a4 6a 57 3f 41 51 0a 3f 3d 39 9f 3e 6b 4e 73 3f
       0.84147096 0.54030234 0.31098357 0.9504153
0002a0 76 75 cc 3d 98 b8 7e 3f 59 81 01 3d 3c df 7f 3f
       0.099833414 0.9950042 0.031617496 0.99950004
0002b0 57 d6 23 3c b9 fc 7f 3f 22 3e 4f 3b ac ff 7f 3f
       0.009999833 0.99995 0.0031622727 0.999995
0002c0 5c ff 7f bf 72 05 91 3b 1f 41 a9 be 8d 9b 71 bf
       -0.9999902 0.004425698 -0.33057496 -0.94377977
0002d0 2a 26 64 3f c3 3d e8 3e 8b 87 ae 3e e4 aa 70 3f
       0.89120734 0.4535962 0.34087786 0.9401076
0002e0 72 d3 e0 3d e8 73 7e 3f 68 73 0e 3d 5b d8 7f 3f
       0.1097783 0.9939561 0.03477803 0.9993951
0002f0 69 38 34 3c 09 fc 7f 3f 87 f7 63 3b 9b ff 7f 3f
       0.010999777 0.9999395 0.003478499 0.999994
000300 d8 5c 09 bf d0 06 58 3f 24 91 1b bf 56 4f 4b bf
       -0.53657293 0.84385395 -0.6076834 -0.7941793
000310 1d 9a 6e 3f f7 86 b9 3e 2c a9 bd 3e c3 c9 6d 3f
       0.9320391 0.36235783 0.3704313 0.9288599
000320 ac 2b f5 3d b5 28 7e 3f 19 65 1b 3d d2 d0 7f 3f
       0.119712204 0.99280864 0.03793821 0.9992801
000330 70 9a 44 3c 48 fb 7f 3f eb b0 78 3b 87 ff 7f 3f
       0.011999711 0.999928 0.0037947248 0.9999928
000340 22 20 d7 3e 6f 4e 68 3f 4c 14 53 bf 9d d9 10 bf
       0.42016703 0.9074468 -0.82452846 -0.5658205
000350 c0 ab 76 3f 9d f5 88 3e 3f 9a cc 3e c3 ab 6a 3f
       0.9635582 0.26749888 0.3996143 0.9166834
000360 d0 be 04 3e 00 d7 7d 3f 65 56 28 3d a1 c8 7f 3f
       0.12963414 0.9915619 0.041098017 0.9991551
000370 6a fc 54 3c 76 fa 7f 3f 26 b5 86 3b 72 ff 7f 3f
       0.012999633 0.9999155 0.00411095 0.99999154
000380 72 98 7d 3f d7 04 0c 3e b3 a8 75 bf 0a 0d 90 be
       0.9906074 0.13673721 -0.9596054 -0.28134948
000390 6f 46 7c 3f e7 0b 2e 3e f4 56 db 3e b1 51 67 3f
       0.98544973 0.16996728 0.42839777 0.90359026
0003a0 64 e4 0e 3e cc 7e 7d 3f 43 47 35 3d c9 bf 7f 3f
       0.13954312 0.990216 0.044257414 0.99902016
0003b0 55 5e 65 3c 94 f9 7f 3f d6 11 91 3b 5c ff 7f 3f
       0.013999541 0.999902 0.004427175 0.9999902
0003c0 44 79 26 3f e8 7a 42 bf 75 e0 7f bf 96 22 fe 3c
       0.65028787 -0.7596879 -0.9995187 0.031022351
0003d0 d5 5b 7f 3f ba de 90 3d 83 db e9 3e 68 bc 63 3f
       0.997495 0.07073732 0.45675287 0.8895936
0003e0 4f 06 19 3e 1a 20 7d 3f aa 37 42 3d 49 b6 7f 3f
       0.14943813 0.9887711 0.047416367 0.9988752
0003f0 32 c0 75 3c a1 f8 7f 3f 85 6e 9b 3b 43 ff 7f 3f
       0.014999436 0.9998875 0.0047433996 0.99998873

enc_embedding.temporal_embedding.embed.weight f4 [16, 4]
000000 a6 6a 9a 3e 92 69 cc be fa 38 bb 3e de 3d f5 3e
       0.3015949 -0.39924294 0.36566907 0.47898763
000010 0c 14 d5 3e 24 3e 77 be f2 9f a5 3e 3a e2 af be
       0.41616857 -0.24144799 0.3234859 -0.34352285
000020 c8 cd fb be a0 81 a5 bc 48 db 60 be 9c 90 dd 3e
       -0.49180436 -0.020203412 -0.21958649 0.4327439
000030 06 c6 a7 be 18 c7 1c 3e 94 d0 32 3e e0 a7 bd 3c
       -0.32768267 0.15310323 0.17462379 0.023151338
000040 38 0b da bd 48 c4 b2 3e a0 8e 5f 3e 58 d9 8f bd
       -0.10646671 0.34915376 0.21831751 -0.07023877
000050 a4 39 fa 3e 28 a4 c7 3d 46 15 f9 be 62 1a ea be
       0.488721 0.09748107 -0.48649043 -0.45723253
000060 cc 82 e5 be c2 59 e6 3e 7c e7 ae be 74 30 e8 3e
       -0.44826353 0.44990355 -0.34160984 0.45349467
000070 00 2e 4a bc 08 9c ee be 78 4b b1 3e 68 0e 3f 3e
       -0.012340069 -0.46603417 0.3462789 0.1865784
000080 ac 98 f9 3e 12 38 e4 be 94 1b 80 be 70 32 41 be
       0.48749292 -0.44574028 -0.2502104 -0.18866897
000090 30 3b 9b 3e 68 cc e2 3e b2 84 cb 3e 9e ed f0 3e
       0.30318594 0.44296575 0.39749676 0.47056288
0000a0 0c d1 03 3e c8 5b 85 3e 8e 18 be 3e 9c d5 c3 3e
       0.12872714 0.26046586 0.3712811 0.3824891
0000b0 a0 7e 19 3e 8e 9a 90 3e 00 89 3c 3c fc b2 94 3e
       0.1498971 0.28242916 0.011507273 0.29042804
0000c0 30 cd a2 bd 40 34 ed bc 20 fa fb bc e8 de b9 3e
       -0.07949293 -0.028955579 -0.030758917 0.36302876
0000d0 70 5f d8 3e 9a 71 c9 3e 14 5a 87 be 1e 75 d0 3e
       0.42260313 0.39344484 -0.26435912 0.40714353
0000e0 3c fb 47 3e 00 a0 ee bd c0 22 84 bc 30 ba c8 be
       0.19529432 -0.11651611 -0.016129851 -0.3920455
0000f0 be fa f6 3e b2 f1 ed be 62 0a f1 be f8 f7 96 3d
       0.48238176 -0.4647346 -0.47078234 0.07371515

encoder.attn_layers.0.attention.query_projection.weight f4 [16, 16]
000000 57 16 96 3d aa ee a5 3c 16 e1 10 3d 4d 81 a2 3b
       0.0732848 0.020255405 0.03537091 0.0049592615
000010 21 b4 87 3d 7c be 87 bd 6d 47 ed 3b d8 87 80 ba
       0.06626154 -0.06628129 0.0072411806 -0.000980611
000020 0e a0 17 3d 80 35 1c 3b 9c 7e 6a 3d 59 9f a2 bd
       0.037017874 0.00238356 0.05724965 -0.079405494
000030 e9 09 b3 bd 53 a7 b3 3c 46 1b c3 bd 65 a4 ac 3c
       -0.087421246 0.021930372 -0.09526686 0.021074483
000040 7d 24 c4 bd 66 73 f9 3a fe 60 78 3d 28 97 da 3c
       -0.09577272 0.0019031584 0.060639374 0.026683405
000050 dc 65 c1 bd ac fe 6f 3c 6c da 53 bd 68 02 df bd
       -0.09443256 0.014648121 -0.051721975 -0.10889131
000060 d0 6f dc bc 54 da 59 bd 3c f2 8f 3d c7 7f 0b 3e
       -0.026908785 -0.05318673 0.070286244 0.13622962
000070 46 63 d6 3d 0d 4a a3 3b bd 35 08 bd af e9 a9 3c
       0.10468154 0.004983193 -0.033254374 0.020741312
000080 95 7d f7 3b af 6d bd bc e4 32 97 3c 36 28 b3 3d
       0.0075528123 -0.02312359 0.018456884 0.08747904
000090 34 80 ac bd 31 b4 ef bb 6a ab ef 3b 86 2f d6 bc
       -0.0842289 -0.0073151817 0.0073141353 -0.026145708
0000a0 e7 77 22 3e 82 85 ea bd 7c 90 ff 3e cd 0f 87 bd
       0.15866052 -0.11451246 0.4991492 -0.06594811
0000b0 2c b6 77 bf 23 0d 0f 3d f0 8a 84 bb e0 f8 f4 3d
       -0.9676235 0.034924638 -0.004044883 0.11961532
0000c0 94 ac da 39 aa b8 1c 3c b9 ff 17 be 1a 6b 0a be
       0.0004170878 0.009565512 -0.14843644 -0.13517419
0000d0 06 3a 0d 3e 4d 9b 52 3d a0 00 8a 3d 07 2e 26 3d
       0.13791665 0.051417638 0.067384005 0.04057124
0000e0 fe dd c5 bd a1 ab 0d 3e 8a 97 58 3e 25 c3 0a 3e
       -0.09661482 0.13835002 0.21151558 0.13551004
0000f0 be 15 a4 bf a7 d8 24 3d 78 b3 a2 3d fe 50 0b bd
       -1.2819135 0.04024568 0.07944387 -0.034012787
000100 8f 4f e9 3c 62 e1 c1 bc a5 35 ab bd 39 4d 61 3d
       0.02848032 -0.023667041 -0.08359841 0.055005286
000110 42 82 27 3d 03 27 ff 3b 69 87 75 3b ed 9f 9e 3d
       0.040895708 0.007786633 0.0037464744 0.07745347
000120 99 52 c8 3c 5f 79 e3 3d 3e a5 f3 bd bf 09 08 3e
       0.024453448 0.11107134 -0.11896752 0.13284968
000130 7b 1a 96 3f 1a b9 5c bb 8f e4 52 bd fb 8b 1c 3c
       1.1726831 -0.0033679665 -0.0514875 0.009554858
000140 b6 be 25 bc 95 2b d0 bb a7 27 16 be a5 33 50 3d
       -0.01011627 -0.0063528516 -0.14663564 0.050830502
000150 e7 87 2f 3d a9 da 4a 3c 71 32 be 3c d1 6f 93 3d
       0.042854216 0.012381234 0.023217412 0.07199062
000160 e3 59 e7 3c 2c ff 04 3e 1d c6 aa 3e 40 f0 e2 3d
       0.028241104 0.12987965 0.33354273 0.1108098
000170 6c b8 9d bf ea 08 3c b9 5f 23 1e 3c f2 ce a5 3b
       -1.2321906 -0.00017932398 0.009651988 0.00506007
000180 c0 61 d1 3d c7 6a 49 3d 74 49 97 3d da b1 3e 3e
       0.102237225 0.049174096 0.07387057 0.18622532
000190 05 7c 1f 3d 5c c8 8b 3d 2c 50 01 3e 1d 23 bd 3d
       0.038936634 0.06825325 0.1262824 0.09235213
0001a0 35 aa 27 be 0c 2f 27 bb 15 01 05 3d ba 99 e0 bd
       -0.16373523 -0.002551022 0.032471735 -0.10966821
0001b0 11 08 3b 3d c1 ec 86 be 69 03 eb 3c 4f 50 d4 be
       0.04566199 -0.26352504 0.02868815 -0.4146752
0001c0 93 8c 13 3d fa 9c ea 3d 52 fe 6e 39 c0 34 d2 3d
       0.036022734 0.11455722 0.0002279219 0.102639675
0001d0 d1 8b 75 bd b9 55 aa 3d b3 6e 89 3d ef 11 c4 3d
       -0.059947792 0.083171315 0.06710567 0.09573733
0001e0 7c e5 85 bd 8c 94 d5 3d be 94 30 bd 04 81 18 bd
       -0.06537911 0.10428724 -0.0431106 -0.037232414
0001f0 7b 78 08 be 3e 60 f0 bd fe d5 04 3e 3f b2 0c be
       -0.1332721 -0.11737107 0.12972257 -0.1373987
000200 11 14 a0 bb 28 c9 9a bd 98 c3 85 3d 67 5b d9 3d
       -0.0048852046 -0.07557899 0.06531447 0.10613137
000210 cc f5 e4 3c 2c 91 00 3e 3c b4 a3 bd 86 db 36 3e
       0.027949236 0.12555379 -0.07993361 0.17857179
000220 d7 c9 7e 3d 38 46 12 3e 78 23 5c 3e d7 34 9a 3e
       0.06220421 0.14284599 0.21497905 0.3011844
000230 af 33 88 3e fc ee b2 be d6 d3 b3 bb 1b 86 26 bf
       0.2660193 -0.34947956 -0.0054878993 -0.6504838
000240 f1 32 86 3c 26 90 54 bd f7 00 52 3d 1e 76 bb bc
       0.016381713 -0.051895283 0.05127045 -0.022883471
000250 61 0d fe bb 4f 32 6a ba be 85 91 bd 5e a9 8a bc
       -0.0077530597 -0.0008933888 -0.071055874 -0.016926464
000260 2f 42 84 bc 11 5c 59 3d 34 c9 22 bc b9 a8 37 bd
       -0.01614484 0.053066317 -0.009935666 -0.04483864
000270 66 92 d4 be 99 1b e3 bc 45 b7 13 3d 4e 1a e3 3e
       -0.41517943 -0.02772312 0.03606345 0.44356006
000280 82 2d ff bc 44 77 46 3e 25 b0 49 3c 23 19 8d be
       -0.03114963 0.19381434 0.012310063 -0.2755824
000290 0e d6 3c be f6 80 f2 bb 1a 46 22 3e 20 11 05 3d
       -0.1844103 -0.0074006272 0.15847054 0.032487035
0002a0 e6 4c 7b 3d 76 f7 31 3e 92 24 7e bd 6c 62 93 3d
       0.061352633 0.17379555 -0.062046595 0.07196507
0002b0 2c 2b e9 bd 63 26 94 bc 92 e0 4e be 7b 6e b4 3e
       -0.113851875 -0.01808471 -0.20202854 0.3524054
0002c0 b2 35 1f 3e 5c 0e 42 3e 3f 51 dc 3d af c6 b5 3d
       0.15547827 0.1895079 0.10757684 0.088757865
0002d0 85 1f 30 3d 1d cd a6 3d 24 6e 04 bb b5 ed 12 3d
       0.04299881 0.08144591 -0.002020725 0.035871226
0002e0 89 b5 31 be b6 99 f1 bd ce 8e af 3b 73 5a 10 be
       -0.17354406 -0.11796896 0.0053576 -0.14097004
0002f0 6a dc 01 bd 34 af 84 bc ab 3a 00 be 45 58 94 3e
       -0.031704344 -0.016196825 -0.1252238 0.28973594
000300 32 b0 55 3d ca 07 13 bd f3 5d 9d bd 79 6e 71 3c
       0.052169986 -0.0358961 -0.07683935 0.014735811
000310 ba 54 af bd bf 56 d0 3d 78 12 21 bd e7 97 c5 3d
       -0.08561082 0.101727955 -0.039324254 0.09648114
000320 17 1d 18 be 94 57 11 bd cc 27 b9 bd dd 72 76 3d
       -0.14854847 -0.03548391 -0.09040794 0.060168136
000330 1b a9 96 bd ac fe a3 3d 2f a7 a8 3f 9c a0 d4 bd
       -0.07356473 0.08007559 1.317602 -0.10382196
000340 bd 39 82 3d 82 4c ad bc de b7 bc bd 94 c0 22 3c
       0.06358669 -0.021154646 -0.092147574 0.0099336095
000350 a8 ad f2 bc 71 7e d5 3d 6b c1 5f bd db 87 97 3d
       -0.029623821 0.104245074 -0.054627817 0.07398959
000360 57 cf eb bd 3c 58 e5 bd 84 80 a5 bd e1 9b 9c 3d
       -0.11514156 -0.1119847 -0.08081153 0.07646919
000370 78 02 80 bd 06 11 9e 3b 0a 8e c6 bf f9 cc 01 bd
       -0.06250471 0.0048238067 -1.5512097 -0.031689618
000380 97 31 08 bc 02 46 49 bd 3a f9 1d 3c d6 9f b7 3c
       -0.008312604 -0.04913903 0.00964194 0.022415083
000390 a4 42 a6 3d b0 7a 7d 3d 42 a1 a0 3c 49 d9 29 bd
       0.081181794 0.061884582 0.019608144 -0.041466985
0003a0 d3 bd 6a bd e7 ae 7c 3d 77 10 b2 bc 98 d5 07 ba
       -0.057309937 0.061690237 -0.021736367 -0.0005181669
0003b0 38 58 d6 bd 22 99 1d be ec dc 9a 3e 73 69 a7 bd
       -0.10466045 -0.15390447 0.30246675 -0.0817441
0003c0 f6 ec ad 3d 29 c5 ec 3c 99 6d 81 3c 57 a5 ad 3d
       0.08492462 0.028902607 0.01579933 0.08478802
0003d0 34 a5 f8 3c 71 fe 03 bd 46 9d 24 3d 72 96 62 3d
       0.030352212 -0.032225076 0.04018905 0.055319257
0003e0 40 1a 40 bd ec 8e af bd df 42 31 bc c8 c4 d2 bd
       -0.046900034 -0.08572182 -0.010819166 -0.10291439
0003f0 99 d7 15 bd 9e 0f 9d be a1 4e 41 3e 34 cb c2 bd
       -0.036582563 -0.30675977 0.18877651 -0.09511414

encoder.attn_layers.0.attention.query_projection.bias f4 [16]
000000 00 8e 9b 3e 4e 02 ab bd b7 a4 3c 3d 72 18 2e bd
       0.30381775 -0.08350049 0.04605552 -0.04250378
000010 96 5d dd bd 00 5f 02 3d bd d9 8c 3f 25 ec eb 3e
       -0.10808866 0.03182888 1.1003948 0.460786
000020 7b 73 14 3f f4 24 af bf 11 89 b9 3e 56 09 5a 3f
       0.5798871 -1.3683152 0.36237386 0.85170496
000030 da 7b 33 be c8 22 b4 3d f6 70 0f 3f 68 92 c0 3e
       -0.17527714 0.087956965 0.5603174 0.376117

encoder.attn_layers.0.attention.key_projection.weight f4 [16, 16]
000000 f5 57 8b 3b 6f 4b 48 bc 8f 2c 1b 3d bc 4f 80 bb
       0.0042524287 -0.012225016 0.03788429 -0.003915755
000010 08 a5 4c bd 76 ee 9b bc ed 75 1c bd a3 35 f1 bc
       -0.049962074 -0.019034605 -0.0381984 -0.029444521
000020 d9 c7 22 bc bc 9a 07 3d 4c 82 6f bc 97 cf df bd
       -0.009935343 0.03310655 -0.014618468 -0.109282665
000030 f0 ce 84 3c c6 2b 46 bd 90 96 1b 3d 95 ca 50 bc
       0.016211957 -0.04838159 0.037985384 -0.012743612
000040 c2 63 b7 bc ee a5 d7 bc ce 67 61 3c af 3c 0f 3c
       -0.022386435 -0.026324239 0.013757659 0.008742495
000050 1a 1f dd 3d 41 b7 ee bb 6a 75 ac bc 5c 6a 6f bc
       0.10796948 -0.007285029 -0.021052081 -0.01461276
000060 46 49 57 3d b0 c2 ec 3c 40 22 9d 3c b5 00 9f bb
       0.052560113 0.028901428 0.01918137 -0.004852379
000070 3e 3d 9e bc af a4 93 3d 20 fd e3 bb 36 4e a2 bc
       -0.019316312 0.07209145 -0.006957665 -0.019812685
000080 1c 5f 07 3d 17 dc 42 3c e6 ca b3 3d a2 87 b9 bd
       0.033049688 0.011893294 0.08778934 -0.09059073
000090 4c 43 33 bc 12 06 12 3d 30 55 d9 bc 32 2f 23 3e
       -0.010941338 0.03565032 -0.026529878 0.15935972
0000a0 be 82 60 be 73 e0 1e 3e 6f ea e0 bc 6d 9a 99 be
       -0.21924874 0.15515308 -0.027455537 -0.3000063
0000b0 f2 ac 56 3e d2 85 da be 07 da 26 be ec b8 dc 3d
       0.20964411 -0.42680222 -0.16294108 0.107774585
0000c0 da f4 5d 3b aa 2c 71 bd 60 25 d2 3b 8b 35 6d bb
       0.0033867867 -0.058880486 0.006413147 -0.0036195244
0000d0 1c 66 14 bd 07 07 4c bd a8 26 de bd 64 ac 93 be
       -0.03623019 -0.04981139 -0.10847217 -0.2884246
0000e0 dc 43 cb 3c 29 ff 89 bd 0e 1b b4 3c ac b6 e6 be
       0.024812631 -0.06738121 0.021985557 -0.45061243
0000f0 e1 c4 9d 3e 06 91 83 be fe 79 6c 3e 6d c9 a7 bd
       0.3081427 -0.25696582 0.23093411 -0.08192716
000100 40 7b 90 bd ec 2c a3 3c bb 1c 1a 3d a4 df 24 3b
       -0.07054758 0.019918881 0.037625056 0.0025157714
000110 67 e3 37 3d 32 35 cf 3b fb 2f cb 3c 57 b9 c1 3c
       0.044894602 0.00632348 0.024803152 0.023647947
000120 41 ac 82 be 61 f4 9d 3d 9b c5 b9 bc 8c e6 9d 3e
       -0.25522044 0.07712627 -0.022677233 0.30839956
000130 9e 81 68 bd c0 76 a7 3a f4 20 31 3d b4 a3 c9 3d
       -0.056764238 0.0012776479 0.043244317 0.09845677
000140 70 4f 3b bd a5 04 7b 3c 9e cf 22 3c e9 20 fe 3b
       -0.045730054 0.015320932 0.009937195 0.007755388
000150 a5 b6 c8 3d 03 77 b0 3c bb 54 a3 3c f1 b6 c0 3c
       0.09800462 0.021541124 0.019937864 0.023524733
000160 46 15 07 3f 0d 21 9d 3c de ab 3f bc f0 18 90 bd
       0.52766836 0.019180799 -0.011698691 -0.070360065
000170 cb 25 41 bd 8a 04 e3 3c 8c bf f2 3b ec 10 7c 3c
       -0.047155183 0.027712125 0.007408088 0.015384894
000180 21 33 cc 3c 22 81 2f bc 0c c4 75 ba cd 0f 43 3c
       0.024926724 -0.01071194 -0.00093752216 0.011905623
000190 c1 ab 40 bf 66 5b a5 bb b3 51 c8 39 72 cd bd 3c
       -0.75262076 -0.005046296 0.00038207843 0.023169253
0001a0 36 65 6a 3d f6 ed 19 3c 3a 90 ea 3c ab 51 12 bd
       0.05722543 0.009395113 0.028633226 -0.035722416
0001b0 8f f2 28 3a ed da f6 3c 9d 51 39 3c 04 f1 65 bd
       0.00064448355 0.030133689 0.011310962 -0.056138054
0001c0 40 c0 65 3d 6c 74 89 bc 53 4f 8e 3c d0 a5 2c bc
       0.056091547 -0.016779147 0.01737181 -0.01053758
0001d0 76 90 e8 be fc 8b 28 bb 69 5b 0d bb 88 4c 88 bb
       -0.45422715 -0.0025718203 -0.0021569377 -0.004159514
0001e0 17 20 ec 3b 55 2a 55 3c 17 77 fe bc 8b e6 57 bd
       0.007205974 0.013010581 -0.031062646 -0.052710097
0001f0 66 03 c9 bc e0 40 bc bb db 2f 1c 3d da 85 08 bd
       -0.024537753 -0.0057450384 0.038131576 -0.033330776
000200 7f 1b 8c bd 88 3b 5d bc 41 d8 c0 3b b8 8f 8c 3c
       -0.06841182 -0.013502963 0.0058851545 0.017158374
000210 a9 72 95 3c 41 ae 81 bd bd fa 0c bd b5 0a 10 be
       0.01824315 -0.063320644 -0.03441881 -0.14066584
000220 3c f2 9a bc dd 8f 18 3d 07 46 37 3d 3d ec 9c bd
       -0.018914334 0.037246574 0.044744518 -0.076622464
000230 38 b8 0b bb f4 9d dd be 5f 16 90 3d e2 1f 08 3d
       -0.002131952 -0.4328457 0.07035517 0.03323353
000240 b8 8b 4a 3d f8 b0 99 3c 9c 4f cb bc e5 1e d3 bc
       0.049449652 0.018761143 -0.024818234 -0.025771568
000250 86 c2 9d 3c a7 eb b0 3d 8e 3b a9 3c 71 ad 69 3e
       0.019257795 0.08638697 0.02065828 0.22820069
000260 d1 44 88 3d 04 46 03 bd a5 0e a8 3e 89 d3 aa 3d
       0.06653751 -0.032049194 0.32823673 0.083411284
000270 11 73 15 bd 1e 40 03 3f b7 f4 b9 bd 9c 8f bd bd
       -0.03648669 0.5126971 -0.09079879 -0.09255907
000280 61 71 d0 bb 4d 25 2e 3c de 52 75 39 28 3a 90 3c
       -0.006361172 0.01062901 0.00023395891 0.017605856
000290 c1 fc e4 bd d3 39 0d 3d 70 f3 66 bc 1d 38 46 bd
       -0.111810215 0.034478974 -0.014096126 -0.048393358
0002a0 c5 08 c4 bd 5e e3 3f 3c c6 11 1d bd d6 68 f3 3c
       -0.09571985 0.011711923 -0.03834703 0.029713076
0002b0 04 43 05 bc 22 e5 df bb b3 0c 0a 3f 0d be c2 3d
       -0.008133654 -0.0068327347 0.5392563 0.095089056
0002c0 0e a5 80 3c f9 a9 96 3a 9d db 71 ba 04 01 9c bc
       0.015703704 0.0011494748 -0.00092261453 -0.019043453
0002d0 ba 70 f7 3d 6c 8b 0e bd 17 a2 b8 3c 41 d9 0b 3d
       0.12082048 -0.03480093 0.022538228 0.034142736
0002e0 29 dc 9c 3d ab c1 59 bc c0 77 0f 3d fa 75 0b bd
       0.0765918 -0.013290803 0.035026312 -0.034048058
0002f0 39 02 23 bc c9 69 5e bc 44 dc 6c 3f 2a cc 52 bd
       -0.00994926 -0.013575026 0.925236 -0.051464237
000300 4e 64 6f 3a 33 fc 22 bc c6 c3 79 3c b8 b3 6c 3c
       0.0009132073 -0.009947824 0.01524443 0.014447145
000310 08 c6 c4 3d a5 cf 79 bc a4 21 f2 bc fd 9b 12 bd
       0.09608084 -0.01524726 -0.029557057 -0.035793293
000320 90 a9 4c 3c 9f 83 9a 3c b1 ad af 3e 10 f8 19 bd
       0.012491599 0.01886159 0.34312204 -0.037590086
000330 d5 f8 cc 3c fa 06 f8 bd a1 67 a6 bd 49 6a b4 3c
       0.025020996 -0.12110706 -0.081252344 0.022023337
000340 ce 5b 14 3d 76 56 82 3b 21 a7 8f bb e9 d4 14 bc
       0.036220364 0.003977592 -0.004383937 -0.009083965
000350 15 8d 3c 3c d2 42 2b 3c 91 cb 97 bc bd c8 81 3c
       0.011508246 0.010452943 -0.018529685 0.01584279
000360 ef 07 8f 3a e1 df 77 3b ab 77 ad be 34 9a 52 bc
       0.0010912399 0.0037822651 -0.33880362 -0.012854148
000370 f8 f9 25 3b 18 01 a1 bd 25 e7 73 bd 50 0a 4e 3d
       0.0025325995 -0.07861537 -0.05954661 0.050302804
000380 6c c4 3f 3c f1 32 3d bb c1 2b d7 bb 5d f1 65 3c
       0.0117045455 -0.0028869475 -0.006566495 0.014034596
000390 41 90 01 3d c2 ba c6 bb 49 75 55 3c fa 51 f0 ba
       0.031631712 -0.0060647437 0.013028451 -0.0018334978
0003a0 60 5c ee 3c fb aa 2a bc 59 51 29 3d 72 a4 9f 3d
       0.029096782 -0.0104167415 0.041337345 0.07795037
0003b0 16 26 86 bc 63 0e f2 3c d6 c3 d6 bc a8 db e9 bc
       -0.016375583 0.029547876 -0.026216429 -0.028547123
0003c0 00 17 eb 3d a6 8d 9b 3c 18 33 34 3d 9f aa 25 ba
       0.11478996 0.018988442 0.04399404 -0.0006319675
0003d0 b3 66 fe 3e d7 71 11 3d 14 44 10 bd 35 89 02 3e
       0.49687728 0.035508957 -0.035221174 0.12747653
0003e0 44 e7 2b 3d 64 82 11 3d 1a a8 1b 3d 63 3b 48 3d
       0.0419686 0.03552474 0.03800211 0.04888476
0003f0 9f 2c 28 bb 41 e1 6d bc 08 90 b0 3c f0 e6 b1 3d
       -0.0025661362 -0.014519037 0.021553054 0.08686626

encoder.attn_layers.0.attention.key_projection.bias f4 [16]
000000 59 60 73 be 22 fd 3b 3e a8 d6 85 bd a0 88 7b 3d
       -0.23767222 0.18358281 -0.06535083 0.061409593
000010 96 30 94 3d b1 a3 10 be a5 e2 fa 3b a2 55 fd bd
       0.072358295 -0.14124943 0.0076564127 -0.12369849
000020 90 95 ee 3d 20 1d 86 be 07 33 c3 3d 12 bd 5f be
       0.116496205 -0.26194096 0.09531217 -0.21849468
000030 9e 88 e9 3d b1 ed 07 3e a2 92 1d 3e 8c fd 80 3e
       0.11403011 0.13274266 0.15387967 0.2519344

encoder.attn_layers.0.attention.value_projection.weight f4 [16, 16]
000000 88 cc 81 be 9d a0 87 be 74 b1 95 bd 45 bb 55 3e
       -0.25351357 -0.26489726 -0.07309237 0.20872219
000010 2e 91 b1 3e 1d ac 09 bd ba 70 11 3e 43 e4 fe 3d
       0.34681076 -0.033611406 0.14203158 0.12445881
000020 f0 dc 24 3e 7c 23 9c 3b 4e 79 1b 3e d0 c3 17 3e
       0.16099906 0.0047649723 0.15182993 0.1482079
000030 01 fe 35 be 37 73 54 3e 59 25 c1 3e f6 b6 87 be
       -0.17772676 0.20747076 0.37723807 -0.26506776
000040 f2 e9 0f be 0d e9 19 be 2b 25 6b 3e 84 fc cb 3d
       -0.14054087 -0.15030308 0.22963397 0.09960273
000050 39 fb 15 3f 01 a4 3a be ed 15 31 be 7e b9 d8 bd
       0.5858646 -0.18226625 -0.1729352 -0.10582255
000060 eb 0d 37 3d 01 6e 0c 3e 91 40 e7 3c 6a a7 d4 be
       0.044691008 0.13713838 0.02822903 -0.41533977
000070 1a 7d 26 bd 7b 50 ee bd 1b af 35 3e d4 8a 5c bd
       -0.04064665 -0.11636444 0.17742579 -0.053843334
000080 a9 5d 05 3d 1f 8a 6e ba 00 83 85 3c 24 2b b2 3c
       0.032560024 -0.0009099561 0.016297817 0.021749087
000090 97 fa 4f 3d 63 2c f4 bc ab 9a e7 bc 00 61 8f bd
       0.05077609 -0.029806321 -0.028271994 -0.07000923
0000a0 d2 f5 18 3c e9 fd 84 ba 2a ef 2a bd 82 dc 5d bd
       0.009335952 -0.0010146472 -0.04173199 -0.05416537
0000b0 74 f9 48 3d 85 a1 a8 bd 7d df d1 3d c9 5c aa bc
       0.049066022 -0.082339324 0.10247705 -0.020796197
0000c0 3f b3 06 3c 96 7d 58 bc 44 cd 1d 3c 9a 69 4e bd
       0.008221447 -0.013213536 0.009631459 -0.05039368
0000d0 1b 77 0f bd a7 8d c6 3c 06 70 36 bc 14 90 53 3d
       -0.035025697 0.024237467 -0.011135107 0.051651075
0000e0 f9 6c 84 bd 47 0b eb 3c 87 59 0a 3d ac 02 13 be
       -0.064660974 0.0286919 0.033776786 -0.14356488
0000f0 a5 28 d5 3c 05 2c 55 bd 2f c7 34 bd 4f f3 30 3d
       0.026020357 -0.052043933 -0.04413527 0.043200787
000100 3f 55 08 3d 14 e8 1b bc 80 52 57 bc 6d 42 d0 bc
       0.033284422 -0.009515781 -0.013142228 -0.0254223
000110 1f d0 5c 3d 55 0e e1 3c be f3 6a 3c c9 63 03 3d
       0.053909417 0.027472654 0.014340339 0.032077584
000120 a2 6b b2 3e bd fb 41 bc 98 2c 2e 3c de c6 f1 bd
       0.34847742 -0.011839804 0.010630749 -0.11805509
000130 20 c7 9e bc 15 f5 31 bd cc 33 59 bd b8 5f 25 be
       -0.01938206 -0.04344662 -0.053027913 -0.16149795
000140 17 5d 80 bc bc 5a e4 3b a8 c6 2b 3b 39 38 d2 3b
       -0.015669389 0.006968824 0.0026210938 0.0064153937
000150 08 fa 22 bd 65 63 dc bb e2 14 28 bb ac fc 38 bc
       -0.03978923 -0.006725716 -0.0025647213 -0.01129071
000160 30 1c cb be 5d 07 1b bc 56 79 1b 38 a7 7e 85 3d
       -0.39669943 -0.009462205 3.7067883e-05 0.06518298
000170 80 bb 07 3b b6 d2 74 bc a7 43 5f bb 90 c2 a4 bc
       0.0020711124 -0.0149428155 -0.0034067424 -0.020112306
000180 8b 96 16 3e d7 6f 90 bd 92 26 01 3e 9f 92 3e be
       0.14705865 -0.07052582 0.1261237 -0.18610619
000190 24 c3 9b 3f 37 0a 12 3d 86 b2 9b bd fd fa 85 bd
       1.2168927 0.035654273 -0.0760241 -0.06542013
0001a0 af 85 63 be ee b5 a9 3c 6d 21 5d be 8d a7 8f be
       -0.22218965 0.020716634 -0.21594782 -0.2805752
0001b0 7e 17 dd 3d a4 3c 99 be f3 d7 21 bd ea 30 d2 3b
       0.107954964 -0.29929078 -0.039512586 0.0064145224
0001c0 c3 1c b4 3e a0 d0 01 be 3f 90 30 3e f8 9f 1c be
       0.35178193 -0.1267724 0.17242526 -0.15295398
0001d0 68 99 f5 bf fc 57 24 bd 4f ba a9 bd 75 d5 38 3c
       -1.9187441 -0.04012297 -0.08287489 0.011281361
0001e0 29 58 a3 3c 47 71 57 3c 74 e8 e4 bd 16 14 76 bd
       0.019939499 0.013149566 -0.111771494 -0.06007775
0001f0 de 4d 6c 3e 22 3a 75 3e 27 c8 17 3d 03 c5 af 3e
       0.23076579 0.23947957 0.037056115 0.34329996
000200 38 77 7e bd b2 59 56 3c 7e d9 6c 3c 77 12 0b 3d
       -0.062125415 0.0130829085 0.014456151 0.033953156
000210 4e c3 86 bd 16 63 66 bd 29 a0 92 bc 65 20 fe bd
       -0.0658022 -0.05624684 -0.017898636 -0.124085225
000220 c2 31 d0 bc 9a 97 0e 3c 4d 5e 16 3e 0e 2e 04 3e
       -0.025414351 0.008703137 0.1468441 0.12908193
000230 d0 50 9e 3c 25 bf a9 3c 53 44 d5 bd 27 65 88 3d
       0.019325644 0.020721028 -0.104134224 0.06659918
000240 3c 92 4b bd 8e ff 8f 3c 03 58 a4 3c a7 53 a3 3c
       -0.049700007 0.017577913 0.020061499 0.01993735
000250 55 4c a6 bd df 12 67 bd fb 84 ad bc ff 89 10 be
       -0.08120028 -0.05641448 -0.021181574 -0.14115141
000260 02 78 0c bd 4a 3b 7f 3c 53 eb 23 3d f4 4c 78 3d
       -0.034294136 0.0155781 0.040019345 0.060620263
000270 80 ad b9 3c b2 b8 ae bd 05 36 88 bd fd 14 38 3d
       0.022665739 -0.085313216 -0.066509284 0.04494189
000280 c0 20 ec bc 00 32 73 3c 35 bf 4c 3c d3 22 e9 ba
       -0.02882421 0.014843464 0.012496759 -0.0017786868
000290 f8 bc 8f bd 65 0a e8 bb 7c 65 bf bc 72 98 65 bd
       -0.07018465 -0.0070813172 -0.023363821 -0.056053586
0002a0 0d 8d 4d be 19 cf 57 3c 92 51 2c bd 98 ad 79 3d
       -0.20073338 0.0131719345 -0.04206998 0.060956568
0002b0 a1 db 5a 3d 0f e5 1d bd 7f b8 ef bc b0 3b 13 3d
       0.05343211 -0.038548525 -0.02926278 0.035945594
0002c0 24 41 68 bc 59 76 82 bb 4b f4 78 bc 1e 94 5d 3b
       -0.014175687 -0.0039813933 -0.015194963 0.0033810209
0002d0 76 1d 17 3c b9 9f ce 3b 5b 58 8d 3c 43 b3 09 3c
       0.009223333 0.0063056615 0.017254045 0.008404556
0002e0 7c 33 80 3d 0e 7b 6a bc b7 24 a0 3c da d1 93 3b
       0.0625982 -0.014311565 0.019548757 0.0045111002
0002f0 12 03 35 bb d2 0d 19 bc 57 45 2c 3f dc e7 42 bd
       -0.0027620238 -0.009341674 0.67293304 -0.0475844
000300 b9 ba fd 3c 02 55 08 bc 41 48 ab 3c 91 c9 84 bc
       0.030972825 -0.008321049 0.020908477 -0.016209396
000310 8d 9a a7 bc f5 38 64 bc 5f 4d a1 bc e4 b8 59 bd
       -0.020459438 -0.013929595 -0.019690214 -0.05315484
000320 1d fe 0f bc 7c 34 91 3c 38 18 ac 3e d3 62 ab bd
       -0.008788613 0.017725222 0.33612227 -0.083684586
000330 89 7a ec 3c 88 49 4c bd 3d 70 c7 3c 5e b1 7f 39
       0.028867023 -0.049874812 0.024345512 0.0002438477
000340 68 cf 44 bc 8a b2 7c bc ef 7d d9 3c 47 9d 41 bc
       -0.01201234 -0.015423426 0.026549308 -0.011817283
000350 91 73 6f 3d 2d 01 c5 bc a5 dd a9 bc 06 eb 79 bd
       0.058459822 -0.024048412 -0.020735571 -0.06101515
000360 46 d4 9c bc 93 3f d5 3c c0 bc ed bd 4f 19 a2 bd
       -0.019144189 0.026031291 -0.11608267 -0.079149835
000370 26 48 1e 3d bd 8b 5f bd 63 78 98 3d 00 7e f8 bc
       0.038643025 -0.054576624 0.07444837 -0.030333519
000380 97 7e 7f be 0e ff b8 3d 9b 4e 4c 3c 7e 7a 27 3e
       -0.24950634 0.09033023 0.012469913 0.16355321
000390 88 d2 d8 bf 64 cc 29 be 57 e4 18 bd a4 29 8d be
       -1.6939249 -0.16581875 -0.037327137 -0.27570832
0003a0 3f d4 12 bd 4c 73 bb bd aa a2 04 bd 29 58 42 be
       -0.035846945 -0.091528505 -0.03238169 -0.18978943
0003b0 84 df 4e 3d 66 3c 87 bd 9c 24 25 be 27 15 43 be
       0.05050613 -0.06603317 -0.16127247 -0.19051038
0003c0 4e e6 05 3f f4 25 bc bd 77 ff 66 3e c9 7a af be
       0.5230454 -0.091869265 0.2255839 -0.34273365
0003d0 47 69 14 3e e8 7f f7 3d a1 a6 0d be 4a 4c 89 3e
       0.14493285 0.12084943 -0.13833095 0.26816016
0003e0 ec 46 00 be 5e 9c f3 3d ae 5a 09 be 4c e1 39 be
       -0.12527055 0.11895059 -0.13413498 -0.1815235
0003f0 8f 53 8b 3e 58 b2 64 be 79 b2 b9 3e 7e 9a 55 3e
       0.27212188 -0.22333658 0.36268976 0.20859715

encoder.attn_layers.0.attention.value_projection.bias f4 [16]
000000 87 d9 f9 3c 03 1a 68 3c 1f 29 84 be 60 84 84 be
       0.030499233 0.014166358 -0.25812623 -0.25882244
000010 f2 bd e2 be c5 b0 85 bf 76 76 ec bd 10 a9 c9 3e
       -0.44285542 -1.0444571 -0.11546032 0.39386797
000020 c9 9f a1 3f 4d 7b a9 bf f3 b2 b0 3d 65 a4 ac be
       1.2626888 -1.3240753 0.08627882 -0.33719173
000030 53 a8 48 3e d4 0c 1b be 1b 56 9c be 95 f1 10 bd
       0.1959546 -0.15141612 -0.30534443 -0.03538664

encoder.attn_layers.0.attention.out_projection.weight f4 [16, 16]
000000 83 0e 59 3e 5c 41 28 bf 3e c6 81 3d 00 d5 65 bd
       0.21196942 -0.6572473 0.0633664 -0.056111336
000010 3b d9 b0 3c cb a1 e6 be 5d ff 22 3e 3d d2 8c be
       0.021587959 -0.45045313 0.15917726 -0.2750415
000020 55 41 f7 3e c7 b2 d1 be 4c 4b a8 3d da 9e 9d be
       0.48292032 -0.4095671 0.08217487 -0.30785257
000030 5a c1 52 3e ac 30 43 bd 5a d9 b7 3d e4 c2 8f 3e
       0.2058157 -0.04765384 0.089770034 0.28078377
000040 ab 4d 2a 3f 7f 87 3b be 07 10 35 bd 65 b2 54 3e
       0.6652476 -0.18313406 -0.044204738 0.20771177
000050 21 1a ce bc a4 8f fb 3d bc 91 01 be 25 4b 32 be
       -0.025158944 0.12283257 -0.1265325 -0.17411478
000060 e1 7e f7 3e 0d dd 29 bf 30 c1 92 be 74 3b c9 be
       0.48338988 -0.6635292 -0.28663015 -0.39303172
000070 95 6d 37 be 51 06 22 3e fe 18 21 3e 30 f7 da bd
       -0.17912896 0.15822722 0.1573219 -0.106916785
000080 f8 16 67 3e a4 6f 07 bf 03 43 f6 bc b5 37 23 be
       0.22567356 -0.52904725 -0.03006125 -0.1593922
000090 1a 96 f0 3e 8d 7a eb be 2e 61 31 3f 09 b4 e0 bc
       0.46989518 -0.45991936 0.6928891 -0.027429597
0000a0 46 21 3b bd 62 25 ca 3b 53 5b 28 3c de 0b 96 bd
       -0.04568603 0.006169007 0.01027568 -0.07326482
0000b0 3a cb 13 bb d9 20 01 3e 35 9e 6a bd ec 1d c8 be
       -0.0022551552 0.12610187 -0.057279784 -0.3908533
0000c0 cf 2c 5a 3d 11 a2 55 3e ae c3 f0 3d 0a d2 99 3d
       0.05326539 0.20862605 0.11756073 0.07510765
0000d0 46 48 be bd 20 29 3e be 50 66 e5 3e 96 1b cd be
       -0.09291129 -0.18570375 0.4480462 -0.4006011
0000e0 91 bb 15 3e 75 60 26 be 15 7b 75 3e 52 7c eb bd
       0.14622332 -0.16247733 0.23972733 -0.114983216
0000f0 34 64 74 3d 08 48 fb 3c 0b 5e 44 3e e2 ff 21 be
       0.059665874 0.030673996 0.191765 -0.15820268
000100 83 8d 56 3e b5 f8 6d bd 43 6b ce 3d b5 0a 06 bd
       0.2095242 -0.058098514 0.10079052 -0.032725055
000110 b3 fd a0 3d 60 16 4d be 56 f8 b8 b8 2e 8d 53 3b
       0.07860889 -0.20028067 -8.82006e-05 0.0032280195
000120 8f ea 43 be 47 d8 0e bd 77 4a 60 3d 3e 82 aa be
       -0.19132446 -0.034874227 0.054758515 -0.33302492
000130 68 cf 73 3f 66 3c 58 bf 71 94 1e 3e ca 6a 00 3f
       0.9523835 -0.8446716 0.15486313 0.5016295
000140 98 43 c7 be 36 18 a2 3d 9e cb 3b be 56 55 f1 bd
       -0.38918757 0.07914774 -0.18339393 -0.11783855
000150 83 68 84 bd 7d 21 b1 3d 75 b4 db 3d b2 71 e3 be
       -0.064652465 0.086489655 0.10727779 -0.4442268
000160 65 20 b9 3d 68 a7 e2 bd d6 44 5f 3e e4 3c c0 3d
       0.09039382 -0.110670865 0.21803603 0.09386614
000170 c3 15 8f bc 20 5a 1b be e3 53 55 be 5c 7d 20 3f
       -0.017466431 -0.15171099 -0.20832781 0.62691283
000180 13 37 0d 3b b3 0d 70 3c d4 d7 e2 3d 4d 0f 9c 3d
       0.002154772 0.014651704 0.11076322 0.07620106
000190 27 d2 b8 bd 0b 7a 50 bd 44 db d0 3e 6c b5 f8 be
       -0.090244584 -0.05089764 0.40792286 -0.48575914
0001a0 30 96 d4 3d c7 1d 3e bd 36 1e 74 be 26 74 17 be
       0.103802085 -0.046415117 -0.2383965 -0.14790401
0001b0 51 72 1c be 82 ae 7f 3d 2a b8 71 3e d8 e3 4b 3e
       -0.15277983 0.062422283 0.2360541 0.19911134
0001c0 34 2d ff bd 91 7f 18 be 70 e5 1c 3e 4d 21 8b 3d
       -0.12459794 -0.14892413 0.15321898 0.06793461
0001d0 39 02 4b be 71 81 2e 3c 56 12 e6 3d fb 95 69 bf
       -0.19825067 0.010650978 0.11233966 -0.9124448
0001e0 48 e1 e2 3d b9 f3 99 be f5 59 de bd 9f de 42 be
       0.11078125 -0.30068758 -0.10857002 -0.19030236
0001f0 22 70 49 be a1 41 b1 bd 05 2c a9 3e 26 c6 2f 3c
       -0.19671682 -0.08655096 0.33041397 0.010728395
000200 1f 47 33 be 60 27 2c be 35 57 21 3e d3 bd ea 3d
       -0.175076 -0.16811895 0.15755923 0.11461987
000210 a0 77 ef 3d 45 57 85 3e e7 35 de be ab ee 00 3e
       0.116927385 0.26043144 -0.434005 0.12591045
000220 8f 4c 86 be 46 31 2e 3e cc 9a c7 bd 7f 4e 63 3e
       -0.26230285 0.17010984 -0.09746322 0.22197913
000230 6e c8 5f 3d a3 ce d1 3c 63 ee 54 be a5 57 e6 bd
       0.054634504 0.025611227 -0.20794062 -0.112471856
000240 3b 98 97 3e ac 0e ce bd aa 69 9c be 14 c9 2c be
       0.2960833 -0.10061392 -0.30549365 -0.1687358
000250 f2 40 31 bf c4 6e fa 3e ff 3b af 3d 37 9c 0c bf
       -0.69239724 0.48912632 0.08556365 -0.54925865
000260 ff 54 77 3d 8f 70 4c be 5d ee 88 be b8 db c4 3d
       0.060383793 -0.19964813 -0.26744357 0.096122205
000270 c2 0e 68 3e ba 95 44 be eb 78 df be 68 3c 90 3d
       0.2266188 -0.19197741 -0.4364694 0.070427716
000280 84 73 c2 bd 8f da ad 3c 71 9a 1b 3e 6b e5 fa 3d
       -0.09494689 0.02122238 0.15195633 0.12250789
000290 a4 ec bc 3e 2a e5 3f be 9e 4e 5d 3e f7 65 84 3d
       0.36899292 -0.18739763 0.21612021 0.06464761
0002a0 3d 9b 6c 3d 84 a1 12 be 14 82 33 bd 59 51 12 3e
       0.057765234 -0.14319426 -0.043825224 0.14288844
0002b0 be f4 02 bd b6 a4 83 bd 80 81 64 3d 12 74 1e bc
       -0.031971686 -0.064279005 0.055787563 -0.009671228
0002c0 88 0b 06 3e 48 eb 95 3d 2b 91 bb bb 2b 7b f6 bc
       0.13090336 0.07320267 -0.0057240925 -0.030088028
0002d0 06 5f 71 3d d4 15 68 3e 0f cc 85 bd 64 e0 0d 3e
       0.058928512 0.22664577 -0.06533062 0.1385513
0002e0 d2 bf 0c be c4 99 16 bd b7 38 2f 3c ba b2 66 3e
       -0.13745049 -0.036767736 0.010694674 0.22529116
0002f0 01 0b 87 3d 55 2a 33 bc e1 a1 98 3d 0b 4e 2f 3e
       0.06593896 -0.010935386 0.07452751 0.17119615
000300 86 69 c6 bd ff c0 05 3e 92 14 e8 3c 7c 6b b4 3d
       -0.09688096 0.13061903 0.028330121 0.088095635
000310 0b b8 56 bd 49 8f 0d be eb a8 c5 3e 28 9c ea bb
       -0.05242161 -0.1382419 0.38605437 -0.0071597286
000320 60 f1 53 3d 7d 57 db bd 9a 21 4b 3d 36 37 b2 3d
       0.051743865 -0.107100464 0.04959259 0.08701937
000330 70 ce 39 bc 5a 82 eb bc 02 67 c8 bd 68 45 3e be
       -0.011340722 -0.02874868 -0.09785272 -0.18581164
000340 48 12 39 b8 61 7f 53 3d 58 20 87 3c 5e 93 58 3d
       -4.4124463e-05 0.05163515 0.016494915 0.052874915
000350 a4 81 4c 3d 54 75 c2 3d 7b d0 54 be 07 9c 04 3e
       0.049928322 0.09495035 -0.20782654 0.12950145
000360 e0 0f 68 bd 7c 5e b7 3d 0c 5d 08 bd af 67 1d be
       -0.056655765 0.08953568 -0.03329186 -0.15371583
000370 51 03 bf bd 5c a4 ca bd ba 3d 39 be 5f 3f 89 bd
       -0.093268044 -0.0989463 -0.18089953 -0.0670154
000380 9f 1d 5e be 18 72 1e 3e 25 47 78 be 14 14 a9 be
       -0.21690987 0.15473211 -0.2424589 -0.3302313
000390 9e 02 47 bd 4f 29 b9 3d dd 9c e1 bd 66 9b 49 be
       -0.04858648 0.09041082 -0.110162474 -0.19688186
0003a0 c4 f3 33 3d 5b 39 a3 bd 8f 23 ae bc 5e 8b 80 3d
       0.043933645 -0.07969924 -0.02125719 0.06276582
0003b0 6a d4 9d 3d 36 42 d2 3d 7a d3 cd 3e aa 58 d7 3d
       0.077065304 0.10266535 0.40200406 0.10514958
0003c0 5d 31 49 3d f4 e7 86 bd 1f f7 ac bc b1 dc 2f bd
       0.049119342 -0.0658721 -0.02111393 -0.042935077
0003d0 15 2c 38 3d b2 87 b5 3c 4b 9f 12 be 1a 4c 5d 3e
       0.044963915 0.022159431 -0.14318578 0.21611062
0003e0 9a 76 82 bd 3c 34 19 3e cf 82 2e 3d d0 9f 44 b9
       -0.06370278 0.14961332 0.042605218 -0.00018751551
0003f0 ad 3b 0c bb 53 e5 a8 3c aa 9b 7a 3d 7a 75 02 3d
       -0.0021397874 0.020617163 0.06118361 0.031850316

encoder.attn_layers.0.attention.out_projection.bias f4 [16]
000000 bf 03 82 be a3 d8 12 bf a9 3c c1 3b e1 8b 7e bf
       -0.25393483 -0.5736181 0.005897124 -0.9943219
000010 ff d0 bf 3e 6d 4a c0 be fe 67 e4 be bd f1 7a bf
       0.3746414 -0.37556782 -0.4461059 -0.98025113
000020 2a 88 8a 3e dd 60 19 3d 6d 39 9a 3c d6 32 e5 bc
       0.2705701 0.03744589 0.01882621 -0.027978342
000030 34 ab ad be d3 e6 9a 3e ba 44 18 be 63 ec bf 3e
       -0.3391968 0.3025423 -0.14869967 0.37485036

encoder.attn_layers.0.conv1.weight f4 [32, 16, 1]
000000 27 ab 53 be 7b 0f 9b 3e dd b7 81 bd 42 08 33 bd
       -0.20670758 0.30285248 -0.06333897 -0.043709047
000010 26 2e 69 bf 05 35 72 3d 40 66 df 3e 81 ec 95 bc
       -0.9108604 0.059132595 0.43632698 -0.01830125
000020 dc 6f 90 be b6 e1 36 be 52 1e c5 bc 9d 6d 75 3e
       -0.28210342 -0.1785954 -0.02406231 0.23967595
000030 43 3d d7 3d 96 2a 1c bf 43 e0 3f 3e 81 19 0c bd
       0.105097316 -0.6100248 0.18737893 -0.03420401
000040 de 06 cd 3e a8 08 89 be 2c 8c 38 3e df 1d c8 3e
       0.40044302 -0.26764417 0.18022221 0.3908529
000050 6f 5a 91 3e fa 70 e1 be 6f c1 22 bd 79 ce fd be
       0.28389308 -0.44031507 -0.039735254 -0.4957159
000060 33 2b 67 be 94 9a 94 be b0 36 38 3e 10 9e ea 3d
       -0.22575073 -0.29024184 0.17989612 0.11455929
000070 86 aa be bd e7 92 ca 3a 8b 3e 22 bf 9b 7a a8 be
       -0.093098685 0.0015455157 -0.63376683 -0.3290604
000080 18 63 a3 3d 9f d8 2a be b1 a2 e9 3c 08 0a d4 3e
       0.07977885 -0.16684197 0.02851996 0.41413903
000090 0d c8 8b be 68 da 1b be 11 2e e2 bd a2 2c 7a 3e
       -0.27301064 -0.15220034 -0.11043943 0.24431089
0000a0 b9 d3 cf bd 3a 52 ca 3d b7 66 37 be 1b f2 8c bd
       -0.10147805 0.09878965 -0.17910276 -0.068821155
0000b0 e2 ac f4 3e 6f 0d a3 be e4 3b ba 3e f2 77 bf bf
       0.4778815 -0.31846187 0.36373818 -1.495848
0000c0 5f 1d 46 3e fd 17 11 be ab c2 22 3e 68 5b e4 3d
       0.19347142 -0.14169307 0.15894572 0.11150247
0000d0 70 5e a6 bf fb 07 22 be 03 73 2a 3e 30 40 a6 3d
       -1.299757 -0.15823357 0.16645436 0.081177115
0000e0 8e af 03 3d d6 7e 16 be e8 4d 41 3e 0d 1f 90 3c
       0.032149844 -0.14696822 0.18877375 0.017592931
0000f0 36 08 59 3e 84 87 a7 3e 73 78 dd 3e 9c 26 00 be
       0.21194538 0.32720578 0.43255958 -0.12514728
000100 f2 65 44 3d 44 e4 d7 bd 78 5f 94 3e 6e 44 b9 3e
       0.047948785 -0.10541585 0.28979087 0.3618502
000110 eb 8f 88 be 18 fb 9d 3d a8 68 93 bd cb 83 03 bd
       -0.266723 0.07713908 -0.07197696 -0.03210811
000120 82 4f de 3e 15 a4 53 bd c2 a6 ac be ee 4f 27 3f
       0.43420035 -0.051670153 -0.33720976 0.6535634
000130 1e 9e 61 bf 95 ae 16 bd ad 76 90 bd 9c bf d3 be
       -0.8813189 -0.03678759 -0.070538856 -0.41357124
000140 91 b0 f5 3d 2e 98 7e 3e 89 70 3c be 24 ca 0f be
       0.11996568 0.2486274 -0.18402304 -0.14041954
000150 77 63 8e 3e 25 dd b9 bd 5f c0 b9 be c0 de d1 3e
       0.2781026 -0.09075383 -0.3627958 0.40990257
000160 df 4b f0 bb bb b4 92 be 3e 62 81 bd bb 2e 54 3e
       -0.0073332633 -0.2865351 -0.06317566 0.20720951
000170 56 3d ad 3d bf 53 3a 3d 66 d8 be 3e 43 18 9b bd
       0.084589645 0.045490023 0.37274474 -0.07572987
000180 7b 2e 0d 3f ca 9d 66 be ac 9c d6 bd 61 41 45 3e
       0.5514905 -0.22521129 -0.104791015 0.19263221
000190 44 10 41 be 3d 7f 5f 3e 15 90 02 be 9d 64 1f bf
       -0.18853861 0.21825881 -0.12750275 -0.622629
0001a0 65 6c 12 be 13 00 b7 bd 05 c2 16 be 6c 79 88 be
       -0.14299162 -0.08935561 -0.1472245 -0.26655138
0001b0 31 15 3d 3b 43 8c 84 3e ce c9 e0 bd dc c6 d2 3e
       0.0028851742 0.2588826 -0.10975991 0.41167343
0001c0 1a 7d 69 bc 48 98 25 3f 3a 0a 6d 3e 66 b5 d2 3d
       -0.014251018 0.6468549 0.23148432 0.10288505
0001d0 84 72 16 3d fa a0 e4 3d bb 1c b5 3d ae b8 51 be
       0.036730304 0.11163516 0.088433705 -0.20480606
0001e0 c8 c3 c7 be 19 42 44 bd db 14 80 3c 98 ce 59 bf
       -0.39016557 -0.047914598 0.015634945 -0.8508086
0001f0 53 df 96 3e 7e 82 90 3e 42 93 cd 3c 49 00 b8 bc
       0.29467258 0.28224558 0.025094632 -0.022461073
000200 82 03 ba 3d d3 9b 98 3e 18 02 01 be 9a f4 7d bd
       0.090827 0.29806384 -0.12598455 -0.06200085
000210 27 15 8f bf bb 67 01 bd 37 5a 89 3e 2f 5e 96 bc
       -1.117833 -0.031593066 0.2682664 -0.018355457
000220 6c f7 18 3e 6c 9b fb 3e 34 b6 d3 3d 87 ed e4 bd
       0.14938134 0.49142015 0.10337487 -0.11178117
000230 f1 1f dc be 61 d1 92 3e f2 38 7e be 69 80 91 3c
       -0.4299312 0.28675368 -0.2482641 0.017761426
000240 4b 32 6f be 66 5d 4b be 44 11 7b be 65 3d 49 3f
       -0.23359029 -0.19859847 -0.24518305 0.78609306
000250 d8 37 04 bf ea 77 3f be 1b ea 01 3f b1 f0 e1 bd
       -0.5164771 -0.18698087 0.5074784 -0.11032236
000260 2d 52 57 be 00 a7 8f be 4b c2 d9 bc e2 c3 cc 3e
       -0.21027441 -0.28057098 -0.026581904 0.39993197
000270 7c 4f 29 be 37 75 16 3c d2 4e 21 be d7 d2 80 bf
       -0.16534227 0.00918322 -0.15752724 -1.0064343
000280 70 f5 32 bf 6a cd 41 be fe 33 3a be e6 2b e3 be
       -0.6990576 -0.18926015 -0.18183896 -0.4436943
000290 95 fa bd bd 66 ab 31 be ee 71 a8 be 65 a5 b7 be
       -0.0927631 -0.1735054 -0.3289942 -0.35868374
0002a0 55 ca 1c 3e 21 fa b7 3d e2 a3 4b be 4b 26 2b 3f
       0.15311559 0.08983255 -0.19886735 0.66855305
0002b0 d7 27 9c be 09 55 b0 3e a2 01 04 be af 98 3b bc
       -0.30499145 0.34439877 -0.12891248 -0.011449977
0002c0 d7 4e 4e be 08 81 8d bf ce ff ec bc 9f 56 9d be
       -0.20147263 -1.1055002 -0.02893057 -0.3073015
0002d0 24 ce a8 be df 4f 06 bd fc 30 85 be 2f b3 99 be
       -0.32969773 -0.032791015 -0.26013935 -0.3001952
0002e0 48 ca 1f 3e 15 ca 08 bd 4d 9a 4b be ab cd 1b bf
       0.15604508 -0.033395845 -0.1988308 -0.608607
0002f0 b2 56 c8 3e c9 b6 7d 3e 49 5c a9 3c db 34 b2 bd
       0.39128643 0.24776758 0.020673888 -0.08701488
000300 ca 0e dc bd 11 fc 4a 3e 89 3e 26 bd 78 b4 46 be
       -0.10745008 0.19822718 -0.040586982 -0.19404781
000310 ee 0f eb be 10 ac 82 3b 14 4d 3d be 4b f8 d0 be
       -0.4591059 0.0039877966 -0.18486434 -0.40814433
000320 40 cf 05 be 11 b2 b2 bd 09 3f f3 bd d1 6d 37 3f
       -0.13067341 -0.0872537 -0.118772574 0.7165194
000330 4b 83 a3 3e 85 f5 06 bf 9c 7b 06 bf 4a 99 0c 3f
       0.31936106 -0.52718383 -0.5253236 0.549214
000340 6b 47 13 bf 8d 2c f6 be 36 0f 96 3e 65 ab 24 bd
       -0.5753085 -0.48080865 0.2930848 -0.040202517
000350 74 97 64 be ae 06 cc bc a0 ce b3 bb a2 c6 5e 3f
       -0.223234 -0.024905529 -0.005487278 0.8702184
000360 c2 9d c1 be cb 89 e0 bc 3d 6d e3 bd b3 86 38 3e
       -0.37815672 -0.027409455 -0.1110482 0.18020134
000370 5c 12 ac be d9 d1 92 3d 23 e3 89 3e 2e 9c 5e 3d
       -0.33607757 0.071689315 0.26931104 0.054348163
000380 cd 51 df bd 67 ec 9b bd f7 2f 58 3d 75 ab 9b 3e
       -0.10904274 -0.076134495 0.052780118 0.3040425
000390 4b 56 7e bd 63 87 b7 bd eb 61 3e bd ff 7c c5 bd
       -0.062094014 -0.0896137 -0.0464801 -0.09642982
0003a0 73 6e f3 be 04 dc 8e 3d 09 6d 30 3f 4a 21 de 3d
       -0.47545204 0.069755584 0.68916374 0.10846193
0003b0 d5 39 b8 3e e8 cc 84 be 49 29 4c 3e 29 f0 fe be
       0.35981622 -0.2593758 0.19937624 -0.49792603
0003c0 f2 1e 39 be 83 8c a4 3d 40 89 86 be d6 fd 3f be
       -0.18078211 0.08034613 -0.26276588 -0.18749174
0003d0 97 20 b8 bd d2 60 01 bf 05 67 5f bc c8 9e f8 bd
       -0.08990591 -0.5053836 -0.013635402 -0.1213966
0003e0 a6 11 c2 bd e4 67 16 bd 99 7b 37 be 0f 0b 84 be
       -0.094760224 -0.03672017 -0.17918243 -0.25789687
0003f0 c6 d6 1a 3f df 65 00 3e e1 8a 22 be 25 e7 9e 3e
       0.6048397 0.1253886 -0.1587329 0.31035724

encoder.attn_layers.0.conv1.bias f4 [32]
000000 67 04 25 bf a3 e4 5e bf f7 59 b0 be fd 3d 40 bf
       -0.6445984 -0.8706762 -0.34443638 -0.75094587
000010 7f 56 3e be a4 c2 da be 98 c5 2c be 1f 10 91 bd
       -0.18587683 -0.42726624 -0.16872251 -0.07083153
000020 23 8d 17 be c0 a8 47 bf 9a 13 9a bf 4d af 59 bf
       -0.14799933 -0.7799187 -1.2037232 -0.8503311
000030 32 25 6a bf 71 bd c4 be c7 d4 d0 be 29 7e e3 be
       -0.91463006 -0.38425782 -0.40787336 -0.4443219
000040 17 59 f2 be ae 98 fa be 64 5b cf bd c1 d2 08 bf
       -0.47333595 -0.4894461 -0.10124853 -0.53446585
000050 a7 b4 2c bf 48 c0 76 bf 4b 30 c3 be 30 65 61 bf
       -0.67463154 -0.9638715 -0.38122782 -0.88045025
000060 0c 34 5b bf 2f 53 11 bf cc 13 9c bf 36 10 ce bd
       -0.8562629 -0.56767553 -1.2193542 -0.10061686
000070 0c 8d 38 3e dd 2f 04 3e b2 5e 10 be 4a 67 96 be
       0.18022555 0.12908883 -0.14098623 -0.29375678
