SimMTM-main/SimMTM-main/SimMTM_Forecasting/outputs/pretrain_checkpoints/ETTh2/ckpt_best.pth (torch, 517153 bytes, 61 tensors)

enc_embedding_s.value_embedding.tokenConv.weight f4 [8, 1, 3]
000000 4e 0f 89 bf d0 1d bd be c0 bd 9d 3f f1 87 11 bf
       -1.0707796 -0.36936808 1.2323532 -0.56848055
000010 6e 85 93 be e5 e3 e8 3e 8d 4f 85 3f ae 5c 8f be
       -0.28812736 0.4548637 1.0414902 -0.28000396
000020 03 2c ab 3d 88 04 0b bf c4 d7 97 bf 24 ff 43 be
       0.08358004 -0.5430379 -1.1862721 -0.19140297
000030 26 10 92 3f a2 18 bd bf 12 d5 08 bf 9c dd 93 bf
       1.1411178 -1.4773142 -0.5345012 -1.1552005
000040 bc 6f 1d bf 88 f5 92 3e 6c 7c d0 3e 04 4c 7e bf
       -0.6149862 0.2870295 0.40719926 -0.9933474
000050 6d 69 a2 3e 4f e5 9d 3e ca fc 98 3f ad 19 af bf
       0.31721058 0.3083901 1.1952145 -1.3679711

enc_embedding_s.position_embedding.pe f4 [1, 5000, 8]
000000 00 00 00 00 00 00 80 3f 00 00 00 00 00 00 80 3f
       0.0 1.0 0.0 1.0
000010 00 00 00 00 00 00 80 3f 00 00 00 00 00 00 80 3f
       0.0 1.0 0.0 1.0
000020 a4 6a 57 3f 41 51 0a 3f 76 75 cc 3d 98 b8 7e 3f
       0.84147096 0.54030234 0.099833414 0.9950042
000030 57 d6 23 3c b9 fc 7f 3f 6d 12 83 3a f8 ff 7f 3f
       0.009999833 0.99995 0.0009999998 0.9999995
000040 b7 c7 68 3f 33 11 d5 be f8 6f 4b 3e a5 e5 7a 3f
       0.9092974 -0.41614684 0.19866931 0.9800666
000050 3e d4 a3 3c e5 f2 7f 3f 68 12 03 3b df ff 7f 3f
       0.019998666 0.9998 0.0019999985 0.99999803
000060 c3 81 10 3e 26 70 7d bf 6c 4e 97 3e ef 90 74 3f
       0.14112 -0.9899925 0.2955202 0.9553365
000070 1f b9 f5 3c 83 e2 7f 3f 92 9b 44 3b b5 ff 7f 3f
       0.0299955 0.99955004 0.0029999954 0.9999955
000080 cf bd 41 bf 30 55 27 bf d7 61 c7 3e a7 ca 6b 3f
       -0.7568025 -0.6536436 0.38941833 0.921061
000090 db cb 23 3d 94 cb 7f 3f 57 12 83 3b 7a ff 7f 3f
       0.039989334 0.9992001 0.003999989 0.999992
0000a0 10 7c 75 bf 2c 3c 91 3e 43 77 f5 3e 40 a9 60 3f
       -0.9589243 0.2836622 0.47942552 0.87758255
0000b0 f4 b6 4c 3d 19 ae 7f 3f dd d6 a3 3b 2e ff 7f 3f
       0.049979165 0.99875027 0.004999979 0.9999875
0000c0 8c 0f 8f be b8 cd 75 3f 68 8c 10 3f 32 49 53 3f
       -0.2794155 0.96017027 0.5646424 0.8253356
0000d0 d1 9c 75 3d 12 8a 7f 3f 58 9b c4 3b d2 fe 7f 3f
       0.059964005 0.99820054 0.0059999637 0.999982
0000e0 46 30 28 3f bd ff 40 3f 72 eb 24 3f b3 cc 43 3f
       0.6569866 0.75390226 0.6442176 0.7648422
0000f0 32 3e 8f 3d 81 5f 7f 3f c5 5f e5 3b 65 fe 7f 3f
       0.06994285 0.997551 0.006999942 0.9999755
000100 95 46 7d 3f f6 fd 14 be a5 a4 37 3f 5f 5b 32 3f
       0.98935825 -0.14550003 0.717356 0.6967067
000110 50 aa a3 3d 65 2e 7f 3f 12 12 03 3c e7 fd 7f 3f
       0.07991469 0.9968017 0.007999914 0.999968
000120 32 01 d3 3e d5 3f 69 bf 1c 88 48 3f d5 21 1f 3f
       0.4121185 -0.91113025 0.78332686 0.62161
000130 3e 12 b8 3d c2 f6 7e 3f 3a 74 13 3c 59 fd 7f 3f
       0.089878544 0.9959527 0.008999879 0.9999595
000140 f8 44 0b bf 64 cd 56 bf a4 6a 57 3f 41 51 0a 3f
       -0.5440211 -0.8390715 0.84147096 0.54030234
000150 76 75 cc 3d 98 b8 7e 3f 57 d6 23 3c b9 fc 7f 3f
       0.099833414 0.9950042 0.009999833 0.99995
000160 5c ff 7f bf 72 05 91 3b 2a 26 64 3f c3 3d e8 3e
       -0.9999902 0.004425698 0.89120734 0.4535962
000170 72 d3 e0 3d e8 73 7e 3f 69 38 34 3c 09 fc 7f 3f
       0.1097783 0.9939561 0.010999777 0.9999395
000180 d8 5c 09 bf d0 06 58 3f 1d 9a 6e 3f f7 86 b9 3e
       -0.53657293 0.84385395 0.9320391 0.36235783
000190 ac 2b f5 3d b5 28 7e 3f 70 9a 44 3c 48 fb 7f 3f
       0.119712204 0.99280864 0.011999711 0.999928
0001a0 22 20 d7 3e 6f 4e 68 3f c0 ab 76 3f 9d f5 88 3e
       0.42016703 0.9074468 0.9635582 0.26749888
0001b0 d0 be 04 3e 00 d7 7d 3f 6a fc 54 3c 76 fa 7f 3f
       0.12963414 0.9915619 0.012999633 0.9999155
0001c0 72 98 7d 3f d7 04 0c 3e 6f 46 7c 3f e7 0b 2e 3e
       0.9906074 0.13673721 0.98544973 0.16996728
0001d0 64 e4 0e 3e cc 7e 7d 3f 55 5e 65 3c 94 f9 7f 3f
       0.13954312 0.990216 0.013999541 0.999902
0001e0 44 79 26 3f e8 7a 42 bf d5 5b 7f 3f ba de 90 3d
       0.65028787 -0.7596879 0.997495 0.07073732
0001f0 4f 06 19 3e 1a 20 7d 3f 32 c0 75 3c a1 f8 7f 3f
       0.14943813 0.9887711 0.014999436 0.9998875
000200 10 68 93 be 2c 29 75 bf 0e e4 7f 3f a3 33 ef bc
       -0.2879033 -0.9576595 0.9995736 -0.029199427
000210 50 24 23 3e ed ba 7c 3f 00 11 83 3c 9d f7 7f 3f
       0.15931821 0.98722726 0.015999317 0.999872
000220 25 1e 76 bf 36 e2 8c be bf dd 7d 3f cb ef 03 be
       -0.96139747 -0.27516335 0.9916648 -0.12884443
000230 23 3e 2d 3e 49 4f 7c 3f dd 41 8b 3c 88 f6 7f 3f
       0.16918235 0.9855848 0.01699918 0.9998555
000240 b3 40 40 bf 84 0a 29 3f 14 4e 79 3f a7 a7 68 be
       -0.75098723 0.6603167 0.9738476 -0.22720204
000250 87 53 37 3e 2e dd 7b 3f b2 72 93 3c 62 f5 7f 3f
       0.17902957 0.9838437 0.017999027 0.999838
000260 69 79 19 3e bf 1b 7d 3f ba 40 72 3f 31 86 a5 be
       0.1498772 0.9887046 0.94630015 -0.32328942
000270 3a 64 41 3e a1 64 7b 3f 7d a3 9b 3c 2c f4 7f 3f
       0.1888589 0.9820042 0.018998856 0.9998195
000280 c8 b6 69 3f 22 f0 d0 3e b8 c7 68 3f 2f 11 d5 be
       0.9129453 0.40808207 0.90929747 -0.41614673
000290 f8 6f 4b 3e a5 e5 7a 3f 3e d4 a3 3c e5 f2 7f 3f
       0.19866931 0.9800666 0.019998666 0.9998
0002a0 10 2f 56 3f fc 37 0c bf 4b fb 5c 3f 97 3d 01 bf
       0.8366556 -0.54772925 0.8632094 -0.50484604
0002b0 83 76 55 3e 3c 60 7a 3f f3 04 ac 3c 8d f1 7f 3f
       0.2084599 0.9780309 0.020998454 0.9997795
0002c0 15 05 11 bc 6f fd 7f bf a1 f9 4e 3f 00 a8 16 bf
       -0.008851309 -0.99996084 0.80849653 -0.588501
0002d0 96 77 5f 3e 6a d4 79 3f 9e 35 b4 3c 24 f0 7f 3f
       0.21822962 0.97589743 0.021998223 0.999758
0002e0 e6 a1 58 bf bf 67 08 bf 8a e6 3e 3f 10 91 2a bf
       -0.8462204 -0.53283304 0.74570525 -0.666276
0002f0 f0 72 69 3e 34 42 79 3f 3d 66 bc 3c ab ee 7f 3f
       0.22797751 0.9736664 0.02299797 0.99973553
000300 fc d3 67 bf fe 2d d9 3e 29 eb 2c 3f d4 c5 3c bf
       -0.9055784 0.42417902 0.67546326 -0.7373936
000310 51 68 73 3e 9b a9 78 3f d0 96 c4 3c 20 ed 7f 3f
       0.23770262 0.971338 0.023997694 0.999712
000320 38 87 07 be 78 bf 7d 3f 7c 35 19 3f bd 17 4d bf
       -0.13235176 0.99120283 0.59847236 -0.80114347
000330 77 57 7d 3e a5 0a 78 3f 56 c7 cc 3c 85 eb 7f 3f
       0.24740396 0.9689124 0.024997395 0.9996875
000340 08 37 43 3f 81 9c 25 3f e7 f7 03 3f 0f 5d 5b bf
       0.76255846 0.6469193 0.51550144 -0.8568887
000350 10 a0 83 3e 56 65 77 3f ce f7 d4 3c da e9 7f 3f
       0.25708055 0.96639 0.025997069 0.99966204
000360 0e d5 74 3f 38 93 95 be 8f d1 da 3e 44 71 67 bf
       0.95637596 -0.29213881 0.42738006 -0.90407205
000370 05 91 88 3e b1 b9 76 3f 39 28 dd 3c 1d e8 7f 3f
       0.2667314 0.9637709 0.026996719 0.9996355
000380 2a b4 8a 3e 57 6d 76 bf 9a 83 ab 3e 7a 35 71 bf
       0.2709058 -0.9626059 0.33498842 -0.94222224
000390 7d 7e 8d 3e bb 07 76 3f 94 58 e5 3c 50 e6 7f 3f
       0.27635565 0.96105546 0.027996339 0.99960804
0003a0 e9 e3 29 bf b3 80 3f bf d0 fd 74 3e b6 90 78 bf
       -0.6636339 -0.74805754 0.23924947 -0.9709581
0003b0 54 68 92 3e 79 4f 75 3f e1 88 ed 3c 72 e4 7f 3f
       0.2859522 0.9582439 0.028995933 0.99957955
0003c0 a4 ef 7c bf 18 f4 1d 3e d3 81 10 3e 25 70 7d bf
       -0.9880316 0.15425146 0.14112024 -0.98999244
0003d0 6c 4e 97 3e ef 90 74 3f 1e b9 f5 3c 83 e2 7f 3f
       0.2955202 0.9553365 0.029995497 0.99955004
0003e0 06 de ce be 8e 2c 6a 3f 96 50 2a 3d 52 c7 7f bf
       -0.40403765 0.91474235 0.04158076 -0.99913514
0003f0 a5 30 9c 3e 22 cc 73 3f 4b e9 fd 3c 83 e0 7f 3f
       0.30505863 0.95233357 0.030995032 0.9995195

enc_embedding_s.temporal_embedding.embed.weight f4 [8, 4]
000000 ea 1a bb 3e 6a cd f9 3e b2 32 c2 3e fe a6 87 be
       0.3654397 0.4878953 0.37929302 -0.26494592
000010 a8 af 66 3e 00 3c d8 bc 54 87 af be 88 6e 0a 3e
       0.22527945 -0.026395798 -0.34282935 0.13518727
000020 d0 e0 85 be d8 e5 f9 3d 7c 1b 80 be d8 33 f5 3e
       -0.2614808 0.12202042 -0.2502097 0.47891116
000030 50 9f f2 3e 50 55 73 3d 10 11 a9 3d 88 3e f1 3e
       0.4738717 0.059407532 0.082552075 0.4711802
000040 84 00 a1 3e 50 11 a1 3d 40 17 0e 3c dc 77 be 3e
       0.31445706 0.0786463 0.008672535 0.3720082
000050 1e 9f d7 be 90 a5 af bd 80 4b bf bd 98 d0 db 3d
       -0.42113584 -0.085765004 -0.09340572 0.107331455
000060 a0 f9 de bc b4 16 cc 3e d2 85 b2 3e 40 70 54 bc
       -0.02721864 0.3986107 0.34867722 -0.012966216
000070 60 1b fa bd 42 41 da be b2 9e cc 3e 44 4b 2b be
       -0.122122526 -0.42627913 0.39964825 -0.1672793

enc_embedding_t.value_embedding.tokenConv.weight f4 [8, 1, 3]
000000 d5 9e 42 bf 4c 74 b8 bd b6 57 be 3f 81 e2 bd 3e
       -0.7602361 -0.09006557 1.4870517 0.3708687
000010 b8 bb d8 be 19 a6 6b bd c2 31 3d bf 8e 2f 9c 3f
       -0.42330718 -0.05753145 -0.7390405 1.2202013
000020 20 d9 00 40 b2 da 0b be 72 99 9d 3f 11 0e 45 bd
       2.0132523 -0.13657644 1.2312453 -0.048109118
000030 60 00 9d bf cf d7 2b 3f fb 38 1b be 19 8c 8f 3d
       -1.226574 0.6712617 -0.15158455 0.070091434
000040 7a 4c 0b 40 cd 75 68 bf 54 fb b8 3e 8c 5b 40 be
       2.1765428 -0.9080475 0.36129248 -0.18784922
000050 93 d7 8e 3d d0 62 5a bf 43 26 e6 bf e0 18 13 bf
       0.06974711 -0.85307026 -1.7980427 -0.5745983

enc_embedding_t.position_embedding.pe f4 [1, 5000, 8]
000000 00 00 00 00 00 00 80 3f 00 00 00 00 00 00 80 3f
       0.0 1.0 0.0 1.0
000010 00 00 00 00 00 00 80 3f 00 00 00 00 00 00 80 3f
       0.0 1.0 0.0 1.0
000020 a4 6a 57 3f 41 51 0a 3f 76 75 cc 3d 98 b8 7e 3f
       0.84147096 0.54030234 0.099833414 0.9950042
000030 57 d6 23 3c b9 fc 7f 3f 6d 12 83 3a f8 ff 7f 3f
       0.009999833 0.99995 0.0009999998 0.9999995
000040 b7 c7 68 3f 33 11 d5 be f8 6f 4b 3e a5 e5 7a 3f
       0.9092974 -0.41614684 0.19866931 0.9800666
000050 3e d4 a3 3c e5 f2 7f 3f 68 12 03 3b df ff 7f 3f
       0.019998666 0.9998 0.0019999985 0.99999803
000060 c3 81 10 3e 26 70 7d bf 6c 4e 97 3e ef 90 74 3f
       0.14112 -0.9899925 0.2955202 0.9553365
000070 1f b9 f5 3c 83 e2 7f 3f 92 9b 44 3b b5 ff 7f 3f
       0.0299955 0.99955004 0.0029999954 0.9999955
000080 cf bd 41 bf 30 55 27 bf d7 61 c7 3e a7 ca 6b 3f
       -0.7568025 -0.6536436 0.38941833 0.921061
000090 db cb 23 3d 94 cb 7f 3f 57 12 83 3b 7a ff 7f 3f
       0.039989334 0.9992001 0.003999989 0.999992
0000a0 10 7c 75 bf 2c 3c 91 3e 43 77 f5 3e 40 a9 60 3f
       -0.9589243 0.2836622 0.47942552 0.87758255
0000b0 f4 b6 4c 3d 19 ae 7f 3f dd d6 a3 3b 2e ff 7f 3f
       0.049979165 0.99875027 0.004999979 0.9999875
0000c0 8c 0f 8f be b8 cd 75 3f 68 8c 10 3f 32 49 53 3f
       -0.2794155 0.96017027 0.5646424 0.8253356
0000d0 d1 9c 75 3d 12 8a 7f 3f 58 9b c4 3b d2 fe 7f 3f
       0.059964005 0.99820054 0.0059999637 0.999982
0000e0 46 30 28 3f bd ff 40 3f 72 eb 24 3f b3 cc 43 3f
       0.6569866 0.75390226 0.6442176 0.7648422
0000f0 32 3e 8f 3d 81 5f 7f 3f c5 5f e5 3b 65 fe 7f 3f
       0.06994285 0.997551 0.006999942 0.9999755
000100 95 46 7d 3f f6 fd 14 be a5 a4 37 3f 5f 5b 32 3f
       0.98935825 -0.14550003 0.717356 0.6967067
000110 50 aa a3 3d 65 2e 7f 3f 12 12 03 3c e7 fd 7f 3f
       0.07991469 0.9968017 0.007999914 0.999968
000120 32 01 d3 3e d5 3f 69 bf 1c 88 48 3f d5 21 1f 3f
       0.4121185 -0.91113025 0.78332686 0.62161
000130 3e 12 b8 3d c2 f6 7e 3f 3a 74 13 3c 59 fd 7f 3f
       0.089878544 0.9959527 0.008999879 0.9999595
000140 f8 44 0b bf 64 cd 56 bf a4 6a 57 3f 41 51 0a 3f
       -0.5440211 -0.8390715 0.84147096 0.54030234
000150 76 75 cc 3d 98 b8 7e 3f 57 d6 23 3c b9 fc 7f 3f
       0.099833414 0.9950042 0.009999833 0.99995
000160 5c ff 7f bf 72 05 91 3b 2a 26 64 3f c3 3d e8 3e
       -0.9999902 0.004425698 0.89120734 0.4535962
000170 72 d3 e0 3d e8 73 7e 3f 69 38 34 3c 09 fc 7f 3f
       0.1097783 0.9939561 0.010999777 0.9999395
000180 d8 5c 09 bf d0 06 58 3f 1d 9a 6e 3f f7 86 b9 3e
       -0.53657293 0.84385395 0.9320391 0.36235783
000190 ac 2b f5 3d b5 28 7e 3f 70 9a 44 3c 48 fb 7f 3f
       0.119712204 0.99280864 0.011999711 0.999928
0001a0 22 20 d7 3e 6f 4e 68 3f c0 ab 76 3f 9d f5 88 3e
       0.42016703 0.9074468 0.9635582 0.26749888
0001b0 d0 be 04 3e 00 d7 7d 3f 6a fc 54 3c 76 fa 7f 3f
       0.12963414 0.9915619 0.012999633 0.9999155
0001c0 72 98 7d 3f d7 04 0c 3e 6f 46 7c 3f e7 0b 2e 3e
       0.9906074 0.13673721 0.98544973 0.16996728
0001d0 64 e4 0e 3e cc 7e 7d 3f 55 5e 65 3c 94 f9 7f 3f
       0.13954312 0.990216 0.013999541 0.999902
0001e0 44 79 26 3f e8 7a 42 bf d5 5b 7f 3f ba de 90 3d
       0.65028787 -0.7596879 0.997495 0.07073732
0001f0 4f 06 19 3e 1a 20 7d 3f 32 c0 75 3c a1 f8 7f 3f
       0.14943813 0.9887711 0.014999436 0.9998875
000200 10 68 93 be 2c 29 75 bf 0e e4 7f 3f a3 33 ef bc
       -0.2879033 -0.9576595 0.9995736 -0.029199427
000210 50 24 23 3e ed ba 7c 3f 00 11 83 3c 9d f7 7f 3f
       0.15931821 0.98722726 0.015999317 0.999872
000220 25 1e 76 bf 36 e2 8c be bf dd 7d 3f cb ef 03 be
       -0.96139747 -0.27516335 0.9916648 -0.12884443
000230 23 3e 2d 3e 49 4f 7c 3f dd 41 8b 3c 88 f6 7f 3f
       0.16918235 0.9855848 0.01699918 0.9998555
000240 b3 40 40 bf 84 0a 29 3f 14 4e 79 3f a7 a7 68 be
       -0.75098723 0.6603167 0.9738476 -0.22720204
000250 87 53 37 3e 2e dd 7b 3f b2 72 93 3c 62 f5 7f 3f
       0.17902957 0.9838437 0.017999027 0.999838
000260 69 79 19 3e bf 1b 7d 3f ba 40 72 3f 31 86 a5 be
       0.1498772 0.9887046 0.94630015 -0.32328942
000270 3a 64 41 3e a1 64 7b 3f 7d a3 9b 3c 2c f4 7f 3f
       0.1888589 0.9820042 0.018998856 0.9998195
000280 c8 b6 69 3f 22 f0 d0 3e b8 c7 68 3f 2f 11 d5 be
       0.9129453 0.40808207 0.90929747 -0.41614673
000290 f8 6f 4b 3e a5 e5 7a 3f 3e d4 a3 3c e5 f2 7f 3f
       0.19866931 0.9800666 0.019998666 0.9998
0002a0 10 2f 56 3f fc 37 0c bf 4b fb 5c 3f 97 3d 01 bf
       0.8366556 -0.54772925 0.8632094 -0.50484604
0002b0 83 76 55 3e 3c 60 7a 3f f3 04 ac 3c 8d f1 7f 3f
       0.2084599 0.9780309 0.020998454 0.9997795
0002c0 15 05 11 bc 6f fd 7f bf a1 f9 4e 3f 00 a8 16 bf
       -0.008851309 -0.99996084 0.80849653 -0.588501
0002d0 96 77 5f 3e 6a d4 79 3f 9e 35 b4 3c 24 f0 7f 3f
       0.21822962 0.97589743 0.021998223 0.999758
0002e0 e6 a1 58 bf bf 67 08 bf 8a e6 3e 3f 10 91 2a bf
       -0.8462204 -0.53283304 0.74570525 -0.666276
0002f0 f0 72 69 3e 34 42 79 3f 3d 66 bc 3c ab ee 7f 3f
       0.22797751 0.9736664 0.02299797 0.99973553
000300 fc d3 67 bf fe 2d d9 3e 29 eb 2c 3f d4 c5 3c bf
       -0.9055784 0.42417902 0.67546326 -0.7373936
000310 51 68 73 3e 9b a9 78 3f d0 96 c4 3c 20 ed 7f 3f
       0.23770262 0.971338 0.023997694 0.999712
000320 38 87 07 be 78 bf 7d 3f 7c 35 19 3f bd 17 4d bf
       -0.13235176 0.99120283 0.59847236 -0.80114347
000330 77 57 7d 3e a5 0a 78 3f 56 c7 cc 3c 85 eb 7f 3f
       0.24740396 0.9689124 0.024997395 0.9996875
000340 08 37 43 3f 81 9c 25 3f e7 f7 03 3f 0f 5d 5b bf
       0.76255846 0.6469193 0.51550144 -0.8568887
000350 10 a0 83 3e 56 65 77 3f ce f7 d4 3c da e9 7f 3f
       0.25708055 0.96639 0.025997069 0.99966204
000360 0e d5 74 3f 38 93 95 be 8f d1 da 3e 44 71 67 bf
       0.95637596 -0.29213881 0.42738006 -0.90407205
000370 05 91 88 3e b1 b9 76 3f 39 28 dd 3c 1d e8 7f 3f
       0.2667314 0.9637709 0.026996719 0.9996355
000380 2a b4 8a 3e 57 6d 76 bf 9a 83 ab 3e 7a 35 71 bf
       0.2709058 -0.9626059 0.33498842 -0.94222224
000390 7d 7e 8d 3e bb 07 76 3f 94 58 e5 3c 50 e6 7f 3f
       0.27635565 0.96105546 0.027996339 0.99960804
0003a0 e9 e3 29 bf b3 80 3f bf d0 fd 74 3e b6 90 78 bf
       -0.6636339 -0.74805754 0.23924947 -0.9709581
0003b0 54 68 92 3e 79 4f 75 3f e1 88 ed 3c 72 e4 7f 3f
       0.2859522 0.9582439 0.028995933 0.99957955
0003c0 a4 ef 7c bf 18 f4 1d 3e d3 81 10 3e 25 70 7d bf
       -0.9880316 0.15425146 0.14112024 -0.98999244
0003d0 6c 4e 97 3e ef 90 74 3f 1e b9 f5 3c 83 e2 7f 3f
       0.2955202 0.9553365 0.029995497 0.99955004
0003e0 06 de ce be 8e 2c 6a 3f 96 50 2a 3d 52 c7 7f bf
       -0.40403765 0.91474235 0.04158076 -0.99913514
0003f0 a5 30 9c 3e 22 cc 73 3f 4b e9 fd 3c 83 e0 7f 3f
       0.30505863 0.95233357 0.030995032 0.9995195

enc_embedding_t.temporal_embedding.embed.weight f4 [8, 4]
000000 c2 c3 bc be 60 03 13 bd 40 85 5e be 24 35 7c 3e
       -0.368681 -0.03589189 -0.21730518 0.24629647
000010 00 db 55 be 16 a0 b0 3e 70 ea d4 3e 88 85 e8 3e
       -0.20884323 0.34497136 0.41585112 0.45414376
000020 18 7c f2 be 90 4c 40 bd 90 b9 73 be 3e 1b eb 3e
       -0.473603 -0.046948016 -0.23801255 0.45919222
000030 60 e2 42 be 38 44 ac 3e ec 80 13 be b8 84 84 be
       -0.19031668 0.33645797 -0.14404649 -0.25882506
000040 9e 40 8e be ce 45 fb 3e d4 61 41 3e 88 ec 14 3e
       -0.27783674 0.49076694 0.18884975 0.14543355
000050 54 3d 7d be 6e 7e 9e 3e 1c a4 90 be ca 81 8f be
       -0.24730426 0.30955833 -0.28250206 -0.2802871
000060 72 b5 f0 be 10 f3 b0 be 7c 6e 2b be a8 fd be 3e
       -0.47013432 -0.34560442 -0.16741365 0.373029
000070 80 d1 68 3c 10 ce 0b be 2e fc fe be a4 b3 7c 3e
       0.014210105 -0.13652825 -0.49801773 0.24677902

enc_embedding.value_embedding.tokenConv.weight f4 [8, 1, 3]
000000 34 da 64 bd a1 f0 1e be f7 85 c5 3e 00 ed d8 3f
       -0.055872157 -0.1552148 0.3857877 1.6947327
000010 da 94 a5 3f 8e a2 1f c0 75 2b 8d be 4c c7 b5 be
       1.2936051 -2.4942966 -0.27572218 -0.35503614
000020 b3 7b 05 3f 6b f7 1a c0 30 2c 17 c0 6c 76 86 be
       0.52141875 -2.4213512 -2.362072 -0.26262224
000030 fd 3a 59 bf 3e d4 9f bf 92 44 e3 3f 98 69 e2 3e
       -0.84855634 -1.2486646 1.7755301 0.44221187
000040 fd 6a 15 3f be a4 f3 bf 65 a9 c7 3f 0c 3b b7 3f
       0.58366376 -1.903465 1.559857 1.4314895
000050 7d ae ab 3f ee ee 29 3e 51 29 39 bd 7c 00 87 40
       1.3412625 0.1659505 -0.045205418 4.218809

enc_embedding.position_embedding.pe f4 [1, 5000, 8]
000000 00 00 00 00 00 00 80 3f 00 00 00 00 00 00 80 3f
       0.0 1.0 0.0 1.0
000010 00 00 00 00 00 00 80 3f 00 00 00 00 00 00 80 3f
       0.0 1.0 0.0 1.0
000020 a4 6a 57 3f 41 51 0a 3f 76 75 cc 3d 98 b8 7e 3f
       0.84147096 0.54030234 0.099833414 0.9950042
000030 57 d6 23 3c b9 fc 7f 3f 6d 12 83 3a f8 ff 7f 3f
       0.009999833 0.99995 0.0009999998 0.9999995
000040 b7 c7 68 3f 33 11 d5 be f8 6f 4b 3e a5 e5 7a 3f
       0.9092974 -0.41614684 0.19866931 0.9800666
000050 3e d4 a3 3c e5 f2 7f 3f 68 12 03 3b df ff 7f 3f
       0.019998666 0.9998 0.0019999985 0.99999803
000060 c3 81 10 3e 26 70 7d bf 6c 4e 97 3e ef 90 74 3f
       0.14112 -0.9899925 0.2955202 0.9553365
000070 1f b9 f5 3c 83 e2 7f 3f 92 9b 44 3b b5 ff 7f 3f
       0.0299955 0.99955004 0.0029999954 0.9999955
000080 cf bd 41 bf 30 55 27 bf d7 61 c7 3e a7 ca 6b 3f
       -0.7568025 -0.6536436 0.38941833 0.921061
000090 db cb 23 3d 94 cb 7f 3f 57 12 83 3b 7a ff 7f 3f
       0.039989334 0.9992001 0.003999989 0.999992
0000a0 10 7c 75 bf 2c 3c 91 3e 43 77 f5 3e 40 a9 60 3f
       -0.9589243 0.2836622 0.47942552 0.87758255
0000b0 f4 b6 4c 3d 19 ae 7f 3f dd d6 a3 3b 2e ff 7f 3f
       0.049979165 0.99875027 0.004999979 0.9999875
0000c0 8c 0f 8f be b8 cd 75 3f 68 8c 10 3f 32 49 53 3f
       -0.2794155 0.96017027 0.5646424 0.8253356
0000d0 d1 9c 75 3d 12 8a 7f 3f 58 9b c4 3b d2 fe 7f 3f
       0.059964005 0.99820054 0.0059999637 0.999982
0000e0 46 30 28 3f bd ff 40 3f 72 eb 24 3f b3 cc 43 3f
       0.6569866 0.75390226 0.6442176 0.7648422
0000f0 32 3e 8f 3d 81 5f 7f 3f c5 5f e5 3b 65 fe 7f 3f
       0.06994285 0.997551 0.006999942 0.9999755
000100 95 46 7d 3f f6 fd 14 be a5 a4 37 3f 5f 5b 32 3f
       0.98935825 -0.14550003 0.717356 0.6967067
000110 50 aa a3 3d 65 2e 7f 3f 12 12 03 3c e7 fd 7f 3f
       0.07991469 0.9968017 0.007999914 0.999968
000120 32 01 d3 3e d5 3f 69 bf 1c 88 48 3f d5 21 1f 3f
       0.4121185 -0.91113025 0.78332686 0.62161
000130 3e 12 b8 3d c2 f6 7e 3f 3a 74 13 3c 59 fd 7f 3f
       0.089878544 0.9959527 0.008999879 0.9999595
000140 f8 44 0b bf 64 cd 56 bf a4 6a 57 3f 41 51 0a 3f
       -0.5440211 -0.8390715 0.84147096 0.54030234
000150 76 75 cc 3d 98 b8 7e 3f 57 d6 23 3c b9 fc 7f 3f
       0.099833414 0.9950042 0.009999833 0.99995
000160 5c ff 7f bf 72 05 91 3b 2a 26 64 3f c3 3d e8 3e
       -0.9999902 0.004425698 0.89120734 0.4535962
000170 72 d3 e0 3d e8 73 7e 3f 69 38 34 3c 09 fc 7f 3f
       0.1097783 0.9939561 0.010999777 0.9999395
000180 d8 5c 09 bf d0 06 58 3f 1d 9a 6e 3f f7 86 b9 3e
       -0.53657293 0.84385395 0.9320391 0.36235783
000190 ac 2b f5 3d b5 28 7e 3f 70 9a 44 3c 48 fb 7f 3f
       0.119712204 0.99280864 0.011999711 0.999928
0001a0 22 20 d7 3e 6f 4e 68 3f c0 ab 76 3f 9d f5 88 3e
       0.42016703 0.9074468 0.9635582 0.26749888
0001b0 d0 be 04 3e 00 d7 7d 3f 6a fc 54 3c 76 fa 7f 3f
       0.12963414 0.9915619 0.012999633 0.9999155
0001c0 72 98 7d 3f d7 04 0c 3e 6f 46 7c 3f e7 0b 2e 3e
       0.9906074 0.13673721 0.98544973 0.16996728
0001d0 64 e4 0e 3e cc 7e 7d 3f 55 5e 65 3c 94 f9 7f 3f
       0.13954312 0.990216 0.013999541 0.999902
0001e0 44 79 26 3f e8 7a 42 bf d5 5b 7f 3f ba de 90 3d
       0.65028787 -0.7596879 0.997495 0.07073732
0001f0 4f 06 19 3e 1a 20 7d 3f 32 c0 75 3c a1 f8 7f 3f
       0.14943813 0.9887711 0.014999436 0.9998875
000200 10 68 93 be 2c 29 75 bf 0e e4 7f 3f a3 33 ef bc
       -0.2879033 -0.9576595 0.9995736 -0.029199427
000210 50 24 23 3e ed ba 7c 3f 00 11 83 3c 9d f7 7f 3f
       0.15931821 0.98722726 0.015999317 0.999872
000220 25 1e 76 bf 36 e2 8c be bf dd 7d 3f cb ef 03 be
       -0.96139747 -0.27516335 0.9916648 -0.12884443
000230 23 3e 2d 3e 49 4f 7c 3f dd 41 8b 3c 88 f6 7f 3f
       0.16918235 0.9855848 0.01699918 0.9998555
000240 b3 40 40 bf 84 0a 29 3f 14 4e 79 3f a7 a7 68 be
       -0.75098723 0.6603167 0.9738476 -0.22720204
000250 87 53 37 3e 2e dd 7b 3f b2 72 93 3c 62 f5 7f 3f
       0.17902957 0.9838437 0.017999027 0.999838
000260 69 79 19 3e bf 1b 7d 3f ba 40 72 3f 31 86 a5 be
       0.1498772 0.9887046 0.94630015 -0.32328942
000270 3a 64 41 3e a1 64 7b 3f 7d a3 9b 3c 2c f4 7f 3f
       0.1888589 0.9820042 0.018998856 0.9998195
000280 c8 b6 69 3f 22 f0 d0 3e b8 c7 68 3f 2f 11 d5 be
       0.9129453 0.40808207 0.90929747 -0.41614673
000290 f8 6f 4b 3e a5 e5 7a 3f 3e d4 a3 3c e5 f2 7f 3f
       0.19866931 0.9800666 0.019998666 0.9998
0002a0 10 2f 56 3f fc 37 0c bf 4b fb 5c 3f 97 3d 01 bf
       0.8366556 -0.54772925 0.8632094 -0.50484604
0002b0 83 76 55 3e 3c 60 7a 3f f3 04 ac 3c 8d f1 7f 3f
       0.2084599 0.9780309 0.020998454 0.9997795
0002c0 15 05 11 bc 6f fd 7f bf a1 f9 4e 3f 00 a8 16 bf
       -0.008851309 -0.99996084 0.80849653 -0.588501
0002d0 96 77 5f 3e 6a d4 79 3f 9e 35 b4 3c 24 f0 7f 3f
       0.21822962 0.97589743 0.021998223 0.999758
0002e0 e6 a1 58 bf bf 67 08 bf 8a e6 3e 3f 10 91 2a bf
       -0.8462204 -0.53283304 0.74570525 -0.666276
0002f0 f0 72 69 3e 34 42 79 3f 3d 66 bc 3c ab ee 7f 3f
       0.22797751 0.9736664 0.02299797 0.99973553
000300 fc d3 67 bf fe 2d d9 3e 29 eb 2c 3f d4 c5 3c bf
       -0.9055784 0.42417902 0.67546326 -0.7373936
000310 51 68 73 3e 9b a9 78 3f d0 96 c4 3c 20 ed 7f 3f
       0.23770262 0.971338 0.023997694 0.999712
000320 38 87 07 be 78 bf 7d 3f 7c 35 19 3f bd 17 4d bf
       -0.13235176 0.99120283 0.59847236 -0.80114347
000330 77 57 7d 3e a5 0a 78 3f 56 c7 cc 3c 85 eb 7f 3f
       0.24740396 0.9689124 0.024997395 0.9996875
000340 08 37 43 3f 81 9c 25 3f e7 f7 03 3f 0f 5d 5b bf
       0.76255846 0.6469193 0.51550144 -0.8568887
000350 10 a0 83 3e 56 65 77 3f ce f7 d4 3c da e9 7f 3f
       0.25708055 0.96639 0.025997069 0.99966204
000360 0e d5 74 3f 38 93 95 be 8f d1 da 3e 44 71 67 bf
       0.95637596 -0.29213881 0.42738006 -0.90407205
000370 05 91 88 3e b1 b9 76 3f 39 28 dd 3c 1d e8 7f 3f
       0.2667314 0.9637709 0.026996719 0.9996355
000380 2a b4 8a 3e 57 6d 76 bf 9a 83 ab 3e 7a 35 71 bf
       0.2709058 -0.9626059 0.33498842 -0.94222224
000390 7d 7e 8d 3e bb 07 76 3f 94 58 e5 3c 50 e6 7f 3f
       0.27635565 0.96105546 0.027996339 0.99960804
0003a0 e9 e3 29 bf b3 80 3f bf d0 fd 74 3e b6 90 78 bf
       -0.6636339 -0.74805754 0.23924947 -0.9709581
0003b0 54 68 92 3e 79 4f 75 3f e1 88 ed 3c 72 e4 7f 3f
       0.2859522 0.9582439 0.028995933 0.99957955
0003c0 a4 ef 7c bf 18 f4 1d 3e d3 81 10 3e 25 70 7d bf
       -0.9880316 0.15425146 0.14112024 -0.98999244
0003d0 6c 4e 97 3e ef 90 74 3f 1e b9 f5 3c 83 e2 7f 3f
       0.2955202 0.9553365 0.029995497 0.99955004
0003e0 06 de ce be 8e 2c 6a 3f 96 50 2a 3d 52 c7 7f bf
       -0.40403765 0.91474235 0.04158076 -0.99913514
0003f0 a5 30 9c 3e 22 cc 73 3f 4b e9 fd 3c 83 e0 7f 3f
       0.30505863 0.95233357 0.030995032 0.9995195

enc_embedding.temporal_embedding.embed.weight f4 [8, 4]
000000 58 42 84 3d 00 4b e8 3c e2 97 ee 3e 50 5f 93 be
       0.064579666 0.028356075 0.46600252 -0.28783655
000010 8e f8 98 3e c4 c2 f0 be 54 c8 36 3e 22 24 d1 3e
       0.29877132 -0.47023594 0.17849857 0.4084788
000020 70 0b 8c bd b8 9c 5b 3e 18 31 7d be 98 85 ee be
       -0.06838119 0.21446502 -0.24725759 -0.465863
000030 38 1b a0 3e d2 4d 97 3e 96 e9 ba be c8 66 1a be
       0.31270766 0.2955156 -0.36506337 -0.1507827
000040 38 37 16 be e8 ba 99 bd b8 11 4d be e4 9b 59 be
       -0.14669502 -0.07506353 -0.2002629 -0.21250874
000050 3c 17 60 be c0 7d da 3c 94 b7 4b be 60 59 29 be
       -0.21883863 0.02667129 -0.19894248 -0.16538
000060 00 57 cc be 3c c4 fb be 20 01 c8 3c 48 dd db 3e
       -0.39910126 -0.49173152 0.024414599 0.42942262
000070 ca 5c fb be fa 04 e1 be 88 81 d0 be 50 57 b0 bd
       -0.4909423 -0.4394911 -0.40723825 -0.086104035

encoder_s.attn_layers.0.attention.query_projection.weight f4 [8, 8]
000000 1b 8f 2a bf 37 2b 50 3d 2c cb 85 be 5e cc 9e bd
       -0.6662461 0.050822463 -0.2613157 -0.07753824
000010 bf dd 58 3e 77 bb 9e bd 71 e2 29 be 6d 85 12 3d
       0.2117834 -0.077506 -0.16590287 0.035771776
000020 8d 52 d2 be 10 91 46 bd 05 55 6f be 13 ec 0f be
       -0.41078606 -0.048478186 -0.23372276 -0.14054899
000030 cb 70 f9 3d f5 84 27 be 55 75 44 be 23 1c bb b8
       0.12179717 -0.16359313 -0.19185384 -8.922096e-05
000040 06 23 c0 3e 6f c4 83 3e 96 6a 3f 3a c3 04 32 3e
       0.3752672 0.25735804 0.00073019543 0.17384629
000050 d7 be c1 3d ec ea 15 3e b0 da df 3d 15 3c ef bd
       0.09460228 0.14640397 0.10930383 -0.116813816
000060 20 93 1a 3f af 8a 3e 3e 0b 38 c9 be 6c 02 d4 3b
       0.60380745 0.18607591 -0.3930057 0.0064700153
000070 28 ce 3b 3e 2e de 80 3e 13 72 05 bd 01 da 24 3e
       0.18340361 0.2516951 -0.032579493 0.16098787
000080 48 9a 01 be 4e 4b 6d bd 3b 76 9b bd fc d2 c1 bd
       -0.1265651 -0.057933144 -0.0759091 -0.0946407
000090 5b 76 b0 be 59 02 8e 3c 51 51 c3 3c 4b 1f 2d bd
       -0.34465298 0.017335104 0.023842486 -0.04226617
0000a0 89 ee aa 3c c8 6d 00 bd 43 27 4e be 20 13 a6 bd
       0.020865696 -0.031354696 -0.20132165 -0.081091166
0000b0 bf dd 43 be cb 41 45 bd f1 fa 7c be 43 c1 86 3d
       -0.19127558 -0.04815845 -0.24705102 0.065798305
0000c0 d9 49 b3 3e 6c 37 f2 bd ce 7e 3a 3e df ba 31 3d
       0.3501728 -0.11826977 0.18212435 0.043391105
0000d0 af f9 8f bd c4 13 1c 3e d2 66 2f 3e 57 d8 6f 3b
       -0.07030045 0.15241915 0.17129067 0.0036597454
0000e0 76 71 82 3e e5 1f 2e be 33 53 14 be e0 3e 5b bc
       0.2547719 -0.17004354 -0.14484863 -0.01338169
0000f0 47 4b a9 bd cb 57 3d 3d 54 19 15 3e 6d 21 c1 bc
       -0.08266311 0.046226304 0.14560443 -0.023575509

encoder_s.attn_layers.0.attention.query_projection.bias f4 [8]
000000 d2 27 53 3c 4c 31 7f 3e 3f ee f4 3d 3a fc c2 3e
       0.012887912 0.24921149 0.11959504 0.3808306
000010 4c 8b 4e 3e 0a 15 22 be 8b 3f 2b be 2e ca 3d be
       0.20170325 -0.15828338 -0.16723458 -0.18534157

encoder_s.attn_layers.0.attention.key_projection.weight f4 [8, 8]
000000 99 fa e5 3e 2d 1d f0 bd 88 fe 6b be b6 54 69 3c
       0.44917753 -0.11724315 -0.23046315 0.014241388
000010 f5 42 58 bd a7 a1 e4 3c 13 3a b5 3d 21 a0 aa 3d
       -0.05279823 0.027909113 0.088489674 0.083313234
000020 7e b3 41 be 67 d8 de 3d 91 eb b4 3d 4f 0c 64 be
       -0.18916127 0.10881119 0.08833993 -0.2227032
000030 01 9d e5 3c 47 89 3a 3c 4a c5 dc bd c8 25 bf bd
       0.028028967 0.0113852685 -0.107798174 -0.09333378
000040 ed 3a b4 bc 98 0c db bd f5 c0 77 be d7 c4 23 3c
       -0.022000754 -0.106957614 -0.24194701 0.009995661
000050 cf 14 48 3d 89 0c 3b be 5a 96 18 3d 29 b4 97 be
       0.04884797 -0.182665 0.03725276 -0.2962964
000060 73 b6 d3 3c 4b 52 bd 3d 2e e6 d0 3c 74 3a 0c 3d
       0.025843835 0.09244212 0.025500383 0.034235433
000070 71 e2 a2 3b 67 c0 8b 3d d0 df e3 3c 19 56 0c bf
       0.0049708416 0.06823807 0.027816683 -0.54818875
000080 d0 c3 89 3e b3 23 00 bc d6 db ff 3b 43 00 b3 bc
       0.26907206 -0.007821011 0.007808189 -0.02185071
000090 10 1c 66 3c 33 f9 1a be 1c 48 89 3d f6 5c ba bc
       0.014044777 -0.15134124 0.06703207 -0.022749405
0000a0 f3 f3 e1 3e 5e b7 cb bd 7b 58 ff 3d 95 d0 fc bc
       0.4413143 -0.09947084 0.12468048 -0.030861178
0000b0 40 e5 09 3d 69 cb 73 bd b4 f2 a3 bc e7 54 18 be
       0.033665895 -0.05952016 -0.02001319 -0.14876138
0000c0 ab de be bd 09 84 bf bd 4d 5b 09 3f 83 4a 23 3e
       -0.09319814 -0.093513556 0.5365494 0.15946393
0000d0 16 6f ad bc 67 9f a9 3d dc 59 c0 3d d9 82 12 be
       -0.021171134 0.08282357 0.09392139 -0.14307727
0000e0 2e 66 e9 bd 21 dd 89 3c 79 46 6c bd d1 d9 0e be
       -0.11396442 0.016829075 -0.057684395 -0.13950278
0000f0 da d7 84 3d e6 7d d1 bc d5 78 8e 3b e0 22 e6 3d
       0.06486483 -0.025572728 0.0043479004 0.11237121

encoder_s.attn_layers.0.attention.key_projection.bias f4 [8]
000000 c8 61 ae 3d b1 28 b0 3e a9 c9 3e be c2 6a b3 3e
       0.08514744 0.34406045 -0.18631615 0.35042387
000010 73 83 4e 3e ba 9b 9e bd ab 24 b7 3c 57 cc bc 3d
       0.20167331 -0.07744546 0.022356352 0.09218662

encoder_s.attn_layers.0.attention.value_projection.weight f4 [8, 8]
000000 ba 68 7c bf 14 e3 14 3f 1d 05 83 3d 9d 13 a5 be
       -0.985973 0.58158994 0.0639746 -0.32241526
000010 a0 ad 1c be 2c e8 e8 3e 3c 18 9d 3d 29 58 b6 be
       -0.15300608 0.45489633 0.07670638 -0.35614136
000020 db ce f5 be 8f 6e 3a bf 21 d1 da 3e 54 d1 4d 3f
       -0.4800938 -0.7282495 0.42737678 0.80397534
000030 a3 3a 26 bb 85 4e 7a bd 42 2d 19 bf f2 b5 01 3e
       -0.002536454 -0.06111004 -0.5983468 0.12667063
000040 fe fd bf 3b 00 b0 b1 3c 33 9e f0 3b 64 0f 37 3e
       0.0058591357 0.021690369 0.0073430776 0.17876965
000050 e3 e5 6b bd fb 17 8b bc de e2 3c 39 96 4d b3 3e
       -0.057592284 -0.016979208 0.00018013592 0.3502013
000060 4e 0d 91 bd 0c 66 77 39 8b 20 40 be 87 d1 9c be
       -0.07082616 0.00023593771 -0.18762414 -0.30628607
000070 0f e5 b9 3c 00 41 c0 3c 56 be f3 3c dc c7 3d be
       0.022692231 0.023468494 0.029753845 -0.18533272
000080 ec 22 b2 bf a7 c2 75 3e 9f bf 64 bd 0d b4 49 3e
       -1.3916907 0.24000035 -0.055846807 0.1969759
000090 02 30 2a be ee fd 36 3f fd 8c 91 be 89 b3 bb be
       -0.16619876 0.71481216 -0.28427878 -0.36660412
0000a0 58 6e ac 3f c8 27 97 bf d4 e6 03 3f 4d d8 ec 3e
       1.3471174 -1.1809015 0.5152409 0.46258774
0000b0 46 d4 98 3e db 4d 0a bc 00 6d c8 3c d4 90 b1 bd
       0.29849452 -0.008441414 0.024466038 -0.08670202
0000c0 39 b5 b4 be 0b 69 78 3f d4 4d 79 bf 9a ec e5 bd
       -0.35294512 0.9703528 -0.9738438 -0.11226769
0000d0 52 de cd be 8b 16 81 be 2e 21 15 be dd 2f 4f 3e
       -0.4020868 -0.2521251 -0.14563438 0.20233102
0000e0 f0 90 c1 3f 64 61 88 bc 20 22 64 be b1 14 c4 be
       1.5122356 -0.016648002 -0.22278643 -0.38297036
0000f0 e6 d4 88 bc 48 5a 14 be ab 42 0d 3f 50 ab 73 3e
       -0.01670308 -0.14487565 0.5517985 0.2379582

encoder_s.attn_layers.0.attention.value_projection.bias f4 [8]
000000 60 89 e3 3e f3 b7 1d 3f 17 7e 7d 3e 67 14 25 3e
       0.44440746 0.6160881 0.2475513 0.16121064
000010 70 f9 c4 3d b6 70 1a bd 48 c7 c3 be b2 10 fc 3d
       0.09617889 -0.037705146 -0.38237977 0.12307872

encoder_s.attn_layers.0.attention.out_projection.weight f4 [8, 8]
000000 5e 88 f4 3d 21 ee 72 3e 7d 4c c9 bd f0 8a 57 bd
       0.119400725 0.23723651 -0.09829042 -0.052622736
000010 c5 ab 04 3e aa dc f0 bd 6f 3c 14 3e 1a e6 92 bb
       0.1295615 -0.11760838 0.14476179 -0.0044829967
000020 d5 bb 97 3e ca f4 25 3f e6 3c 46 3f f3 36 e1 3e
       0.29635492 0.64826643 0.77436674 0.43987235
000030 a6 04 25 bf e8 ca 41 3f 3a 6e 12 3e 91 42 ee 3e
       -0.6446022 0.75700235 0.1429986 0.4653516
000040 82 72 85 3b 52 4b 8a 3d 8a c3 4c 3e ab 34 41 3e
       0.0040724883 0.067526475 0.19996467 0.18867747
000050 04 e8 45 3e a5 6c 3b be 81 c5 af 3e ba 99 0e bf
       0.19326788 -0.18303163 0.3433037 -0.5570332
000060 e3 8e f1 3e 2c 0f fe be 57 ea 91 3e 7d 54 1e 3e
       0.47179326 -0.4962095 0.284991 0.15461917
000070 0a 25 f7 3d a8 92 28 3e 3b b2 9e 3e 4b b0 a8 3e
       0.120676115 0.16462195 0.30995354 0.32947
000080 a5 4f a4 3f 13 bc f8 3e 43 9b 16 3d df ee 47 be
       1.2836806 0.4858099 0.036769163 -0.19524716
000090 80 59 f2 be 08 ab c5 be 28 e5 59 bf 49 e1 0f 3d
       -0.47333908 -0.3860705 -0.8511529 0.035126958
0000a0 6a bf 21 bf bf e0 43 be 3e 41 2b be 41 fd d9 3c
       -0.631827 -0.19128703 -0.16724107 0.026610019
0000b0 38 4d a5 be 9e 1f c7 bd 12 00 d3 3e 10 16 53 be
       -0.32285476 -0.097228274 0.4121099 -0.20613885
0000c0 44 b7 80 bd 6d e1 c2 be f7 07 0b be e2 bd 8b bc
       -0.06284955 -0.3806261 -0.13577257 -0.017058317
0000d0 3a b7 3c bd 14 ae a4 3e 15 91 4e 3e 9e 29 54 be
       -0.046073176 0.3216406 0.20172532 -0.20719
0000e0 4c 0d f9 be b3 0a 21 3e 03 43 c2 3d db c7 7b 3e
       -0.48642957 0.15726738 0.09485438 0.24587958
0000f0 43 89 ae 3e 1d 33 7d be fe b3 7f 3d 51 db 9d 3e
       0.34089097 -0.2472653 0.062427513 0.30831388

encoder_s.attn_layers.0.attention.out_projection.bias f4 [8]
000000 10 70 9b be 27 45 98 be 25 0a 10 3e 8a 3e 2d 3e
       -0.30358934 -0.2974026 0.1406637 0.16918388
000010 8c 7b 20 3f de 79 03 be 07 99 c0 3d 84 5f 92 3d
       0.6268852 -0.12839457 0.09404188 0.071471244

encoder_s.attn_layers.0.conv1.weight f4 [64, 8, 1]
000000 a3 10 23 3e 1a 00 18 be d2 0c e1 3e b6 5f 52 be
       0.15924315 -0.14843789 0.43955094 -0.20544323
000010 68 18 60 3e 4f f4 8c be 15 f4 54 3d 5a 17 0f be
       0.2188431 -0.27530143 0.051990587 -0.13973752
000020 c0 cc 1d 3f 1d 47 5f 3e c2 7d 0d bd 42 99 b1 bd
       0.6164055 0.21804471 -0.03454376 -0.0867181
000030 d8 5c 3b 3e d5 48 4f bd b3 2d 8f 3e 91 69 11 3e
       0.18297136 -0.050606567 0.27964553 0.14200427
000040 9c c1 84 be 85 db c1 3d 8a f3 b2 3d f6 51 1e 3c
       -0.25928962 0.09465698 0.08737858 0.009663096
000050 bf 1b c4 3e cc aa 3f ba 08 64 7f be 6f 26 35 be
       0.3830242 -0.00073115225 -0.24940503 -0.17690443
000060 61 7d 35 bc 35 6e 2c bd 7b a4 8e 3e 09 87 23 3a
       -0.011077256 -0.04209729 0.27859864 0.00062380783
000070 7b 4a d3 3d fd 77 c9 bc 53 6d ef 3e 9c 71 11 bf
       0.103169404 -0.024593348 0.46763095 -0.5681398
000080 64 70 e6 be c9 4f 09 3e ca cc db bc a2 50 aa bd
       -0.45007622 0.13409342 -0.02683105 -0.08316161
000090 ad 8e 81 3c 6f ee 60 be d9 fa 97 3e 36 78 0b be
       0.015815103 -0.21965955 0.2968357 -0.13620076
0000a0 7b 29 b5 bc d3 44 e4 3e 4b f2 4f bd 4b 22 03 be
       -0.022114506 0.4458376 -0.050768178 -0.1280605
0000b0 2f 52 77 3d 2d 30 b1 3e 40 27 93 3e d0 95 42 be
       0.06038111 0.34607068 0.28740883 -0.19002461
0000c0 3e 21 06 3f d9 22 2a bc c3 50 eb 3e 3b 15 01 3c
       0.52394474 -0.010384285 0.45960054 0.007878597
0000d0 10 02 87 bd c6 a8 ca bd bb 0a 5c 3e ee d1 01 bf
       -0.0659219 -0.09895472 0.21488468 -0.5071095
0000e0 f6 ed cc 3e e3 e6 a2 be 25 2f 16 3f 40 6b fb bb
       0.400253 -0.31816778 0.58665687 -0.0076726973
0000f0 78 f1 4f bf 61 53 af 3d c1 99 1f 3c 03 6c 36 bf
       -0.8122783 0.08560825 0.009741248 -0.7125856
000100 23 63 d8 3d b6 82 6d 3e c6 cb c4 3d 90 f6 44 bd
       0.10565784 0.23194394 0.09609179 -0.048086703
000110 e4 17 6c 3e 6e 05 9b be eb bf 41 be 3c 32 39 be
       0.23055989 -0.3027758 -0.18920867 -0.18085569
000120 ef 82 84 3e 59 84 bd 3e cb 46 1b 3e 5f 3f 06 3f
       0.25881144 0.37015036 0.15163724 0.52440447
000130 87 92 8c be a9 76 10 bf a2 dc 7b 3e 12 7f 3a 3e
       -0.27455541 -0.5643106 0.24595883 0.18212536
000140 c0 d5 4e 3e 3c 9a da 3d 1c 9f da 3e 04 30 09 be
       0.20198727 0.10673949 0.42699516 -0.13397223
000150 36 f2 c3 3e 69 e5 f7 3c 05 0b 4b 3f 03 d3 30 bf
       0.3827073 0.030260758 0.7931369 -0.6907198
000160 95 70 91 3d 25 ac 05 bf 76 3d d3 3d 5a 9f b5 bc
       0.071015514 -0.52215797 0.10314457 -0.022170711
000170 95 b7 33 3d 3a a6 91 be 15 b4 3c 3e 1f d1 e4 3d
       0.04387625 -0.28447133 0.18428071 0.11172699
000180 53 7f 84 be ab 1b e2 3d ca 7e ae 3e 35 d0 10 be
       -0.2587839 0.110404335 0.34081107 -0.14141925
000190 8c 85 b5 be 19 14 9c be 9d 43 13 3e 59 ec 09 3e
       -0.3545345 -0.30484083 0.14381261 0.13469066
0001a0 bc 73 7a 3e 57 df c1 bd df a8 68 3d 32 fb 16 3d
       0.24458212 -0.09466427 0.056801673 0.036860652
0001b0 f2 16 9e 3e 17 87 30 be d3 22 a3 bc d1 57 37 3e
       0.3087688 -0.17239033 -0.019914066 0.17904593
0001c0 da bd 6f bd 2d ff cf 3e 49 37 08 3d 3a 89 49 bd
       -0.058530666 0.4062437 0.03325585 -0.049203135
0001d0 4c 50 a9 3e 37 8a 5a 3e ee 08 ed 3e 60 31 97 be
       0.33069074 0.21341787 0.46295875 -0.29529858
0001e0 46 73 0a 3f a7 eb b4 3c 9a 8d a3 be 78 c7 23 3e
       0.54082143 0.022085024 -0.3194397 0.1599406
0001f0 0e e4 21 bf aa 11 e0 be b3 92 67 3e 3e c7 2e be
       -0.6323861 -0.43763477 0.22614555 -0.17068192
000200 00 be ae bd e5 d8 6b 3c 98 c5 14 3d 6c 01 d4 be
       -0.085323334 0.014394973 0.036321253 -0.41407335
000210 78 84 56 3e 63 77 1c 3e 22 61 f4 be ca f4 32 bd
       0.2094897 0.15279917 -0.47730356 -0.04369048
000220 da 12 c9 be a6 6e 05 3e 32 40 aa 3e 00 da 97 3d
       -0.39272195 0.1303049 0.33252102 0.07414627
000230 c6 d1 c1 be dd 24 e9 b9 a5 35 c2 be c5 8a de 3e
       -0.37855357 -0.00044468688 -0.37931553 0.43465248
000240 fd 8a 81 bb 6d 51 9e bd a7 20 ca bd 51 f0 90 bd
       -0.0039533363 -0.077303745 -0.09869509 -0.07077087
000250 55 5e 2e 3e c5 3c 43 3d 5e 9c 06 be c7 48 0b bc
       0.17028172 0.047665376 -0.13145587 -0.008501238
000260 09 eb cc 3e 62 a8 33 bd 1f 69 5b 3e 3d 78 fc 3d
       0.40023068 -0.043861754 0.2142682 0.12327621
000270 22 3e b3 3e 52 09 2c be c9 b9 2d 3f 41 4e 62 bf
       0.3500834 -0.1680043 0.6786161 -0.88400656
000280 f6 1d 91 3e a8 e6 51 be 17 14 04 3f a6 f7 d9 3e
       0.2834317 -0.20498145 0.51593155 0.42571753
000290 12 09 2d 3e e4 1d 11 bf 3f 26 b9 3f f5 7c 1d bf
       0.16897991 -0.56686234 1.4464797 -0.61518794
0002a0 8a bc 3f bc 2b 42 c8 be f4 85 fd 3c 48 1e c7 3c
       -0.011702666 -0.39112982 0.030947663 0.024306431
0002b0 ad d3 2e 3c 90 63 40 be 84 4d ae 3e c6 3e 76 be
       0.010670585 -0.1878798 0.34043515 -0.24047384
0002c0 73 34 ad 3c c6 2c c2 3e a0 44 67 3d 8e b6 8a bb
       0.021143174 0.37924784 0.05646193 -0.004233188
0002d0 58 00 f8 be ba c6 98 3e 76 48 97 3e 91 72 f1 3d
       -0.48437762 0.29839116 0.2954747 0.1178943
0002e0 3a ea 23 be c6 2e 0c be 11 17 3c be 23 04 68 be
       -0.16007319 -0.13689718 -0.18368174 -0.22657828
0002f0 0d 3b 66 be 26 23 85 3c e7 43 99 be b5 62 32 3f
       -0.22483464 0.016252112 -0.29934618 0.69681865
000300 d4 60 ed bd 9b 02 ab 3e 13 b4 70 3e ef 12 16 3e
       -0.11590734 0.33400425 0.23506193 0.1465566
000310 3f 75 83 3e 90 db 1d be 48 50 cf bd a3 e7 b6 3c
       0.2567539 -0.15415788 -0.10122734 0.02232725
000320 87 ef cd be da d2 e1 3d 5e 12 d6 bd c9 4b d7 3d
       -0.40221807 0.11026545 -0.10452722 0.10512502
000330 53 07 73 be 7b 57 9f 3e 7a d9 c9 3c 98 aa 0c 3f
       -0.23733263 0.3112143 0.024639834 0.54947805
000340 4c 48 bd be b9 2b 09 be ae 84 1e ba c2 5f 0b be
       -0.3696922 -0.13395585 -0.00060469925 -0.13610747
000350 ff 20 bf bd 66 3f 11 3e 9e 18 41 3e a0 cb d0 3e
       -0.093324654 0.14184341 0.18857047 0.40780354
000360 33 45 1b 3f a2 f7 0d 3e 8e 8d d6 be af 73 38 be
       0.60652465 0.13863996 -0.41904873 -0.1801288
000370 40 26 f5 3d 4a ec 1c bc b5 03 6c be b6 92 d0 bc
       0.11970186 -0.00957782 -0.23048289 -0.025460582
000380 db 89 a5 bd 41 43 c6 be b0 1d a6 3e 62 e0 38 be
       -0.080829345 -0.38723186 0.32444525 -0.18054345
000390 c7 d2 c2 be ef b3 a2 bd f3 30 5f 3e 5e 85 22 3c
       -0.38051435 -0.07944476 0.21796016 0.0099194925
0003a0 9c 38 91 bc 6e 2a ab be 64 9a ed 3c fa 4f 54 3e
       -0.017727189 -0.3343081 0.029004283 0.20733634
0003b0 82 9a 25 be 6e 1e fb 3c b3 08 4c be c4 82 71 3e
       -0.16172221 0.030654158 -0.19925193 0.2358504
0003c0 72 8a e3 bd dc f9 82 3e 9c 49 fa bd e7 ac e5 bc
       -0.11110391 0.25581253 -0.12221071 -0.028036548
0003d0 2d 3d 19 3e dc 2a de 3d 10 4c a4 be 4e c2 87 3e
       0.14964743 0.108480185 -0.3208928 0.2651543
0003e0 c6 db 61 3d 23 53 2d 3d 0b 11 d0 be 41 99 a3 bd
       0.055141233 0.042315613 -0.40638003 -0.07988215
0003f0 76 46 85 3e ef 03 47 3d 85 87 e3 bd b7 8f 06 be
       0.2603032 0.048587736 -0.11109833 -0.1314076

encoder_s.attn_layers.0.conv1.bias f4 [64]
000000 42 16 e2 bd c9 49 64 be 6f fe 26 bf 32 ba aa 3e
       -0.110394016 -0.22293772 -0.65231985 0.3334518
000010 8f 1c 0f be ae 54 9a be 7e 71 01 3e 7f 27 ee be
       -0.13975738 -0.3014273 0.1264095 -0.46514508
000020 4f 7a 3d be 7c 13 bd be 93 d8 9f bd db bd 2f bf
       -0.18503688 -0.36928928 -0.0780498 -0.6864907
000030 b1 72 f3 bb ed c1 9e be c4 65 c2 be be 2a b8 3d
       -0.0074294438 -0.3100733 -0.37968266 0.089925274
000040 b5 c0 86 be f3 44 a7 be 5e 74 3c be 1e 0d 74 be
       -0.263189 -0.32669792 -0.18403766 -0.23833129
000050 2e 8c 50 bf a3 f2 db bd da dd 88 3a f0 83 e8 be
       -0.814639 -0.10739639 0.0010442093 -0.4541316
000060 cb ba bf be 74 a8 cd be ea 90 ba be fc e2 ad 3c
       -0.374472 -0.40167582 -0.36438686 0.021226399
000070 7d d1 90 bd 02 93 9e 3b a2 7e b4 be 99 15 b6 be
       -0.07071207 0.004839302 -0.35252863 -0.35563353
000080 f0 32 04 3d 84 f6 0d be a9 98 4c be 63 6f 92 bd
       0.03227514 -0.1386357 -0.1998011 -0.071501516
000090 8f 79 92 be ba a3 02 bf 71 cb 6c bd 59 9a 87 bd
       -0.28608367 -0.51031077 -0.057811204 -0.06621236
0000a0 7d 35 71 bf f8 d1 6e 3d 9f 7e a7 bc 05 b6 1e 3d
       -0.9422224 0.05830571 -0.02044612 0.038747806
0000b0 46 3a 3e 3d 9d ef db be 53 f2 b5 be 84 eb 75 be
       0.046442293 -0.42956248 -0.3553644 -0.24015623
0000c0 50 df 32 bf ae fc 8d 3c e9 df 2b 3c 78 fa 89 bd
       -0.69872 0.017332401 0.010490396 -0.06737226
0000d0 df 2f 72 be f9 af 4b be 9e 4d 67 be 88 ac 70 3c
       -0.23651074 -0.19891347 -0.22588202 0.014689572
0000e0 46 74 02 3e c9 2a 01 bf 41 6d 06 bf 51 95 c4 be
       0.12739667 -0.5045591 -0.5251046 -0.3839517
0000f0 49 df 82 bd aa d4 b5 3d 2c b1 8c be 4e 1f 36 be
       -0.063902445 0.08878453 -0.2747892 -0.1778538

encoder_s.attn_layers.0.conv2.weight f4 [8, 64, 1]
000000 af ef db 3d e1 a8 92 3d a7 ac a7 bd bd f6 a3 bd
       0.107390754 0.07161117 -0.08187228 -0.08006046
000010 20 f8 14 bc f0 c3 7b 3d bd 36 05 3d 59 21 5c 3e
       -0.009092361 0.061466157 0.032522906 0.21497096
000020 8a af c0 bd 34 9b 7e be ef 14 88 3d de ba 42 3e
       -0.094084814 -0.24863893 0.06644618 0.19016597
000030 a9 7c 2c bc 31 7e a0 3d 55 f6 8a 3d cf 2c ab bd
       -0.010527768 0.07836569 0.06785265 -0.08358156
000040 68 5c b8 bc 15 5c 5b 3e 9c aa 19 3b e8 e4 42 3e
       -0.022505 0.21421845 0.0023447638 0.19032633
000050 c7 cb 81 be b7 1b de bb 40 5e e3 bb a8 5a b5 bd
       -0.25350782 -0.006778206 -0.0069387257 -0.08855182
000060 14 c5 72 bc 3f 37 e1 3d 32 34 44 bd 52 37 a1 3c
       -0.014817495 0.109968655 -0.04790134 0.0196797
000070 c2 9d 3e 3d 23 96 ec 3c 7b ac 3d 3e 98 8a bf bd
       0.04653717 0.028880185 0.18522827 -0.093526065
000080 56 9a 49 bd 87 d3 9f 3e 36 5e 6b be 59 2c a4 bd
       -0.04921945 0.3121607 -0.22985157 -0.08016271
000090 46 64 15 3d ab cc 30 bd 88 99 39 3d 9a 2c b4 bd
       0.03647258 -0.043163937 0.045312434 -0.087975696
0000a0 af 48 33 3e e5 a8 ee bc 33 51 62 bb 1c 9a 8e 3c
       0.17508195 -0.02913327 -0.0034533262 0.01740747
0000b0 94 c1 86 3d 4d 15 a5 bd f7 b6 68 bd 0b c0 23 be
       0.06579891 -0.080607034 -0.056815114 -0.15991227
0000c0 e4 28 2f be 64 70 a3 bd d6 98 01 be 72 a3 45 bc
       -0.17105442 -0.07980421 -0.12655959 -0.012062894
0000d0 86 84 45 be ee 69 0a be d1 a0 d5 bc 8f d2 de bc
       -0.19288835 -0.13516971 -0.02607766 -0.027200012
0000e0 fc 97 dc bc 0e c4 30 bd af 92 6d 3e 65 97 a2 3d
       -0.02692794 -0.043155722 0.23200487 0.079390325
0000f0 5a 92 9b 3c 22 9a fb 3c 3b 40 5b 3d 7d 6b 00 3e
       0.018990684 0.030713145 0.05352805 0.12541004
000100 26 aa 0f 3e 7b 61 19 3e ad f3 18 be d9 24 bc 3c
       0.1402975 0.14978592 -0.14936705 0.02296679
000110 38 96 14 3c 78 d9 b9 3c 91 1f e3 3d 05 ac 75 be
       0.009069018 0.022686705 0.11090005 -0.23991401
000120 5a 93 e2 3c ff c7 58 be ca e1 5d bc da 98 2c 3d
       0.027658153 -0.21170042 -0.013542602 0.042137958
000130 7b 63 12 3d d2 da 47 bd f8 9f 8d bc c5 8f ba 3d
       0.035739403 -0.048792668 -0.017288193 0.09109453
000140 2f d8 3f be 92 53 3d bd cf a5 15 be 02 93 e2 bd
       -0.18734811 -0.046222277 -0.14614032 -0.11063196
000150 ee 24 37 bf 2f 85 14 3d 71 49 b0 3d 04 d9 fa be
       -0.71540725 0.036259826 0.08607758 -0.48993695
000160 e8 e1 15 bd 07 03 1a be 5e 11 a4 bd 37 d8 8a bd
       -0.036592394 -0.15040217 -0.08011125 -0.06779521
000170 a6 91 51 bd 6b 70 3f 3d d0 0f b8 be 87 2c 6e be
       -0.05116429 0.04673807 -0.35949564 -0.23259173
000180 9e 03 36 3d 5f 2d 83 3d ed d0 c5 be e5 9f b7 3d
       0.044437043 0.06405138 -0.3863596 0.08966044
000190 f0 41 56 3d e8 94 5c be 31 51 9c bc ac 18 23 3e
       0.052308977 -0.21541178 -0.019081684 0.1592738
0001a0 23 1c e7 bd 07 f5 bd 3e 72 eb 0b 3e d4 a2 90 bc
       -0.112846635 0.37101004 0.13664034 -0.017655768
0001b0 87 58 c0 3d d9 25 3b 3c b4 39 4c be 39 b3 30 3e
       0.09391885 0.011422598 -0.19943887 0.17255868
0001c0 8a 69 c1 3e d1 2d 39 3e d9 e5 c4 bc 9d f4 23 3e
       0.37775832 0.18083884 -0.024035381 0.16011281
0001d0 3c c5 7e 3e 60 32 8b bd eb fa f4 bb 11 07 36 3e
       0.24879926 -0.06796718 -0.007476201 0.17776133
0001e0 b9 67 81 bd 9b 5b fa 3d fc af af bd 0c cc 12 bd
       -0.06318612 0.122245036 -0.08578488 -0.035839126
0001f0 bd f5 7c bd 71 de 59 be 84 cf 97 bc 76 7e b0 bb
       -0.06175779 -0.21276261 -0.018531568 -0.005386169
000200 17 28 e1 3b 1f 12 8f be 4b 09 2c be 94 30 f6 ba
       0.006871234 -0.27943513 -0.1680042 -0.0018782788
000210 f1 58 eb bc 08 23 f5 3d 39 26 48 3e 01 4b b2 3e
       -0.028728934 0.11969572 0.19545831 0.34822848
000220 34 5b 59 bd 69 fa 76 3b ef 16 ff 3d d6 ca b0 3d
       -0.053065494 0.0037685877 0.12455546 0.08632438
000230 e8 19 98 3c 1b 03 80 3c ec 0c aa 3d 9a e3 2f be
       0.01856704 0.01562648 0.08303246 -0.17176667
000240 56 38 f9 bc 54 3a 5b bd 76 16 72 3d c0 86 35 3e
       -0.03042237 -0.053522423 0.05910345 0.17727184
000250 0c d3 57 be 21 ac 58 3d 9f f7 e0 3d a0 ae 4c 3c
       -0.21076602 0.05289853 0.1098473 0.012492806
000260 a0 16 b4 bd fa d4 9c 3d b4 f2 bf bb b3 c6 dc bd
       -0.08793378 0.076578096 -0.00585779 -0.10780086
000270 aa 40 4e 3e 82 2c 15 bb e9 77 2e bb cd 4d 16 bd
       0.20141855 -0.0022762124 -0.0026621765 -0.03669529
000280 1e 8f 95 bb fb 85 22 3c 77 ba 08 be 14 50 6c be
       -0.00456418 0.009919639 -0.1335238 -0.23077422
000290 59 b5 0c 3d 77 c8 e7 3b c7 18 51 bb 80 05 33 bd
       0.034352634 0.007073458 -0.0031905638 -0.043706417
0002a0 67 11 3a 3e 4d 4d 82 bd 38 93 1f be a3 35 a9 3d
       0.18170701 -0.063624 -0.15583503 0.082621835
0002b0 a8 90 72 3e 24 83 16 be eb 70 3d 3c b6 7e 14 bd
       0.23687994 -0.14698464 0.011562566 -0.036253653
0002c0 55 d2 c7 bd 9c b6 b1 bd 4e da 10 3c 22 77 a3 3c
       -0.097569145 -0.08677408 0.00884111 0.019954268
0002d0 2b 89 ac bd d8 b3 07 be ae 13 20 be c5 e1 09 be
       -0.084246 -0.13252199 -0.15632507 -0.1346503
0002e0 c5 ad a5 3d 34 77 2f 3a 1a 25 02 3e 64 b7 33 be
       0.080897845 0.0006693483 0.12709466 -0.17550427
0002f0 bc c7 3a 3d 28 a1 2c 3c 63 b3 5d be 85 20 1c 3e
       0.045600638 0.0105364695 -0.21650462 0.1524678
000300 af e2 c5 3c 94 41 54 bc 84 02 31 3e 00 3e de bd
       0.024155943 -0.012955088 0.17286116 -0.10851669
000310 54 2c ea bc 64 3c 32 bd 16 0d b1 bd eb 30 3b 3e
       -0.02858559 -0.043514624 -0.08645074 0.1828038
000320 5a c9 ed 3d bc b1 04 3d 18 97 fa bd 90 42 b6 bd
       0.116106704 0.032396063 -0.1223585 -0.088994145
000330 15 a1 11 bd fc f7 33 3c 36 ee 7f bd e8 20 7f 3d
       -0.03555401 0.010984417 -0.062483035 0.06228724
000340 a1 42 85 3d 01 43 76 bc 78 ff a9 3c bd c3 80 bd
       0.06506849 -0.015030623 0.0207517 -0.06287334
000350 e8 71 ba bd b0 2a 5f bc b3 cf ca 3c 98 6a 07 be
       -0.09103757 -0.013621017 0.024757242 -0.13224256
000360 c4 11 ea 3d d9 3b fd bd 84 a0 c7 bc f8 06 9b 3b
       0.1142917 -0.12364931 -0.024368532 0.0047310553
000370 5a 35 15 3d 30 f5 01 be 37 d7 b5 3d 31 d1 19 3d
       0.036427833 -0.12691188 0.088789396 0.037553016
000380 90 97 92 3d e9 7e 9e bd 88 e9 92 bd 6c 3c 1a 3d
       0.071578145 -0.0773905 -0.07173449 0.03765528
000390 5b 78 59 3c 72 57 56 3e d4 c7 6c bd a2 ba 86 bc
       0.013273324 0.20931795 -0.05780776 -0.016446415
0003a0 1b 69 c7 bd 63 89 0f 3e 1e 07 16 3b 02 63 db bd
       -0.09736844 0.14017253 0.0022892426 -0.107122436
0003b0 e4 24 8f 3d 29 d1 ec 39 02 a1 f1 3d c0 08 25 3e
       0.06989458 0.00045169264 0.11798288 0.16116619
0003c0 14 b3 8c be fa dc 5b bc b0 64 d8 bd 3c 1c 38 be
       -0.27480376 -0.013419384 -0.105660796 -0.1797952
0003d0 c4 78 cd 3c 57 29 76 3c 43 18 de bb a6 97 7b bc
       0.025082 0.015024505 -0.0067777946 -0.01535598
0003e0 2c 5b 0c be 8f 64 79 be 06 1e 19 3e 45 95 82 3d
       -0.13706654 -0.24354766 0.1495286 0.06376127
0003f0 df 82 47 bd bd 0b 24 bd 9b 1e f3 bc 21 d3 c4 bc
       -0.048708793 -0.040050257 -0.02967768 -0.024026455

encoder_s.attn_layers.0.conv2.bias f4 [8]
000000 c6 dd bf bc 30 84 46 bc b7 77 22 bd 7f d7 23 3c
       -0.02342118 -0.012116477 -0.03966495 0.010000109
000010 f0 31 0f 3e 2d 79 77 3c ce 10 be 3b 01 a5 b7 bb
       0.13983893 0.015104574 0.005800343 -0.005604387

encoder_s.attn_layers.0.norm1.weight f4 [8]
000000 4c 52 dd 3f 06 b0 9c 3f 44 af b0 3f fe 5d 65 3f
       1.729074 1.2241218 1.3803487 0.89596546
000010 9e c5 89 3f cd 93 9b 3f 8d eb 93 3f 19 bb 80 3f
       1.0763433 1.215448 1.1556259 1.0057098

encoder_s.attn_layers.0.norm1.bias f4 [8]
000000 6a 99 02 be 26 85 3b bd ac f7 92 bc e8 d0 70 3c
       -0.12753835 -0.045781277 -0.017940365 0.014698245
000010 2d 1d 7d 3d 22 ca 7d 3d 93 4b 75 bd d5 1d 17 bd
       0.061795402 0.061960347 -0.059886526 -0.036893684

encoder_s.attn_layers.0.norm2.weight f4 [8]
000000 18 81 70 3f 63 64 1e 3f b4 cc 86 3f 4c 36 84 3f
       0.9394698 0.6187193 1.053122 1.032907
000010 31 07 87 3f d4 13 8f 3f ee cc 27 3f b9 a1 8f 3f
       1.054907 1.1177926 0.6554707 1.1221229

encoder_s.attn_layers.0.norm2.bias f4 [8]
000000 8d f9 f4 bd 9a 8e 20 be 45 0c a8 bd ff 8a 87 3d
       -0.119616605 -0.15679398 -0.08205465 0.06618308
000010 0c 19 8c 3e 03 d2 2d bb 24 0f ef 3d 56 c6 26 3d
       0.2736286 -0.0026522882 0.1167281 0.04071649
