SimMTM-main/SimMTM-main/SimMTM_Forecasting/outputs/pretrain_checkpoints/ETTh2/ckpt30.pth (torch, 347855 bytes, 37 tensors)

enc_embedding.value_embedding.tokenConv.weight f4 [16, 1, 3]
0	0x3f331e21	0.6996785
1	0xc0014ff5	-2.0205052
2	0x3fd985e6	1.6993988
3	0x406bf66f	3.686916
4	0xbfa2ada3	-1.270924
5	0xc0580735	-3.37544
6	0xbff9cbcb	-1.9515318
7	0xc03b0c0c	-2.9226103
8	0xbf52026d	-0.8203495
9	0xbfd605e2	-1.6720545
10	0x40727996	3.788671
11	0xc00030d2	-2.0029798
12	0xbf6d25cd	-0.92635804
13	0x3e80400c	0.25048864
14	0x3f46f719	0.7772079
15	0x4092d8a8	4.5889473
16	0xc048fa6c	-3.1402845
17	0x40008ff1	2.0087855
18	0x4009f1dc	2.155387
19	0x401b3e8f	2.4256933
20	0x3fb8f6fc	1.4450374
21	0x3f7b4be6	0.98162687
22	0xbf2ec877	-0.68274635
23	0x400eb0c3	2.2295387
24	0x3e63d9f8	0.22251117
25	0x3ebb27e0	0.3655386
26	0x403a4810	2.9106483
27	0xc0839f84	-4.113222
28	0xbfd3d512	-1.6549399
29	0xbf7e285c	-0.99280334
30	0x3c5d5fe4	0.013511632
31	0x4106c45d	8.42294
32	0x3e019f52	0.12658432
33	0x3f496ebb	0.78684586
34	0x3fdca771	1.7238599
35	0xc01bc208	-2.4337177
36	0x3cb923e3	0.02260012
37	0xc0821b93	-4.065866
38	0x3c711c79	0.014716261
39	0xbfffac02	-1.9974368
40	0x3fff4754	1.9943643
41	0x3f2f0873	0.6837227
42	0xc00afa38	-2.1715221
43	0xbaf804e3	-0.0018922355
44	0x3c642b5c	0.013926353
45	0x3ff54b30	1.916357
46	0xbfb2d937	-1.3972539
47	0xbf1d09da	-0.6134316

enc_embedding.position_embedding.pe f4 [1, 5000, 16]
0	0x00000000	0.0
1	0x3f800000	1.0
2	0x00000000	0.0
3	0x3f800000	1.0
4	0x00000000	0.0
5	0x3f800000	1.0
6	0x00000000	0.0
7	0x3f800000	1.0
8	0x00000000	0.0
9	0x3f800000	1.0
10	0x00000000	0.0
11	0x3f800000	1.0
12	0x00000000	0.0
13	0x3f800000	1.0
14	0x00000000	0.0
15	0x3f800000	1.0
16	0x3f576aa4	0.84147096
17	0x3f0a5141	0.54030234
18	0x3e9f393e	0.3109836
19	0x3f734e6b	0.9504153
20	0x3dcc7576	0.099833414
21	0x3f7eb898	0.9950042
22	0x3d01815b	0.031617504
23	0x3f7fdf3c	0.99950004
24	0x3c23d657	0.009999833
25	0x3f7ffcb9	0.99995
26	0x3b4f3e1c	0.0031622713
27	0x3f7fffac	0.999995
28	0x3a83126d	0.0009999998
29	0x3f7ffff8	0.9999995
30	0x39a5cb61	0.00031622782
31	0x3f7fffff	0.99999994
32	0x3f68c7b7	0.9092974
33	0xbed51133	-0.41614684
34	0x3f17541b	0.5911271
35	0x3f4e7bec	0.8065784
36	0x3e4b6ff8	0.19866931
37	0x3f7ae5a5	0.9800666
38	0x3d8170c8	0.063203394
39	0x3f7f7cf9	0.9980007
40	0x3ca3d43e	0.019998666
41	0x3f7ff2e5	0.9998
42	0x3bcf3dd8	0.006324511
43	0x3f7ffeb1	0.99998003
44	0x3b031268	0.0019999985
45	0x3f7fffdf	0.99999803
46	0x3a25cb60	0.0006324556
47	0x3f7ffffd	0.9999998
48	0x3e1081c3	0.14112
49	0xbf7d7026	-0.9899925
50	0x3f5009c2	0.8126489
51	0x3f152f58	0.58275366
52	0x3e974e6c	0.2955202
53	0x3f7490ef	0.9553365
54	0x3dc1ffc0	0.094726086
55	0x3f7ed94f	0.99550337
56	0x3cf5b91f	0.0299955
57	0x3f7fe283	0.99955004
58	0x3c1b6e0d	0.009486687
59	0x3f7ffd0d	0.999955
60	0x3b449b92	0.0029999954
61	0x3f7fffb5	0.9999955
62	0x3a78b110	0.00094868336
63	0x3f7ffff9	0.9999996
64	0xbf41bdcf	-0.7568025
65	0xbf275530	-0.6536436
66	0x3f741dde	0.95358074
67	0x3e9a2eb1	0.30113748
68	0x3ec761d7	0.38941833
69	0x3f6bcaa7	0.921061
70	0x3e012e88	0.12615407
71	0x3f7df469	0.99201065
72	0x3d23cbdb	0.039989334
73	0x3f7fcb94	0.9992001
74	0x3c4f3cc9	0.01264877
75	0x3f7ffac2	0.99992
76	0x3b831257	0.003999989
77	0x3f7fff7a	0.999992
78	0x3aa5cb5e	0.0012649109
79	0x3f7ffff3	0.9999992
80	0xbf757c10	-0.9589243
81	0x3e913c2c	0.2836622
82	0x3f7ffc7f	0.99994653
83	0xbc2972e9	-0.010342338
84	0x3ef57743	0.47942552
85	0x3f60a940	0.87758255
86	0x3e213c1d	0.15745588
87	0x3f7cce81	0.987526
88	0x3d4cb6f4	0.049979165
89	0x3f7fae19	0.99875027
90	0x3c81857e	0.015810724
91	0x3f7ff7cf	0.999875
92	0x3ba3d6dd	0.004999979
93	0x3f7fff2e	0.9999875
94	0x3acf3e33	0.0015811383
95	0x3f7fffeb	0.99999875
96	0xbe8f0f8c	-0.2794155
97	0x3f75cdb8	0.96017027
98	0x3f72784e	0.9471482
99	0xbea43f6d	-0.3207964
100	0x3f108c68	0.5646424
101	0x3f534932	0.8253356
102	0x3e41206e	0.18860027
103	0x3f7b67e3	0.98205394
104	0x3d759cd1	0.059964005
105	0x3f7f8a12	0.99820054
106	0x3c9b6c43	0.018972522
107	0x3f7ff434	0.99982
108	0x3bc49b58	0.0059999637
109	0x3f7ffed2	0.999982
110	0x3af8b108	0.0018973658
111	0x3f7fffe2	0.9999982
112	0x3f283046	0.6569866
113	0x3f40ffbd	0.75390226
114	0x3f4ce86e	0.8004216
115	0xbf1974bc	-0.5994375
116	0x3f24eb72	0.6442176
117	0x3f43ccb3	0.7648422
118	0x3e60d350	0.2195561
119	0x3f79c0ea	0.9755999
120	0x3d8f3e32	0.06994285
121	0x3f7f5f81	0.997551
122	0x3cb552a2	0.022134129
123	0x3f7feff2	0.999755
124	0x3be55fc5	0.006999942
125	0x3f7ffe65	0.9999755
126	0x3b1111ed	0.0022135929
127	0x3f7fffd7	0.99999756
128	0x3f7d4695	0.98935825
129	0xbe14fdf6	-0.14550003
130	0x3f13067e	0.5743178
131	0xbf5191e5	-0.8186324
132	0x3f37a4a5	0.717356
133	0x3f325b5f	0.6967067
134	0x3e802651	0.25029233
135	0x3f77da02	0.9681703
136	0x3da3aa50	0.07991469
137	0x3f7f2e65	0.9968017
138	0x3ccf388a	0.025295515
139	0x3f7feb08	0.99968004
140	0x3c031212	0.007999914
141	0x3f7ffde7	0.999968
142	0x3b25cb55	0.0025298197
143	0x3f7fffca	0.9999968
144	0x3ed30132	0.4121185
145	0xbf693fd5	-0.91113025
146	0x3e951fee	0.29125923
147	0xbf74e6a2	-0.9566442
148	0x3f48881c	0.78332686
149	0x3f1f21d5	0.62161
150	0x3e8fc22d	0.28077832
151	0x3f75b3a9	0.95977265
152	0x3db8123e	0.089878544
153	0x3f7ef6c2	0.9959527
154	0x3ce91dea	0.028456647
155	0x3f7fe576	0.99959505
156	0x3c13743a	0.008999879
157	0x3f7ffd59	0.9999595
158	0x3b3a84bc	0.0028460464
159	0x3f7fffbc	0.99999595
160	0xbf0b44f8	-0.5440211
161	0xbf56cd64	-0.8390715
162	0xbca97097	-0.02068357
163	0xbf7ff1fb	-0.9997861
164	0x3f576aa4	0.84147096
165	0x3f0a5141	0.54030234
166	0x3e9f393d	0.31098357
167	0x3f734e6b	0.9504153
168	0x3dcc7576	0.099833414
169	0x3f7eb898	0.9950042
170	0x3d018159	0.031617496
171	0x3f7fdf3c	0.99950004
172	0x3c23d657	0.009999833
173	0x3f7ffcb9	0.99995
174	0x3b4f3e22	0.0031622727
175	0x3f7fffac	0.999995
176	0xbf7fff5c	-0.9999902
177	0x3b910572	0.004425698
178	0xbea9411f	-0.33057496
179	0xbf719b8d	-0.94377977
180	0x3f64262a	0.89120734
181	0x3ee83dc3	0.4535962
182	0x3eae878b	0.34087786
183	0x3f70aae4	0.9401076
184	0x3de0d372	0.1097783
185	0x3f7e73e8	0.9939561
186	0x3d0e7368	0.03477803
187	0x3f7fd85b	0.9993951
188	0x3c343869	0.010999777
189	0x3f7ffc09	0.9999395
190	0x3b63f787	0.003478499
191	0x3f7fff9b	0.999994
192	0xbf095cd8	-0.53657293
193	0x3f5806d0	0.84385395
194	0xbf1b9124	-0.6076834
195	0xbf4b4f56	-0.7941793
196	0x3f6e9a1d	0.9320391
197	0x3eb986f7	0.36235783
198	0x3ebda92c	0.3704313
199	0x3f6dc9c3	0.9288599
200	0x3df52bac	0.119712204
201	0x3f7e28b5	0.99280864
202	0x3d1b6519	0.03793821
203	0x3f7fd0d2	0.9992801
204	0x3c449a70	0.011999711
205	0x3f7ffb48	0.999928
206	0x3b78b0eb	0.0037947248
207	0x3f7fff87	0.9999928
208	0x3ed72022	0.42016703
209	0x3f684e6f	0.9074468
210	0xbf53144c	-0.82452846
211	0xbf10d99d	-0.5658205
212	0x3f76abc0	0.9635582
213	0x3e88f59d	0.26749888
214	0x3ecc9a3f	0.3996143
215	0x3f6aabc3	0.9166834
216	0x3e04bed0	0.12963414
217	0x3f7dd700	0.9915619
218	0x3d285665	0.041098017
219	0x3f7fc8a1	0.9991551
220	0x3c54fc6a	0.012999633
221	0x3f7ffa76	0.9999155
222	0x3b86b526	0.00411095
223	0x3f7fff72	0.99999154
224	0x3f7d9872	0.9906074
225	0x3e0c04d7	0.13673721
226	0xbf75a8b3	-0.9596054
227	0xbe900d0a	-0.28134948
228	0x3f7c466f	0.98544973
229	0x3e2e0be7	0.16996728
230	0x3edb56f4	0.42839777
231	0x3f6751b1	0.90359026
232	0x3e0ee464	0.13954312
233	0x3f7d7ecc	0.990216
234	0x3d354743	0.044257414
235	0x3f7fbfc9	0.99902016
236	0x3c655e55	0.013999541
237	0x3f7ff994	0.999902
238	0x3b9111d6	0.004427175
239	0x3f7fff5c	0.9999902
240	0x3f267944	0.65028787
241	0xbf427ae8	-0.7596879
242	0xbf7fe075	-0.9995187
243	0x3cfe2296	0.031022351
244	0x3f7f5bd5	0.997495
245	0x3d90deba	0.07073732
246	0x3ee9db83	0.45675287
247	0x3f63bc68	0.8895936
248	0x3e19064f	0.14943813
249	0x3f7d201a	0.9887711
250	0x3d4237aa	0.047416367
251	0x3f7fb649	0.9988752
252	0x3c75c032	0.014999436
253	0x3f7ff8a1	0.9998875
254	0x3b9b6e85	0.0047433996
255	0x3f7fff43	0.99998873

enc_embedding.temporal_embedding.embed.weight f4 [16, 4]
0	0x3e9a6aa6	0.3015949
1	0xbecc6992	-0.39924294
2	0x3ebb38fa	0.36566907
3	0x3ef53dde	0.47898763
4	0x3ed5140c	0.41616857
5	0xbe773e24	-0.24144799
6	0x3ea59ff2	0.3234859
7	0xbeafe23a	-0.34352285
8	0xbefbcdc8	-0.49180436
9	0xbca581a0	-0.020203412
10	0xbe60db48	-0.21958649
11	0x3edd909c	0.4327439
12	0xbea7c606	-0.32768267
13	0x3e1cc718	0.15310323
14	0x3e32d094	0.17462379
15	0x3cbda7e0	0.023151338
16	0xbdda0b38	-0.10646671
17	0x3eb2c448	0.34915376
18	0x3e5f8ea0	0.21831751
19	0xbd8fd958	-0.07023877
20	0x3efa39a4	0.488721
21	0x3dc7a428	0.09748107
22	0xbef91546	-0.48649043
23	0xbeea1a62	-0.45723253
24	0xbee582cc	-0.44826353
25	0x3ee659c2	0.44990355
26	0xbeaee77c	-0.34160984
27	0x3ee83074	0.45349467
28	0xbc4a2e00	-0.012340069
29	0xbeee9c08	-0.46603417
30	0x3eb14b78	0.3462789
31	0x3e3f0e68	0.1865784
32	0x3ef998ac	0.48749292
33	0xbee43812	-0.44574028
34	0xbe801b94	-0.2502104
35	0xbe413270	-0.18866897
36	0x3e9b3b30	0.30318594
37	0x3ee2cc68	0.44296575
38	0x3ecb84b2	0.39749676
39	0x3ef0ed9e	0.47056288
40	0x3e03d10c	0.12872714
41	0x3e855bc8	0.26046586
42	0x3ebe188e	0.3712811
43	0x3ec3d59c	0.3824891
44	0x3e197ea0	0.1498971
45	0x3e909a8e	0.28242916
46	0x3c3c8900	0.011507273
47	0x3e94b2fc	0.29042804
48	0xbda2cd30	-0.07949293
49	0xbced3440	-0.028955579
50	0xbcfbfa20	-0.030758917
51	0x3eb9dee8	0.36302876
52	0x3ed85f70	0.42260313
53	0x3ec9719a	0.39344484
54	0xbe875a14	-0.26435912
55	0x3ed0751e	0.40714353
56	0x3e47fb3c	0.19529432
57	0xbdeea000	-0.11651611
58	0xbc8422c0	-0.016129851
59	0xbec8ba30	-0.3920455
60	0x3ef6fabe	0.48238176
61	0xbeedf1b2	-0.4647346
62	0xbef10a62	-0.47078234
63	0x3d96f7f8	0.07371515

encoder.attn_layers.0.attention.query_projection.weight f4 [16, 16]
0	0x3d9419e8	0.07231504
1	0x3c828eb5	0.015937189
2	0x3d154eb3	0.036452007
3	0xba927c1f	-0.0011175907
4	0x3db5a188	0.088687
5	0xbd8c7370	-0.068579555
6	0x3c1d6f75	0.009609093
7	0xba1f2fd3	-0.0006072495
8	0x3d6b5bbc	0.05746053
9	0x3bbec3f3	0.005821699
10	0x3d80f16a	0.06296046
11	0xbd9eacd6	-0.077478096
12	0xbdc27279	-0.0949449
13	0x3d1b6648	0.03793934
14	0xbdbdcc20	-0.092674494
15	0x3d00405a	0.03131137
16	0xbda4c32c	-0.080450386
17	0xbb1effc4	-0.0024261335
18	0x3d698aa9	0.057017002
19	0x3cc477c6	0.023982894
20	0xbd8c1cdd	-0.06841443
21	0x3a47ade7	0.0007617161
22	0xbd2d542f	-0.04231661
23	0xbdeb15b4	-0.11478749
24	0xbd14f2e6	-0.03636446
25	0xbd6f3e5d	-0.058409084
26	0x3db54e83	0.088528655
27	0x3e207d22	0.15672734
28	0x3e0b712b	0.13617389
29	0xb89a654e	-7.362162e-05
30	0xbce1583e	-0.027507897
31	0x3d0f109f	0.03492796
32	0x3be930a6	0.007116395
33	0xbd150103	-0.036377918
34	0x3c50d512	0.012746112
35	0x3da8b179	0.08236975
36	0xbd8d1405	-0.06888584
37	0xbc8e7930	-0.017391771
38	0x3b9b197d	0.004733263
39	0xbcaac6c8	-0.02084674
40	0x3e370df7	0.17876421
41	0xbdf2a390	-0.11847603
42	0x3efff84f	0.49994132
43	0xbd51e76c	-0.05124609
44	0xbf70a040	-0.9399452
45	0x3d07742e	0.033069782
46	0x3cb760a2	0.022384945
47	0x3e032d33	0.12810211
48	0xbc72d09e	-0.014820246
49	0x3c679a8f	0.014135971
50	0xbe0b04e4	-0.13576084
51	0xbe224d5d	-0.15849824
52	0x3df8906a	0.1213692
53	0x3d834fd7	0.064117126
54	0x3d70fcec	0.058834955
55	0x3d58e1ee	0.05294984
56	0xbda51a8b	-0.08061703
57	0x3e10a7db	0.14126532
58	0x3e690019	0.22753944
59	0x3e2d71e6	0.1693798
60	0xbfa49e5c	-1.2860827
61	0x3d154943	0.03644682
62	0x3da27166	0.07931785
63	0xbce51e0c	-0.027968429
64	0x3cfd7c26	0.030942988
65	0xbce0485f	-0.02737826
66	0xbdc03f48	-0.0938707
67	0x3d757dc1	0.05993438
68	0x3d243a6e	0.040094785
69	0x3c5dcc18	0.013537429
70	0x3a93406d	0.001123441
71	0x3d9de6d5	0.07710043
72	0x3cab0573	0.020876622
73	0x3dec3772	0.11534013
74	0xbe073df6	-0.1320723
75	0x3e0c4a03	0.13700108
76	0x3f96d512	1.1783774
77	0xbcbb01f0	-0.022828072
78	0xbd572e63	-0.052534472
79	0x3c1d27df	0.009592026
80	0xbc6e4953	-0.014543849
81	0xbb28205f	-0.002565406
82	0xbe2021b7	-0.15637861
83	0x3d5cec7a	0.05393646
84	0x3d1b5531	0.03792304
85	0x3c25497c	0.010088321
86	0x3cca298a	0.02467801
87	0x3d963642	0.073345676
88	0x3cdc9751	0.026927622
89	0x3e09a9f7	0.13443743
90	0x3eaf8985	0.34284607
91	0x3dedc006	0.11608891
92	0xbf9baddd	-1.2162434
93	0x3b556333	0.0032560348
94	0x3c215836	0.009847691
95	0xb9f421e2	-0.0004656455
96	0x3dd76797	0.10517805
97	0x3d53f14e	0.051743798
98	0x3d8ea690	0.06965363
99	0x3e3f5629	0.18685211
100	0x3c9691f4	0.018380143
101	0x3d74687d	0.05966996
102	0x3dfd53cb	0.12369498
103	0x3db083b7	0.086188726
104	0xbe2d99b1	-0.1695316
105	0xba8b0742	-0.0010607021
106	0x3d0b400c	0.033996627
107	0xbde5c4f2	-0.11219205
108	0x3d58bdbd	0.052915324
109	0xbe822465	-0.25418392
110	0xbbfb897b	-0.007676301
111	0xbee6e392	-0.45095497
112	0x3d3bec59	0.045879696
113	0x3de0a1ac	0.109683365
114	0x3b89ae78	0.0042017065
115	0x3de373f8	0.11106104
116	0xbd844a54	-0.064594895
117	0x3daff78c	0.08592138
118	0x3d55ed45	0.05222823
119	0x3dae3700	0.08506584
120	0xbd769e20	-0.060209394
121	0x3dd207d8	0.10255402
122	0xbd1e4605	-0.038640995
123	0xbd027b0c	-0.031855628
124	0xbe0ca049	-0.13733019
125	0xbde98664	-0.11402586
126	0x3dc6e0f8	0.09710878
127	0xbe1d33af	-0.15351747
128	0x3c9e5af8	0.019330487
129	0xbda2c93d	-0.079485394
130	0x3d837b36	0.06419985
131	0x3df44021	0.11926294
132	0x3cacfd57	0.021116896
133	0x3e2824d6	0.16420302
134	0xbd9c0e94	-0.07619968
135	0x3e39721e	0.18109939
136	0x3d627f2a	0.055297054
137	0x3e18bfbe	0.14916894
138	0x3e8233b0	0.2543006
139	0x3e9759a7	0.29560587
140	0x3e974c49	0.29550388
141	0xbeac0f7a	-0.33605558
142	0x3dddf5ba	0.10837884
143	0xbf0e5e47	-0.55612606
144	0x3c1ef557	0.009702048
145	0xbd8c9a25	-0.06865338
146	0x3d8addc5	0.067805804
147	0xbd025359	-0.031817768
148	0xbc7918ee	-0.015203698
149	0xbc2ab683	-0.010419491
150	0xbdc0572b	-0.09391626
151	0xbd10d9de	-0.035364024
152	0xbc6c5ebd	-0.014426884
153	0x3d787769	0.060660753
154	0xbc1dc2dd	-0.009628979
155	0xbd43c87b	-0.047798615
156	0xbedad25a	-0.4273861
157	0xbc8e7842	-0.017391328
158	0xbdb6b98d	-0.0892211
159	0x3ed332f8	0.41249824
160	0xbd76e8e9	-0.060280714
161	0x3e49428f	0.19654296
162	0x3be9c207	0.0071337256
163	0xbe8b8d9a	-0.2725647
164	0xbe7c5d8f	-0.24645065
165	0xbbcf8ae7	-0.006333697
166	0x3e24ac8f	0.16081451
167	0x3ce45b3e	0.027875539
168	0x3d481d99	0.04885635
169	0x3e2dac32	0.16960219
170	0xbd8f49ae	-0.06996475
171	0x3d642982	0.055703647
172	0xbe0ed1d3	-0.13947229
173	0xbccdda5f	-0.025128542
174	0xbe5b6ea5	-0.21428926
175	0x3ebcf7d3	0.36907825
176	0x3e31fd0d	0.17381687
177	0x3e46f944	0.19431025
178	0x3e0ca8f2	0.13736323
179	0x3db5924f	0.08865797
180	0x3d7d911b	0.06190596
181	0x3dd3e10c	0.10345659
182	0x3c9a8442	0.018861894
183	0x3d15fd7c	0.036618695
184	0xbe20a606	-0.15688333
185	0xbdebd62a	-0.11515458
186	0x3bea6fdc	0.007154448
187	0xbdf6541a	-0.1202776
188	0xbc71ba49	-0.0147538865
189	0xbd161d40	-0.03664899
190	0xbe241def	-0.16027044
191	0x3e9babc9	0.304045
192	0x3d4066d9	0.046973083
193	0xbd1ac89e	-0.03778898
194	0xbda3f1ee	-0.08005129
195	0x3c8942e5	0.01675553
196	0xbdb1e5d2	-0.08686413
197	0x3dce09d0	0.10060465
198	0xbd3130f0	-0.04325956
199	0x3dc0cc43	0.0941396
200	0xbe1bbcd3	-0.1520875
201	0xbd06ad17	-0.032879915
202	0xbdb94e53	-0.09048142
203	0x3d823220	0.06357217
204	0xbd9b9971	-0.07597626
205	0x3daa07d6	0.08302276
206	0x3f9390bf	1.1528548
207	0xbdcc34f6	-0.09971039
208	0x3d8860cd	0.06659088
209	0xbca96b0d	-0.020680929
210	0xbdc5815a	-0.096438125
211	0x3c92ee7f	0.01793599
212	0xbca45b82	-0.020063166
213	0x3dd95573	0.10612001
214	0xbd63935f	-0.055560466
215	0x3d9643e0	0.07337165
216	0xbde8e3a7	-0.11371546
217	0xbde95de2	-0.1139486
218	0xbda2e22e	-0.079532966
219	0x3dbb360b	0.09141167
220	0xbd8ba4c8	-0.06818539
221	0x3c5050ef	0.012714609
222	0xbfaff871	-1.3747693
223	0xbcdf99eb	-0.027295073
224	0xbca057dd	-0.019573146
225	0xbd4fc673	-0.050726365
226	0x3c0d8e29	0.008639851
227	0x3ccc00c3	0.024902707
228	0x3da7603c	0.08172652
229	0x3d7bf667	0.061514284
230	0x3c9f5e2a	0.01945408
231	0xbd353f6c	-0.044249937
232	0xbd851287	-0.064976744
233	0x3d7fb5d7	0.062429275
234	0xbcc45049	-0.023964064
235	0xba0fd7fa	-0.00054872
236	0xbddf8346	-0.1091371
237	0xbe1689c9	-0.14700998
238	0x3e9282d3	0.28615436
239	0xbdb0757a	-0.08616157
240	0x3d910fc2	0.07083084
241	0x3cd2dcdd	0.025740081
242	0x3c8749e4	0.016514726
243	0x3da488f6	0.08033936
244	0x3d10a063	0.035309207
245	0xbcda57f3	-0.026653266
246	0x3d1bdfdb	0.038055282
247	0x3d4c73bf	0.04991507
248	0xbd10df83	-0.035369407
249	0xbd92731d	-0.07150862
250	0xbc8e9bd4	-0.017408289
251	0xbde2b7c4	-0.11070207
252	0xbd2b12f6	-0.04176613
253	0xbe99ab6d	-0.300136
254	0x3e44598a	0.19174781
255	0xbdd35c63	-0.10320356

encoder.attn_layers.0.attention.query_projection.bias f4 [16]
0	0x3e8e8cda	0.27841836
1	0xbdf9e426	-0.12201719
2	0x3ca3f03c	0.020012014
3	0xbd8792f0	-0.06619823
4	0xbde2d4c6	-0.110757396
5	0x3c9f57d4	0.01945106
6	0x3f853264	1.0406003
7	0x3ed91bbe	0.42403978
8	0x3f19fe95	0.60154086
9	0xbfa87de7	-1.3163422
10	0x3ead4863	0.3384429
11	0x3f501a39	0.8129001
12	0xbe439106	-0.19098291
13	0x3deba267	0.11505585
14	0x3f1354c9	0.57551247
15	0x3ebc8b9c	0.36825264

encoder.attn_layers.0.attention.key_projection.weight f4 [16, 16]
0	0xb801cb31	-3.0945233e-05
1	0xbb5cf569	-0.0033715612
2	0x3d01cd2c	0.031689808
3	0xbc6b14b6	-0.0143482
4	0xbcec81ff	-0.02887058
5	0xbcd49bc5	-0.025953183
6	0xbd25115f	-0.04029977
7	0xbd054aeb	-0.03254215
8	0xbc0a2e0f	-0.008433833
9	0x3cd659cd	0.026165867
10	0xbc4da4ad	-0.012551469
11	0xbe0428e6	-0.12906227
12	0x3cba3af0	0.022733182
13	0xbd511875	-0.051048715
14	0x3d21d923	0.03951372
15	0xbc425ebf	-0.01186341
16	0xbd019779	-0.031638596
17	0xbd0cdc43	-0.034389745
18	0x3c8b3c04	0.016996391
19	0x3c368bab	0.011141698
20	0x3dd0b753	0.10191216
21	0xbc2e0875	-0.0106221335
22	0xbd0bc37b	-0.03412197
23	0xbc741864	-0.014898393
24	0x3d5d7288	0.054064304
25	0x3cd52436	0.026018243
26	0x3cb8ed3f	0.022574065
27	0x3bff97bf	0.007800072
28	0xbcb4a80b	-0.022052785
29	0x3dafdb73	0.085867785
30	0xba945dc1	-0.0011319445
31	0xbd0b1a8e	-0.03396087
32	0x3cf785d6	0.030215185
33	0x3c00d840	0.007864058
34	0x3d8b1d29	0.06792671
35	0xbdc3fa80	-0.095692635
36	0xbcbd11e2	-0.023079816
37	0x3d3e2172	0.046418615
38	0xbd30aa3b	-0.043131094
39	0x3e1bbb90	0.15208268
40	0xbe430680	-0.19045448
41	0x3e213245	0.15741833
42	0xbcaa5296	-0.020791333
43	0xbea931e3	-0.33045873
44	0x3e61cd03	0.22050862
45	0xbedcd84a	-0.43133765
46	0xbe2bb9a0	-0.16770029
47	0x3de8e2bd	0.11371372
48	0x3bb58110	0.005539067
49	0xbd7d2b80	-0.061809063
50	0xbb72ac1c	-0.0037028855
51	0xbc181b8f	-0.009283914
52	0xbc3ee653	-0.011651593
53	0xbda1f72e	-0.07908474
54	0xbe1c786c	-0.15280312
55	0xbe9eff1c	-0.31054008
56	0x3d44009c	0.047852144
57	0xbda636c9	-0.08115918
58	0x3c8b530d	0.017007375
59	0xbef05bfb	-0.46945176
60	0x3ea81032	0.32824856
61	0xbe96ed94	-0.29478133
62	0x3e6d0a04	0.23148352
63	0xbdaaee67	-0.08346253
64	0xbd71c4fa	-0.059025742
65	0x3c6b7941	0.014372171
66	0x3d7f6fb2	0.06236238
67	0x3c014d5b	0.007891978
68	0x3d622d3c	0.05521892
69	0x3c9205aa	0.017824966
70	0x3cbcbfb3	0.023040628
71	0x3cb6614f	0.022263197
72	0xbe82af0a	-0.2552417
73	0x3dd2f650	0.10300887
74	0xbcbec281	-0.023286106
75	0x3eaef6cc	0.34172666
76	0xbd8614c8	-0.065469325
77	0x3c0f4e6e	0.008746726
78	0x3d2db1ac	0.04240577
79	0x3dce9c7f	0.10088443
80	0xbd7b3e36	-0.061338626
81	0x3caf3e87	0.02139212
82	0xba0c1107	-0.00053431134
83	0xbb8bb7c2	-0.004263849
84	0x3de2c950	0.110735536
85	0x3cbc6052	0.022995148
86	0x3d03655f	0.032079097
87	0x3d09117a	0.033463933
88	0x3f0772f6	0.5290979
89	0x3ca7dc1c	0.020490699
90	0xbccdad3d	-0.02510702
91	0xbdb01f05	-0.085996665
92	0xbd44fc13	-0.04809196
93	0x3c96e128	0.01841791
94	0x3cac9b7d	0.021070236
95	0x3ccd30bb	0.02504765
96	0x3cceac83	0.025228744
97	0xbc50240a	-0.012703905
98	0xbbad9900	-0.00529778
99	0x3ba4220e	0.0050089424
100	0xbf34b8fa	-0.7059475
101	0x3bf0eb17	0.0073522436
102	0x3bab59f1	0.0052292277
103	0x3cd04f01	0.025428297
104	0x3d69f00d	0.057113696
105	0x3c352548	0.011056252
106	0x3cebfdd0	0.02880755
107	0xbd2cbcc5	-0.042172212
108	0xba4c6b5a	-0.0007797979
109	0x3d23249a	0.039829828
110	0x3cc6221b	0.024186185
111	0xbd8c2e00	-0.06844711
112	0x3d4585bc	0.048223242
113	0xbcac844c	-0.021059178
114	0x3c497ca5	0.012297784
115	0xbbdeb405	-0.0067963623
116	0xbed6cc05	-0.4195253
117	0xbc8aac46	-0.01692785
118	0xbaccaced	-0.0015615501
119	0xbbfcf206	-0.007719281
120	0x3c76275c	0.015024032
121	0x3c10ea21	0.008844883
122	0xbcd63c17	-0.0261517
123	0xbd5f57de	-0.054527156
124	0xbcae6e03	-0.021292692
125	0xbc7c0057	-0.01538094
126	0x3ca01823	0.01954276
127	0xbd1d6b76	-0.03843256
128	0xbd93bbc3	-0.07213547
129	0x3b4b4092	0.0031013829
130	0x3c5306cd	0.012880039
131	0x3cd171e0	0.025566995
132	0x3cf6f60b	0.03014662
133	0xbda8d686	-0.08244042
134	0xbd3b7946	-0.045769952
135	0xbe120151	-0.14258315
136	0xbc5b4187	-0.013382322
137	0x3d2e8e05	0.04261591
138	0x3d9d5255	0.07681719
139	0xbd86ca00	-0.06581497
140	0xbc20a383	-0.009804609
141	0xbef8338b	-0.48476824
142	0x3db53c31	0.08849371
143	0x3cfd946d	0.030954564
144	0x3cf25f55	0.029586473
145	0x3c978c9c	0.018499665
146	0xbd5c75ae	-0.053823166
147	0xbd0f7a38	-0.035028666
148	0xbbb7a712	-0.005604633
149	0x3dc48c90	0.09597123
150	0x3d2dcd32	0.042432018
151	0x3e6d04bb	0.23146336
152	0x3d9cbba8	0.0765298
153	0xbd176583	-0.036962043
154	0x3e913125	0.28357807
155	0x3e33f6ba	0.17574587
156	0xbdae5a85	-0.08513359
157	0x3f0d0561	0.5508633
158	0xbdb3e5cd	-0.087840654
159	0xbde5031c	-0.11182234
160	0xbc9a1249	-0.018807547
161	0x3c0ce488	0.008599408
162	0xbc4ba4ff	-0.012429475
163	0x3cc6c7f7	0.024265273
164	0xbdd92661	-0.10603023
165	0x3d26ded2	0.04073984
166	0xbd064fdb	-0.032791
167	0xbd97aa6f	-0.074055545
168	0xbdc36462	-0.09540631
169	0x3c92836b	0.01788493
170	0xbd3636fb	-0.044486027
171	0x3cb13cf9	0.02163552
172	0x39c82d1c	0.00038180582
173	0x3c38b3d8	0.011273347
174	0x3f0cedfb	0.5505063
175	0x3ddb333a	0.1070313
176	0x3c448488	0.011994489
177	0xbb0911fe	-0.0020915265
178	0x3c1771d7	0.00924345
179	0xbc9c8cd6	-0.019110125
180	0x3df5464a	0.11976297
181	0xbd75848d	-0.059940863
182	0x3c493edc	0.012283053
183	0x3d354a82	0.04426051
184	0x3d91044f	0.070809
185	0xbcf4161b	-0.029795697
186	0x3cf2e62a	0.029650766
187	0xbd1ad0f1	-0.03779692
188	0xbbe2ba47	-0.0069191786
189	0xbb98713f	-0.004652172
190	0x3f65db11	0.89787394
191	0xbd49c050	-0.04925567
192	0x3d3ab7ae	0.045585327
193	0xbc2a73d9	-0.010403597
194	0x3c73a087	0.014869816
195	0x3c5714d7	0.013127527
196	0x3d98c34f	0.07459127
197	0xbb5821ac	-0.0032979054
198	0xbd46cb7e	-0.04853391
199	0xbc00df45	-0.007865732
200	0x3bfd1378	0.007723268
201	0x3c964cb2	0.018347118
202	0x3ea68d73	0.32529792
203	0xbd786e19	-0.060651872
204	0x3d02232a	0.031771816
205	0xbde8784f	-0.11351072
206	0xbda1b236	-0.07895319
207	0x3c17124d	0.009220672
208	0x3cbd663b	0.023120036
209	0xbbe5b78e	-0.007010407
210	0x3bc3e71d	0.0059784786
211	0x3c4a2d3f	0.012339889
212	0x3cf37e3b	0.029723277
213	0x3aee2d30	0.0018171426
214	0xbc19dc90	-0.009390965
215	0x3bbbdd0d	0.0057331384
216	0x3bf4988c	0.007464474
217	0x3c2ae11a	0.010429645
218	0xbe9659a9	-0.2936528
219	0xbc38d1e0	-0.011280507
220	0x3c8426d0	0.016131788
221	0xbda45186	-0.08023362
222	0xbd2fb654	-0.04289849
223	0x3d759404	0.05995561
224	0x3c8d484f	0.017246393
225	0xbb651357	-0.0034954154
226	0xbb3c06e9	-0.0028690642
227	0x3b0bf217	0.0021354014
228	0x3d4614f1	0.048359815
229	0x3bbeba10	0.00582052
230	0x3c416869	0.0118046785
231	0xb9920d61	-0.00027857258
232	0x3d192a33	0.03739376
233	0xbc24de00	-0.010062695
234	0x3d3685bd	0.044561137
235	0x3dc3b96e	0.09556852
236	0xbcbc4d0e	-0.022985961
237	0x3d1d705a	0.038437225
238	0xbccff1ee	-0.025383916
239	0xbcf6829a	-0.030091573
240	0x3df7ecf7	0.12105744
241	0x3c911528	0.017710283
242	0x3d44b675	0.048025567
243	0xbb8993d3	-0.00419853
244	0x3ee431d4	0.44569266
245	0x3d4462f6	0.04794594
246	0xbd2b130a	-0.041766204
247	0x3e036366	0.12830886
248	0x3d5feadc	0.05466734
249	0x3d278379	0.040896866
250	0x3d0a80d3	0.033814263
251	0x3d570367	0.05249348
252	0xbc1970d3	-0.009365278
253	0xbc4bfecd	-0.012450886
254	0x3cf2c80d	0.029636407
255	0x3da79e03	0.08184435

encoder.attn_layers.0.attention.key_projection.bias f4 [16]
0	0xbe717a7e	-0.23581883
1	0x3e3a9b9b	0.18223421
2	0xbd828af8	-0.063741624
3	0x3d811603	0.063030265
4	0x3d8fc58b	0.070201
5	0xbe0ce166	-0.13757858
6	0x3bcac479	0.006187972
7	0xbe003c49	-0.12522997
8	0x3deb89a9	0.11500866
9	0xbe84e2eb	-0.25954375
10	0x3dc759be	0.09733914
11	0xbe5e0850	-0.21682858
12	0x3dee0382	0.11621763
13	0x3e018f6c	0.12652367
14	0x3e1d181f	0.15341233
15	0x3e80ebc9	0.2517989

encoder.attn_layers.0.attention.value_projection.weight f4 [16, 16]
0	0xbe7b3d98	-0.24535215
1	0xbe8911c4	-0.26771367
2	0xbd80e467	-0.06293564
3	0x3e4cb842	0.19992164
4	0x3e914cec	0.28379
5	0xbcf7061e	-0.030154284
6	0x3e1e5e90	0.1546576
7	0x3de1df40	0.1102891
8	0x3e0cca40	0.13749027
9	0xb904f639	-0.00012680226
10	0x3e0f08b0	0.13968158
11	0x3e19b93d	0.15012069
12	0xbe5d6ad5	-0.21622784
13	0x3e46ca8a	0.194132
14	0x3eb918e1	0.36151794
15	0xbe82db5d	-0.25557986
16	0xbe20c1a2	-0.15698865
17	0xbe08c671	-0.1335695
18	0x3e5d8e10	0.21636224
19	0x3e021832	0.12704542
20	0x3efad116	0.48987645
21	0xbe3ad3c3	-0.18244843
22	0xbe33e34b	-0.17567174
23	0xbdaca9de	-0.08430837
24	0x3d23c344	0.03998114
25	0x3e01afd4	0.1266473
26	0x3d37d9db	0.044885498
27	0xbed6cf98	-0.41955256
28	0xbce511fa	-0.027962673
29	0xbe0f4f58	-0.13995111
30	0x3e22f448	0.15913498
31	0xbd967b50	-0.07347739
32	0x3d0a9f2f	0.033843216
33	0x3c25d867	0.010122395
34	0x3cb2281d	0.021747643
35	0x3cba315c	0.022728615
36	0x3c6b9ae8	0.014380194
37	0xbd0ea672	-0.034826703
38	0xbd05d418	-0.03267297
39	0xbdbc41a5	-0.09192208
40	0x3c95f3c2	0.01830471
41	0xbc1203f9	-0.00891208
42	0xbd0941b3	-0.03350992
43	0xbd78c819	-0.060737703
44	0x3d50cd3a	0.05097697
45	0xbdb11dd5	-0.08648268
46	0x3dc7f1aa	0.09762891
47	0xbc7bf613	-0.015378493
48	0x3cbd8339	0.02313386
49	0xbca4ce0f	-0.020117788
50	0x3a28973a	0.0006431226
51	0xbd7ae5d4	-0.061254337
52	0xbcc8bb3e	-0.024503347
53	0x3d05636e	0.032565527
54	0xbc60f120	-0.013729364
55	0x3d63983b	0.0555651
56	0xbd7ac0b4	-0.061218932
57	0x3cf5ee2a	0.030020792
58	0x3d052fc4	0.032516256
59	0xbe27389d	-0.1633019
60	0x3ce3e883	0.027820831
61	0xbd5bf813	-0.05370338
62	0xbcfe713a	-0.03105985
63	0x3d5052fb	0.050860386
64	0x3d387fe2	0.045043834
65	0xbc9eca1a	-0.019383479
66	0xbcd361ce	-0.025803473
67	0xbd33eb02	-0.043925293
68	0x3d8ec8a4	0.06971863
69	0x3d175dce	0.036954693
70	0x3cbcf23b	0.023064723
71	0x3d5ad411	0.0534249
72	0x3ea19339	0.31557634
73	0xbca0d561	-0.019632997
74	0x3c11083a	0.008852059
75	0xbe0d35f2	-0.1379011
76	0xbd144a45	-0.03620364
77	0xbd78a6b6	-0.060705863
78	0xbd4989ef	-0.04920381
79	0xbe50515e	-0.20343539
80	0xbcd1b65e	-0.025599655
81	0x3c33546f	0.0109454235
82	0xbb68aa31	-0.0035501833
83	0x3b2799d2	0.0025573862
84	0xbd222e7e	-0.03959512
85	0xb98a898e	-0.00026423897
86	0xbad494f6	-0.001621871
87	0xbcb02f9b	-0.021507075
88	0xbedb994e	-0.428904
89	0xbc8eb727	-0.017421318
90	0xba9db69b	-0.001203257
91	0x3d9cfec3	0.076657794
92	0xb962730e	-0.00021595901
93	0xbcf44b02	-0.029820923
94	0xbc3b673b	-0.011438186
95	0xbd4803db	-0.0488318
96	0x3e25b118	0.16180837
97	0xbd196f67	-0.037459757
98	0x3e05568d	0.13021298
99	0xbe4bc197	-0.19898067
100	0x3f8d7c55	1.1053568
101	0x3d66c3da	0.056339122
102	0xbdbaf5db	-0.091289245
103	0xbd653cd8	-0.05596623
104	0xbe6d338e	-0.23164198
105	0x3c79f530	0.015256211
106	0xbe619892	-0.22030857
107	0xbe9f6085	-0.31128326
108	0x3df17583	0.11789992
109	0xbea3aae9	-0.31966332
110	0xbd694780	-0.056952953
111	0xbcb94c6d	-0.02261945
112	0x3ec04653	0.37553653
113	0xbdfd52ba	-0.123692945
114	0x3e3259ff	0.17417143
115	0xbe417351	-0.18891646
116	0xbfe4f5d6	-1.7887523
117	0xbcfb0e5b	-0.030646494
118	0xbd90b1bd	-0.07065151
119	0x3c8f39ae	0.017483559
120	0x3d24cbb6	0.040233336
121	0xbbef76e7	-0.0073078754
122	0xbdde92cf	-0.10867845
123	0xbc5e8c21	-0.013583214
124	0x3e802aa3	0.2503253
125	0x3e7f80d3	0.24951486
126	0x3c291108	0.010319002
127	0x3ecb94cf	0.3976197
128	0xbd817a30	-0.063221335
129	0x3c60dc4b	0.013724397
130	0x3c864205	0.016388902
131	0x3d2b7441	0.041858915
132	0xbd8c0156	-0.06836192
133	0xbd8eaa96	-0.069661304
134	0xbc2fd11e	-0.01073101
135	0xbde400ef	-0.111329906
136	0xbc8b64ef	-0.017015902
137	0x3abc4531	0.0014363882
138	0x3e126771	0.14297272
139	0x3e2c022f	0.16797708
140	0x3ca9bc84	0.020719774
141	0x3d8195b2	0.0632738
142	0xbdee3938	-0.11632007
143	0x3db9896b	0.090594135
144	0xbd7823dd	-0.060581077
145	0x3ca83bdf	0.020536361
146	0x3caebf78	0.021331534
147	0x3d08cce0	0.03339851
148	0xbd9f060f	-0.077648275
149	0xbd954a44	-0.07289556
150	0xbcc2f24c	-0.023797177
151	0xbe1edf19	-0.15514793
152	0xbce36d6f	-0.027762143
153	0x3c931bbe	0.017957564
154	0x3d28e263	0.041231524
155	0x3d35693d	0.044289816
156	0x3cf714c9	0.030161278
157	0xbdf54cf6	-0.1197757
158	0xbd9e9db4	-0.07744923
159	0x3ce37019	0.027763413
160	0xbcd3b374	-0.025842406
161	0x3cee9c37	0.029127223
162	0x3c9a6823	0.018848484
163	0xbb846568	-0.004040409
164	0xbdad4230	-0.0845989
165	0xbbf3906a	-0.007432987
166	0xbcc76916	-0.024342101
167	0xbd716f82	-0.058944233
168	0xbe4ddd1f	-0.20103882
169	0x3c888c52	0.016668472
170	0xbd17e477	-0.037083115
171	0x3ccfce0a	0.025366802
172	0x3d411c8f	0.047146376
173	0xbd52c9a0	-0.051461816
174	0xbd02090e	-0.031746916
175	0x3d38d996	0.04512938
176	0xbcc69f61	-0.02424592
177	0xbc28053b	-0.010255153
178	0xbc364399	-0.011124515
179	0x3ad46a91	0.0016206076
180	0x3c3d1f6c	0.011543136
181	0x3b74484f	0.0037274545
182	0x3c63d918	0.01390674
183	0x3be5874f	0.0070046554
184	0x3d637bf2	0.055538125
185	0xbc76f730	-0.0150735825
186	0x3ca43caf	0.020048467
187	0x399fb13f	0.00030458902
188	0xbc002e29	-0.007823505
189	0xbc950507	-0.018190874
190	0x3f2bbb1e	0.67082393
191	0xbd75d8c4	-0.060021177
192	0x3cb2684c	0.021778248
193	0xbca97174	-0.020683981
194	0x3c828590	0.015932828
195	0xbc111bc3	-0.008856717
196	0xbc440425	-0.011963879
197	0xbce61004	-0.028083809
198	0xbc938f42	-0.018012647
199	0xbd2b34c1	-0.041798357
200	0xbb9e80f9	-0.004837152
201	0x3c81ee95	0.015860835
202	0x3eb70528	0.3574612
203	0xbda03fcc	-0.07824668
204	0x3cfee147	0.03111328
205	0xbd59935d	-0.053119052
206	0x3c003091	0.007824079
207	0x3c3c1b17	0.011481068
208	0xbadedba0	-0.0017002709
209	0xbc8db77d	-0.017299408
210	0x3cd2f467	0.025751306
211	0xbc9a78c5	-0.018856416
212	0x3d1e8d9e	0.038709275
213	0xbc7cae4e	-0.015422417
214	0xbc92aa9e	-0.017903622
215	0xbd6e70c8	-0.058213025
216	0xbc88890f	-0.016666917
217	0x3cf67c7b	0.030088654
218	0xbe0cae69	-0.13738407
219	0xbde70eba	-0.11282106
220	0x3cc6a3e9	0.02424808
221	0xbd59040f	-0.052982386
222	0x3da5653e	0.08075951
223	0xbd6f9de9	-0.058500204
224	0xbe92e37f	-0.2868919
225	0x3dba50fc	0.09097478
226	0x3beae3b0	0.0071682557
227	0x3e462c85	0.1935292
228	0xbfb058c4	-1.3777089
229	0xbe3a6184	-0.18201262
230	0xbd10d669	-0.035360727
231	0xbe9573ff	-0.2919006
232	0xbd147701	-0.036246303
233	0xbddb3b64	-0.10704687
234	0xbd13162a	-0.03590981
235	0xbe5887c0	-0.21145535
236	0x3d3f40ca	0.046692647
237	0xbd954224	-0.07288006
238	0xbe3ef7b7	-0.18649183
239	0xbe5ffb99	-0.2187332
240	0x3f025a71	0.5091925
241	0xbdecca08	-0.11561972
242	0x3e64fbd3	0.22361688
243	0xbeab9372	-0.3351093
244	0x3df38788	0.11891085
245	0x3e01cf6b	0.1267678
246	0xbdf5cc83	-0.12001898
247	0x3e83a310	0.25710344
248	0xbe02ae4d	-0.12761803
249	0x3deb3495	0.114846386
250	0xbdcee1f7	-0.10101693
251	0xbe3acea7	-0.18242894
252	0x3e960d8d	0.29307213
253	0xbe5f09bc	-0.21781057
254	0x3eb73c03	0.35787973
255	0x3e389a9e	0.18027732

encoder.attn_layers.0.attention.value_projection.bias f4 [16]
0	0x3d00aacc	0.031412885
1	0xbbe90f71	-0.0071124365
2	0xbe803e4c	-0.2504753
3	0xbe7ed1e8	-0.2488476
4	0xbea52ce7	-0.3226082
5	0xbf712929	-0.9420343
6	0xbdd96f76	-0.106169626
7	0x3ec8a89e	0.39191145
8	0x3f985d3e	1.1903455
9	0xbf9eb02e	-1.2397516
10	0x3dd98a60	0.10622096
11	0xbe998d2d	-0.2999052
12	0x3e3f2241	0.1866541
13	0xbe1ac179	-0.15112866
14	0xbe9ee023	-0.31030378
15	0xbd401113	-0.046891283

encoder.attn_layers.0.attention.out_projection.weight f4 [16, 16]
0	0x3e5ece66	0.21758422
1	0xbf296e06	-0.6618351
2	0x3db08cfd	0.086206414
3	0xbd86b99b	-0.0657837
4	0x3d6c10e8	0.05763331
5	0xbedeadc0	-0.43491936
6	0x3dec4726	0.11537008
7	0xbe934c58	-0.28769183
8	0x3edbbd93	0.4291807
9	0xbeb93190	-0.36170626
10	0x3db805ed	0.08985505
11	0xbea18631	-0.31547692
12	0x3e613999	0.21994628
13	0xbd5dabd2	-0.05411894
14	0x3d53ab40	0.05167699
15	0x3e8da882	0.27667624
16	0x3f2c0cca	0.67207015
17	0xbe3ea109	-0.18616118
18	0xbcb9e249	-0.022690909
19	0x3e59f0a5	0.21283205
20	0xbce283fa	-0.027650822
21	0x3e270288	0.1630956
22	0xbe1dd2a1	-0.1541238
23	0xbe12429f	-0.14283226
24	0x3eec958a	0.4620784
25	0xbf211220	-0.6291828
26	0xbe98252d	-0.29715863
27	0xbeb82e58	-0.35972857
28	0xbe313a82	-0.17307475
29	0x3e310e86	0.17290697
30	0x3dd902d8	0.105962455
31	0xbdff7a0c	-0.124744505
32	0x3e5e9353	0.21735887
33	0xbef88670	-0.48540068
34	0xbc833b1c	-0.016019396
35	0xbe357891	-0.17721774
36	0x3edf2fff	0.43591306
37	0xbeda1ef6	-0.42601746
38	0x3f234ebc	0.63792014
39	0xbc3888e2	-0.011263104
40	0xbd5810a1	-0.052750234
41	0x3c847294	0.016167916
42	0x3b89500c	0.0041904505
43	0xbde3ccd8	-0.11123055
44	0xbc4c0161	-0.012451501
45	0x3dd279b7	0.102771215
46	0xbd936cff	-0.07198524
47	0xbec36d5b	-0.3816937
48	0x3d81376c	0.06309399
49	0x3e6087e0	0.21926832
50	0x3e099ed7	0.13439499
51	0x3d7ef8df	0.06224906
52	0xbd5f5d41	-0.054532293
53	0xbe2a7057	-0.16644417
54	0x3ef19d72	0.47190434
55	0xbeb60beb	-0.35555968
56	0x3e088da9	0.13335289
57	0xbe0dcb6b	-0.13847129
58	0x3e6cbc4c	0.23118705
59	0xbe053186	-0.13007173
60	0x3d845603	0.06461718
61	0x3d4566de	0.048193805
62	0x3e2fd8ff	0.17172621
63	0xbe35978a	-0.17733589
64	0x3e57593b	0.21030132
65	0xbd982abb	-0.07430025
66	0x3d222583	0.039586555
67	0xbcbe4bf2	-0.023229573
68	0x3d9bf3dd	0.076148726
69	0xbe4fa086	-0.20276079
70	0x3bfefe84	0.0077818055
71	0x3bf31447	0.0074181887
72	0xbe44c3f3	-0.19215374
73	0xbc584b4a	-0.013201544
74	0x3d61a070	0.055084646
75	0xbeaa4b66	-0.3326065
76	0x3f762035	0.96142894
77	0xbf5614eb	-0.8362567
78	0x3ddf5cb6	0.10906355
79	0x3eec0513	0.4609762
80	0xbeb3989c	-0.3507737
81	0x3dc12804	0.094314605
82	0xbe384531	-0.17995144
83	0xbe06e37c	-0.13172716
84	0xbd49579c	-0.049155816
85	0x3dc1874b	0.09449633
86	0x3d43ca69	0.047800455
87	0xbed46ac6	-0.41487712
88	0x3d95af33	0.07308807
89	0xbdceef8c	-0.10104284
90	0x3e619e82	0.22033122
91	0x3daa380e	0.08311473
92	0xbc28df75	-0.010307183
93	0xbe11ec1d	-0.14250226
94	0xbe1eb854	-0.15500003
95	0x3f24059d	0.64071065
96	0x3b3eaff1	0.0029096568
97	0x3bd0f3a1	0.006376699
98	0x3dbfc8ca	0.09364469
99	0x3d949924	0.07255772
100	0xbdad1a38	-0.084522665
101	0xbd37a41d	-0.044834245
102	0x3ed24cba	0.41074163
103	0xbeeefbd5	-0.46676508
104	0x3de1079f	0.10987782
105	0xbd031958	-0.03200659
106	0xbe71b092	-0.23602512
107	0xbe2e5d1e	-0.17027709
108	0xbe22e43f	-0.15907381
109	0x3dc1718f	0.09445488
110	0x3e84dbc8	0.2594893
111	0x3e4ed832	0.2019966
112	0xbdf49f39	-0.11944432
113	0xbe0cee38	-0.13762748
114	0x3e19c3ed	0.15016146
115	0x3daacce1	0.08339859
116	0xbe3e282d	-0.18570013
117	0x3cece1e4	0.028916307
118	0x3dd685c8	0.104747355
119	0xbf6d6176	-0.9272684
120	0x3d9d37e9	0.0767668
121	0xbe9457a4	-0.28973114
122	0xbdea9f36	-0.11456148
123	0xbe3d1a3d	-0.1846704
124	0xbe473f36	-0.19457707
125	0xbddf9e52	-0.10918869
126	0x3ebd2157	0.369395
127	0x3d4334d7	0.047657814
128	0xbe1ad4e3	-0.15120272
129	0xbe2d51d4	-0.16925746
130	0x3e2d350d	0.16914769
131	0x3e020bf7	0.12699877
132	0x3da4569a	0.080243304
133	0x3e615f1b	0.22008936
134	0xbeeeaec1	-0.46617702
135	0x3dcb87f7	0.099380426
136	0xbe84b516	-0.25919408
137	0x3e2c02a0	0.16797876
138	0xbdb092ea	-0.08621772
139	0x3e60b163	0.21942668
140	0x3d82fdcb	0.063960634
141	0x3ccfb8bd	0.025356645
142	0xbe224e9b	-0.15850298
143	0xbdea6d53	-0.11446633
144	0x3e92dae2	0.2868262
145	0xbdd81393	-0.105506085
146	0xbe98ccf4	-0.29843867
147	0xbe27e0f2	-0.16394404
148	0xbf36da4e	-0.71426857
149	0x3efd95f7	0.49528477
150	0x3dc14a5a	0.094380096
151	0xbef226ef	-0.4729533
152	0x3cfdd7f5	0.030986765
153	0xbe3706b7	-0.17873655
154	0xbe87d265	-0.26527706
155	0x3db76d4c	0.089563936
156	0x3e5e539c	0.21711582
157	0xbe5cba5d	-0.21555467
158	0xbeca25c5	-0.3948194
159	0x3d14e21e	0.036348455
160	0xbdbad9b1	-0.091235526
161	0xbc8ec3a4	-0.017427273
162	0x3e0c55a8	0.1370455
163	0x3e0222fd	0.1270866
164	0x3eb3bf5f	0.35106942
165	0xbe548906	-0.20755395
166	0x3e63c835	0.22244342
167	0x3d579d8f	0.052640494
168	0x3d65574a	0.05599145
169	0xbe036beb	-0.12834136
170	0xbcf4db83	-0.029889828
171	0x3e0fc105	0.14038475
172	0xbcd7b000	-0.02632904
173	0xbd61c97b	-0.055123787
174	0x3d121259	0.03566203
175	0xbcb01822	-0.021495882
176	0x3e14de58	0.14537942
177	0x3d5555fd	0.052083958
178	0xbc3f2d2d	-0.011668486
179	0xbcce415b	-0.025177648
180	0x3d74893e	0.059701197
181	0x3e54ac23	0.2076879
182	0xbd63ada6	-0.055585526
183	0x3e2f7a9c	0.17136616
184	0xbe111b1b	-0.14170496
185	0xbd2adb81	-0.04171324
186	0x3b8fbc57	0.0043864655
187	0x3e60025d	0.21875902
188	0x3d8816db	0.06644984
189	0xbcd72ab3	-0.026265478
190	0x3db816f9	0.08988757
191	0x3e20bf9a	0.1569809
192	0xbdc89ee8	-0.09795934
193	0x3decf0da	0.11569376
194	0x3c4c6ea6	0.0124775525
195	0x3da9eba7	0.082969
196	0xbd062d88	-0.032758266
197	0xbdff9850	-0.12480223
198	0x3ec0de7c	0.37669742
199	0x3c6cf400	0.014462471
200	0x3d2c240a	0.042026557
201	0xbd9d8600	-0.07691574
202	0x3d67571e	0.056479566
203	0x3d9bf37c	0.076148
204	0xbc531a67	-0.012884713
205	0xbd05544e	-0.032551102
206	0xbdbce9d5	-0.092242874
207	0xbe1f80b8	-0.15576446
208	0x3b05e800	0.0020432472
209	0x3d532814	0.051551893
210	0x3c6970d4	0.014248092
211	0x3d6bddb5	0.057584483
212	0x3d09be23	0.033628594
213	0x3db6f7cc	0.08933982
214	0xbe67657f	-0.22597311
215	0x3df7d888	0.12101847
216	0xbd5249d1	-0.051339928
217	0x3d8e74be	0.069558606
218	0xbd0f8f95	-0.03504904
219	0xbe221883	-0.15829663
220	0xbdcb5f30	-0.09930265
221	0xbde8e37c	-0.11371514
222	0xbe3b5949	-0.18295778
223	0xbd8ef115	-0.069795765
224	0xbe5bcfae	-0.21465942
225	0x3e23428e	0.15943357
226	0xbe7ee954	-0.24893695
227	0xbea7532b	-0.3268064
228	0xbd10dbc3	-0.03536583
229	0x3dd6c323	0.10486438
230	0xbdd151c6	-0.10220675
231	0xbe342338	-0.1759156
232	0x3d4ea184	0.050447002
233	0xbdb88ed4	-0.09011617
234	0xbd1340e9	-0.035950575
235	0x3d858423	0.06519344
236	0x3d77d74b	0.060508054
237	0x3dbe6623	0.09296825
238	0x3ec8107b	0.39075074
239	0x3d91faf7	0.07127946
240	0x3d59fe7d	0.053221215
241	0xbd8d71ae	-0.06906448
242	0xbc5bee04	-0.013423447
243	0xbd188075	-0.03723188
244	0x3d0b3f76	0.033996068
245	0x3bba5d54	0.005687395
246	0xbe0c919a	-0.13727418
247	0x3e4b5056	0.19854864
248	0xbd3309a3	-0.043710362
249	0x3e05e8ed	0.13077135
250	0x3d079723	0.03310312
251	0x3c3e19a2	0.011602791
252	0xbc0c3c7c	-0.0085593425
253	0x3c8c7272	0.017144416
254	0x3d9160cd	0.070985414
255	0x3cff76b3	0.03118453

encoder.attn_layers.0.attention.out_projection.bias f4 [16]
0	0xbe6bae7b	-0.23015778
1	0xbf0bdfc7	-0.5463833
2	0x3c98ab18	0.018636271
3	0xbf8391d2	-1.0278876
4	0x3ecef7bd	0.40423384
5	0xbec0b687	-0.37639257
6	0xbee1dea3	-0.4411517
7	0xbf76cbc2	-0.9640466
8	0x3e8b40b8	0.27197814
9	0x3d0c96b5	0.034323413
10	0x3c992e14	0.01869873
11	0xbd893de9	-0.067012616
12	0xbe96d3e6	-0.2945854
13	0x3e8e478b	0.27788958
14	0xbe1be3ff	-0.15223692
15	0x3ebca246	0.36842555

encoder.attn_layers.0.conv1.weight f4 [32, 16, 1]
0	0xbe5839a7	-0.21115743
1	0x3e84f09e	0.25964826
2	0xbd8275b6	-0.06370108
3	0xbd0966c9	-0.03354529
4	0xbf57fa3f	-0.8436622
5	0x3da0c04a	0.07849176
6	0x3ee83b55	0.45357767
7	0xbd50a4c6	-0.05093839
8	0xbe9e3020	-0.3089609
9	0xbe326df2	-0.17424753
10	0xbcbad2a4	-0.02280552
11	0x3e687f5f	0.22704838
12	0x3db6f286	0.089329764
13	0xbf23fb20	-0.6405506
14	0x3e5904c8	0.2119323
15	0xbc229551	-0.009923295
16	0x3ed725d0	0.42021036
17	0xbe62d445	-0.22151287
18	0x3e24e58a	0.16103187
19	0x3ebc2265	0.3674499
20	0x3e74efc3	0.23919587
21	0xbeeea019	-0.4660652
22	0xbd495e3f	-0.049162146
23	0xbeef31aa	-0.46717578
24	0xbe55a61f	-0.20864151
25	0xbe93b991	-0.28852513
26	0x3e6235e5	0.22090872
27	0x3e2197d7	0.15780579
28	0xbd3877c9	-0.04503611
29	0xbc792505	-0.01520658
30	0xbf275ddb	-0.6537759
31	0xbec020e0	-0.37525082
32	0x3d7f96b7	0.062399592
33	0xbe32e640	-0.17470646
34	0x3c21fec0	0.009887397
35	0x3ed1d88e	0.4098553
36	0xbe866132	-0.2624603
37	0xbe127e80	-0.14306068
38	0xbde0f324	-0.109838754
39	0x3e8d688c	0.27618825
40	0xbdf21f24	-0.11822346
41	0x3debc273	0.115116976
42	0xbe1f1c37	-0.15538107
43	0xbd712698	-0.058874696
44	0x3f058fb5	0.52172405
45	0xbe9efec1	-0.31053737
46	0x3ec338e8	0.38129354
47	0xbfbf2e9f	-1.4936103
48	0x3e494ffe	0.19659421
49	0xbe116d93	-0.14201955
50	0x3e2533af	0.16132997
51	0x3daa86c8	0.08326489
52	0xbf9f967d	-1.24678
53	0xbe3d9a7c	-0.18515962
54	0x3e1801d1	0.14844443
55	0x3d2ff8bd	0.042961825
56	0x3c9399cf	0.018017678
57	0xbe08bc61	-0.13353111
58	0x3e473acd	0.19456024
59	0x3d55a249	0.05215672
60	0x3e829b45	0.25509086
61	0x3eaaf29f	0.3338823
62	0x3eec102f	0.46106097
63	0xbdcd16fa	-0.10014148
64	0xbb805655	-0.0039165416
65	0xbe1f76aa	-0.1557261
66	0x3e7fbb8a	0.24973884
67	0x3eb936d8	0.36174655
68	0xbe945789	-0.28973034
69	0x3da84e55	0.08218066
70	0xbd88ae6d	-0.06673894
71	0xbda9da23	-0.082935594
72	0x3ecd20e8	0.40064168
73	0xbd7739e5	-0.060357947
74	0xbe985185	-0.29749694
75	0x3f2df0a3	0.6794531
76	0xbf4e89d5	-0.80679065
77	0xbbe80dca	-0.007081722
78	0xbd4c2ab2	-0.049845405
79	0xbec9f0a9	-0.39441422
80	0x3e095edd	0.13415094
81	0x3e75a7fd	0.23989864
82	0xbe439c7a	-0.1910266
83	0xbe05836a	-0.13038412
84	0x3e84908f	0.2589154
85	0xbd89f712	-0.06736578
86	0xbeb662d2	-0.3562227
87	0x3ec8fb53	0.39254245
88	0x3c02f370	0.00799261
89	0xbe93ceae	-0.28868622
90	0xbd94c45b	-0.07264014
91	0x3e679650	0.22615933
92	0x3d6bfd4e	0.057614617
93	0x3d83262d	0.06403766
94	0x3ebae1d7	0.36500427
95	0xbda046ec	-0.07826027
96	0x3f12960e	0.57260215
97	0xbe7e4612	-0.24831417
98	0xbdc71af0	-0.09721935
99	0x3e40fad5	0.18845685
100	0xbe1f0b0f	-0.15531562
101	0x3e699541	0.22810842
102	0xbde9a9a5	-0.1140931
103	0xbf1b2b33	-0.6061279
104	0xbdf204df	-0.11817335
105	0xbd8c1e05	-0.06841663
106	0xbe1bc9df	-0.15213726
107	0xbe9b57a9	-0.30340317
108	0xbcfc4bf4	-0.030797936
109	0x3e6ff432	0.23432997
110	0xbe0853fa	-0.13313285
111	0x3ec7ffd8	0.3906238
112	0xbd63d56a	-0.05562345
113	0x3f200950	0.6251421
114	0x3e8cb03f	0.27478215
115	0x3d32e47b	0.043674927
116	0x3d3b4352	0.0457185
117	0x3da99c2b	0.0828174
118	0x3dc0dd8f	0.09417259
119	0xbe4f5b64	-0.20249707
120	0xbeb8b851	-0.36078122
121	0xbd660a9c	-0.05616246
122	0x3c033000	0.00800705
123	0xbf5a0215	-0.85159427
124	0x3e992bda	0.2991627
125	0x3e8c759c	0.2743348
126	0x3d3d1be0	0.04616916
127	0xbd04e838	-0.032448024
128	0x3d46f264	0.048571005
129	0x3e9e9c22	0.30978495
130	0xbe14d1b8	-0.14533126
131	0xbcdcdbd7	-0.026960297
132	0xbf84e31e	-1.0381811
133	0xbd53c9dc	-0.05170618
134	0x3e8b1060	0.2716093
135	0xbd0ad9db	-0.03389917
136	0x3e43c888	0.19119465
137	0x3ef23620	0.4730692
138	0x3dc1b61b	0.09458562
139	0xbe38b491	-0.1803763
140	0xbed2a54a	-0.4114173
141	0x3e8bb553	0.27286777
142	0xbe972929	-0.2952359
143	0x3c568e83	0.013095501
144	0xbe6bcdfc	-0.23027796
145	0xbe54a417	-0.2076572
146	0xbe927102	-0.28601843
147	0x3f480c33	0.78143615
148	0xbefd9ac0	-0.49532127
149	0xbe53f03c	-0.20697111
150	0x3eeff4a7	0.46866342
151	0xbdd6d094	-0.10489002
152	0xbe46b564	-0.19405133
153	0xbe8dcf2c	-0.27697122
154	0xbc97887f	-0.018497704
155	0x3edb737e	0.4286155
156	0xbe33ad12	-0.1754649
157	0x3bf8742b	0.0075822077
158	0xbe1832c9	-0.14863123
159	0xbf7c3720	-0.98521614
160	0xbf26e2b3	-0.65189666
161	0xbe080d98	-0.13286436
162	0xbe40e7a1	-0.1883836
163	0xbed3483b	-0.41266045
164	0xbd92db20	-0.07170701
165	0xbe2cd05e	-0.16876361
166	0xbea5d531	-0.32389215
167	0xbec450e4	-0.38342965
168	0x3e288747	0.16457854
169	0x3db76077	0.08953946
170	0xbe3888b2	-0.18020895
171	0x3f3130ac	0.6921489
172	0xbebe518e	-0.37171596
173	0x3eac313c	0.33631313
174	0xbe077e41	-0.13231756
175	0xbd3cbaad	-0.046076465
176	0xbe3598fd	-0.17734142
177	0xbf8d94e0	-1.1061058
178	0xbcd3348d	-0.025781894
179	0xbe939376	-0.2882344
180	0xbea4b90b	-0.32172427
181	0xbcefa1bb	-0.029251924
182	0xbe6b62d7	-0.22986923
183	0xbe90369c	-0.28166664
184	0x3e112bfd	0.14176936
185	0xbcf6489f	-0.030063925
186	0xbe469f24	-0.19396645
187	0xbf15644b	-0.5835616
188	0x3edb7beb	0.4286798
189	0x3e86d623	0.26335248
190	0xbba570fb	-0.0050488687
191	0xbdde0b13	-0.10841956
192	0xbdedc272	-0.11609353
193	0x3e7a2f26	0.24432048
194	0xbcdcffc8	-0.026977435
195	0xbe4a044f	-0.19728206
196	0xbeedd164	-0.46448815
197	0xbc85efee	-0.016349759
198	0xbe2d7889	-0.16940512
199	0xbecfc1ae	-0.40577453
200	0xbe05aef6	-0.13055024
201	0xbda984c6	-0.08277278
202	0xbe10089d	-0.14065786
203	0x3f315a25	0.69278175
204	0x3e95f331	0.29287103
205	0xbf0267fb	-0.5093991
206	0xbf0a6f43	-0.5407602
207	0x3f06cf9d	0.5266054
208	0xbf14f179	-0.5818096
209	0xbee95154	-0.4556986
210	0x3e97e708	0.2966845
211	0xbd87d085	-0.06631569
212	0xbe892a92	-0.2679029
213	0xbdbe4aba	-0.09291597
214	0xbd245592	-0.04012067
215	0x3f4d6dc9	0.80245644
216	0xbeaf0115	-0.34180513
217	0xbd106409	-0.03525165
218	0xbdc2ccb2	-0.09511699
219	0x3e213af3	0.15745144
220	0xbea3de3a	-0.32005483
221	0x3dd18aba	0.10231538
222	0x3e958d56	0.29209393
223	0x3da426bc	0.080152005
224	0xbd952d6b	-0.072840534
225	0xbd6828ea	-0.056679644
226	0x3da35dc7	0.07976871
227	0x3eb088ee	0.3447947
228	0xbc2e2d3c	-0.010630902
229	0xbdba3e41	-0.09093905
230	0xbd25f826	-0.040519856
231	0xbdd54650	-0.10413802
232	0xbefef1f0	-0.4979396
233	0x3da10c0c	0.07863626
234	0x3f2697a5	0.6507514
235	0x3dd02d45	0.101648845
236	0x3e905f03	0.28197488
237	0xbe85e3fb	-0.26150498
238	0x3e2da426	0.16957149
239	0xbeebf817	-0.46087715
240	0xbe0d68b7	-0.13809477
241	0x3dccdc98	0.100030124
242	0xbe81d0be	-0.2535457
243	0xbe3a6765	-0.18203504
244	0xbdb292da	-0.08719416
245	0xbf0146cc	-0.5049865
246	0xbc85485a	-0.016269851
247	0xbdb202e1	-0.08691955
248	0xbdbcac4d	-0.09212551
249	0xbd5e912b	-0.05433766
250	0xbe508d5d	-0.20366426
251	0xbe8771b0	-0.26453924
252	0x3f1a115d	0.60182744
253	0x3df5dadf	0.12004637
254	0xbdeee2b6	-0.116643354
255	0x3e93db85	0.28878418

encoder.attn_layers.0.conv1.bias f4 [32]
0	0xbf229805	-0.63513213
1	0xbf5ea624	-0.8697226
2	0xbe9d9605	-0.30778518
3	0xbf397f1d	-0.72459584
4	0xbe63de10	-0.22252679
5	0xbedb3be6	-0.42819136
6	0xbe1dd627	-0.15413724
7	0xbdada16c	-0.084780544
8	0xbe192ecb	-0.14959256
9	0xbf4840f6	-0.7822412
10	0xbf94ea93	-1.1634086
11	0xbf517857	-0.8182425
12	0xbf6b0b7e	-0.9181441
13	0xbed79c95	-0.4211165
14	0xbebfb05d	-0.37439242
15	0xbedecd2a	-0.43515903
16	0xbee8ff16	-0.45507115
17	0xbef7b1ef	-0.4837794
18	0xbda1d368	-0.07901651
19	0xbf067a2d	-0.52530175
20	0xbf2e3c54	-0.68060803
21	0xbf6c5d1b	-0.9232957
22	0xbeb2bbf3	-0.3490902
23	0xbf5bcdcf	-0.85860914
24	0xbf50975b	-0.8148095
25	0xbf0f86d0	-0.5606508
26	0xbf988bf6	-1.1917713
27	0xbe00cc3f	-0.12577914
28	0x3e2da3de	0.16957042
29	0x3e1b7550	0.1518147
30	0xbe06ff23	-0.13183264
31	0xbe90a17f	-0.28248212
