SimMTM-main/SimMTM-main/SimMTM_Forecasting/outputs/pretrain_checkpoints/ETTh2/ckpt_best.pth (torch, 517153 bytes, 61 tensors)

enc_embedding_s.value_embedding.tokenConv.weight f4 [8, 1, 3]
00000000: 4638 2f3f dac6 973e eedd a4be 49d5 f13e
00000010: e326 a9be 729a 78be c270 63bf 4bcc 093f
00000020: 7f4b 8c3f 8c9e a03f 41a1 a5be c2a3 b73e
00000030: 8e30 f93e 3bda 0140 c5be 053f 5c4b adbf
00000040: 902b 5d3f ae66 9f3e 4f9a b73f 009b adbe
00000050: 38bb 0a3f 2f12 503f 209c 64bf 5b7c a33f
0.6844524 0.296439 -0.3220057 0.47233036 -0.3303748 -0.24277666 -0.8884393 0.5382735
1.096054 1.2548385 -0.3234959 0.35867125 0.48669857 2.0289447 0.52244216 -1.3538623
0.86394596 0.31133026 1.4343966 -0.33907318 0.54191923 0.81277746 -0.8930073 1.2772325

enc_embedding_s.position_embedding.pe f4 [1, 5000, 8]
00000000: 0000 0000 0000 803f 0000 0000 0000 803f
00000010: 0000 0000 0000 803f 0000 0000 0000 803f
00000020: a46a 573f 4151 0a3f 7675 cc3d 98b8 7e3f
00000030: 57d6 233c b9fc 7f3f 6d12 833a f8ff 7f3f
00000040: b7c7 683f 3311 d5be f86f 4b3e a5e5 7a3f
00000050: 3ed4 a33c e5f2 7f3f 6812 033b dfff 7f3f
00000060: c381 103e 2670 7dbf 6c4e 973e ef90 743f
00000070: 1fb9 f53c 83e2 7f3f 929b 443b b5ff 7f3f
00000080: cfbd 41bf 3055 27bf d761 c73e a7ca 6b3f
00000090: dbcb 233d 94cb 7f3f 5712 833b 7aff 7f3f
000000a0: 107c 75bf 2c3c 913e 4377 f53e 40a9 603f
000000b0: f4b6 4c3d 19ae 7f3f ddd6 a33b 2eff 7f3f
000000c0: 8c0f 8fbe b8cd 753f 688c 103f 3249 533f
000000d0: d19c 753d 128a 7f3f 589b c43b d2fe 7f3f
000000e0: 4630 283f bdff 403f 72eb 243f b3cc 433f
000000f0: 323e 8f3d 815f 7f3f c55f e53b 65fe 7f3f
00000100: 9546 7d3f f6fd 14be a5a4 373f 5f5b 323f
00000110: 50aa a33d 652e 7f3f 1212 033c e7fd 7f3f
00000120: 3201 d33e d53f 69bf 1c88 483f d521 1f3f
00000130: 3e12 b83d c2f6 7e3f 3a74 133c 59fd 7f3f
00000140: f844 0bbf 64cd 56bf a46a 573f 4151 0a3f
00000150: 7675 cc3d 98b8 7e3f 57d6 233c b9fc 7f3f
00000160: 5cff 7fbf 7205 913b 2a26 643f c33d e83e
00000170: 72d3 e03d e873 7e3f 6938 343c 09fc 7f3f
00000180: d85c 09bf d006 583f 1d9a 6e3f f786 b93e
00000190: ac2b f53d b528 7e3f 709a 443c 48fb 7f3f
000001a0: 2220 d73e 6f4e 683f c0ab 763f 9df5 883e
000001b0: d0be 043e 00d7 7d3f 6afc 543c 76fa 7f3f
000001c0: 7298 7d3f d704 0c3e 6f46 7c3f e70b 2e3e
000001d0: 64e4 0e3e cc7e 7d3f 555e 653c 94f9 7f3f
000001e0: 4479 263f e87a 42bf d55b 7f3f bade 903d
000001f0: 4f06 193e 1a20 7d3f 32c0 753c a1f8 7f3f
00000200: 1068 93be 2c29 75bf 0ee4 7f3f a333 efbc
00000210: 5024 233e edba 7c3f 0011 833c 9df7 7f3f
00000220: 251e 76bf 36e2 8cbe bfdd 7d3f cbef 03be
00000230: 233e 2d3e 494f 7c3f dd41 8b3c 88f6 7f3f
00000240: b340 40bf 840a 293f 144e 793f a7a7 68be
00000250: 8753 373e 2edd 7b3f b272 933c 62f5 7f3f
00000260: 6979 193e bf1b 7d3f ba40 723f 3186 a5be
00000270: 3a64 413e a164 7b3f 7da3 9b3c 2cf4 7f3f
00000280: c8b6 693f 22f0 d03e b8c7 683f 2f11 d5be
00000290: f86f 4b3e a5e5 7a3f 3ed4 a33c e5f2 7f3f
000002a0: 102f 563f fc37 0cbf 4bfb 5c3f 973d 01bf
000002b0: 8376 553e 3c60 7a3f f304 ac3c 8df1 7f3f
000002c0: 1505 11bc 6ffd 7fbf a1f9 4e3f 00a8 16bf
000002d0: 9677 5f3e 6ad4 793f 9e35 b43c 24f0 7f3f
000002e0: e6a1 58bf bf67 08bf 8ae6 3e3f 1091 2abf
000002f0: f072 693e 3442 793f 3d66 bc3c abee 7f3f
00000300: fcd3 67bf fe2d d93e 29eb 2c3f d4c5 3cbf
00000310: 5168 733e 9ba9 783f d096 c43c 20ed 7f3f
00000320: 3887 07be 78bf 7d3f 7c35 193f bd17 4dbf
00000330: 7757 7d3e a50a 783f 56c7 cc3c 85eb 7f3f
00000340: 0837 433f 819c 253f e7f7 033f 0f5d 5bbf
00000350: 10a0 833e 5665 773f cef7 d43c dae9 7f3f
00000360: 0ed5 743f 3893 95be 8fd1 da3e 4471 67bf
00000370: 0591 883e b1b9 763f 3928 dd3c 1de8 7f3f
00000380: 2ab4 8a3e 576d 76bf 9a83 ab3e 7a35 71bf
00000390: 7d7e 8d3e bb07 763f 9458 e53c 50e6 7f3f
000003a0: e9e3 29bf b380 3fbf d0fd 743e b690 78bf
000003b0: 5468 923e 794f 753f e188 ed3c 72e4 7f3f
000003c0: a4ef 7cbf 18f4 1d3e d381 103e 2570 7dbf
000003d0: 6c4e 973e ef90 743f 1eb9 f53c 83e2 7f3f
000003e0: 06de cebe 8e2c 6a3f 9650 2a3d 52c7 7fbf
000003f0: a530 9c3e 22cc 733f 4be9 fd3c 83e0 7f3f
0.0 1.0 0.0 1.0 0.0 1.0 0.0 1.0
0.84147096 0.54030234 0.099833414 0.9950042 0.009999833 0.99995 0.0009999998 0.9999995
0.9092974 -0.41614684 0.19866931 0.9800666 0.019998666 0.9998 0.0019999985 0.99999803
0.14112 -0.9899925 0.2955202 0.9553365 0.0299955 0.99955004 0.0029999954 0.9999955
-0.7568025 -0.6536436 0.38941833 0.921061 0.039989334 0.9992001 0.003999989 0.999992
-0.9589243 0.2836622 0.47942552 0.87758255 0.049979165 0.99875027 0.004999979 0.9999875
-0.2794155 0.96017027 0.5646424 0.8253356 0.059964005 0.99820054 0.0059999637 0.999982
0.6569866 0.75390226 0.6442176 0.7648422 0.06994285 0.997551 0.006999942 0.9999755
0.98935825 -0.14550003 0.717356 0.6967067 0.07991469 0.9968017 0.007999914 0.999968
0.4121185 -0.91113025 0.78332686 0.62161 0.089878544 0.9959527 0.008999879 0.9999595
-0.5440211 -0.8390715 0.84147096 0.54030234 0.099833414 0.9950042 0.009999833 0.99995
-0.9999902 0.004425698 0.89120734 0.4535962 0.1097783 0.9939561 0.010999777 0.9999395
-0.53657293 0.84385395 0.9320391 0.36235783 0.119712204 0.99280864 0.011999711 0.999928
0.42016703 0.9074468 0.9635582 0.26749888 0.12963414 0.9915619 0.012999633 0.9999155
0.9906074 0.13673721 0.98544973 0.16996728 0.13954312 0.990216 0.013999541 0.999902
0.65028787 -0.7596879 0.997495 0.07073732 0.14943813 0.9887711 0.014999436 0.9998875
-0.2879033 -0.9576595 0.9995736 -0.029199427 0.15931821 0.98722726 0.015999317 0.999872
-0.96139747 -0.27516335 0.9916648 -0.12884443 0.16918235 0.9855848 0.01699918 0.9998555
-0.75098723 0.6603167 0.9738476 -0.22720204 0.17902957 0.9838437 0.017999027 0.999838
0.1498772 0.9887046 0.94630015 -0.32328942 0.1888589 0.9820042 0.018998856 0.9998195
0.9129453 0.40808207 0.90929747 -0.41614673 0.19866931 0.9800666 0.019998666 0.9998
0.8366556 -0.54772925 0.8632094 -0.50484604 0.2084599 0.9780309 0.020998454 0.9997795
-0.008851309 -0.99996084 0.80849653 -0.588501 0.21822962 0.97589743 0.021998223 0.999758
-0.8462204 -0.53283304 0.74570525 -0.666276 0.22797751 0.9736664 0.02299797 0.99973553
-0.9055784 0.42417902 0.67546326 -0.7373936 0.23770262 0.971338 0.023997694 0.999712
-0.13235176 0.99120283 0.59847236 -0.80114347 0.24740396 0.9689124 0.024997395 0.9996875
0.76255846 0.6469193 0.51550144 -0.8568887 0.25708055 0.96639 0.025997069 0.99966204
0.95637596 -0.29213881 0.42738006 -0.90407205 0.2667314 0.9637709 0.026996719 0.9996355
0.2709058 -0.9626059 0.33498842 -0.94222224 0.27635565 0.96105546 0.027996339 0.99960804
-0.6636339 -0.74805754 0.23924947 -0.9709581 0.2859522 0.9582439 0.028995933 0.99957955
-0.9880316 0.15425146 0.14112024 -0.98999244 0.2955202 0.9553365 0.029995497 0.99955004
-0.40403765 0.91474235 0.04158076 -0.99913514 0.30505863 0.95233357 0.030995032 0.9995195

enc_embedding_s.temporal_embedding.embed.weight f4 [8, 4]
00000000: 9a4a bebe 40c4 073e 5c8e be3e 1c7b b2be
00000010: c03b 58bc 9620 a33e f807 4e3e 301e d53d
00000020: 74cc fe3e 9019 43bd 3e3d c83e 74dd d0be
00000030: 90a5 843e 3a19 acbe dc90 57be 9ea8 dcbe
00000040: c8ad 8d3d c0da 8a3d fc7f d03e 949b 92be
00000050: 9027 36be 0e10 d63e 4658 813e 441d ca3e
00000060: a02e fbbd fef1 f43e b0e8 96bd ccb8 6bbe
00000070: aa3f d5be f001 c4bd 209c 893c b8f0 dabe
-0.3716629 0.13258457 0.37217987 -0.3485955 -0.013197839 0.318608 0.20120227 0.104061484
0.4976536 -0.0476318 0.39109224 -0.40793955 0.25907564 -0.33612996 -0.21051353 -0.43097395
0.06917912 0.067800045 0.40722644 -0.28634322 -0.1778853 0.41809124 0.2526266 0.39475453
-0.122647524 0.47840875 -0.073686 -0.23019713 -0.41650134 -0.09570682 0.016798079 -0.4276178

enc_embedding_t.value_embedding.tokenConv.weight f4 [8, 1, 3]
00000000: 08cd e8bf e1b0 f7be acee a13f b052 c33e
00000010: 22fb b03f a0a3 d9bf 452f aa3e 167a f2be
00000020: 21ca 093f c5f6 cdbf 9eed f73e 2117 23bf
00000030: 053b 323f 1380 abbe b656 f7be c063 57bd
00000040: b21a 4a3f 99db ad3e c40f 81be 244d f1bf
00000050: b4d1 ee3f da5c fdbe f320 a53e 6a2b bc3e
-1.818757 -0.48377135 1.2650962 0.38149023 1.382664 -1.7003059 0.3323919 -0.4735877
0.5382405 -1.6090933 0.48423475 -0.63707167 0.69621307 -0.3349615 -0.48308343 -0.052585363
0.78946984 0.33956602 -0.2520734 -1.8851666 1.8657746 -0.49484903 0.322517 0.36751872

enc_embedding_t.position_embedding.pe f4 [1, 5000, 8]
00000000: 0000 0000 0000 803f 0000 0000 0000 803f
00000010: 0000 0000 0000 803f 0000 0000 0000 803f
00000020: a46a 573f 4151 0a3f 7675 cc3d 98b8 7e3f
00000030: 57d6 233c b9fc 7f3f 6d12 833a f8ff 7f3f
00000040: b7c7 683f 3311 d5be f86f 4b3e a5e5 7a3f
00000050: 3ed4 a33c e5f2 7f3f 6812 033b dfff 7f3f
00000060: c381 103e 2670 7dbf 6c4e 973e ef90 743f
00000070: 1fb9 f53c 83e2 7f3f 929b 443b b5ff 7f3f
00000080: cfbd 41bf 3055 27bf d761 c73e a7ca 6b3f
00000090: dbcb 233d 94cb 7f3f 5712 833b 7aff 7f3f
000000a0: 107c 75bf 2c3c 913e 4377 f53e 40a9 603f
000000b0: f4b6 4c3d 19ae 7f3f ddd6 a33b 2eff 7f3f
000000c0: 8c0f 8fbe b8cd 753f 688c 103f 3249 533f
000000d0: d19c 753d 128a 7f3f 589b c43b d2fe 7f3f
000000e0: 4630 283f bdff 403f 72eb 243f b3cc 433f
000000f0: 323e 8f3d 815f 7f3f c55f e53b 65fe 7f3f
00000100: 9546 7d3f f6fd 14be a5a4 373f 5f5b 323f
00000110: 50aa a33d 652e 7f3f 1212 033c e7fd 7f3f
00000120: 3201 d33e d53f 69bf 1c88 483f d521 1f3f
00000130: 3e12 b83d c2f6 7e3f 3a74 133c 59fd 7f3f
00000140: f844 0bbf 64cd 56bf a46a 573f 4151 0a3f
00000150: 7675 cc3d 98b8 7e3f 57d6 233c b9fc 7f3f
00000160: 5cff 7fbf 7205 913b 2a26 643f c33d e83e
00000170: 72d3 e03d e873 7e3f 6938 343c 09fc 7f3f
00000180: d85c 09bf d006 583f 1d9a 6e3f f786 b93e
00000190: ac2b f53d b528 7e3f 709a 443c 48fb 7f3f
000001a0: 2220 d73e 6f4e 683f c0ab 763f 9df5 883e
000001b0: d0be 043e 00d7 7d3f 6afc 543c 76fa 7f3f
000001c0: 7298 7d3f d704 0c3e 6f46 7c3f e70b 2e3e
000001d0: 64e4 0e3e cc7e 7d3f 555e 653c 94f9 7f3f
000001e0: 4479 263f e87a 42bf d55b 7f3f bade 903d
000001f0: 4f06 193e 1a20 7d3f 32c0 753c a1f8 7f3f
00000200: 1068 93be 2c29 75bf 0ee4 7f3f a333 efbc
00000210: 5024 233e edba 7c3f 0011 833c 9df7 7f3f
00000220: 251e 76bf 36e2 8cbe bfdd 7d3f cbef 03be
00000230: 233e 2d3e 494f 7c3f dd41 8b3c 88f6 7f3f
00000240: b340 40bf 840a 293f 144e 793f a7a7 68be
00000250: 8753 373e 2edd 7b3f b272 933c 62f5 7f3f
00000260: 6979 193e bf1b 7d3f ba40 723f 3186 a5be
00000270: 3a64 413e a164 7b3f 7da3 9b3c 2cf4 7f3f
00000280: c8b6 693f 22f0 d03e b8c7 683f 2f11 d5be
00000290: f86f 4b3e a5e5 7a3f 3ed4 a33c e5f2 7f3f
000002a0: 102f 563f fc37 0cbf 4bfb 5c3f 973d 01bf
000002b0: 8376 553e 3c60 7a3f f304 ac3c 8df1 7f3f
000002c0: 1505 11bc 6ffd 7fbf a1f9 4e3f 00a8 16bf
000002d0: 9677 5f3e 6ad4 793f 9e35 b43c 24f0 7f3f
000002e0: e6a1 58bf bf67 08bf 8ae6 3e3f 1091 2abf
000002f0: f072 693e 3442 793f 3d66 bc3c abee 7f3f
00000300: fcd3 67bf fe2d d93e 29eb 2c3f d4c5 3cbf
00000310: 5168 733e 9ba9 783f d096 c43c 20ed 7f3f
00000320: 3887 07be 78bf 7d3f 7c35 193f bd17 4dbf
00000330: 7757 7d3e a50a 783f 56c7 cc3c 85eb 7f3f
00000340: 0837 433f 819c 253f e7f7 033f 0f5d 5bbf
00000350: 10a0 833e 5665 773f cef7 d43c dae9 7f3f
00000360: 0ed5 743f 3893 95be 8fd1 da3e 4471 67bf
00000370: 0591 883e b1b9 763f 3928 dd3c 1de8 7f3f
00000380: 2ab4 8a3e 576d 76bf 9a83 ab3e 7a35 71bf
00000390: 7d7e 8d3e bb07 763f 9458 e53c 50e6 7f3f
000003a0: e9e3 29bf b380 3fbf d0fd 743e b690 78bf
000003b0: 5468 923e 794f 753f e188 ed3c 72e4 7f3f
000003c0: a4ef 7cbf 18f4 1d3e d381 103e 2570 7dbf
000003d0: 6c4e 973e ef90 743f 1eb9 f53c 83e2 7f3f
000003e0: 06de cebe 8e2c 6a3f 9650 2a3d 52c7 7fbf
000003f0: a530 9c3e 22cc 733f 4be9 fd3c 83e0 7f3f
0.0 1.0 0.0 1.0 0.0 1.0 0.0 1.0
0.84147096 0.54030234 0.099833414 0.9950042 0.009999833 0.99995 0.0009999998 0.9999995
0.9092974 -0.41614684 0.19866931 0.9800666 0.019998666 0.9998 0.0019999985 0.99999803
0.14112 -0.9899925 0.2955202 0.9553365 0.0299955 0.99955004 0.0029999954 0.9999955
-0.7568025 -0.6536436 0.38941833 0.921061 0.039989334 0.9992001 0.003999989 0.999992
-0.9589243 0.2836622 0.47942552 0.87758255 0.049979165 0.99875027 0.004999979 0.9999875
-0.2794155 0.96017027 0.5646424 0.8253356 0.059964005 0.99820054 0.0059999637 0.999982
0.6569866 0.75390226 0.6442176 0.7648422 0.06994285 0.997551 0.006999942 0.9999755
0.98935825 -0.14550003 0.717356 0.6967067 0.07991469 0.9968017 0.007999914 0.999968
0.4121185 -0.91113025 0.78332686 0.62161 0.089878544 0.9959527 0.008999879 0.9999595
-0.5440211 -0.8390715 0.84147096 0.54030234 0.099833414 0.9950042 0.009999833 0.99995
-0.9999902 0.004425698 0.89120734 0.4535962 0.1097783 0.9939561 0.010999777 0.9999395
-0.53657293 0.84385395 0.9320391 0.36235783 0.119712204 0.99280864 0.011999711 0.999928
0.42016703 0.9074468 0.9635582 0.26749888 0.12963414 0.9915619 0.012999633 0.9999155
0.9906074 0.13673721 0.98544973 0.16996728 0.13954312 0.990216 0.013999541 0.999902
0.65028787 -0.7596879 0.997495 0.07073732 0.14943813 0.9887711 0.014999436 0.9998875
-0.2879033 -0.9576595 0.9995736 -0.029199427 0.15931821 0.98722726 0.015999317 0.999872
-0.96139747 -0.27516335 0.9916648 -0.12884443 0.16918235 0.9855848 0.01699918 0.9998555
-0.75098723 0.6603167 0.9738476 -0.22720204 0.17902957 0.9838437 0.017999027 0.999838
0.1498772 0.9887046 0.94630015 -0.32328942 0.1888589 0.9820042 0.018998856 0.9998195
0.9129453 0.40808207 0.90929747 -0.41614673 0.19866931 0.9800666 0.019998666 0.9998
0.8366556 -0.54772925 0.8632094 -0.50484604 0.2084599 0.9780309 0.020998454 0.9997795
-0.008851309 -0.99996084 0.80849653 -0.588501 0.21822962 0.97589743 0.021998223 0.999758
-0.8462204 -0.53283304 0.74570525 -0.666276 0.22797751 0.9736664 0.02299797 0.99973553
-0.9055784 0.42417902 0.67546326 -0.7373936 0.23770262 0.971338 0.023997694 0.999712
-0.13235176 0.99120283 0.59847236 -0.80114347 0.24740396 0.9689124 0.024997395 0.9996875
0.76255846 0.6469193 0.51550144 -0.8568887 0.25708055 0.96639 0.025997069 0.99966204
0.95637596 -0.29213881 0.42738006 -0.90407205 0.2667314 0.9637709 0.026996719 0.9996355
0.2709058 -0.9626059 0.33498842 -0.94222224 0.27635565 0.96105546 0.027996339 0.99960804
-0.6636339 -0.74805754 0.23924947 -0.9709581 0.2859522 0.9582439 0.028995933 0.99957955
-0.9880316 0.15425146 0.14112024 -0.98999244 0.2955202 0.9553365 0.029995497 0.99955004
-0.40403765 0.91474235 0.04158076 -0.99913514 0.30505863 0.95233357 0.030995032 0.9995195

enc_embedding_t.temporal_embedding.embed.weight f4 [8, 4]
00000000: 40b7 6c3e 3e20 aabe 000f cb3e 9043 02bd
00000010: 00c0 343b d860 71be ccbd 4d3e 7c92 133e
00000020: f8d6 ca3e 5856 b5be 2e70 f4be a641 d73e
00000030: 2080 4f3d b695 b0be 1075 903e 6282 ddbe
00000040: 002e 09bd 047b 6e3e be35 bbbe 8008 173e
00000050: ceea 8d3e ac22 f4be 80b8 f3bb 50bf c0bd
00000060: e4d8 52be 0c23 113e e0ea 22be 6042 6fbd
00000070: 0e09 e6be e637 d7be 20c2 b03e 8420 20be
0.2311678 -0.33227724 0.39659882 -0.031802714 0.0027580261 -0.23572099 0.20091933 0.14411348
0.39617133 -0.35417438 -0.47741836 0.42042273 0.0506593 -0.3448922 0.28214312 -0.43263537
-0.033491135 0.23289114 -0.3656444 0.14749336 0.27718204 -0.47682703 -0.0074377656 -0.0941149
-0.2059055 0.14173526 -0.1590991 -0.05841291 -0.44928783 -0.42034835 0.34523106 -0.15637404

enc_embedding.value_embedding.tokenConv.weight f4 [8, 1, 3]
00000000: c97d 2840 1cba 3f40 461b 56bf d8a4 aec0
00000010: 5359 42c0 80ef fa3f 129f ab3e 9cb6 933f
00000020: 970a e7bf a114 9440 7230 8fbe 8d79 8540
00000030: 28ab ab3e 8ff2 c840 db36 24c0 9cd0 0940
00000040: ff05 3bbe 008b 23c0 8801 cfbf a111 dabf
00000050: 2434 9fc0 0b63 a2bf f64d bc3f 2caf 5b40
2.6326773 2.9957342 -0.83635366 -5.4576225 -3.036702 1.960434 0.335198 1.1540103
-1.8050107 4.627518 -0.27966648 4.1710877 0.3352902 6.279609 -2.565848 2.1533575
-0.18264006 -2.555359 -1.6172342 -1.703663 -4.975115 -1.2686476 1.4711292 3.4325666

enc_embedding.position_embedding.pe f4 [1, 5000, 8]
00000000: 0000 0000 0000 803f 0000 0000 0000 803f
00000010: 0000 0000 0000 803f 0000 0000 0000 803f
00000020: a46a 573f 4151 0a3f 7675 cc3d 98b8 7e3f
00000030: 57d6 233c b9fc 7f3f 6d12 833a f8ff 7f3f
00000040: b7c7 683f 3311 d5be f86f 4b3e a5e5 7a3f
00000050: 3ed4 a33c e5f2 7f3f 6812 033b dfff 7f3f
00000060: c381 103e 2670 7dbf 6c4e 973e ef90 743f
00000070: 1fb9 f53c 83e2 7f3f 929b 443b b5ff 7f3f
00000080: cfbd 41bf 3055 27bf d761 c73e a7ca 6b3f
00000090: dbcb 233d 94cb 7f3f 5712 833b 7aff 7f3f
000000a0: 107c 75bf 2c3c 913e 4377 f53e 40a9 603f
000000b0: f4b6 4c3d 19ae 7f3f ddd6 a33b 2eff 7f3f
000000c0: 8c0f 8fbe b8cd 753f 688c 103f 3249 533f
000000d0: d19c 753d 128a 7f3f 589b c43b d2fe 7f3f
000000e0: 4630 283f bdff 403f 72eb 243f b3cc 433f
000000f0: 323e 8f3d 815f 7f3f c55f e53b 65fe 7f3f
00000100: 9546 7d3f f6fd 14be a5a4 373f 5f5b 323f
00000110: 50aa a33d 652e 7f3f 1212 033c e7fd 7f3f
00000120: 3201 d33e d53f 69bf 1c88 483f d521 1f3f
00000130: 3e12 b83d c2f6 7e3f 3a74 133c 59fd 7f3f
00000140: f844 0bbf 64cd 56bf a46a 573f 4151 0a3f
00000150: 7675 cc3d 98b8 7e3f 57d6 233c b9fc 7f3f
00000160: 5cff 7fbf 7205 913b 2a26 643f c33d e83e
00000170: 72d3 e03d e873 7e3f 6938 343c 09fc 7f3f
00000180: d85c 09bf d006 583f 1d9a 6e3f f786 b93e
00000190: ac2b f53d b528 7e3f 709a 443c 48fb 7f3f
000001a0: 2220 d73e 6f4e 683f c0ab 763f 9df5 883e
000001b0: d0be 043e 00d7 7d3f 6afc 543c 76fa 7f3f
000001c0: 7298 7d3f d704 0c3e 6f46 7c3f e70b 2e3e
000001d0: 64e4 0e3e cc7e 7d3f 555e 653c 94f9 7f3f
000001e0: 4479 263f e87a 42bf d55b 7f3f bade 903d
000001f0: 4f06 193e 1a20 7d3f 32c0 753c a1f8 7f3f
00000200: 1068 93be 2c29 75bf 0ee4 7f3f a333 efbc
00000210: 5024 233e edba 7c3f 0011 833c 9df7 7f3f
00000220: 251e 76bf 36e2 8cbe bfdd 7d3f cbef 03be
00000230: 233e 2d3e 494f 7c3f dd41 8b3c 88f6 7f3f
00000240: b340 40bf 840a 293f 144e 793f a7a7 68be
00000250: 8753 373e 2edd 7b3f b272 933c 62f5 7f3f
00000260: 6979 193e bf1b 7d3f ba40 723f 3186 a5be
00000270: 3a64 413e a164 7b3f 7da3 9b3c 2cf4 7f3f
00000280: c8b6 693f 22f0 d03e b8c7 683f 2f11 d5be
00000290: f86f 4b3e a5e5 7a3f 3ed4 a33c e5f2 7f3f
000002a0: 102f 563f fc37 0cbf 4bfb 5c3f 973d 01bf
000002b0: 8376 553e 3c60 7a3f f304 ac3c 8df1 7f3f
000002c0: 1505 11bc 6ffd 7fbf a1f9 4e3f 00a8 16bf
000002d0: 9677 5f3e 6ad4 793f 9e35 b43c 24f0 7f3f
000002e0: e6a1 58bf bf67 08bf 8ae6 3e3f 1091 2abf
000002f0: f072 693e 3442 793f 3d66 bc3c abee 7f3f
00000300: fcd3 67bf fe2d d93e 29eb 2c3f d4c5 3cbf
00000310: 5168 733e 9ba9 783f d096 c43c 20ed 7f3f
00000320: 3887 07be 78bf 7d3f 7c35 193f bd17 4dbf
00000330: 7757 7d3e a50a 783f 56c7 cc3c 85eb 7f3f
00000340: 0837 433f 819c 253f e7f7 033f 0f5d 5bbf
00000350: 10a0 833e 5665 773f cef7 d43c dae9 7f3f
00000360: 0ed5 743f 3893 95be 8fd1 da3e 4471 67bf
00000370: 0591 883e b1b9 763f 3928 dd3c 1de8 7f3f
00000380: 2ab4 8a3e 576d 76bf 9a83 ab3e 7a35 71bf
00000390: 7d7e 8d3e bb07 763f 9458 e53c 50e6 7f3f
000003a0: e9e3 29bf b380 3fbf d0fd 743e b690 78bf
000003b0: 5468 923e 794f 753f e188 ed3c 72e4 7f3f
000003c0: a4ef 7cbf 18f4 1d3e d381 103e 2570 7dbf
000003d0: 6c4e 973e ef90 743f 1eb9 f53c 83e2 7f3f
000003e0: 06de cebe 8e2c 6a3f 9650 2a3d 52c7 7fbf
000003f0: a530 9c3e 22cc 733f 4be9 fd3c 83e0 7f3f
0.0 1.0 0.0 1.0 0.0 1.0 0.0 1.0
0.84147096 0.54030234 0.099833414 0.9950042 0.009999833 0.99995 0.0009999998 0.9999995
0.9092974 -0.41614684 0.19866931 0.9800666 0.019998666 0.9998 0.0019999985 0.99999803
0.14112 -0.9899925 0.2955202 0.9553365 0.0299955 0.99955004 0.0029999954 0.9999955
-0.7568025 -0.6536436 0.38941833 0.921061 0.039989334 0.9992001 0.003999989 0.999992
-0.9589243 0.2836622 0.47942552 0.87758255 0.049979165 0.99875027 0.004999979 0.9999875
-0.2794155 0.96017027 0.5646424 0.8253356 0.059964005 0.99820054 0.0059999637 0.999982
0.6569866 0.75390226 0.6442176 0.7648422 0.06994285 0.997551 0.006999942 0.9999755
0.98935825 -0.14550003 0.717356 0.6967067 0.07991469 0.9968017 0.007999914 0.999968
0.4121185 -0.91113025 0.78332686 0.62161 0.089878544 0.9959527 0.008999879 0.9999595
-0.5440211 -0.8390715 0.84147096 0.54030234 0.099833414 0.9950042 0.009999833 0.99995
-0.9999902 0.004425698 0.89120734 0.4535962 0.1097783 0.9939561 0.010999777 0.9999395
-0.53657293 0.84385395 0.9320391 0.36235783 0.119712204 0.99280864 0.011999711 0.999928
0.42016703 0.9074468 0.9635582 0.26749888 0.12963414 0.9915619 0.012999633 0.9999155
0.9906074 0.13673721 0.98544973 0.16996728 0.13954312 0.990216 0.013999541 0.999902
0.65028787 -0.7596879 0.997495 0.07073732 0.14943813 0.9887711 0.014999436 0.9998875
-0.2879033 -0.9576595 0.9995736 -0.029199427 0.15931821 0.98722726 0.015999317 0.999872
-0.96139747 -0.27516335 0.9916648 -0.12884443 0.16918235 0.9855848 0.01699918 0.9998555
-0.75098723 0.6603167 0.9738476 -0.22720204 0.17902957 0.9838437 0.017999027 0.999838
0.1498772 0.9887046 0.94630015 -0.32328942 0.1888589 0.9820042 0.018998856 0.9998195
0.9129453 0.40808207 0.90929747 -0.41614673 0.19866931 0.9800666 0.019998666 0.9998
0.8366556 -0.54772925 0.8632094 -0.50484604 0.2084599 0.9780309 0.020998454 0.9997795
-0.008851309 -0.99996084 0.80849653 -0.588501 0.21822962 0.97589743 0.021998223 0.999758
-0.8462204 -0.53283304 0.74570525 -0.666276 0.22797751 0.9736664 0.02299797 0.99973553
-0.9055784 0.42417902 0.67546326 -0.7373936 0.23770262 0.971338 0.023997694 0.999712
-0.13235176 0.99120283 0.59847236 -0.80114347 0.24740396 0.9689124 0.024997395 0.9996875
0.76255846 0.6469193 0.51550144 -0.8568887 0.25708055 0.96639 0.025997069 0.99966204
0.95637596 -0.29213881 0.42738006 -0.90407205 0.2667314 0.9637709 0.026996719 0.9996355
0.2709058 -0.9626059 0.33498842 -0.94222224 0.27635565 0.96105546 0.027996339 0.99960804
-0.6636339 -0.74805754 0.23924947 -0.9709581 0.2859522 0.9582439 0.028995933 0.99957955
-0.9880316 0.15425146 0.14112024 -0.98999244 0.2955202 0.9553365 0.029995497 0.99955004
-0.40403765 0.91474235 0.04158076 -0.99913514 0.30505863 0.95233357 0.030995032 0.9995195

enc_embedding.temporal_embedding.embed.weight f4 [8, 4]
00000000: 200e 6abd 100f f7be 3442 c03e f017 87be
00000010: 80e8 e0bc 1cfe df3e 4e93 82be 98c2 aa3d
00000020: 1003 9cbd a0d7 0bbe d02a 783e 88d9 973e
00000030: 7645 d0be a4d4 19be cc87 ef3e 849b e7be
00000040: 5471 cc3e 34a5 7a3e 1091 1a3e 6435 51be
00000050: 9079 363e e026 ee3c bc74 e73e 8075 c7bc
00000060: 50e4 2abe 78ba ee3d f0fa 6fbd 848c 29be
00000070: 7c41 96be 78ae 283e 7c8e da3e f03d b53e
-0.057142377 -0.4825368 0.3755051 -0.2638545 -0.027454615 0.43748558 -0.2550301 0.08337897
-0.076177716 -0.13656473 0.24235082 0.2965815 -0.40677994 -0.15022522 0.46783292 -0.45235837
0.39930212 0.24477082 0.150944 -0.20430523 0.1781981 0.029071271 0.4520625 -0.02434802
-0.16688657 0.1165666 -0.058588922 -0.16557509 -0.29346836 0.16472805 0.42686832 0.35398817

encoder_s.attn_layers.0.attention.query_projection.weight f4 [8, 8]
00000000: f0a8 7bbd 9146 00be e16a 053e 0fac bcbd
00000010: 4194 533e ac7b 1cbe f114 043c 57f4 d53d
00000020: cb48 3ebe c6a6 273d 4bfa aabc 7992 903e
00000030: 66ca adbd a793 bf3c 68de ce3e e2b4 b53e
00000040: 5020 503d 3bf8 173e d800 d13d fc33 a53d
00000050: 6667 1d3a c5c5 303d ed9e 0bbe bcb1 58be
00000060: b50c f5bd ff4b a4be faeb 82be 97c5 4fbe
00000070: 7aa5 abbc 1507 80bc dc2d 103e db95 dc3e
00000080: 8ae3 e7bc effb 1d3e 02a0 84be a1dd 963d
00000090: 56db 593e e30d 843e 5868 de3d 3743 2a3e
000000a0: a29f bc3e 0f08 fa3c 42ad 763e b4ea 433e
000000b0: 3409 b9bd f110 c73d 319f d83e a447 c33e
000000c0: 4875 903d 25fe 4e3e d540 803c 5986 a1bd
000000d0: 25d0 163d 029f fb3e a87f d8bd 101d 003e
000000e0: f7cd 363e 2355 a93d f2a2 1dbe 2581 2a3d
000000f0: 2cb9 023e dccc 13bc b586 cf3d c029 863d
-0.06144041 -0.12526919 0.13029052 -0.09212505 0.20662023 -0.15281552 0.008061633 0.10446995
-0.18582456 0.040930532 -0.020871302 0.2823675 -0.0848587 0.023385836 0.40404058 0.35489565
0.050812066 0.14840786 0.10205239 0.08066556 0.0006004482 0.043157358 -0.13634844 -0.2116155
-0.11965314 -0.3208923 -0.2557066 -0.20290218 -0.020952929 -0.015628377 0.14079994 0.4308308
-0.028306741 0.15428136 -0.25903326 0.07366491 0.21275076 0.25791845 0.10859746 0.16627203
0.3684054 0.03052142 0.2408953 0.19132501 -0.090349585 0.09720028 0.42308953 0.38140595
0.070536196 0.20214136 0.015655914 -0.07886953 0.036819596 0.4914475 -0.105712235 0.12511086
0.17852007 0.08268192 -0.1539419 0.041627068 0.1276595 -0.00902101 0.10133115 0.06550932

encoder_s.attn_layers.0.attention.query_projection.bias f4 [8]
00000000: 3963 d9be d5c1 dcbe e424 3d3d 0ff4 27bf
00000010: 853a 40be 35da b63e 1f4f 62bd 485e 9bbe
-0.42458513 -0.43116632 0.04617776 -0.6560678 -0.18772323 0.35713354 -0.055251237 -0.30345368

encoder_s.attn_layers.0.attention.key_projection.weight f4 [8, 8]
00000000: a91a 373d 2235 d0bc e935 43bf 72d0 4dbd
00000010: db21 c53d a0dc f93d 4711 4d3d 96dd eeb9
00000020: 0c71 3f3d ba7e c7bc 678c 15bf a64e 17bd
00000030: 25eb ac3d 32db b03d b018 eb3c 2faa 04bd
00000040: ea5c e03c 6275 093b 1dca 0ebd 96a8 aebc
00000050: a0ef ed3c 8c8e 013e e638 1f3d c9de 3fbd
00000060: df71 3fbd 78c4 003d d9d5 3b3f f2d9 083d
00000070: cddb b9bd 75ea 88bd 85fb 93bc f485 583d
00000080: 523f a7bd a517 9a3c e8bd d1be 150d 973c
00000090: f0f4 1e3d 659c 2dbe 5ee8 dbbc b462 89be
000000a0: 0ad8 7d3c 9bd8 df3c 24bc 833e 5255 a8bb
000000b0: 47f3 7b3b 297f a3bc e78d 53bc f96f 83bd
000000c0: 0f5a 0cbd a748 3dbd f78d bc3e a531 303d
000000d0: fb35 42bd 88bb e7be 31ce ed3c e4da 4bbd
000000e0: 5a9a 2dbc 6bab 603d b87b cc3e 2247 36bd
000000f0: 026d 933c 4848 223e 6d0c 9b39 90ac 96bd
0.04470316 -0.02541596 -0.76254135 -0.050247617 0.09625598 0.12200284 0.050065305 -0.00045559992
0.04673867 -0.02435242 -0.5841736 -0.03694024 0.08443288 0.08635558 0.028698295 -0.032388862
0.027388055 0.0020974507 -0.03486072 -0.021320622 0.029044926 0.12652034 0.038872622 -0.046843324
-0.046739455 0.031437367 0.7337318 0.033410974 -0.09075127 -0.06685344 -0.01806427 0.052862123
-0.08166374 0.018810103 -0.409652 0.018438855 0.03880781 -0.16954191 -0.0268442 -0.26833117
0.015493402 0.027324965 0.25729477 -0.005137124 0.0038444565 -0.019958096 -0.01291225 -0.064178415
-0.034265574 -0.046211865 0.3682706 0.043016095 -0.04741476 -0.45260262 0.029028984 -0.049769297
-0.010595882 0.054850977 0.3993814 -0.04450143 0.017996315 0.15847886 0.00029573162 -0.073571324

encoder_s.attn_layers.0.attention.key_projection.bias f4 [8]
00000000: 7694 e1bc 9484 b43e 7ec6 943d b25d 8b3d
00000010: f915 f13d 45b4 be3d c9f1 69be 7a16 353d
-0.027536612 0.352574 0.07264422 0.0680498 0.11771769 0.093117274 -0.2284614 0.04421089

encoder_s.attn_layers.0.attention.value_projection.weight f4 [8, 8]
00000000: 61f3 21be 7460 7abe 2697 c8bf 0ef6 42be
00000010: a8e7 153d 5a98 983e 8a5e 613e 6189 48be
00000020: 810a c5bd c8d7 7f3d ea8c 0740 dd10 36bd
00000030: d49d 5e3b 322f 763d 644c 093d 958f 95be
00000040: a7e7 0b3d 8ca9 4cbe 781e 03c0 aec4 1e3e
00000050: 6465 523d 6c4b 1cbe e499 093f 2d05 273e
00000060: e9d1 9c3d 4acd 1e3e 5c2e dd3f c00d 793e
00000070: 6fd4 9abc 4353 67be f208 3d3e 91fa 26be
00000080: b950 153f b901 05be 687d d03f 1331 febd
00000090: 52ec 9ebd 9247 a33e c517 4bbd 73db aebe
000000a0: ae55 04bd 9391 5c3e 8eb5 3b3f d330 19be
000000b0: 2ac2 083e fb4b 033e 08ac 9d3e 5b41 a4be
000000c0: 4e5a c13c 3484 95bd 0f80 d1bd adc1 1e3e
000000d0: 0dc5 25be e055 5abf 7f90 33be dbf5 7b3e
000000e0: 8716 493e a1d3 de3c 0088 59bf 5c8c 103d
000000f0: 679e eb3d 1358 383f 1e1f 813c 0daa c4bd
-0.15815498 -0.24450856 -1.5671127 -0.19039175 0.036597878 0.29803735 0.2200872 -0.19583656
-0.09621144 0.062461644 2.1179757 -0.044449676 0.0033968585 0.060103603 0.033520117 -0.29211107
0.034156468 -0.19986552 -2.0487347 0.15504715 0.051366225 -0.15263146 0.53750443 0.16310568
0.07657225 0.15507999 1.7279773 0.24321651 -0.018900124 -0.22590356 0.18460444 -0.16306521
0.583263 -0.12988938 1.6288271 -0.12411704 -0.07759918 0.3189054 -0.049583215 -0.341518
-0.032308273 0.21539907 0.73323905 -0.14960031 0.13355318 0.12821953 0.30795312 -0.32081112
0.023602631 -0.07300606 -0.10229503 0.15503569 -0.1618845 -0.85287285 -0.1753559 0.24605505
0.196375 0.027200522 -0.84973145 0.035290107 0.11504822 0.7200939 0.015761908 -0.09602747

encoder_s.attn_layers.0.attention.value_projection.bias f4 [8]
00000000: 080f 88bd 0115 9b3e caeb e53e fc33 a4be
00000010: 877a 3cbd 40f7 813e 46dc e13e a2bb 323f
-0.06643492 0.30289462 0.44906455 -0.3207091 -0.04601529 0.2538395 0.44113368 0.69817555

encoder_s.attn_layers.0.attention.out_projection.weight f4 [8, 8]
00000000: 70ba 6d3f 2a51 bdbf 87ba 10bf 1d05 303f
00000010: 4808 04bd 54f1 033e 9f5e 983e 1922 87be
00000020: 4da4 1d3f d6a7 91be ada8 84be eafc a53e
00000030: 5e96 e0be bf2d 08bf c231 1e3c 033b 393f
00000040: d0b2 493e 096e 2dbf c672 8fbf d7a0 853f
00000050: 761b 6abe 09d9 ab3c ffcc 48bf 8026 93bf
00000060: 1bc3 2ebf 9a69 e33f 21f4 93be 7920 d23d
00000070: 881c f73d 14a9 fabe 3ee3 653e c824 18be
00000080: 0991 523d 9311 84be fbc2 be3d 29de ebbe
00000090: ed25 a6bc dfe5 29be 571c a5be 28c7 09be
000000a0: ee73 243f 28c1 51bf d657 06bf afaa 073f
000000b0: 156f 5f3f 6c59 9abc ee1f 21bf 0e09 7fbd
000000c0: bc52 04be 2233 b23e d3d3 94bd b449 0bbe
000000d0: 6485 003d e862 6bbd 8493 b13e 37b9 7ebe
000000e0: a1aa e7bd 7b17 61bd 9603 91bd b32d 5cbe
000000f0: 4324 ac3c 653c 8cbc b298 56be 39f8 2b3e
0.92862606 -1.4790394 -0.5653462 0.687578 -0.03223446 0.12885028 0.2975969 -0.26393202
0.6157883 -0.2844836 -0.2590994 0.3241952 -0.4386472 -0.53194803 0.009655418 0.7235567
0.19697118 -0.67746025 -1.1206901 1.043971 -0.22862038 0.020977514 -0.784378 -1.1496124
-0.6826646 1.7766602 -0.28897193 0.102601 0.12065989 -0.4895712 0.22449967 -0.14857781
0.051407848 -0.25794658 0.09314533 -0.46067932 -0.020281756 -0.16591595 -0.32248184 -0.13454878
0.64239395 -0.8193536 -0.52477777 0.5299482 0.8727887 -0.018841468 -0.62939346 -0.062264495
-0.12922186 0.34804636 -0.07266965 -0.13602334 0.03137721 -0.05746737 0.34682858 -0.24875341
-0.11311842 -0.054954033 -0.07080762 -0.21501808 0.021013385 -0.017118642 -0.20956686 0.16793908

encoder_s.attn_layers.0.attention.out_projection.bias f4 [8]
00000000: 1385 09bf 6df6 3ebe 26e2 57bf 389c c7be
00000010: 83c9 273e 1044 06bf d8a5 86bd 619c 993e
-0.5371868 -0.18648691 -0.8432945 -0.38986373 0.16385464 -0.52447605 -0.06574601 0.3000212

encoder_s.attn_layers.0.conv1.weight f4 [64, 8, 1]
00000000: bfff 7ebe d259 943e 7357 e63c a1c5 143e
00000010: 5e46 0bbf 361a 6f3d b4ff 65bb e917 493e
00000020: b756 1f3f 209d e4bc c445 f13e 2143 cabc
00000030: d2c8 bfbd 0201 60be ec99 0c3e eeac 093e
00000040: dd7a 8abe 09c1 3f3f 894b 58bf 4cd9 183f
00000050: 1f06 40bf 078e f0be 6f39 51be 9e32 d0bd
00000060: dc7e dcbe 98fa 413e f9bd dabe 046b 923f
00000070: d80a 81bf a95d 00be b4d2 9f3e b2dd 8cbc
00000080: 40d5 803f 4d7d 0cbe cce1 2d3f 0769 333e
00000090: 964d 7abe ce22 d8bf f060 1d3e b86b 34be
000000a0: cfe7 82be 7e7f 9d3e 2f1c d6bd e28e 44be
000000b0: 2717 25bf e7d3 ebbd 4f12 093f 0dac b8bd
000000c0: 72dd bbbe e40b 233e 0239 0bbf 640e 043f
000000d0: 5e32 573e 9086 e43c 28e4 1b3e 5e2c 22bd
000000e0: c213 4abe 1e73 293f d3af 33be 0bfd 633e
000000f0: baea 3bbf b0ac 89be c3e7 013d fa53 793e
00000100: bfba c0bd 3e40 b4bd 24ad 4dbe f06a da3d
00000110: 5b4f d03e d2c4 f6be 1019 fb3c 93eb e6be
00000120: abc4 4b3e 6f33 443e 30ae 3cbe 0e18 ef3e
00000130: d22e ec3d dbe8 e2bd bf43 05bf e3ec 06bf
00000140: 13f5 bf3e 351d 923e b2b6 ffbb 1582 13bf
00000150: 8bf8 16be 38ac 8b3d 727a 54bf df9a d4be
00000160: 7c04 ca3e 691d 353c 18ab c63e d34d c2bd
00000170: 9a88 d8be d1d4 393f cc48 83bd b707 e03c
00000180: e5b5 743e baf6 993e 36c8 d33e b0c9 ffbe
00000190: e634 8bbe 6d10 323f 0d5d c8be 8e40 99be
000001a0: f9f8 90be 5366 073f 6f9f 05bf a8c7 9c3e
000001b0: f2e7 48bf 14a7 c4be ef96 4abe f9a9 033f
000001c0: 23a7 dc3e 8e99 403f 987b 3d3d c01a f7be
000001d0: 4e10 163e eda0 213c aac4 e9be e6b5 2a3e
000001e0: 091d d43d c69b 1a3f 33f0 3f3e f2b9 2ebe
000001f0: f9e8 bfbe 49bd 093e 6432 d93e fd1f 32bf
00000200: df47 c2bc 57ae 973d c6ff 003f 91db 883e
00000210: b4bf 723e b151 c8be 3c54 223d 24a5 8cbd
00000220: 2f8f 81bd 6aa7 01be 0a93 abbe b203 803e
00000230: 9742 243e 8fd8 d6be 5e40 d1bd 051c 7b3e
00000240: 40f9 373d a106 7b3e 1de3 44bf 666b 4f3d
00000250: 9208 3fbd 2e12 f13e b60d be3d 8d37 913d
00000260: 1fd2 923f 2e54 853d 0918 3abe 09a6 d2be
00000270: 73ef c3bf a48a d63e f143 2dbf 1ec1 413e
00000280: 5de6 9fbe 9f33 d53e 4271 92bc 4820 85bd
00000290: d44e 2abd 8623 183c ad1c 50be 2215 17bd
000002a0: f771 5c3e 2a02 743f 3f9e 9d3c edf6 343f
000002b0: 340f 93be bdd2 643a 8231 4cbf 613f d7be
000002c0: 0fd0 873f d026 2e3d eaa5 4dbe ec01 523e
000002d0: 2cef 273c 5131 5cbf 6a69 a23d 02d3 1cbe
000002e0: 33f7 8abe f082 bcbc 8562 a83f c2fd d73d
000002f0: 09b6 32be 478c 85be 8590 11be 0ad1 d43d
00000300: 9b0a 343e d199 f83e 45d7 09be 2925 fcbe
00000310: 723a 7d3f 28fa 0cbe 401a 6fbe 4f56 bfbe
00000320: 492e e2bd 7302 7e3e 2cb7 3ebe eddf 303f
00000330: 82e7 333f 93f3 a6bd 2856 a43e 4e05 14bf
00000340: 9186 dfbe 163b 4e3f 5f69 52be 5584 f13d
00000350: 8fd0 32bf 0f75 98be 1cf0 15be 9114 a13d
00000360: 8720 d93b a3ab a8be 07fc d13e 669d 2b3f
00000370: 88f7 4cbe a50a 0cbe aade b63e 3b6a 61be
00000380: e65b bd3e 9f3e fbbd 2928 efbe c560 b1be
00000390: c20a d7be 7d6e b13e 9588 8c3c d816 5e3e
000003a0: 8a1d 05be 0fac 42bb 171c 71be e5b5 64be
000003b0: 814a ccbd ec30 c1be f672 d23e b5e8 8dbd
000003c0: d412 c2be 82fb 623f 2ba9 7bbe 6eb7 6d3e
000003d0: ddb0 383f 10a5 cabe a205 443c 07f0 adbf
000003e0: 580b 70be be62 e4bc 8651 ffbe 00f0 9d3e
000003f0: 3e7c d53e ea03 d1bb f60c fbbc ef01 a03d
-0.24902247 0.28974777 0.02811787 0.14528514 -0.54404247 0.058374606 -0.0035095038 0.19638027
0.6224169 -0.027906954 0.4712354 -0.024690213 -0.09364475 -0.21875384 0.13730592 0.13444874
-0.27046862 0.74903923 -0.8449026 0.5970657 -0.7500934 -0.46983358 -0.20432065 -0.101659045
-0.43065536 0.1894325 -0.42723063 1.1438909 -1.0081434 -0.12535729 0.3121544 -0.017195556
1.0065079 -0.13719673 0.67922664 0.17520534 -0.24443659 -1.6885622 0.1536901 -0.17619216
-0.2556748 0.3076133 -0.10454594 -0.1919513 -0.6448845 -0.115150265 0.5354356 -0.09017191
-0.36692387 0.15922505 -0.5438386 0.5158446 0.21015307 0.027896196 0.15223753 -0.039593093
-0.197341 0.6619128 -0.1754754 0.22264497 -0.7340504 -0.26889563 0.031715166 0.24348441
-0.09410619 -0.08801316 -0.20085579 0.10664928 0.40685543 -0.48197037 0.0306516 -0.45101604
0.19899242 0.19160245 -0.18425822 0.4669804 0.11532368 -0.1107957 -0.520565 -0.5270521
0.37491664 0.28537908 -0.0078037614 -0.57620364 -0.14743249 0.068199575 -0.82999337 -0.41524407
0.39456546 0.011054375 0.3880241 -0.094875 -0.4229172 0.7259036 -0.06410369 0.027347429
0.23897512 0.3007105 0.41363686 -0.49958563 -0.27188796 0.69556314 -0.39133492 -0.29932064
-0.2831495 0.5289051 -0.521964 0.30621076 -0.7847892 -0.3840872 -0.19784139 0.5143123
0.43096265 0.75234306 0.046260446 -0.48262596 0.14654657 0.009865028 -0.45657855 0.16670951
0.103571005 0.6039394 0.18743972 -0.1706312 -0.37482432 0.13451113 0.42421257 -0.6958006
-0.023715911 0.074062996 0.5039028 0.26730016 0.23705941 -0.39124826 0.039631113 -0.068674356
-0.06326138 -0.1266152 -0.3351062 0.2500282 0.16041027 -0.41962096 -0.10217355 0.24522407
0.044915438 0.24514247 -0.7690905 0.050639533 -0.046639033 0.47084183 0.09279959 0.070906736
1.1470374 0.065101966 -0.18173231 -0.411423 -1.5307449 0.4190265 -0.67681795 0.18921325
-0.3123044 0.41640946 -0.017876271 -0.06500298 -0.041579083 0.009285813 -0.20323439 -0.03688539
0.21527849 0.953158 0.019240497 0.7068928 -0.28722537 0.0008728912 -0.7976304 -0.42040542
1.061037 0.042517483 -0.20082822 0.20508546 0.010249894 -0.8601275 0.079302624 -0.15314868
-0.27141723 -0.023011655 1.3155066 0.10546447 -0.17452253 -0.26083586 -0.14215286 0.103914335
0.1758217 0.48554853 -0.13461025 -0.492471 0.98917305 -0.13767302 -0.23349857 -0.37370536
-0.110439844 0.24805622 -0.18624562 0.69091684 0.7027513 -0.08151927 0.32096982 -0.57820594
-0.43657354 0.8055891 -0.20548008 0.117928185 -0.69849485 -0.2977681 -0.14642376 0.07865251
0.006626192 -0.32943448 0.41012594 0.67037046 -0.200163 -0.13675936 0.35716754 -0.2201318
0.36984175 -0.122678034 -0.46710327 -0.34644142 -0.42000395 0.34654608 0.017154971 0.21688402
-0.1299955 -0.0029704606 -0.23545872 -0.22335012 -0.09975148 -0.37732637 0.41103333 -0.06929151
-0.3790499 0.8866502 -0.24576251 0.23214504 0.7214487 -0.39579058 0.011964234 -1.3588876
-0.23441827 -0.027879115 -0.49866885 0.30847168 0.41696352 -0.0063786404 -0.030645829 0.07812869

encoder_s.attn_layers.0.conv1.bias f4 [64]
00000000: 8ec5 ecbd 931b 983d 909c 49be 5ed6 d3be
00000010: 6f05 753d 168b 53bd aed7 01bc 8679 acbe
00000020: fb0f 3b3e 621c ac3e 5d88 803c 1db8 0cbd
00000030: f727 163e 5058 4cbf 6855 00bf 759b 37bd
00000040: ccc3 22bc 6499 20bf 1ac7 f9bd cdec 18bf
00000050: aa10 d53d d1d8 d6be 4ed4 393e 2297 03be
00000060: 284c acbe f726 193d 7e56 5ebc 4f92 94be
00000070: e4c2 6dbd 7926 16bf 2481 2abd 2077 d5be
00000080: 51e3 3fbe 9695 3f3d 22e9 adbd fb82 debd
00000090: 1838 adbd 032e fdbe 915c 45be 0dfe 293e
000000a0: e979 d3be 1981 d3be 329d ebbe be2e 9abd
000000b0: 0cb9 82be 5d15 4fbf b6a7 5dbd 7342 d9be
000000c0: 749d 51be f32c 4fbf daaf e2bc dffa dc3d
000000d0: 199b 0bbf 327f fabe a017 953d 7c49 c23e
000000e0: 2922 ffbe e465 e9be 6692 51be d575 913e
000000f0: edec e03e 4068 9fbd 2255 83be f4f2 1fbf
-0.11561118 0.07427134 -0.1968863 -0.41374487 0.059819635 -0.051646315 -0.007924957 -0.33686465
0.18267815 0.33615404 0.015690023 -0.03435527 0.14663683 -0.79822254 -0.5013032 -0.04482599
-0.009934377 -0.62734056 -0.12196179 -0.5973633 0.10403569 -0.41962293 0.18147394 -0.12850621
-0.33651853 0.037390675 -0.013570426 -0.29017875 -0.05804719 -0.58652455 -0.041627064 -0.41692448
-0.18739058 0.046773516 -0.08491732 -0.10864826 -0.08457965 -0.49449167 -0.19273593 0.16600819
-0.41303948 -0.4130943 -0.46018368 -0.075284466 -0.25531805 -0.8089197 -0.05411502 -0.4243351
-0.2047022 -0.8092796 -0.027671743 0.10790037 -0.54533535 -0.48925167 0.07279897 0.3794669
-0.4983075 -0.4558555 -0.20466003 0.2841021 0.4393076 -0.07783556 -0.2565089 -0.6248009

encoder_s.attn_layers.0.conv2.weight f4 [8, 64, 1]
00000000: a990 993d 8078 01be 28c2 813e 1c50 87bd
00000010: e308 d5be 4ff9 b3bd 73ab 953d 0f8a 703e
00000020: b595 68bb 3a5e db3c c85b 033e 6800 233e
00000030: 8886 053e 7cc9 a33d 242f 64bd eee9 d93d
00000040: 2b81 49bc 1b81 b63b a050 16bc 17ef ee3d
00000050: 9bae 8f3d 304c ddbc 666c a5be b1d4 5bbc
00000060: 8aed 853d 1e9d f13d 89e3 093e 3d0c 1f3d
00000070: 59e1 afbc d798 f8bd 0b1b 73be 89de bf3d
00000080: 341f bdbd 506e c53d 079d 2cbd 6b48 d1bd
00000090: 120c f13c f99c 19bd 4e68 b33d 297d 63bd
000000a0: 6732 17be d361 d0bb 834b 283e 8721 8c3d
000000b0: b3a6 ec3d 4191 40bd bd30 9fbe 39e0 523e
000000c0: be4a d4bd 395e 4c3d 25d3 873d 81f8 2bb9
000000d0: 43e2 0d3d b95f 293e bb5a 80bd 49d3 3bbf
000000e0: 0dae e0bb 8151 5e3d 9d45 0c3e 0801 b83c
000000f0: 29f2 29bb 2f8d 503e e397 00bd f631 3f39
00000100: 2ec1 1a3e afd2 023e 5774 e4bd 63e2 db3e
00000110: fff2 b1bd 674e 4f3d 4af9 0cbc 75a6 4ebe
00000120: 9478 a8bd 8a58 78bd bf46 20be d969 093d
00000130: e3ce 6c3e 8b30 1cbe f782 083d 39e7 50be
00000140: 55c1 babd 1438 033e ef35 85bc 9780 3ebd
00000150: 50e2 debb c81f bb3e ef7c 81bd 97ec b0bd
00000160: 7b67 2cb8 ea48 51be ea64 6abe 6394 09be
00000170: 241a 373e 2004 b6bc 356b 043f ff06 5dbd
00000180: b6ba 913e 3fea 593e 2a04 63be 31a1 263e
00000190: 4f83 e73d 7f17 d93d 7bbf a2bd 0c8a 2d3d
000001a0: c2bc a63d 9e2a 803d 7285 e3bb 684b 723c
000001b0: 9870 3e3d 442f 1d3f 842f d53e 797c 1ebe
000001c0: 10e9 563d ef90 453f 3ec5 063d 0330 c4bd
000001d0: e96a a93d fa29 abbe 7f2e 733d 8de9 04bf
000001e0: c132 653d 96c3 1a3d d9ac 093c 9aae e13d
000001f0: 9e30 0f3e fad3 543b 5911 1d3d 3ead 423e
00000200: 4372 80be 3370 963c c70f 87be db7a 8d3e
00000210: 87ba 8ebe f775 7bbd 0517 803e a915 86bd
00000220: c68e d3bc 5110 76be 5c93 a63e 2d7d 063e
00000230: 3bda dc3e 158e 3dbf 1414 a13e dfae e93d
00000240: 5560 7abc e573 693d ef4f 4f3e 2696 14bf
00000250: 3a34 913d 2e6c b3bf 5a6a 4bbc 5b06 f4be
00000260: 486f a93d 037e 723e f860 43bd e355 a2be
00000270: 0bb2 bc3e 1867 b1be c054 4d3f 8386 c53e
00000280: 864c 393f b001 813d ff71 d8be 368a 923e
00000290: d81d 403e 722a 29be a640 f13e 8940 a8be
000002a0: 8ed0 ddbc d0f4 05be 26c2 71be 8686 83be
000002b0: 76ed a63f 09b8 9c3f 2c68 723f 3fd0 83be
000002c0: a2e4 48bd 0783 693f decf bb3c 6e47 5d3d
000002d0: 5f10 5cbd c215 00be 7df8 0e3c ed83 6ebe
000002e0: 5cf3 94bd ab98 053e 2359 b6be 7539 383e
000002f0: 552a 593e 6c20 5abe 2b5b 66bd 1c46 a3be
00000300: ba38 b5be 696b e83c 23b2 203d 5d58 c4be
00000310: 5d96 22be e90e 803d a0f2 18be 4141 55be
00000320: 9306 7cbe 54b5 c2be 0ad2 8ebe f501 953e
00000330: 7102 9a3d 9658 82be f1e9 57be 06cb e33e
00000340: b84b 9abd 79db 3b3e cae4 22be e7a8 0e3e
00000350: 84ba 78be 580a 9d3d c545 86bd 0cae a3bd
00000360: 89b2 e9bd 0099 73be c3d1 b4be f82c 7fbe
00000370: 3a95 4b3c ca19 793d 03b8 263e 9c6a 48bc
00000380: 8ec3 70be ae22 8bbc d3cd 8e3d c261 363e
00000390: c56a 213d 84b3 ae3e 5006 b73e b82d b2bd
000003a0: 7b83 dd3e 16d1 2a3e 1a96 963d e19d bbbd
000003b0: 24ac 133f 516a fc3e 0cf3 3bbd 5e55 8bbe
000003c0: 5a3c 28bd dac6 87bd 31ba 79be 984a 1e3d
000003d0: 36af c83d 2f0a 81bc c4d8 633d 2d55 59be
000003e0: b46a e8bd 453b e3bd a3b0 a7be 5887 a0bd
000003f0: a372 1fbb a28a d3be f228 a6bc 7b6a ef3d
0.07498295 -0.12643623 0.25343442 -0.066070765 -0.41608343 -0.08787786 0.07308092 0.23490165
-0.0035489623 0.02677833 0.1282798 0.15918124 0.13039601 0.079974145 -0.05570902 0.10640322
-0.012298862 0.00556959 -0.009174496 0.116666965 0.07015725 -0.027013868 -0.32309264 -0.013417409
0.065394476 0.11797546 0.13465704 0.03883003 -0.021469759 -0.12138527 -0.23740785 0.09368617
-0.09234467 0.09640181 -0.04214194 -0.10218891 0.0294247 -0.037503216 0.08760129 -0.055539284
-0.1476532 -0.006359318 0.16435055 0.06842332 0.11555233 -0.047013525 -0.31091872 0.20593347
-0.103658184 0.049894545 0.066320695 -0.00016400406 0.034639608 0.16540422 -0.062673055 -0.7336927
-0.006856686 0.054276947 0.1369843 0.02246143 -0.0025931692 0.20366357 -0.03139485 0.00018233791
0.15112755 0.12775682 -0.111550026 0.42946157 -0.08688926 0.05061188 -0.008604357 -0.20180686
-0.082261235 -0.060631312 -0.15651987 0.03354821 0.23125796 -0.15252893 0.033328023 -0.20400704
-0.091189064 0.12814361 -0.01626107 -0.04650935 -0.006801881 0.36547685 -0.06322657 -0.08638876
-4.110437e-05 -0.20437971 -0.22890058 -0.13435511 0.17881066 -0.022218764 0.51726085 -0.05396175
0.28462762 0.21280764 -0.22169557 0.16272427 0.11304342 0.10600185 -0.07946678 0.04236798
0.081414714 0.062581286 -0.006943398 0.014788486 0.046494097 0.61400247 0.41637814 -0.1547717
0.05246836 0.77174276 0.03290295 -0.0957947 0.082723446 -0.33430463 0.059370514 -0.5191887
0.055956606 0.03778418 0.0084030265 0.11019631 0.1398339 0.003247498 0.038346622 0.19011399
-0.25087175 0.018364048 -0.26379225 0.27632794 -0.27876684 -0.061391797 0.25017563 -0.065471
-0.025824916 -0.24029662 0.325343 0.13133688 0.43135247 -0.74044925 0.3146063 0.11410307
-0.015281756 0.05699529 0.20245336 -0.5804161 0.070900396 -1.4017389 -0.012415493 -0.476611
0.08273178 0.23680882 -0.0476999 -0.3170615 0.36854586 -0.34648967 0.80207443 0.38579187
0.7238239 0.0629915 -0.42274472 0.28621072 0.18761384 -0.16520098 0.47119635 -0.32861736
-0.027076986 -0.1308167 -0.23609218 -0.2568857 1.3041217 1.2243663 0.94690204 -0.25744817
-0.049046166 0.91215557 0.022926267 0.0540232 -0.05372655 -0.125083 0.008726236 -0.23292513
-0.072729796 0.1304652 -0.3561488 0.17990668 0.21207555 -0.2130143 -0.05623929 -0.31889427
-0.3539484 0.02837153 0.039232384 -0.38348666 -0.15877672 0.06252844 -0.14936304 -0.20825674
-0.24611883 -0.38028967 -0.27894622 0.29103056 0.07519997 -0.2545821 -0.21085335 0.44490832
-0.075339735 0.18345441 -0.15907589 0.13931619 -0.242899 0.076679885 -0.06556276 -0.07992181
-0.11411006 -0.23788834 -0.35316285 -0.24919498 0.012425715 0.06081561 0.16281132 -0.012232449
-0.23512098 -0.01698431 0.069728516 0.17810729 0.039408464 0.34121335 0.35747004 -0.087001264
0.43264374 0.16681322 0.07352848 -0.091609724 0.5768454 0.49299863 -0.045886084 -0.27213567
-0.04107318 -0.06629725 -0.24387433 0.038645357 0.09799044 -0.015751926 0.055626646 -0.21223898
-0.11348477 -0.11095289 -0.3275195 -0.07838315 -0.0024329803 -0.41316706 -0.020283196 0.116902314

encoder_s.attn_layers.0.conv2.bias f4 [8]
00000000: 90d2 7abc 1332 073d f83f b83c 0f50 a3bc
00000010: 9351 a63d fc5a 263c 170f ccbd 6f4b 1f3d
-0.015308991 0.03300674 0.02249144 -0.019935636 0.08121028 0.010153528 -0.09963816 0.0388903

encoder_s.attn_layers.0.norm1.weight f4 [8]
00000000: 388c 2d3f 5c0b 893f a572 fe3e 5bcb 6b3f
00000010: ae56 863f 402c 253f e57f e73f cc83 c13f
0.6779208 1.0706592 0.49696842 0.9210717 1.0495203 0.64520645 1.8085905 1.5118346

encoder_s.attn_layers.0.norm1.bias f4 [8]
00000000: 3dce 6bbd d93d ffbe e2d3 0c3f c626 13bf
00000010: 876b 9f3d 4862 ba3e acc6 75bd f775 5a3e
-0.05756973 -0.49851874 0.5501081 -0.5748104 0.07784181 0.36403108 -0.06000392 0.21334063

encoder_s.attn_layers.0.norm2.weight f4 [8]
00000000: 6ec8 6b3f d9dc 423f 13e6 1a3f 36a0 293f
00000010: b601 713f cd20 8e3f 01a7 b93f 0b62 a93f
0.92102706 0.76118237 0.60507315 0.6626009 0.94143236 1.110376 1.450409 1.3233045

encoder_s.attn_layers.0.norm2.bias f4 [8]
00000000: 3dca febd 9959 7dbd e313 a03e ce18 23bd
00000010: 4a0b 70bd 91ba 04be 5d95 9bbc c58a 5a3d
-0.12440918 -0.061853025 0.31265172 -0.039818577 -0.058604516 -0.12961794 -0.01899212 0.053354997

encoder_s.attn_layers.1.attention.query_projection.weight f4 [8, 8]
00000000: b9e4 b9be 0c44 91be a196 91be d488 03be
00000010: 55ac 2c3d 7fb4 193f d1bc 073f b73b 5c3d
00000020: 8ce2 debd b42e cbbe 49b1 14bf 7ce1 5b3f
00000030: 751a 413e 626c 70be d4b4 0abe a551 053f
00000040: c431 ae3e ed0e 123f 1767 3cbd f014 4cbd
00000050: cfa9 0abe f8f2 c6be 7e4c d8bc 5246 fcbe
00000060: 1cfe 44be 0459 4b3d 62e0 26bf 0a28 743f
00000070: 44c1 b0be 881b 40bf c504 aebb 9c0f 54be
00000080: 80e2 e8bd 0d51 25bf ca81 713f 31c7 763e
00000090: 6f77 9fbe afc7 eabe f7fd 8abf d479 fa3d
000000a0: 52bc 12be 676c 153f 3a1f 403c f581 b33e
000000b0: 64e2 03bf 5a25 f5bd 685b a4be a515 88be
000000c0: 6058 9abf 6d63 d1be ed00 883e d759 6ebe
000000d0: 4128 0c3e 0c21 193e 76bb f83e bce6 8b3e
000000e0: c3c1 ccbd 1a69 96be 31ab d03e 8dbb a63e
000000f0: a57e 6fbe ff6b c63d e502 f93d 1fef b33e
-0.36307314 -0.28372228 -0.28435233 -0.12845165 0.042156536 0.6004104 0.53022486 0.053767886
-0.10883054 -0.3968407 -0.58083016 0.85890937 0.18857749 -0.23478845 -0.13545543 0.52077705
0.34022343 0.57054025 -0.04599675 -0.049824655 -0.1354134 -0.38857245 -0.026403662 -0.492724
-0.1923756 0.04964544 -0.6518613 0.95373595 -0.3452245 -0.7504201 -0.005310627 -0.2070908
-0.113713264 -0.645768 0.9433867 0.24099423 -0.31145808 -0.45855471 -1.0858754 0.12230268
-0.14329651 0.58368534 0.011726195 0.35060087 -0.5151732 -0.11970015 -0.32100987 -0.26579013
-1.205822 -0.40896168 0.26563206 -0.23276459 0.1368723 0.14954013 0.4858052 0.27324474
-0.099978946 -0.2937706 0.4075561 0.32564965 -0.23388155 0.09688567 0.12158755 0.35143372

encoder_s.attn_layers.1.attention.query_projection.bias f4 [8]
00000000: 3fe1 f63e d88d db3d 8f22 a6be 8998 1fbe
00000010: 4ee4 fdbe ad6f fc3e ec74 3f3e 8e3b d4bc
0.48218724 0.10720414 -0.3244824 -0.15585531 -0.49588245 0.49303952 0.18696946 -0.025907304

encoder_s.attn_layers.1.attention.key_projection.weight f4 [8, 8]
00000000: b383 203f 6095 eb3e 05e2 2ebf 00b0 5dbe
00000010: 8721 d93e d02c 5dbe 143e 713e 4824 d43c
00000020: 96e0 313d 362b cb3e 55fa be3e e9e0 49bf
00000030: cd76 e63d ecab 523e f4f8 803f ba17 b0be
00000040: a29d 313f f2fa ffbc cb2d 8ebe e0b1 423f
00000050: f4c7 5abe 6634 1b3f f38f d8be dd61 3bbc
00000060: a725 4ebe 185f 62be f7ce 30bf 9d70 a8bd
00000070: 963b da3e 868b 143f 5edb c8bd d08b 6dbe
00000080: 6132 03be 02f2 9fbc 1f4d d5bd 122c 9e3c
00000090: 377b b6be 164a a63e c460 3d3e ae81 99bf
000000a0: 5928 e3be efbe f03e ca2a 903e c827 9b3f
000000b0: a550 85bf 108e 1abf bdab 873d 26f6 903e
000000c0: 7e81 c6bd ecab c2be da94 f23e 9274 e33c
000000d0: eb9d 523e af6e f0be 2d4d e7bd 5f74 7a3f
000000e0: 3574 bdbe 20fc 2abf f056 013c b17a b33d
000000f0: da94 0d3f 4d8f 2c3e dd8a 833e b0d0 563d
0.6270096 0.46012402 -0.6831363 -0.2164917 0.42408392 -0.21599126 0.23558837 0.025896206
0.043427072 0.39681405 0.37300363 -0.7885881 0.11253128 0.20573395 1.0075974 -0.34393102
0.69381154 -0.03124759 -0.27769312 0.76052666 -0.21365339 0.6062683 -0.42297325 -0.011436907
-0.2013155 -0.22106588 -0.69065803 -0.08224604 0.42623585 0.58025396 -0.09807466 -0.23197865
-0.12812187 -0.019524578 -0.104151 0.019308124 -0.3564088 0.32478398 0.18493944 -1.19927
-0.4436672 0.4702067 0.28157645 1.2121515 -1.0415236 -0.6037302 0.06624553 0.28312796
-0.096926674 -0.3802179 0.4737919 0.027765546 0.20568053 -0.46959445 -0.11294017 0.9783382
-0.3700272 -0.6679096 0.007894263 0.08763636 0.55305254 0.1685154 0.25691882 0.052445114

encoder_s.attn_layers.1.attention.key_projection.bias f4 [8]
00000000: 9000 a13d 8946 8bbe 6063 523e 126d 9f3e
00000010: ce29 31be d463 a5be dceb 423e 3b71 2f3e
0.078614354 -0.27202252 0.20545721 0.31137902 -0.17301103 -0.32302725 0.19035286 0.17133038

encoder_s.attn_layers.1.attention.value_projection.weight f4 [8, 8]
00000000: a746 6f3d 96da 03be d44a 263d 54f3 a7be
00000010: 1682 18be 9d3a 8dbe f418 fc3d 0886 e63e
00000020: 20a2 4abe a326 963d df18 07bf 8557 b43d
00000030: 7799 133f 5a8f 68be 2acb 553e 99c6 ca3e
00000040: b9d8 dd3b 9805 d0be 84ab a6be eb65 6dbe
00000050: a759 883e 3a68 ccbd 3dae 09be 5f4f 873e
00000060: 0b0f e33c 67e3 363e ab96 99be b17e d83e
00000070: 2f37 593e 78d6 2c3e 7c3f 183f edee f4bd
00000080: ca06 5bbe 48ed 22bf 5980 813e edf0 1c3e
00000090: 3542 e73e b125 ac3c 62f9 96be 00ee 2a3e
000000a0: 003b ab3d a5c4 03bf 1f1b 1fbe 6f7b b6be
000000b0: d634 2a3e 3814 e53e efcf 163e 9601 b43d
000000c0: 5dcd 37be a9ba 91be 1ea3 df3d df6e 08be
000000d0: 546d e23d 37bb 67bd d656 fa3e 9e6c 4fbe
000000e0: a221 98be 77e4 293e 11af 27bd 4c89 f7be
000000f0: 60b1 f3bd d384 d63e 1294 0b3f ca03 2ebe
0.05841699 -0.12876353 0.040598705 -0.32802832 -0.14893374 -0.2758378 0.12309447 0.45024133
-0.19788408 0.07331588 -0.52772325 0.088057555 0.57656044 -0.22710934 0.20878282 0.39604643
0.00677022 -0.40629268 -0.3255273 -0.2318341 0.266309 -0.09980817 -0.13445373 0.26427743
0.027717134 0.17860185 -0.29997763 0.42284158 0.21212457 0.16878688 0.5947187 -0.11959634
-0.21389309 -0.6364331 0.25293234 0.15326281 0.451677 0.021014066 -0.2948714 0.16692352
0.08360863 -0.5147193 -0.1553769 -0.35641047 0.16621718 0.44741988 0.14727758 0.08789365
-0.17949434 -0.28462723 0.10919784 -0.13323544 0.11056009 -0.056575026 0.48894376 -0.20256278
-0.2971316 0.16591059 -0.04093844 -0.48346937 -0.11899066 0.41898212 0.5452281 -0.16993633

encoder_s.attn_layers.1.attention.value_projection.bias f4 [8]
00000000: 627e a0bd 480f cabe 7a85 c8be b19f 953d
00000010: 6cb0 34be 4c19 933e 1668 ad3e e3c5 77be
-0.078366056 -0.39464784 -0.39164335 0.07305849 -0.17645425 0.28730237 0.33868474 -0.24196582
