SimMTM-main/SimMTM-main/SimMTM_Forecasting/outputs/pretrain_checkpoints/ETTh2/ckpt20.pth (torch, 347855 bytes, 37 tensors)

enc_embedding.value_embedding.tokenConv.weight f4 [16, 1, 3]
00000000: ac42 403f ed02 00c0 404f b23f 8692 5a40
00000010: 7a96 91bf 8ee1 46c0 3b92 d7bf 3403 35c0
00000020: 6ad0 64bf 81d0 b1bf 16dd 5940 dd27 01c0
00000030: 4fa5 83bf 3323 ab3e b7a6 633f 6b69 8440
00000040: 3c4c 33c0 9294 0240 8615 0340 6532 0c40
00000050: e116 b53f 2b2c 633f 8f12 31bf 1062 0340
00000060: e125 2a3e 82d0 043f af5d 2940 ac38 7bc0
00000070: 0dd8 babf 44ad 3fbf be70 edbc a6a7 e840
00000080: 7375 6d3e 5327 193f 1e64 e73f 43eb 02c0
00000090: d2d6 173c c110 59c0 5838 54bc d06a f5bf
000000a0: 6e3f fb3f 1144 493f 987c 0bc0 6a5c a63d
000000b0: 3bbe 843c a3b1 e43f 810c acbf 5892 23bf
0.75101733 -2.0001786 1.3930435 3.415193 -1.1374047 -3.1075168 -1.6841501 -2.8283205
-0.89380515 -1.3891755 3.404119 -2.018058 -1.0284823 0.33425292 0.8892626 4.1378684
-2.801528 2.040318 2.0481887 2.1905758 1.4147607 0.8873927 -0.69168943 2.0528603
0.16616012 0.5188066 2.646343 -3.925334 -1.4597183 -0.7487376 -0.028984424 7.270465
0.23189335 0.5982563 1.8077428 -2.0456092 0.009267526 -3.3916476 -0.0129528865 -1.9173222
1.9628732 0.78619486 -2.1794796 0.08123095 0.01620399 1.786671 -1.3441316 -0.6389518

enc_embedding.position_embedding.pe f4 [1, 5000, 16]
00000000: 0000 0000 0000 803f 0000 0000 0000 803f
00000010: 0000 0000 0000 803f 0000 0000 0000 803f
00000020: 0000 0000 0000 803f 0000 0000 0000 803f
00000030: 0000 0000 0000 803f 0000 0000 0000 803f
00000040: a46a 573f 4151 0a3f 3e39 9f3e 6b4e 733f
00000050: 7675 cc3d 98b8 7e3f 5b81 013d 3cdf 7f3f
00000060: 57d6 233c b9fc 7f3f 1c3e 4f3b acff 7f3f
00000070: 6d12 833a f8ff 7f3f 61cb a539 ffff 7f3f
00000080: b7c7 683f 3311 d5be 1b54 173f ec7b 4e3f
00000090: f86f 4b3e a5e5 7a3f c870 813d f97c 7f3f
000000a0: 3ed4 a33c e5f2 7f3f d83d cf3b b1fe 7f3f
000000b0: 6812 033b dfff 7f3f 60cb 253a fdff 7f3f
000000c0: c381 103e 2670 7dbf c209 503f 582f 153f
000000d0: 6c4e 973e ef90 743f c0ff c13d 4fd9 7e3f
000000e0: 1fb9 f53c 83e2 7f3f 0d6e 1b3c 0dfd 7f3f
000000f0: 929b 443b b5ff 7f3f 10b1 783a f9ff 7f3f
00000100: cfbd 41bf 3055 27bf de1d 743f b12e 9a3e
00000110: d761 c73e a7ca 6b3f 882e 013e 69f4 7d3f
00000120: dbcb 233d 94cb 7f3f c93c 4f3c c2fa 7f3f
00000130: 5712 833b 7aff 7f3f 5ecb a53a f3ff 7f3f
00000140: 107c 75bf 2c3c 913e 7ffc 7f3f e972 29bc
00000150: 4377 f53e 40a9 603f 1d3c 213e 81ce 7c3f
00000160: f4b6 4c3d 19ae 7f3f 7e85 813c cff7 7f3f
00000170: ddd6 a33b 2eff 7f3f 333e cf3a ebff 7f3f
00000180: 8c0f 8fbe b8cd 753f 4e78 723f 6d3f a4be
00000190: 688c 103f 3249 533f 6e20 413e e367 7b3f
000001a0: d19c 753d 128a 7f3f 436c 9b3c 34f4 7f3f
000001b0: 589b c43b d2fe 7f3f 08b1 f83a e2ff 7f3f
000001c0: 4630 283f bdff 403f 6ee8 4c3f bc74 19bf
000001d0: 72eb 243f b3cc 433f 50d3 603e eac0 793f
000001e0: 323e 8f3d 815f 7f3f a252 b53c f2ef 7f3f
000001f0: c55f e53b 65fe 7f3f ed11 113b d7ff 7f3f
00000200: 9546 7d3f f6fd 14be 7e06 133f e591 51bf
00000210: a5a4 373f 5f5b 323f 5126 803e 02da 773f
00000220: 50aa a33d 652e 7f3f 8a38 cf3c 08eb 7f3f
00000230: 1212 033c e7fd 7f3f 55cb 253b caff 7f3f
00000240: 3201 d33e d53f 69bf ee1f 953e a2e6 74bf
00000250: 1c88 483f d521 1f3f 2dc2 8f3e a9b3 753f
00000260: 3e12 b83d c2f6 7e3f ea1d e93c 76e5 7f3f
00000270: 3a74 133c 59fd 7f3f bc84 3a3b bcff 7f3f
00000280: f844 0bbf 64cd 56bf 9770 a9bc fbf1 7fbf
00000290: a46a 573f 4151 0a3f 3d39 9f3e 6b4e 733f
000002a0: 7675 cc3d 98b8 7e3f 5981 013d 3cdf 7f3f
000002b0: 57d6 233c b9fc 7f3f 223e 4f3b acff 7f3f
000002c0: 5cff 7fbf 7205 913b 1f41 a9be 8d9b 71bf
000002d0: 2a26 643f c33d e83e 8b87 ae3e e4aa 703f
000002e0: 72d3 e03d e873 7e3f 6873 0e3d 5bd8 7f3f
000002f0: 6938 343c 09fc 7f3f 87f7 633b 9bff 7f3f
00000300: d85c 09bf d006 583f 2491 1bbf 564f 4bbf
00000310: 1d9a 6e3f f786 b93e 2ca9 bd3e c3c9 6d3f
00000320: ac2b f53d b528 7e3f 1965 1b3d d2d0 7f3f
00000330: 709a 443c 48fb 7f3f ebb0 783b 87ff 7f3f
00000340: 2220 d73e 6f4e 683f 4c14 53bf 9dd9 10bf
00000350: c0ab 763f 9df5 883e 3f9a cc3e c3ab 6a3f
00000360: d0be 043e 00d7 7d3f 6556 283d a1c8 7f3f
00000370: 6afc 543c 76fa 7f3f 26b5 863b 72ff 7f3f
00000380: 7298 7d3f d704 0c3e b3a8 75bf 0a0d 90be
00000390: 6f46 7c3f e70b 2e3e f456 db3e b151 673f
000003a0: 64e4 0e3e cc7e 7d3f 4347 353d c9bf 7f3f
000003b0: 555e 653c 94f9 7f3f d611 913b 5cff 7f3f
000003c0: 4479 263f e87a 42bf 75e0 7fbf 9622 fe3c
000003d0: d55b 7f3f bade 903d 83db e93e 68bc 633f
000003e0: 4f06 193e 1a20 7d3f aa37 423d 49b6 7f3f
000003f0: 32c0 753c a1f8 7f3f 856e 9b3b 43ff 7f3f
0.0 1.0 0.0 1.0 0.0 1.0 0.0 1.0
0.0 1.0 0.0 1.0 0.0 1.0 0.0 1.0
0.84147096 0.54030234 0.3109836 0.9504153 0.099833414 0.9950042 0.031617504 0.99950004
0.009999833 0.99995 0.0031622713 0.999995 0.0009999998 0.9999995 0.00031622782 0.99999994
0.9092974 -0.41614684 0.5911271 0.8065784 0.19866931 0.9800666 0.063203394 0.9980007
0.019998666 0.9998 0.006324511 0.99998003 0.0019999985 0.99999803 0.0006324556 0.9999998
0.14112 -0.9899925 0.8126489 0.58275366 0.2955202 0.9553365 0.094726086 0.99550337
0.0299955 0.99955004 0.009486687 0.999955 0.0029999954 0.9999955 0.00094868336 0.9999996
-0.7568025 -0.6536436 0.95358074 0.30113748 0.38941833 0.921061 0.12615407 0.99201065
0.039989334 0.9992001 0.01264877 0.99992 0.003999989 0.999992 0.0012649109 0.9999992
-0.9589243 0.2836622 0.99994653 -0.010342338 0.47942552 0.87758255 0.15745588 0.987526
0.049979165 0.99875027 0.015810724 0.999875 0.004999979 0.9999875 0.0015811383 0.99999875
-0.2794155 0.96017027 0.9471482 -0.3207964 0.5646424 0.8253356 0.18860027 0.98205394
0.059964005 0.99820054 0.018972522 0.99982 0.0059999637 0.999982 0.0018973658 0.9999982
0.6569866 0.75390226 0.8004216 -0.5994375 0.6442176 0.7648422 0.2195561 0.9755999
0.06994285 0.997551 0.022134129 0.999755 0.006999942 0.9999755 0.0022135929 0.99999756
0.98935825 -0.14550003 0.5743178 -0.8186324 0.717356 0.6967067 0.25029233 0.9681703
0.07991469 0.9968017 0.025295515 0.99968004 0.007999914 0.999968 0.0025298197 0.9999968
0.4121185 -0.91113025 0.29125923 -0.9566442 0.78332686 0.62161 0.28077832 0.95977265
0.089878544 0.9959527 0.028456647 0.99959505 0.008999879 0.9999595 0.0028460464 0.99999595
-0.5440211 -0.8390715 -0.02068357 -0.9997861 0.84147096 0.54030234 0.31098357 0.9504153
0.099833414 0.9950042 0.031617496 0.99950004 0.009999833 0.99995 0.0031622727 0.999995
-0.9999902 0.004425698 -0.33057496 -0.94377977 0.89120734 0.4535962 0.34087786 0.9401076
0.1097783 0.9939561 0.03477803 0.9993951 0.010999777 0.9999395 0.003478499 0.999994
-0.53657293 0.84385395 -0.6076834 -0.7941793 0.9320391 0.36235783 0.3704313 0.9288599
0.119712204 0.99280864 0.03793821 0.9992801 0.011999711 0.999928 0.0037947248 0.9999928
0.42016703 0.9074468 -0.82452846 -0.5658205 0.9635582 0.26749888 0.3996143 0.9166834
0.12963414 0.9915619 0.041098017 0.9991551 0.012999633 0.9999155 0.00411095 0.99999154
0.9906074 0.13673721 -0.9596054 -0.28134948 0.98544973 0.16996728 0.42839777 0.90359026
0.13954312 0.990216 0.044257414 0.99902016 0.013999541 0.999902 0.004427175 0.9999902
0.65028787 -0.7596879 -0.9995187 0.031022351 0.997495 0.07073732 0.45675287 0.8895936
0.14943813 0.9887711 0.047416367 0.9988752 0.014999436 0.9998875 0.0047433996 0.99998873

enc_embedding.temporal_embedding.embed.weight f4 [16, 4]
00000000: a66a 9a3e 9269 ccbe fa38 bb3e de3d f53e
00000010: 0c14 d53e 243e 77be f29f a53e 3ae2 afbe
00000020: c8cd fbbe a081 a5bc 48db 60be 9c90 dd3e
00000030: 06c6 a7be 18c7 1c3e 94d0 323e e0a7 bd3c
00000040: 380b dabd 48c4 b23e a08e 5f3e 58d9 8fbd
00000050: a439 fa3e 28a4 c73d 4615 f9be 621a eabe
00000060: cc82 e5be c259 e63e 7ce7 aebe 7430 e83e
00000070: 002e 4abc 089c eebe 784b b13e 680e 3f3e
00000080: ac98 f93e 1238 e4be 941b 80be 7032 41be
00000090: 303b 9b3e 68cc e23e b284 cb3e 9eed f03e
000000a0: 0cd1 033e c85b 853e 8e18 be3e 9cd5 c33e
000000b0: a07e 193e 8e9a 903e 0089 3c3c fcb2 943e
000000c0: 30cd a2bd 4034 edbc 20fa fbbc e8de b93e
000000d0: 705f d83e 9a71 c93e 145a 87be 1e75 d03e
000000e0: 3cfb 473e 00a0 eebd c022 84bc 30ba c8be
000000f0: befa f63e b2f1 edbe 620a f1be f8f7 963d
0.3015949 -0.39924294 0.36566907 0.47898763 0.41616857 -0.24144799 0.3234859 -0.34352285
-0.49180436 -0.020203412 -0.21958649 0.4327439 -0.32768267 0.15310323 0.17462379 0.023151338
-0.10646671 0.34915376 0.21831751 -0.07023877 0.488721 0.09748107 -0.48649043 -0.45723253
-0.44826353 0.44990355 -0.34160984 0.45349467 -0.012340069 -0.46603417 0.3462789 0.1865784
0.48749292 -0.44574028 -0.2502104 -0.18866897 0.30318594 0.44296575 0.39749676 0.47056288
0.12872714 0.26046586 0.3712811 0.3824891 0.1498971 0.28242916 0.011507273 0.29042804
-0.07949293 -0.028955579 -0.030758917 0.36302876 0.42260313 0.39344484 -0.26435912 0.40714353
0.19529432 -0.11651611 -0.016129851 -0.3920455 0.48238176 -0.4647346 -0.47078234 0.07371515

encoder.attn_layers.0.attention.query_projection.weight f4 [16, 16]
00000000: 5ded a93d 81a3 763c d84e 1c3d 8eff 4dbc
00000010: 3684 e43d 8d0c 98bd 98fa 073c ab89 4dbc
00000020: 1e3e ae3d cd58 3e3b b3bc 873d 23a5 42bd
00000030: 9a46 fbbd bafb 8a3d 6fcc bcbd 5965 913c
00000040: f1ce 00bd a699 1fbc e613 493d 09d1 553c
00000050: 99c6 a9bd 2a9b 99bc 7091 18bd 6b04 efbd
00000060: 25ec 8abc cd5a 8cbd 884e ce3d c3e3 3f3e
00000070: 4b8a 353e 1130 a9bc 3b36 bdbc 071e 193d
00000080: bade e93b d383 b0bd fec2 253c ff70 ae3d
00000090: fe4a fcbc 892f 8abb 7e54 ed3c 8c53 a0bc
000000a0: 625b 393e 9b3d 1fbe 9c90 fe3e fdff 073d
000000b0: 2838 43bf 9aa3 343d 883b 513d 6e69 203e
000000c0: 4b7d 28bc 01d0 f9bb 6dce e9bd fabe 15be
000000d0: 697b 9e3d 8363 913d 7966 763d 28f0 3f3d
000000e0: 4db5 fcbd e686 143e 42e3 6f3e 65cb 873e
000000f0: 343c 8fbf 8347 fe3c c64b 2e3d 7e74 10bd
00000100: 8232 1a3d 5e92 dbbc cf07 e7bd 8904 7f3d
00000110: 49f9 e33c f403 be3c e88b 853a 56f4 b03d
00000120: 4146 8dbb 253a ee3d 7904 05be 6a36 2c3e
00000130: 1482 9a3f 4dcf cdbc 4cd2 6bbd b126 20bc
00000140: 8f31 69bb 5970 423b dc91 3ebe 8766 773d
00000150: ef39 6a3d fecd e63c 0eb5 053d ec08 a53d
00000160: 32f5 6a3d 6f42 193e b98f c63e cdc9 d03d
00000170: a7e9 92bf 5166 9ebc 31a1 47bb 5e41 813c
00000180: 7e7d d13d 2d33 4c3d 8c1f 6f3d af98 393e
00000190: bd44 9b3c e69c 173d 0c89 eb3d fbbb 903d
000001a0: d393 19be a20f 7ebb ec31 cd3c d356 0fbe
000001b0: 5612 9e3d 9993 43be 1ff6 90bd 09f1 ebbe
000001c0: 5727 183c e039 af3d d358 21bc 1363 ed3d
000001d0: 1b00 1fbd 1e89 7e3d 99db ae3c 56db 443d
000001e0: df25 8dbd 15f8 bf3d 6e6d c9bc a87f f6bb
000001f0: 6ed0 19be e537 bebd 6558 273d 46d8 d7bd
00000200: 5c0e 243d 9d5c 7bbd 68c6 833d 072b 233e
00000210: faef 063d cb45 5a3e 1fbb b7bd 4748 023e
00000220: 274b 2a3d c6a2 2b3e 5860 9d3e 3d83 a13e
00000230: 7e53 9d3e beb3 6bbe 1ff3 613e b228 b1be
00000240: b4d1 0abb de62 c8bd 5d26 a63d 316a c2bc
00000250: c362 aebc 2738 cebc 8895 e7bd 5aa1 88bd
00000260: 6cb6 7ebc 51e2 833d b17d 943c 752c 61bd
00000270: 01a8 e2be 80eb cb3c e19d 5ebe 3eff bb3e
00000280: 253c 89bd 7a06 2e3e 8df1 0abc 178f 6cbe
00000290: ad1d 9cbe e30c ae3c 5323 f03d b5ab fdba
000002a0: 6902 c43c d1d9 2d3e 5203 bebd 05c5 533c
000002b0: 1dee 3cbe 2dce cebc e504 97be e5cd c13e
000002c0: 66f0 4f3e 126e 1d3e 3b4c 293e 5cbb e73d
000002d0: 21f4 a53d fc8b de3d 90c0 003d 0d77 a43d
000002e0: f9ac 10be 4262 d4bd f00d dc3c 4f0f f0bb
000002f0: ce62 b43c f688 6cbd f629 adbe 19a2 993e
00000300: 413f 3b3d 1efd 3abd 4244 b1bd d11a 263d
00000310: 63bd aabd ad57 d93d c4e5 94bd 1b9b ab3d
00000320: 11c6 3abe 26c8 2bbc 1c36 c8bd 4514 8d3d
00000330: d360 1cbd 853b bd3d a391 733f ccbc d2bd
00000340: ce1c 8a3d 9e7e 73bc be49 d7bd 8572 a33c
00000350: 2e13 f4bc 6550 e33d 934e 83bd 67dd 943d
00000360: d9ec c9bd 3ede 00be 0001 b4bd 8a44 043e
00000370: febb d9bd ad2d 953c 948f 90bf 82d5 44bb
00000380: 635b ccbc 04db 5cbd 552b 433c ae2a 153d
00000390: fe72 933d 16eb 793d 69a6 8c3c c4dc 57bd
000003a0: 9b39 a1bd fe49 823d 0fc9 8bbc 5ddc 353b
000003b0: 9a17 debd 79c7 18be 9eaf 9a3e 13a3 dfbd
000003c0: bee5 993d 3ac9 283d d3d9 5a3c 4b81 cd3d
000003d0: 0c2e 4f3c 7f70 36bc da88 6c3d 5dda 963d
000003e0: 7451 96bc cf01 27bd e986 39bc bb87 a6bd
000003f0: 11bc 87bd 34c6 8abe 6e23 223e 0c75 f5bd
0.082972266 0.015053631 0.03816113 -0.012573136 0.1115803 -0.07424269 0.008299492 -0.01254503
0.08507942 0.0029044629 0.066277884 -0.047520768 -0.122693256 0.06786294 -0.0921868 0.017748522
-0.031447355 -0.0097412225 0.049091242 0.013050326 -0.082898326 -0.018750746 -0.037248075 -0.116707645
-0.016958306 -0.068532564 0.100735724 0.18739228 0.17728536 -0.020652803 -0.023097148 0.037382152
0.007137147 -0.086188935 0.010117291 0.08517646 -0.030797478 -0.0042170924 0.028970953 -0.019571088
0.18101266 -0.15550844 0.49719703 0.033203114 -0.7625756 0.044101335 0.051082164 0.15665218
-0.010283778 -0.007623673 -0.11416326 -0.14623633 0.07738382 0.070990585 0.06015632 0.04685989
-0.12339268 0.14504585 0.23426536 0.26522365 -1.1190248 0.031039959 0.042552732 -0.035267346
0.037645824 -0.026803192 -0.11280786 0.062260184 0.02782883 0.023195244 0.001018879 0.086403534
-0.0043113534 0.11632184 -0.12989987 0.16817632 1.2070947 -0.025123263 -0.0575736 -0.00977485
-0.0035582518 0.0029669015 -0.18610328 0.060400512 0.057184156 0.028174397 0.03264337 0.08058342
0.057362743 0.14966749 0.38781527 0.101947404 -1.1477555 -0.019335898 -0.0030461068 0.01577824
0.10229014 0.049853493 0.058379695 0.1812465 0.018953675 0.037014864 0.11500749 0.070671044
-0.14997797 -0.0038766642 0.025048219 -0.13997965 0.07718341 -0.19099273 -0.07078194 -0.46082333
0.009286723 0.08555961 -0.0098478375 0.115911625 -0.03881846 0.062142484 0.021344947 0.048060738
-0.06891989 0.0937349 -0.024588313 -0.007522542 -0.15020916 -0.09288005 0.040855784 -0.10539298
0.040052757 -0.06136762 0.06434327 0.15934382 0.032943703 0.21315686 -0.089712374 0.12722884
0.041575577 0.16761312 0.30737567 0.3154544 0.30727762 -0.23017785 0.220654 -0.3460136
-0.0021182122 -0.097844824 0.08112786 -0.023732277 -0.021287328 -0.02517326 -0.11307818 -0.066714
-0.015546422 0.06439651 0.01812634 -0.05497404 -0.44268802 0.024892569 -0.21739914 0.36718172
-0.06700925 0.16994658 -0.008480442 -0.2310146 -0.3049139 0.02124638 0.117254876 -0.0019353541
0.02392693 0.16977622 -0.09277977 0.012925391 -0.18450208 -0.025244797 -0.29495922 0.37852398
0.20306548 0.1537402 0.16532986 0.11315033 0.081032045 0.10866544 0.031433642 0.0803052
-0.14128484 -0.10370304 0.026862115 -0.0073260437 0.02201977 -0.057747804 -0.33821076 0.30006483
0.04571462 -0.045651548 -0.08655597 0.040552918 -0.08336904 0.10612426 -0.07270387 0.083791934
-0.18239619 -0.010484731 -0.097759455 0.06888632 -0.038178276 0.09239868 0.951441 -0.102899164
0.06743775 -0.014861731 -0.10512112 0.019952068 -0.029794302 0.110993184 -0.06411471 0.07268792
-0.09859628 -0.12584779 -0.08789253 0.1291677 -0.1063156 0.018210256 -1.1293817 -0.0030034487
-0.02494592 -0.053919807 0.011912187 0.036417656 0.071996674 0.06101521 0.017169194 -0.052700773
-0.078723155 0.06361769 -0.017063646 0.0027749755 -0.108443454 -0.14919843 0.3021211 -0.10919776
0.07514523 0.04120753 0.013357597 0.10034426 0.012645256 -0.01113522 0.0577477 0.07365868
-0.018349387 -0.04077321 -0.011323669 -0.08131357 -0.06627668 -0.27104342 0.15833828 -0.119852155

encoder.attn_layers.0.attention.query_projection.bias f4 [16]
00000000: 134d 613e 23b8 4bbe 72ee 98bc fadb debd
00000010: 6e6f d6bd 954f 793b 166a 653f 5011 c13e
00000020: 4545 223f 2582 93bf d5e3 973e 8c51 323f
00000030: ab3f 41be d8ac 083e d5cb 0d3f ee5f 9c3e
0.22002058 -0.19894461 -0.018668387 -0.10881801 -0.10470472 0.003804182 0.89615 0.3770852
0.63386947 -1.1524092 0.2966601 0.6965568 -0.18871944 0.13347185 0.5538915 0.3054194

encoder.attn_layers.0.attention.key_projection.weight f4 [16, 16]
00000000: 25a3 09bc 0d5a bdbb 1a5c f63c 4ab5 97bc
00000010: e16e 0bbd fe5d 19bd 9d5a 5bbd 9f4c dbbc
00000020: f35f 37bc d407 dc3c 8d92 b1bb a153 03be
00000030: 62f7 ea3c 9039 58bd 4d86 483d 34cd 70bc
00000040: 7cdf edbc 5878 1abd fd56 633c 1748 f83c
00000050: 6981 e33d 3466 afbc 6f5b 30bd f5ec 37bd
00000060: 71b2 ad3d 8886 d33b 7116 a43b ad3c 323d
00000070: e7b2 32bb 0175 d53d e84f c03c bc10 54bd
00000080: ea06 b33c c08d dcbb 7390 bc3c c7d6 b8bd
00000090: cf4c 54bc 407c b03d d5de 5abd 2db6 3d3e
000000a0: c72a 2fbe 04b2 343e 71f7 a5bc 141f c5be
000000b0: ea35 1c3e a96c cbbe 0590 12be 2923 043e
000000c0: c82d df3c 06a3 2f3c 1b5b 2a3d 77fe debc
000000d0: 3cc5 dc3c bdef b3bd eb0d 5abe c6fb 9bbe
000000e0: 68a1 523b f2f4 c9bd 42bb 2a3d 6bf4 dabe
000000f0: c601 933e dab5 b3be 8749 863e c182 63bd
00000100: cd8e edbd c10f 8f3d 7cab 6f3d 87b6 dbbb
00000110: 5d8a a43d 3457 f73c 28aa 2c3d 8957 043d
00000120: 2554 a0be 99c8 333e 6f47 8abd 7487 e23e
00000130: 9ae5 8ebd b581 60bc f1dc d93c c093 1f3e
00000140: 3c6c 63bd d1b4 b93c d2fa 313d 5f5d 063d
00000150: 3e08 cc3d fb8e 353d e17b 003d fdb8 963d
00000160: edb1 0f3f aafd 0f3d 0f76 83bc d8e8 20be
00000170: 7228 8ebd d7da e43c 6674 193d 53b7 543c
00000180: 6876 6b3c 4d3d 5fbc df3e 8f3a 0112 b1bb
00000190: 10ee 06bf 7c17 3639 3e6e 8f3b c179 aa3b
000001a0: 9aff 3c3d 303e 5cbb 9826 4e3d cbd5 edbb
000001b0: 166e 82bc fb16 d63c 8348 6fbc b773 03bd
000001c0: f66b 363d a60f c0bc 95ec f23c 480d 42bc
000001d0: 1d09 9fbe 4361 ec3b f4a8 b1ba b8fe 01bc
000001e0: 3380 653c 3d52 05bc f430 0dbd f3af 2dbd
000001f0: 1fab 9dbc 9b7e 49bd d1df 0fbd 7a47 39bc
00000200: 0b00 65bd e617 c6bc 51a7 3f3d fd9c 373d
00000210: 6019 c93d 3ec9 d9bd 6ce4 95bd c8b9 2abe
00000220: accd 043d ec5b 583c f8aa 903d 1659 e0bd
00000230: 1f6f 79bb 4474 0bbf 0f43 fd3d 473c ab3d
00000240: 21f9 0f3c 086f 043d f7fa 33bd b3b3 27bc
00000250: 04da 1b3d d244 dd3d 9d3f 82bb ffc2 353e
00000260: 6069 1c3e f16d 14be a102 653e be27 b73e
00000270: 534c e2bd 35c2 1b3f 0806 6ebd 5186 1bbe
00000280: e520 903b 36e0 423c a393 1fbb df71 1d3d
00000290: 4631 18be 58e9 a43d 942a d0bc 7a9f bcbd
000002a0: e43f c7bd a042 603d 76e5 0bbd 1f56 fdbb
000002b0: 95ef cc3c 49f7 c3bc 1587 033f 6458 eb3d
000002c0: f730 023c 3989 30bc 9787 e53c 4b2c 08bd
000002d0: 4c92 c33d 0449 a4bd 56f7 583c 15db 533d
000002e0: a133 093d 6966 44bd ba87 0b3d 974d acbc
000002f0: 58c3 34bc b5d3 a3bc 1ea2 523f 2448 95bd
00000300: e4a5 c43d f595 f9bc 3843 e23c 214c dfbc
00000310: 6187 7d3d e13c ef3b cf49 56bd 1c5f 4f3b
00000320: f056 bf3b 5764 2c3d 28cf a93e 9042 c6bd
00000330: 2338 6c3d f467 f6bd 9828 a3bd e38f bc3c
00000340: e96d b8ba 6cac 9f3a 43d4 2b3b 1f2f 133c
00000350: 3844 c93c 24a6 213c 7935 c4bc e405 9b3c
00000360: 52ba 3cbc 58c6 933c 4b7b 84be 8747 66bc
00000370: 7cd8 f43c 4758 94bd f4ed fcbc 3fca 733d
00000380: e3c4 133d 578e 41bb b018 23bc f5d4 363c
00000390: 26ea 143d 9e35 4c3c 6841 883c 9b37 f2bb
000003a0: de6d 2c3d 91a4 f03a 1fcc 4a3d 2489 003e
000003b0: 4cea 1bbd 86d6 813d 9330 ad3b 135c 42bc
000003c0: 8fb4 f43d b7b8 1c3c 5ced 0d3d eacc a8bc
000003d0: 6cd3 af3e 0f06 6d3d c769 3cbd 097d a83d
000003e0: 072a 873d 4490 033d 237c 973c ab42 ff3c
000003f0: 7a14 05bd 78eb 08bd 40f8 9d3c 534f db3d
-0.008400713 -0.005778557 0.030073214 -0.018519063 -0.03404129 -0.037443154 -0.053553212 -0.026769934
-0.01119231 0.026859201 -0.0054190815 -0.1282487 0.028682414 -0.05278927 0.048956204 -0.014697362
-0.02903723 -0.037712425 0.01387572 0.030307813 0.111086674 -0.021411039 -0.043055948 -0.044903714
0.084813006 0.0064552464 0.005007558 0.043514896 -0.0027267279 0.10422707 0.023475602 -0.05177377
0.021853883 -0.006730765 0.023018098 -0.090253405 -0.012957766 0.08617449 -0.053435165 0.18526526
-0.17106162 0.17646033 -0.02025959 -0.38500273 0.15254942 -0.3973134 -0.14312752 0.12904038
0.02724351 0.01072002 0.04159079 -0.027220948 0.026949517 -0.08785961 -0.21294372 -0.30465525
0.0032139663 -0.09861173 0.04168249 -0.427646 0.2871229 -0.3509968 0.26227972 -0.05554462
-0.11599503 0.06985427 0.05851315 -0.0067051086 0.08034203 0.030192949 0.04215446 0.032310043
-0.31314197 0.1755699 -0.06751906 0.44243968 -0.06977387 -0.0137028 0.02659461 0.15583706
-0.055523142 0.022669228 0.04345209 0.03280389 0.099625096 0.04432581 0.03136814 0.073595025
0.5613087 0.035154022 -0.016047506 -0.15713823 -0.06941308 0.027936382 0.03746452 0.012983161
0.014371492 -0.013625455 0.0010928771 -0.0054037576 -0.52707005 0.00017365621 0.0043771556 0.0052025025
0.0461422 -0.0033606403 0.050329775 -0.007258152 -0.015921634 0.026134005 -0.0146046905 -0.032092776
0.044536553 -0.023444962 0.029653827 -0.011843987 -0.3106164 0.007213743 -0.001355438 -0.007934265
0.014007616 -0.008137283 -0.034470513 -0.042404126 -0.019246636 -0.049193006 -0.035125557 -0.011308545
-0.055908244 -0.024181318 0.046790425 0.04482745 0.09819293 -0.10634087 -0.07318959 -0.16672432
0.032422706 0.01320551 0.0706386 -0.10954492 -0.0038060618 -0.5447428 0.12366306 0.08361106
0.008787424 0.03233245 -0.04394051 -0.010235715 0.038049713 0.10804142 -0.0039748685 0.17750166
0.15274572 -0.14495064 0.22364284 0.35772508 -0.11049714 0.6084321 -0.05811122 -0.15187956
0.0043984526 0.011894276 -0.0024349473 0.038438674 -0.14862546 0.08052319 -0.025410928 -0.09210105
-0.09728983 0.05475104 -0.034154378 -0.0077312137 0.025016585 -0.023921626 0.51377994 0.114914685
0.007946244 -0.010774904 0.028018756 -0.033245366 0.09549388 -0.08021739 0.013242563 0.051722605
0.033496503 -0.04794923 0.034064986 -0.021033091 -0.011032902 -0.01999841 0.8227862 -0.0728915
0.096019536 -0.030467013 0.027619943 -0.02725798 0.061896686 0.0073009585 -0.052316483 0.0031642383
0.005839221 0.04208788 0.3316586 -0.096806645 0.057670724 -0.12031546 -0.07966727 0.02301783
-0.0014070842 0.0012182123 0.0026219047 0.0089834025 0.024568662 0.009866271 -0.023951279 0.018923707
-0.011519032 0.018038914 -0.25875315 -0.014055139 0.029888384 -0.072434 -0.030875184 0.05951905
0.036076438 -0.0029534304 -0.009954616 0.011159171 0.036356114 0.012463955 0.01663275 -0.0073918826
0.042096965 0.0018359591 0.04951107 0.12552315 -0.03806524 0.06339745 0.0052853315 -0.0118627725
0.11948501 0.009565524 0.03465019 -0.020605523 0.3434099 0.057867106 -0.045999315 0.082269736
0.06599813 0.032120004 0.01849181 0.03115972 -0.03249023 -0.033427685 0.019283414 0.10708489

encoder.attn_layers.0.attention.key_projection.bias f4 [16]
00000000: dcd5 6fbe e840 393e e83f 7fbd a951 833d
00000010: 7bb8 8d3d 3155 0dbe 9117 ba3b 0bc6 fcbd
00000020: 4aa9 e83d 742e 82be eb1a d23d 9172 5bbe
00000030: 41d7 f23d f127 fa3d 3573 203e 7254 803e
-0.23421425 0.18091166 -0.062316805 0.0641206 0.069199525 -0.13802029 0.005679079 -0.12342461
0.11360414 -0.25426066 0.102590404 -0.21430422 0.11857463 0.122146495 0.15668948 0.25064427

encoder.attn_layers.0.attention.value_projection.weight f4 [16, 16]
00000000: 5593 6dbe 1e6d 9abe aa89 78bd 8b93 513e
00000010: dcef 003e cb49 47bc 3da5 3a3e ea3b 853d
00000020: aa08 be3d c897 e43b db4b ac3d 4a49 013e
00000030: 0d17 86be b410 2d3e bac9 ae3e 1134 74be
00000040: ce86 0cbe 1832 06be 2d91 7f3e a614 2e3e
00000050: f946 8f3e d01b 6ebe 7c6a 44be 798d 0dbd
00000060: 2082 c23c 4858 d63d 322a ac3d 43c6 d5be
00000070: 9477 1cbc 20ad 3abe 2a0d 053e 952a d8bd
00000080: 431b 63bc 122a da3c 8876 f93c 62fb 0a3d
00000090: 5716 a43b 3e55 a0bd 1c55 38bd 164e c4bd
000000a0: dd85 7a3d 5395 17bb d20b f5bc 9d08 b0bd
000000b0: 4566 5f3d 8110 cdbd cdc3 c43d 9892 c9bc
000000c0: 928e f63c f92d 15bd 0237 4c3c 531b 97bd
000000d0: 288b acbc d052 593d 82a4 95bc bca5 823d
000000e0: 3c3c b9bd 07cc f13c 98f4 123d bb61 4dbe
000000f0: 5065 d93c aea1 c8bd 5657 233c cb09 413d
00000100: 5137 503d 7827 0abd 48b5 32bd 8df0 83bd
00000110: 2641 823d a677 b43d 3f1a 333d 0251 a63d
00000120: 2a7c 823e 866b 18bd 1dcd fc3b a61d 24be
00000130: 70e0 6dbd 43bd 24bd 9a2f 08bd 4700 56be
00000140: 933e 1ebb 8b64 4b3b 9548 9c39 137f 673b
00000150: 6296 3ebd 26be dabb 29fb 87bb 03dc 06bd
00000160: ace2 efbe 80ae b0bc 4050 da3b 3963 f13d
00000170: b4f7 cf3b bfb6 43bd cd01 04bc fd6b 8bbd
00000180: ae2b 7a3e 4c8a 383c b14d 023e d119 73be
00000190: 47db 2c3f a25a 833d 1a58 e2bd d4f9 ddbc
000001a0: 2baf 63be 395b 543c d078 4dbe de91 b9be
000001b0: 294d 243e 46a7 afbe f19f abbc 62fd bebd
000001c0: 1bef b03e 94f6 843c d619 373e f664 8ebe
000001d0: f510 b0bf 3129 c53d 7bb1 39bd 6f17 6e3c
000001e0: c349 d53c a29b 80bd 038b 12be 8f1e 8b3d
000001f0: 7a79 7c3e cb2c 5c3e ead6 debd 9a23 f73e
00000200: 2d5c 9cbd 889b cf3c 51dc 5f3c dc4f 843d
00000210: 16fd 6ebd 10c7 d6bd 2a81 4bbc 4b1c e5bd
00000220: c658 663c e831 10bc c9a8 063e 8dd7 933e
00000230: 9c5a 273d 349b 283e 8c75 25be 07a6 ef3d
00000240: 0d31 91bd 6e4d 023d 0127 d93c 5aec 883d
00000250: a1e4 bcbd b5eb efbd 3857 bebc b4de 27be
00000260: 09f4 03bd 9d36 973c c1b9 223d 6f63 a1bc
00000270: 5b46 363d f743 52be c620 aabd 8686 663c
00000280: d443 02bd 04d3 863c 59bb b33c 1a23 033d
00000290: e98d 8abd 0df4 b2bc c1e6 c6bc 6d4a 9bbd
000002a0: a8d3 4cbe 219d 9b3c d735 0ebd deeb 87bd
000002b0: aa2e 223d 31f8 c1bd b096 32bd dea6 ea3c
000002c0: 0c8e d0bc 2e35 a1bc 5bf8 38ba df05 1e3b
000002d0: 5ea1 fc3c 94c9 7fbb 9b15 903c da13 a33a
000002e0: 5b09 693d e480 0fbc ee5c 8e3c 3e91 2b3b
000002f0: cce5 993c 003b 733b ce45 223f fdbc d3bd
00000300: 3808 b5bb b858 d0bc 1f86 8c3c 7afc a2bc
00000310: 971b fc3c 76b0 3abc f3b0 5bbc 2f75 32bd
00000320: 1fbd 21bc 1df7 553c aa19 cc3e 2fc4 dcbc
00000330: c363 e53c 7e88 1bbc 8fa9 293d 4e90 643d
00000340: c3b2 2a3d d8c3 15bd 888a be3c 6cf6 92bc
00000350: feea d33b e7a8 b4bc e415 b03b b473 1cbd
00000360: 86ab 94bc aded 3b3c 0560 34be 1de5 c6bd
00000370: 3b77 b63c f98c a0bc 26f7 993d 5d1f b0bd
00000380: e56d a3be 2a6d f63d 616d 58bb db46 6f3e
00000390: cd9a 70bf a100 3fbe 81c5 24bd 720c a2be
000003a0: b693 f5bc c93f f8bd 17a3 84bd f0e2 5cbe
000003b0: 3f75 883d 5cf8 70bd af65 64be 9ad7 84be
000003c0: 2c71 063f afd0 08be d3fe 733e b7de afbe
000003d0: f292 963d 266b 353e cf11 e5bd 1bed 8a3e
000003e0: ee63 10be a960 e13d 95f7 9dbd ed32 53be
000003f0: 49b2 b13e 1788 75be 99be a43e b8cd f33d
-0.23200734 -0.30161375 -0.06067816 0.2046644 0.12591499 -0.01216359 0.18227096 0.06505568
0.09278996 0.0069761015 0.08412906 0.12625614 -0.2618946 0.16900903 0.3413828 -0.23847987
-0.13723299 -0.13105047 0.24957724 0.17000064 0.27983835 -0.23252797 -0.19181246 -0.034558747
0.023743689 0.10466057 0.084064856 -0.41752824 -0.009549994 -0.18230104 0.12993303 -0.10554997
-0.01386148 0.026631389 0.030452028 0.033931144 0.005007546 -0.07828759 -0.04500304 -0.09585206
0.06116282 -0.0023129776 -0.029912863 -0.08595393 0.05454089 -0.100129135 0.096076585 -0.024606034
0.03009728 -0.036420796 0.012464287 -0.073782586 -0.021062449 0.05305749 -0.01826692 0.063792676
-0.09044692 0.029516233 0.035877794 -0.20056812 0.026537567 -0.09796463 0.009969553 0.04712848
0.050834004 -0.033729047 -0.043629915 -0.06442366 0.06360082 0.08811884 0.043726202 0.0812092
0.25485355 -0.037211917 0.007714881 -0.16026935 -0.05807537 -0.040219557 -0.03324852 -0.20898543
-0.0024146184 0.003103527 0.00029808716 0.0035323545 -0.046530135 -0.0066754995 -0.0041498137 -0.032924663
-0.46852624 -0.021567583 0.0066623986 0.11786503 0.006346667 -0.047781702 -0.00805707 -0.068077065
0.24430725 0.011263441 0.1272495 -0.23740317 0.6752209 0.06413771 -0.1105196 -0.027096666
-0.2223479 0.012961202 -0.20065618 -0.362441 0.1604506 -0.34307307 -0.02095029 -0.09325673
0.34557423 0.016230859 0.1788095 -0.27811402 -1.3755175 0.09626997 -0.045335274 0.014531954
0.026036149 -0.062796846 -0.14310841 0.06792938 0.24655715 0.21501462 -0.10880835 0.4826935
-0.07634769 0.025342718 0.013663367 0.064605445 -0.05834683 -0.10487187 -0.012420932 -0.11187037
0.014059251 -0.008800961 0.13150324 0.2887539 0.040857896 0.16465455 -0.16158122 0.11701589
-0.07089434 0.031812124 0.026507856 0.066857055 -0.09223295 -0.117148794 -0.023234949 -0.16393548
-0.032215152 0.018458659 0.03972793 -0.019700734 0.04450069 -0.20533739 -0.08307032 0.014070159
-0.031802967 0.016458042 0.02193992 0.032015897 -0.067653485 -0.021844888 -0.024279954 -0.07582555
-0.20002615 0.018995823 -0.034719314 -0.06636785 0.039595284 -0.09471167 -0.043600738 0.028644022
-0.025458358 -0.019678678 -0.0007056051 0.0024112386 0.030838665 -0.0039030062 0.017588427 0.0012441829
0.056893688 -0.008758757 0.017378297 0.00261791 0.018786334 0.0037114024 0.63387764 -0.10338781
-0.0055246614 -0.02543293 0.017153798 -0.01989578 0.030774875 -0.011394611 -0.013408887 -0.043568786
-0.00987175 0.013059405 0.3986333 -0.026949016 0.028001672 -0.0094929915 0.04142147 0.055801682
0.041674387 -0.036563724 0.023259416 -0.017939769 0.0064672222 -0.022053195 0.0053737033 -0.03819628
-0.018148195 0.011470241 -0.17614754 -0.09711669 0.02227365 -0.019598471 0.07517843 -0.08599732
-0.3191978 0.1203254 -0.003302418 0.23366873 -0.9398621 -0.18652584 -0.040227417 -0.3165012
-0.02997766 -0.12121541 -0.064764194 -0.21570945 0.06662988 -0.058830604 -0.22304414 -0.2594574
0.52516437 -0.13360856 0.23827676 -0.34349605 0.07352246 0.17716655 -0.11185037 0.27134022
-0.1410062 0.110047646 -0.07713238 -0.20624895 0.34706333 -0.23977695 0.32176664 0.11904472

encoder.attn_layers.0.attention.value_projection.bias f4 [16]
00000000: 4914 b83c 529d f0bc 2fc5 85be 2520 82be
00000010: 65a6 1dbe bba6 32bf 13b8 aebd 5b8e ba3e
00000020: 522d 733f f4bb 75bf 2c10 263e 126d 55be
00000030: 0cb8 063e 6295 c1bd bea1 9bbe 82a7 bebd
0.02247061 -0.029371891 -0.26127002 -0.2541515 -0.15395506 -0.6978566 -0.08531203 0.36436734
0.9499103 -0.9598992 0.16217107 -0.20842388 0.13156146 -0.09452321 -0.30396837 -0.09309293

encoder.attn_layers.0.attention.out_projection.weight f4 [16, 16]
00000000: f13e 703e 737a 30bf 8999 f63d 0ea4 96bd
00000010: b6ca e03d fc43 d5be 2377 4f3d fb94 82be
00000020: 7ff3 a53e 6593 90be af89 c73d 92c7 a4be
00000030: 7d40 8e3e f866 ddbd 4f6a 1b39 37ef 883e
00000040: 9765 243f aa06 13be c7fa 5b3d 014d 6e3e
00000050: 33f1 fabc 8369 413e 8ef0 4fbe adb2 96bd
00000060: 411a e83e c616 04bf c1c2 9fbe e91c 7cbe
00000070: e6c1 17be 067a 323e 77ea 693d a980 1ebe
00000080: 227f 7f3e 5651 c3be 1da2 5cbc 1f6d 42be
00000090: 18a0 ae3e 06b8 a7be e51e 073f cb64 9c3d
000000a0: 305d 02bd d226 2abc 5061 81bc 8290 2fbe
000000b0: 7a34 76bd b05d 323d f009 c1bd 96bd 9ebe
000000c0: 095f b83d 3316 523e fa44 5b3e 7ad6 a73d
000000d0: ba10 38bd 29af 01be f96b e73e a0ad 8ebe
000000e0: b2a7 e93d 0f86 0ebe cd6b 453e d9a4 11be
000000f0: cf6e 893d b609 913d 1d17 203e b7e8 72be
00000100: 34f2 523e e8e3 76be f740 d4bd 617e d7bc
00000110: 5cec 3d3d e4cd 1cbe c3b7 843d 286c 833a
00000120: 227e 0ebe 7091 d83c 2f59 ac3d 4c3f c2be
00000130: cc55 6d3f 5b84 49bf 20af ee3c 8f30 953e
00000140: c6c5 96be 99bd dd3d 6d45 3bbe 5baa 0abe
00000150: ca7b 43bd 0093 d53d 7f65 b0bd b123 c2be
00000160: 6ec4 3f3d 3a94 77bd c9f6 3a3e 1693 963c
00000170: 46a8 7abc 01bf 9abd 6e23 d7bc d472 293f
00000180: f593 043c eb79 21bc fa62 a73d e696 c03d
00000190: 27e6 b7bd 8b22 98bd 710e cc3e e0c0 ccbe
000001a0: 65a4 b73d fe78 c8bc 800e 77be 8999 38be
000001b0: 1734 34be f9fd 023e 7aae 8f3e cb39 5a3e
000001c0: e692 a2bd 027e a5bd a651 b43d 8bac 0d3e
000001d0: e337 0dbe 9dda 033a 7f82 c73c cf2a 5dbf
000001e0: db11 623d 80ca 97be eb6e f4bd dfc0 57be
000001f0: cf2b 46be c420 30be 4f09 ca3e fad5 c93d
00000200: f802 0cbe 0f44 4dbe 6fb9 453e c8ea 283e
00000210: 8b35 7e3c ee01 2d3e 46ed f7be d917 673d
00000220: 85f6 8fbe 1b82 323e b7dc aebd 5e3d 1a3e
00000230: cc39 be3d 35b0 b63c c8e3 04be b89a 9bbd
00000240: b1a6 683e 6556 c6bd 7287 67be 944a f8bd
00000250: 562f 3dbf df9c f53e 36fe d03d 2ffa d4be
00000260: 6d05 053d 91f7 10be 7ba5 8cbe 09b0 893b
00000270: 713b 303e 5b92 8fbe 5a52 babe ae0b ba3c
00000280: 9137 ffbd 040c d7bd 803c 053e 9e9a cf3d
00000290: 4353 923e 2ddf 76be caee 753e e0bf a73d
000002a0: 927b 233d 49e9 aabd 0d63 06bd ecf3 d93d
000002b0: d5fe 5ebd 7cff 5dbd 84f8 893c d2a3 75bc
000002c0: 29a1 043e 3899 c5bc 0084 cd3b 5392 a7bc
000002d0: bbc0 8c3d 93b2 373e 7991 b1bd 7d56 493e
000002e0: 3e8e 33be db59 01bd dce1 843c 3c37 583e
000002f0: 2ba3 7a3d 9bcf 83bd 05c9 953d bd5f 2f3e
00000300: 8791 04be 3abd 823d 443f 05bb 9329 b53d
00000310: 1180 99ba 8ed6 a5bd df24 ab3e 3e0c 6d3d
00000320: 07e5 b73c 54cb 57bd 6fcf 803d e2c4 663d
00000330: f2f4 623c e0be 64bb feb9 3abd 7206 12be
00000340: d709 c83b f16d 453d d916 703c bc23 b73d
00000350: 444a 9c3c dc66 ad3d f18b 42be f9bf e33d
00000360: 9045 b3bc ceb8 993d 1649 51bd 5a7d 12be
00000370: 947c dabd cbfc f1bd 6a51 68be 4c1b b7bd
00000380: 4b29 36be d5a1 623e 2c22 72be 9283 a5be
00000390: 0f90 f5bc 8f84 243e 93cd acbd 0200 07be
000003a0: 0e55 293d 4ce6 f5bd deab 59bd 8cf5 e13d
000003b0: 590e beba c05d 923d ac5c b03e cae4 6a3c
000003c0: 2b64 393d c2df 2dbd 0df0 25bc 8d2d f1bc
000003d0: e7af d6ba 9e52 1bbb 69d5 04be 665f f53d
000003e0: 3be4 0bbd 4e9f c43d dd72 253d 6844 933c
000003f0: 883a 6ebc 738c c93c c62a 863d c133 5e3c
0.2346151 -0.6893684 0.12041003 -0.0735551 0.10976164 -0.4165343 0.050650727 -0.25504288
0.32412335 -0.28237453 0.09743058 -0.3218351 0.27783576 -0.10810655 0.00014821555 0.26745006
0.64217514 -0.14358011 0.053705957 0.23271562 -0.03063259 0.18887906 -0.20306608 -0.073582985
0.4533253 -0.5159725 -0.31203273 -0.24620403 -0.1482006 0.17429361 0.05710837 -0.15478767
0.24950841 -0.38147992 -0.013466385 -0.18986939 0.34106517 -0.32757586 0.52781516 0.07636412
-0.03182715 -0.010385232 -0.015793473 -0.17144969 -0.06010864 0.04354638 -0.094257236 -0.31004018
0.090025015 0.20516281 0.21413031 0.08195205 -0.044937827 -0.12664475 0.45199564 -0.2786684
0.114089385 -0.13918327 0.19279404 -0.1422304 0.06710588 0.0708193 0.15633817 -0.23721586
0.20600206 -0.24110377 -0.103639536 -0.02630538 0.046367988 -0.15312916 0.06480362 0.001002674
-0.13915303 0.026436538 0.08415448 -0.37938917 0.9270904 -0.78717583 0.02913624 0.2913861
-0.29447764 0.108271785 -0.18288203 -0.13541548 -0.047725476 0.10428429 -0.08613109 -0.37917855
0.04681819 -0.060444094 0.18258204 0.018380683 -0.015298909 -0.07555962 -0.026262011 0.6619084
0.008091916 -0.009855728 0.08173175 0.094037816 -0.08979445 -0.074284635 0.39854768 -0.39990902
0.08966903 -0.024471756 -0.24126625 -0.18027319 -0.17597996 0.12792195 0.28062803 0.21311109
-0.07938175 -0.08080675 0.08804636 0.13835351 -0.1379085 0.00050298293 0.024354218 -0.86393446
0.05519281 -0.29646683 -0.119352184 -0.21069668 -0.19352649 -0.17199999 0.39460227 0.09855266
-0.13673007 -0.20045494 0.19309019 0.16495812 0.015515695 0.16895267 -0.48423213 0.056419227
-0.28117767 0.17432444 -0.08538192 0.15062472 0.09288368 0.022300819 -0.12977517 -0.0759787
0.22719838 -0.09684447 -0.22610262 -0.121236 -0.73900354 0.47971246 0.10204737 -0.41597125
0.032475878 -0.14156939 -0.27470002 0.004201893 0.17210175 -0.28041348 -0.36390954 0.022710647
-0.1246177 -0.10500339 0.1301136 0.10136913 0.2857915 -0.24108572 0.24016872 0.08190894
0.039912768 -0.08345277 -0.032809306 0.106422275 -0.054442246 -0.054198727 0.016842134 -0.014992671
0.12952103 -0.024120912 0.006271839 -0.020455515 0.06872698 0.17939214 -0.08670325 0.19661899
-0.1753473 -0.031579833 0.01622098 0.2111482 0.061190765 -0.06436082 0.07313732 0.17126365
-0.1294614 0.06383748 -0.0020331899 0.0884582 -0.001171114 -0.08097564 0.33426568 0.057873003
0.022448076 -0.052684143 0.06289565 0.056340106 0.013852345 -0.003490381 -0.045587532 -0.14260271
0.0061046886 0.04820055 0.014653885 0.08942363 0.019078381 0.084668845 -0.18998696 0.111206
-0.021883756 0.07505952 -0.05109509 -0.1430563 -0.10668293 -0.118157946 -0.22687307 -0.08940753
-0.1778919 0.22132047 -0.23645848 -0.32326943 -0.029975919 0.16066192 -0.08437648 -0.13183597
0.04134088 -0.12006816 -0.05314242 0.110331625 -0.0014500126 0.07146788 0.34445703 0.014336774
0.045261543 -0.04244972 -0.010128033 -0.029440666 -0.0016379327 -0.0023700367 -0.12972035 0.119810864
-0.034153204 0.096006975 0.040392745 0.017976955 -0.014540322 0.024603104 0.06551127 0.013562144

encoder.attn_layers.0.attention.out_projection.bias f4 [16]
00000000: 2994 4bbe 9fef f5be f5f9 3c3d 5e63 87bf
00000010: 36d3 d13e 79de c2be eb37 cfbe 8bbd 61bf
00000020: f496 7c3e 65fd 593d 0822 2c3c 586d 02be
00000030: 8c7c 4ebe cf35 5f3e 7419 03be 538c bc3e
-0.19880737 -0.4803438 0.046136815 -1.05772 0.40981454 -0.38060358 -0.4047235 -0.88179845
0.24666959 0.05322017 0.010506161 -0.12737024 -0.20164698 0.2179787 -0.12802678 0.3682581

encoder.attn_layers.0.conv1.weight f4 [32, 16, 1]
00000000: 4372 6ebe 4f07 4d3e a560 aebd f219 b4bc
00000010: 20bf 36bf bf1f 163e 726f ea3e 36e4 d0bd
00000020: 59be d0be 1b3b 31be 711d 83bc a312 853e
00000030: 04b9 ce3d 2e5b 37bf f850 833e 3b45 cf3c
00000040: 1dd7 b03e 58ee eabd 2700 c53d 92de d13e
00000050: 2a56 283e a739 10bf bd2b 84bd 19d6 e3be
00000060: 8a42 21be b204 78be 169e b43e e185 9e3e
00000070: 202e f83d 17a9 b1bd b376 2dbf 1ee5 01bf
00000080: d50b 723d 648b ecbd 846f ac3b ba5f c33e
00000090: 9475 72be a072 c1bd 80d4 dcbd 16e5 a53e
000000a0: bc68 e4bd 3001 023e 0bad d9bd afd4 ddbd
000000b0: 501a 153f 8676 abbe ba34 cb3e 3e9b bcbf
000000c0: 3121 1f3e a0d1 2cbe e025 ca3d ff80 0c3d
000000d0: fd91 8fbf d374 44be 1cb2 233e 7b42 d13c
000000e0: 2792 bebc 03dd a1bd bbbe 533e 77a7 bc3d
000000f0: 0cb4 c43e 024e a23e 6059 093f 0abd c4bd
00000100: aa8b b1bd 2251 74be df69 0b3e c91d ca3e
00000110: e8c0 a1be d086 313d 1430 2fbd 4df8 42be
00000120: 1ecd 983e 8997 59bd b2eb 4ebe eb1a 363f
00000130: 2975 2abf 33a6 3b3d 331a f3bc 5a3b afbe
00000140: a999 263e 0435 933e d596 2abe c920 a9bd
00000150: 4932 233e a59b 48bd 573b 98be c72e bb3e
00000160: 9cdc 8b3d 9619 83be 5539 c5bd 5ee0 443e
00000170: 69fe 693c 2e9d f03d 49ae bc3e 518d a2bd
00000180: 8c0b 233f 9f5d a6be 2946 40bd c103 123e
00000190: d51c 9abd c993 433e e44b c0bd 2735 0dbf
000001a0: 7b93 a2bd a430 1cbd 2e8e febd 6584 b6be
000001b0: 6917 23be 823a 3e3e 4ad6 6dbe 6290 b43e
000001c0: ab74 10be 9608 193f a80d c43e 519d 8bbd
000001d0: 42fc b63d a47c c73c f8a3 d53d 66fc 36be
000001e0: 3a88 90be bd3b d4bd 9393 1eba ceed 46bf
000001f0: 265a a93e bd05 893e 6db2 9e3c 3508 26bd
00000200: 302f 50bc ba41 8b3e 2b3b 58be 6592 813c
00000210: 7ef4 59bf 8168 8dbd 3024 8e3e f07c c9bd
00000220: 52b3 8e3e 465b e63e 8495 7c3d e657 97be
00000230: e562 a8be 07b5 633e d662 a3be d566 283d
00000240: e905 52be 5b1a 88be f003 babe 955c 433f
00000250: 83ba e6be 759c 60be d4b2 bc3e 2064 c6bd
00000260: 64b1 bfbd 082a 88be e59a f0bc b01e 043f
00000270: 01db 37be b26c 3bbc 11fe 69bd 0ec4 77bf
00000280: 57c4 0bbf 83b6 773c 251a 63be 8d17 b2be
00000290: 4d4c 07bd e85f 2fbe 4011 a3be c8a4 b3be
000002a0: 511d 373e cadc a13d 2b6c 2bbe 4d0a 2d3f
000002b0: ce4d e7be 6c80 a13e 7a75 2dbe 4d3e eabd
000002c0: 8a13 1abe cf30 83bf 083d 5f3d 050b 87be
000002d0: b8cf 9dbe 2323 bfbc 407a 0bbe ad7a 58be
000002e0: fc8c dd3d fec1 0bbd 5e55 42be 44fa 11bf
000002f0: 545b f73e 6642 813e aa31 54bd 2092 00be
00000300: 79df e0bd e3ba b73e 0a3e 33bd f202 34be
00000310: c71d d7be e755 45bc 7d50 30be a1de d4be
00000320: cfc1 f1bd 3a18 7fbd fc22 5abe 82e7 1f3f
00000330: 76f4 883e 636b 06bf 31ca 12bf 5b26 fe3e
00000340: 08a1 0abf b769 babe 94a9 773e 83db acbd
00000350: 776e 95be 8739 49be 6ba8 abbd b87d 213f
00000360: 30d0 a2be 432c 5bbd e7af 9bbd 4b09 f83d
00000370: 193f 99be 2331 093e d9a4 b13e cc73 033e
00000380: 830d 22bd 5aa1 c9bd 04dd f93d f9a8 f23e
00000390: d851 223d a85c d5bd 9dc9 14bb 87af 00be
000003a0: 4767 febe 1111 a23d 234c 0f3f a391 8a3e
000003b0: b79a c03d 196c 6bbe 9263 373e ee8a eebe
000003c0: 2244 dbbd 37ab 1c3e ded0 4bbe c1ef 1ebe
000003d0: 6259 8abd e84a eebe 061b 88bd f3d5 a3bd
000003e0: e65c b6bd d2be 9cbd 71f2 64be 1c14 65be
000003f0: 4007 1f3f 9c1b 863d 99f1 26bd f7fb 7e3e
-0.23285775 0.2002232 -0.08514527 -0.021985028 -0.71385384 0.14660548 0.4578815 -0.10199778
-0.40770224 -0.17307703 -0.01600525 0.2599078 0.10093883 -0.71623504 0.25647712 0.025301566
0.34539118 -0.11471242 0.0961917 0.4099012 0.16439119 -0.5633797 -0.06453655 -0.4449928
-0.15748039 -0.24220541 0.3527686 0.30961516 0.12118173 -0.086748295 -0.67759246 -0.5074023
0.059093315 -0.11550024 0.005262317 0.3815897 -0.23677665 -0.09445691 -0.10782719 0.3240134
-0.11152789 0.12695765 -0.106287085 -0.10831582 0.58243275 -0.33488864 0.39688665 -1.4734876
0.15540005 -0.1687684 0.09870505 0.034302708 -1.1216427 -0.1918519 0.15985912 0.025544396
-0.02326305 -0.07903483 0.20678227 0.09211629 0.38418615 0.3170014 0.53652 -0.09606369
-0.08669217 -0.23859075 0.13614605 0.3947585 -0.31592488 0.043341458 -0.04277046 -0.19040032
0.29843992 -0.05312303 -0.20207098 0.71134824 -0.6658502 0.045812797 -0.029675579 -0.3422497
0.16269554 0.28751385 -0.166591 -0.082582064 0.15937151 -0.04897656 -0.29732773 0.36559126
0.06829187 -0.25605458 -0.09630076 0.19226214 0.0142818475 0.1174873 0.3685172 -0.0793711
0.63689494 -0.32493302 -0.04694191 0.14259245 -0.075250305 0.19099344 -0.09389475 -0.5515923
-0.07938286 -0.038132325 -0.124294624 -0.35647884 -0.15926899 0.18577006 -0.23226276 0.35266405
-0.14107005 0.59778726 0.3829167 -0.06817115 0.08934833 0.024351425 0.10431665 -0.1786972
-0.28228933 -0.10362957 -0.0006049212 -0.7770661 0.3307659 0.2676219 0.01937219 -0.04053517
-0.012706563 0.27198583 -0.21116321 0.015816877 -0.8513869 -0.06904698 0.27761984 -0.09838283
0.27871186 0.4499151 0.061666027 -0.2955925 -0.3288795 0.22237025 -0.31911343 0.041113693
-0.20510067 -0.26582608 -0.3633113 0.76313144 -0.45064172 -0.21934684 0.36855185 -0.09687066
-0.093600065 -0.26594567 -0.029370734 0.51609325 -0.17954637 -0.011439489 -0.057127062 -0.9678353
-0.54596466 0.015119198 -0.22177942 -0.34783593 -0.03303175 -0.17126429 -0.31849098 -0.35086656
0.17882277 0.0790344 -0.16740482 0.6759384 -0.45176548 0.3154329 -0.16939345 -0.11437664
-0.15046516 -1.024927 0.054501563 -0.26375595 -0.3082254 -0.023332184 -0.13620853 -0.21140547
0.10817906 -0.034120552 -0.18977877 -0.570225 0.48311865 0.2524597 -0.051805176 -0.12555742
-0.10980124 0.3588477 -0.043760337 -0.17579249 -0.42014906 -0.0120444065 -0.17218204 -0.41576102
-0.11804544 -0.062278964 -0.21302408 0.6246263 0.2674901 -0.5250761 -0.5733977 0.49638638
-0.54151964 -0.3640878 0.24185783 -0.08440306 -0.2918584 -0.19650851 -0.083817326 0.63082457
-0.3179946 -0.05350901 -0.0760191 0.121111475 -0.29930952 0.1339765 0.3469608 0.12837142
-0.039563667 -0.098452285 0.122003585 0.4739454 0.039628834 -0.104180634 -0.0022703179 -0.12566958
-0.4968817 0.079134114 0.5597555 0.27064237 0.094045095 -0.22990455 0.17909077 -0.4659037
-0.10706355 0.15299688 -0.19903895 -0.15521146 -0.0675533 -0.46541524 -0.06645779 -0.07999792
-0.08904438 -0.076535836 -0.22358109 -0.22370952 0.6212044 0.06548235 -0.04075775 0.24900804

encoder.attn_layers.0.conv1.bias f4 [32]
00000000: 47a3 18bf cb05 52bf 1b16 57be 7388 24bf
00000010: 6c63 96be c393 c1be ff61 febd e577 bbbd
00000020: 8a21 04be 2ae6 46bf 9c0e 8cbf 152a 35bf
00000030: fc17 65bf 98d3 e7be fc59 a4be a2e1 d0be
00000040: 9f64 bfbe dfe3 debe de5d 25bd c81c eabe
00000050: e5a2 2cbf e4dd 4ebf abee 94be dbd0 49bf
00000060: 9efc 31bf 4313 05bf dfad 8cbf 12fa 4fbe
00000070: 2fde 1b3e b1f1 343e ee08 f1bd 70ab 86be
-0.5962414 -0.8204009 -0.21004526 -0.64270705 -0.29372728 -0.37808046 -0.12421035 -0.091537274
-0.12903419 -0.7769495 -1.0941958 -0.7076734 -0.8948972 -0.4527862 -0.32099903 -0.40797144
-0.37381455 -0.43533227 -0.04037272 -0.45725083 -0.6743606 -0.8080733 -0.2908834 -0.78834313
-0.6952609 -0.51982516 -1.0990561 -0.20310238 0.15221475 0.17670323 -0.11769281 -0.2630267

encoder.attn_layers.0.conv2.weight f4 [16, 32, 1]
00000000: 6f86 b63d cf7a a1be fac9 0a3f fb5b 03bf
00000010: 9c4b fabb 32e1 c4bd 21b5 9dbd 51df bd3e
00000020: 6f30 8bbe c9f9 2cbe 4fbd c13e df90 b63d
00000030: faf0 5abe eed2 363e b8c4 f7bd 9b5c 953e
00000040: 15b6 92be 4d71 3a3e 6816 8d3c ff78 cfbd
00000050: 0694 e13e 5fbb 953e c5ba b23e 3218 063d
00000060: 21d6 24be 102e 463f e290 2cbf 98b6 643d
00000070: 02b2 883c 9ebf ac3e e576 b1bd 219a b33d
00000080: 8576 81bd f0f3 0cbe 41e0 11bf 81af 15be
00000090: 4e69 cf3e 3591 9ebe 3b99 063d 52ac 09be
000000a0: fdce 63be 4960 82be 9213 68be 45a1 153f
000000b0: cbf5 093e a9f2 b3bd b398 fd3e 5481 f7bd
000000c0: c6ae d53e 7906 12bd fe7e c4be c670 623d
000000d0: 4813 4f3f 601c 7e3e 1180 80bd 7979 33be
000000e0: 58a5 90be 7289 823f c5c2 9ebc de1a 3d3e
000000f0: 930f 8d3c 1c81 c5be 61bb eebd 35e0 e03d
00000100: 4d54 98bf 891f 243c 4a4d cf3d 2e9f c53e
00000110: 260f b2be 6b1a 883e 070a 783e db3b 60be
00000120: ac26 4a3e 0b14 86bf 09d9 d6be ec05 a1be
00000130: c9e7 08be 7914 08bf c9d9 06bf c6c3 593e
00000140: 3167 8fbe 478e f6bd 7138 cfbe 1c0b 333f
00000150: 1f65 233f b2e6 fd3d 728a 9ebd 3605 a33e
00000160: a7b6 363f ad32 8f3d 11a6 3a3e ec43 2b3e
00000170: 2e5f c4be 5a6e 2ebf aa5b 80be 1847 e33d
00000180: 9c5a 30bf 8b5e 48be d2dd 963e 05c8 953e
00000190: 0740 0cbe dadf c83c f82c 19bf f89f 863e
000001a0: 0732 be3d 51cd 89be 0845 2d3e 1f66 57be
000001b0: 2bf7 e8bc 5e60 113e 6d18 81be 637b 2f3d
000001c0: a857 ccbe da0c 99be 535c 163f d380 3fbe
000001d0: 240a 1f3f c97f e13e 37ea a83d 5c43 083d
000001e0: 7d55 773e e3ce c13e 8a80 edbd 10e2 243e
000001f0: c23a d43d 04ac 2dbe 57e7 4fbe aaef 05bf
00000200: 88f7 89be 7289 b73e 9459 9bbe 9468 503f
00000210: 83d8 063e 0930 2fbe 707d b93e 2098 b53d
00000220: 5774 893d 61a0 473d 0d17 99bd 34b8 3cbe
00000230: af62 823d cec4 a93e f5e2 ba3d 9637 883d
00000240: 558a 8dbd 96c5 25be ab7a 05be 6744 85be
00000250: 560b da3e 9ec8 09be 5a6e a9bc 8b0d 73be
00000260: d734 0ebf 3efe 1d3d a550 00be d9e3 5abd
00000270: bf86 5b3e 918f 603e 7b63 2b3c a3f8 dbbe
00000280: ad85 523f 99e2 1ebe ed9a 1bbf b224 073e
00000290: 7cc4 a4be 9a31 3f3d 5edf acbe baa2 cdbe
000002a0: 7890 9e3d e540 f63e a0b0 42be 6710 fb3c
000002b0: c17e 12be 6f2f 16be fc36 7fbe 0935 ad3e
000002c0: 12b4 dfbd 8103 713d 2206 203e 5bc9 7b3d
000002d0: a372 00bd 47d1 03be 17fc 98be 83ae 073d
000002e0: 91ec 9a3e 1c3c bf3d 740c 9dbf baeb 703e
000002f0: fa60 52be d150 efbc b686 13bf 7a5e 223d
00000300: 9bdc 93bd 7b91 123e cb16 253f 98cc 30be
00000310: 573a bc3d 2d8e 3d3e d482 0b3a 5064 2abe
00000320: c772 02be e35d 9e3e b939 0ebe 7bb7 363e
00000330: 2cf1 973e edab f5bd b86d 033e c901 5bbe
00000340: 20c5 953d 1276 94be 24ca 2cbd 1482 88be
00000350: 6ef5 c2be 22fd f63d a635 cd3d 9ae0 80be
00000360: 6f02 b1be b61f ad3e ed91 7abe a838 743e
00000370: 8a4b 3ebf 8eba 28bd 251b e93e 00b8 5fbe
00000380: 9a1e d33e 01dd 963e 2545 d5be e0f3 6cbd
00000390: 6ded 803e 4306 a7be 1dc1 2c3e 2bbb 903e
000003a0: ac59 853d 97b2 033f 71a3 63be e38a dc3e
000003b0: 3204 f63e 7197 00bf 97c5 ac3c 4685 343e
000003c0: 0638 833e 13cc 86be 098d 6c3e 1f45 853d
000003d0: 526e 7fbe a47f 5abe 80ff 0bbd 77c6 96be
000003e0: 6fdc 85be 3a67 abbf da2f 133e 4d57 25be
000003f0: 8bf9 283e 1da6 a83d 95b7 a53c ee54 203d
0.0891236 -0.31539008 0.5421444 -0.51312226 -0.007638408 -0.09613265 -0.07700563 0.3708444
-0.2718539 -0.1689216 0.37839743 0.08914351 -0.21380988 0.17853901 -0.12098068 0.29172215
-0.28654543 0.18207283 0.017222598 -0.101305 0.44058245 0.29244515 0.3490812 0.03273792
-0.16097309 0.77414036 -0.67408574 0.055838197 0.016686443 0.33739942 -0.086652555 0.08769632
-0.06321434 -0.1376493 -0.5698281 -0.1461773 0.4051003 -0.3097016 0.032860976 -0.13444641
-0.22246929 -0.25464085 -0.22663715 0.584492 0.13472669 -0.08786518 0.49530563 -0.12085214
0.41734904 -0.035650704 -0.38378137 0.05528333 0.80888796 0.24815512 -0.06274427 -0.17526807
-0.28251147 1.0198195 -0.019379983 0.1846728 0.01721934 -0.38575065 -0.116568334 0.10980264
-1.1900727 0.010017284 0.101221636 0.38598007 -0.34777182 0.26582655 0.24222575 -0.21897833
0.19741315 -1.0474867 -0.4196246 -0.3144983 -0.13369669 -0.5315624 -0.52676064 0.21266088
-0.28008416 -0.12038856 -0.4047275 0.69938827 0.63826174 0.12397517 -0.0774125 0.31839913
0.71372455 0.069920875 0.18227412 0.16725129 -0.38353866 -0.68137133 -0.25069934 0.110975444
-0.6888826 -0.19567315 0.2946611 0.29254165 -0.136963 0.024520803 -0.5983424 0.2629392
0.09286886 -0.26914456 0.16920865 -0.2103505 -0.028438171 0.14196917 -0.25213948 0.04284228
-0.39910626 -0.29892617 0.58734626 -0.18701486 0.6212485 0.44042805 0.08247798 0.033267364
0.24153705 0.37853155 -0.115967825 0.16101861 0.1036277 -0.1696015 -0.20303093 -0.52318823
-0.26946664 0.3584705 -0.3034178 0.81409574 0.1316853 -0.17108168 0.36228514 0.08866906
0.06711643 0.048736934 -0.074751 -0.18429643 0.06366479 0.33157963 0.0912532 0.06651227
-0.0691115 -0.16188654 -0.13035075 -0.2602875 0.42586774 -0.13455436 -0.020682503 -0.23735635
-0.5554938 0.038572542 -0.12530763 -0.05343995 0.2143812 0.21929766 0.01046073 -0.42963132
0.82235223 -0.15516128 -0.60783273 0.13197592 -0.32181156 0.046678163 -0.33764166 -0.40163213
0.07742399 0.48096386 -0.1901269 0.03064747 -0.14306165 -0.14666532 -0.24923319 0.33829525
-0.109230176 0.058841232 0.1562734 0.061471324 -0.031359326 -0.12872802 -0.2987983 0.03312541
0.3025861 0.09337637 -1.2269425 0.23527423 -0.20544806 -0.029213341 -0.5762743 0.03964088
-0.072198115 0.14313309 0.64487904 -0.17265546 0.09190815 0.18511267 0.0005321924 -0.16639829
-0.12739097 0.30931005 -0.13889207 0.1784343 0.29676187 -0.11995683 0.12834823 -0.213874
0.07312989 -0.2899633 -0.042184964 -0.26661742 -0.38077873 0.1206 0.10019998 -0.25171357
-0.3457217 0.33813256 -0.24469729 0.23849738 -0.74334013 -0.041193537 0.45528522 -0.21847534
0.41234285 0.29465488 -0.41654316 -0.057849765 0.25181141 -0.32621965 0.16870542 0.28267798
0.06511244 0.5144438 -0.22230317 0.43074712 0.48050076 -0.5023108 0.021090312 0.17628965
0.2562868 -0.2632757 0.23100676 0.065073244 -0.24944428 -0.21337754 -0.03417921 -0.29448292
-0.2614474 -1.3390877 0.14373723 -0.16146584 0.16501443 0.082348086 0.02022914 0.039143495

encoder.attn_layers.0.conv2.bias f4 [16]
00000000: 5ac8 1bbd d1e2 8e3d 332f 56bd 015b bf3c
00000010: 8d3c d23d 07af 5ebd 5b6e 5fbd 08e0 893d
00000020: 2a0e 60bb cea3 8bbd a207 42bc d52d edbc
00000030: e14b 1c3a c9b2 413c 2ee1 e8bc 509a 2d3d
-0.038032867 0.069768555 -0.052291106 0.023358824 0.102654554 -0.054366138 -0.054548603 0.06732184
-0.003418813 -0.06818353 -0.01184264 -0.028952518 0.00059622346 0.011822411 -0.028427687 0.042383492

encoder.attn_layers.0.norm1.weight f4 [16]
00000000: f743 f83e 0867 0d3f b5ea 423f 3533 443f
00000010: 3e0d cd3e 7877 843f 513a 663f 6beb 163f
00000020: 14cb 543f d3ab 8f3f 80e9 8a3f a75e 803f
00000030: bc43 9c3f ce90 b63f 6480 913f 9d07 b13f
0.48489353 0.5523534 0.76139385 0.76640636 0.40049165 1.0348959 0.89932734 0.5895297
0.8312237 1.1224312 1.0852509 1.0028886 1.2208171 1.4262941 1.1367307 1.3830448

encoder.attn_layers.0.norm1.bias f4 [16]
00000000: c6b6 86be c195 873e 0e4f 763d 5c21 a43e
00000010: f7ef ae3e c05e 063e ae63 0ebe 23bd d03e
00000020: 0b9d 4e3e a176 d9bd e9ff b43d 0317 f9bd
00000030: 15be 6ebe 0096 6d3d 4c5d b73e 3134 8d3e
-0.2631132 0.2648144 0.060133986 0.320567 0.34167454 0.13122082 -0.13905212 0.407693
0.20177095 -0.1061833 0.088378735 -0.12162592 -0.23314698 0.05800438 0.35813367 0.2757888

encoder.attn_layers.0.norm2.weight f4 [16]
00000000: 859e 813f 6f9b 703f fec2 743f dc1f 513f
00000010: fd0d 743f 5676 7f3f b0fc a23f 21f3 783f
00000020: a237 8c3f fea8 8c3f ed1e 513f 5902 a23f
00000030: 27e5 823f dd56 7a3f 682f 823f 8c95 b93f
1.0126501 0.9398717 0.95610034 0.8168924 0.95333844 0.9978994 1.2733364 0.97245985
1.0954478 1.0989072 0.81687814 1.2656966 1.0226182 0.9778879 1.0170717 1.4498763

encoder.attn_layers.0.norm2.bias f4 [16]
00000000: d73e a2be b9b6 7a3e 5632 a83e a5d2 fc3e
00000010: 3210 fabc 65fb 073e d01c 64be b0ed a53e
00000020: 96d7 803d 098e a7be d147 b3bd aa56 c8bd
00000030: 169d d2bd e5ac 5dbe cc64 b2bc 164d 363e
-0.31688568 0.24483766 0.32850903 0.4937946 -0.0305253 0.13279493 -0.22276616 0.32407904
0.0629112 -0.32725552 -0.08753932 -0.09782155 -0.10283868 -0.21647985 -0.02177658 0.17802843
