SimMTM-main/SimMTM-main/SimMTM_Forecasting/outputs/pretrain_checkpoints/ETTh2/ckpt50.pth (torch, 347855 bytes, 37 tensors)

enc_embedding.value_embedding.tokenConv.weight f4 [16, 1, 3]
000000 15 2b 23 3f 03 d0 02 c0 c5 bb e7 3f cf d6 76 40
       0.6373761 -2.043946 1.8104178 3.8568609
000010 12 30 ad bf 29 9e 60 c0 f4 b0 03 c0 f2 1d 3d c0
       -1.3530295 -3.5096533 -2.0576754 -2.9549527
000020 02 5b 45 bf df c6 e8 bf 59 ef 7e 40 5d ea fe bf
       -0.7709199 -1.8185691 3.9833586 -1.9915272
000030 57 1f 54 bf 90 bc 50 3e 95 ec 2b 3f d9 fe 97 40
       -0.8286032 0.20384431 0.6715787 4.7498593
000040 ce 70 54 c0 24 3b 03 40 09 90 10 40 e3 39 25 40
       -3.319385 2.0504847 2.2587912 2.5816581
000050 ea 8b b9 3f f1 12 83 3f c4 1c 35 bf 5e 0e 18 40
       1.4495823 1.0240155 -0.7074702 2.375877
000060 db 2e 7e 3e 5f 47 b1 3e 4a cb 42 40 17 fb 88 c0
       0.24822561 0.34624764 3.0436578 -4.2806506
000070 27 1e ea bf 03 95 84 bf e5 02 24 3d 0d 20 10 41
       -1.8290452 -1.0357975 0.040041823 9.007825
000080 27 dd f2 3d f7 f8 60 3f 07 cf d8 3f 82 24 2a c0
       0.11858588 0.8787989 1.693818 -2.6584783
000090 e9 49 c8 3c 93 15 8b c0 10 e4 74 3c 28 f2 01 c0
       0.024449306 -4.3463836 0.014946952 -2.030405
0000a0 d6 e4 01 40 fb 7d 24 3f 35 2a 0d c0 41 d7 03 b9
       2.029592 0.6425473 -2.205701 -0.00012573322
0000b0 30 44 a0 3b c1 da fa 3f 9f fd b5 bf 2a d4 1c bf
       0.004890941 1.9598008 -1.4218024 -0.61261237

enc_embedding.position_embedding.pe f4 [1, 5000, 16]
000000 00 00 00 00 00 00 80 3f 00 00 00 00 00 00 80 3f
       0.0 1.0 0.0 1.0
000010 00 00 00 00 00 00 80 3f 00 00 00 00 00 00 80 3f
       0.0 1.0 0.0 1.0
000020 00 00 00 00 00 00 80 3f 00 00 00 00 00 00 80 3f
       0.0 1.0 0.0 1.0
000030 00 00 00 00 00 00 80 3f 00 00 00 00 00 00 80 3f
       0.0 1.0 0.0 1.0
000040 a4 6a 57 3f 41 51 0a 3f 3e 39 9f 3e 6b 4e 73 3f
       0.84147096 0.54030234 0.3109836 0.9504153
000050 76 75 cc 3d 98 b8 7e 3f 5b 81 01 3d 3c df 7f 3f
       0.099833414 0.9950042 0.031617504 0.99950004
000060 57 d6 23 3c b9 fc 7f 3f 1c 3e 4f 3b ac ff 7f 3f
       0.009999833 0.99995 0.0031622713 0.999995
000070 6d 12 83 3a f8 ff 7f 3f 61 cb a5 39 ff ff 7f 3f
       0.0009999998 0.9999995 0.00031622782 0.99999994
000080 b7 c7 68 3f 33 11 d5 be 1b 54 17 3f ec 7b 4e 3f
       0.9092974 -0.41614684 0.5911271 0.8065784
000090 f8 6f 4b 3e a5 e5 7a 3f c8 70 81 3d f9 7c 7f 3f
       0.19866931 0.9800666 0.063203394 0.9980007
0000a0 3e d4 a3 3c e5 f2 7f 3f d8 3d cf 3b b1 fe 7f 3f
       0.019998666 0.9998 0.006324511 0.99998003
0000b0 68 12 03 3b df ff 7f 3f 60 cb 25 3a fd ff 7f 3f
       0.0019999985 0.99999803 0.0006324556 0.9999998
0000c0 c3 81 10 3e 26 70 7d bf c2 09 50 3f 58 2f 15 3f
       0.14112 -0.9899925 0.8126489 0.58275366
0000d0 6c 4e 97 3e ef 90 74 3f c0 ff c1 3d 4f d9 7e 3f
       0.2955202 0.9553365 0.094726086 0.99550337
0000e0 1f b9 f5 3c 83 e2 7f 3f 0d 6e 1b 3c 0d fd 7f 3f
       0.0299955 0.99955004 0.009486687 0.999955
0000f0 92 9b 44 3b b5 ff 7f 3f 10 b1 78 3a f9 ff 7f 3f
       0.0029999954 0.9999955 0.00094868336 0.9999996
000100 cf bd 41 bf 30 55 27 bf de 1d 74 3f b1 2e 9a 3e
       -0.7568025 -0.6536436 0.95358074 0.30113748
000110 d7 61 c7 3e a7 ca 6b 3f 88 2e 01 3e 69 f4 7d 3f
       0.38941833 0.921061 0.12615407 0.99201065
000120 db cb 23 3d 94 cb 7f 3f c9 3c 4f 3c c2 fa 7f 3f
       0.039989334 0.9992001 0.01264877 0.99992
000130 57 12 83 3b 7a ff 7f 3f 5e cb a5 3a f3 ff 7f 3f
       0.003999989 0.999992 0.0012649109 0.9999992
000140 10 7c 75 bf 2c 3c 91 3e 7f fc 7f 3f e9 72 29 bc
       -0.9589243 0.2836622 0.99994653 -0.010342338
000150 43 77 f5 3e 40 a9 60 3f 1d 3c 21 3e 81 ce 7c 3f
       0.47942552 0.87758255 0.15745588 0.987526
000160 f4 b6 4c 3d 19 ae 7f 3f 7e 85 81 3c cf f7 7f 3f
       0.049979165 0.99875027 0.015810724 0.999875
000170 dd d6 a3 3b 2e ff 7f 3f 33 3e cf 3a eb ff 7f 3f
       0.004999979 0.9999875 0.0015811383 0.99999875
000180 8c 0f 8f be b8 cd 75 3f 4e 78 72 3f 6d 3f a4 be
       -0.2794155 0.96017027 0.9471482 -0.3207964
000190 68 8c 10 3f 32 49 53 3f 6e 20 41 3e e3 67 7b 3f
       0.5646424 0.8253356 0.18860027 0.98205394
0001a0 d1 9c 75 3d 12 8a 7f 3f 43 6c 9b 3c 34 f4 7f 3f
       0.059964005 0.99820054 0.018972522 0.99982
0001b0 58 9b c4 3b d2 fe 7f 3f 08 b1 f8 3a e2 ff 7f 3f
       0.0059999637 0.999982 0.0018973658 0.9999982
0001c0 46 30 28 3f bd ff 40 3f 6e e8 4c 3f bc 74 19 bf
       0.6569866 0.75390226 0.8004216 -0.5994375
0001d0 72 eb 24 3f b3 cc 43 3f 50 d3 60 3e ea c0 79 3f
       0.6442176 0.7648422 0.2195561 0.9755999
0001e0 32 3e 8f 3d 81 5f 7f 3f a2 52 b5 3c f2 ef 7f 3f
       0.06994285 0.997551 0.022134129 0.999755
0001f0 c5 5f e5 3b 65 fe 7f 3f ed 11 11 3b d7 ff 7f 3f
       0.006999942 0.9999755 0.0022135929 0.99999756
000200 95 46 7d 3f f6 fd 14 be 7e 06 13 3f e5 91 51 bf
       0.98935825 -0.14550003 0.5743178 -0.8186324
000210 a5 a4 37 3f 5f 5b 32 3f 51 26 80 3e 02 da 77 3f
       0.717356 0.6967067 0.25029233 0.9681703
000220 50 aa a3 3d 65 2e 7f 3f 8a 38 cf 3c 08 eb 7f 3f
       0.07991469 0.9968017 0.025295515 0.99968004
000230 12 12 03 3c e7 fd 7f 3f 55 cb 25 3b ca ff 7f 3f
       0.007999914 0.999968 0.0025298197 0.9999968
000240 32 01 d3 3e d5 3f 69 bf ee 1f 95 3e a2 e6 74 bf
       0.4121185 -0.91113025 0.29125923 -0.9566442
000250 1c 88 48 3f d5 21 1f 3f 2d c2 8f 3e a9 b3 75 3f
       0.78332686 0.62161 0.28077832 0.95977265
000260 3e 12 b8 3d c2 f6 7e 3f ea 1d e9 3c 76 e5 7f 3f
       0.089878544 0.9959527 0.028456647 0.99959505
000270 3a 74 13 3c 59 fd 7f 3f bc 84 3a 3b bc ff 7f 3f
       0.008999879 0.9999595 0.0028460464 0.99999595
000280 f8 44 0b bf 64 cd 56 bf 97 70 a9 bc fb f1 7f bf
       -0.5440211 -0.8390715 -0.02068357 -0.9997861
000290 a4 6a 57 3f 41 51 0a 3f 3d 39 9f 3e 6b 4e 73 3f
       0.84147096 0.54030234 0.31098357 0.9504153
0002a0 76 75 cc 3d 98 b8 7e 3f 59 81 01 3d 3c df 7f 3f
       0.099833414 0.9950042 0.031617496 0.99950004
0002b0 57 d6 23 3c b9 fc 7f 3f 22 3e 4f 3b ac ff 7f 3f
       0.009999833 0.99995 0.0031622727 0.999995
0002c0 5c ff 7f bf 72 05 91 3b 1f 41 a9 be 8d 9b 71 bf
       -0.9999902 0.004425698 -0.33057496 -0.94377977
0002d0 2a 26 64 3f c3 3d e8 3e 8b 87 ae 3e e4 aa 70 3f
       0.89120734 0.4535962 0.34087786 0.9401076
0002e0 72 d3 e0 3d e8 73 7e 3f 68 73 0e 3d 5b d8 7f 3f
       0.1097783 0.9939561 0.03477803 0.9993951
0002f0 69 38 34 3c 09 fc 7f 3f 87 f7 63 3b 9b ff 7f 3f
       0.010999777 0.9999395 0.003478499 0.999994
000300 d8 5c 09 bf d0 06 58 3f 24 91 1b bf 56 4f 4b bf
       -0.53657293 0.84385395 -0.6076834 -0.7941793
000310 1d 9a 6e 3f f7 86 b9 3e 2c a9 bd 3e c3 c9 6d 3f
       0.9320391 0.36235783 0.3704313 0.9288599
000320 ac 2b f5 3d b5 28 7e 3f 19 65 1b 3d d2 d0 7f 3f
       0.119712204 0.99280864 0.03793821 0.9992801
000330 70 9a 44 3c 48 fb 7f 3f eb b0 78 3b 87 ff 7f 3f
       0.011999711 0.999928 0.0037947248 0.9999928
000340 22 20 d7 3e 6f 4e 68 3f 4c 14 53 bf 9d d9 10 bf
       0.42016703 0.9074468 -0.82452846 -0.5658205
000350 c0 ab 76 3f 9d f5 88 3e 3f 9a cc 3e c3 ab 6a 3f
       0.9635582 0.26749888 0.3996143 0.9166834
000360 d0 be 04 3e 00 d7 7d 3f 65 56 28 3d a1 c8 7f 3f
       0.12963414 0.9915619 0.041098017 0.9991551
000370 6a fc 54 3c 76 fa 7f 3f 26 b5 86 3b 72 ff 7f 3f
       0.012999633 0.9999155 0.00411095 0.99999154
000380 72 98 7d 3f d7 04 0c 3e b3 a8 75 bf 0a 0d 90 be
       0.9906074 0.13673721 -0.9596054 -0.28134948
000390 6f 46 7c 3f e7 0b 2e 3e f4 56 db 3e b1 51 67 3f
       0.98544973 0.16996728 0.42839777 0.90359026
0003a0 64 e4 0e 3e cc 7e 7d 3f 43 47 35 3d c9 bf 7f 3f
       0.13954312 0.990216 0.044257414 0.99902016
0003b0 55 5e 65 3c 94 f9 7f 3f d6 11 91 3b 5c ff 7f 3f
       0.013999541 0.999902 0.004427175 0.9999902
0003c0 44 79 26 3f e8 7a 42 bf 75 e0 7f bf 96 22 fe 3c
       0.65028787 -0.7596879 -0.9995187 0.031022351
0003d0 d5 5b 7f 3f ba de 90 3d 83 db e9 3e 68 bc 63 3f
       0.997495 0.07073732 0.45675287 0.8895936
0003e0 4f 06 19 3e 1a 20 7d 3f aa 37 42 3d 49 b6 7f 3f
       0.14943813 0.9887711 0.047416367 0.9988752
0003f0 32 c0 75 3c a1 f8 7f 3f 85 6e 9b 3b 43 ff 7f 3f
       0.014999436 0.9998875 0.0047433996 0.99998873

enc_embedding.temporal_embedding.embed.weight f4 [16, 4]
000000 a6 6a 9a 3e 92 69 cc be fa 38 bb 3e de 3d f5 3e
       0.3015949 -0.39924294 0.36566907 0.47898763
000010 0c 14 d5 3e 24 3e 77 be f2 9f a5 3e 3a e2 af be
       0.41616857 -0.24144799 0.3234859 -0.34352285
000020 c8 cd fb be a0 81 a5 bc 48 db 60 be 9c 90 dd 3e
       -0.49180436 -0.020203412 -0.21958649 0.4327439
000030 06 c6 a7 be 18 c7 1c 3e 94 d0 32 3e e0 a7 bd 3c
       -0.32768267 0.15310323 0.17462379 0.023151338
000040 38 0b da bd 48 c4 b2 3e a0 8e 5f 3e 58 d9 8f bd
       -0.10646671 0.34915376 0.21831751 -0.07023877
000050 a4 39 fa 3e 28 a4 c7 3d 46 15 f9 be 62 1a ea be
       0.488721 0.09748107 -0.48649043 -0.45723253
000060 cc 82 e5 be c2 59 e6 3e 7c e7 ae be 74 30 e8 3e
       -0.44826353 0.44990355 -0.34160984 0.45349467
000070 00 2e 4a bc 08 9c ee be 78 4b b1 3e 68 0e 3f 3e
       -0.012340069 -0.46603417 0.3462789 0.1865784
000080 ac 98 f9 3e 12 38 e4 be 94 1b 80 be 70 32 41 be
       0.48749292 -0.44574028 -0.2502104 -0.18866897
000090 30 3b 9b 3e 68 cc e2 3e b2 84 cb 3e 9e ed f0 3e
       0.30318594 0.44296575 0.39749676 0.47056288
0000a0 0c d1 03 3e c8 5b 85 3e 8e 18 be 3e 9c d5 c3 3e
       0.12872714 0.26046586 0.3712811 0.3824891
0000b0 a0 7e 19 3e 8e 9a 90 3e 00 89 3c 3c fc b2 94 3e
       0.1498971 0.28242916 0.011507273 0.29042804
0000c0 30 cd a2 bd 40 34 ed bc 20 fa fb bc e8 de b9 3e
       -0.07949293 -0.028955579 -0.030758917 0.36302876
0000d0 70 5f d8 3e 9a 71 c9 3e 14 5a 87 be 1e 75 d0 3e
       0.42260313 0.39344484 -0.26435912 0.40714353
0000e0 3c fb 47 3e 00 a0 ee bd c0 22 84 bc 30 ba c8 be
       0.19529432 -0.11651611 -0.016129851 -0.3920455
0000f0 be fa f6 3e b2 f1 ed be 62 0a f1 be f8 f7 96 3d
       0.48238176 -0.4647346 -0.47078234 0.07371515

encoder.attn_layers.0.attention.query_projection.weight f4 [16, 16]
000000 66 f3 95 3d 11 80 a6 3c a0 e3 10 3d de 06 a2 3b
       0.07321815 0.020324739 0.03537333 0.0049446663
000010 20 7c 87 3d 88 a5 87 bd ff 0c ed 3b fd c4 80 ba
       0.06615472 -0.066233695 0.0072342153 -0.0009824332
000020 ed 85 17 3d fe 2f 1c 3b e5 73 6a 3d 74 85 a2 bd
       0.036992956 0.0023832317 0.057239432 -0.079356104
000030 b5 fd b2 bd 49 56 b3 3c 45 2e c3 bd 26 20 ad 3c
       -0.08739797 0.02189173 -0.095303096 0.021133494
000040 84 07 c4 bd ba b4 f5 3a 92 78 78 3d 28 4c da 3c
       -0.09571746 0.0018745877 0.06066186 0.026647642
000050 9a 46 c1 bd f2 e1 6f 3c fb df 53 bd d0 f2 de bd
       -0.09437294 0.014641272 -0.051727276 -0.108861566
000060 97 28 dc bc e5 db 59 bd 1d ed 8f 3d be 76 0b 3e
       -0.026874823 -0.053188223 0.07027648 0.13619515
000070 d2 50 d6 3d 6a b1 a4 3b 6b 41 08 bd 22 e9 a9 3c
       0.10464634 0.005026032 -0.033265512 0.02074105
000080 f9 ae f8 3b e0 10 bd bc ad e1 96 3c d5 1c b3 3d
       0.0075892177 -0.023079336 0.018418157 0.08745734
000090 00 85 ac bd d3 4e ed bb b7 09 f0 3b 24 b7 d5 bc
       -0.08423805 -0.0072420626 0.007325377 -0.026088305
0000a0 38 69 22 3e c9 71 ea bd 51 82 ff 3e 66 1f 87 bd
       0.1586045 -0.11447484 0.4990411 -0.06597786
0000b0 06 bc 77 bf b8 aa 0e 3d 3c 54 86 bb 24 e2 f4 3d
       -0.96771276 0.03483078 -0.004099397 0.119571954
0000c0 9e dd de 39 66 30 1d 3c 5b 0c 18 be 1f 6a 0a be
       0.00042508257 0.009594059 -0.14848463 -0.13517044
0000d0 39 37 0d 3e 19 c9 52 3d 96 01 8a 3d 38 3e 26 3d
       0.13790597 0.051461313 0.06738584 0.04058668
0000e0 fd 0a c6 bd d4 b1 0d 3e 0e 7f 58 3e 34 bb 0a 3e
       -0.096700646 0.13837367 0.21142218 0.13547975
0000f0 0e 18 a4 bf 89 71 24 3d de a0 a2 3d d3 81 0b bd
       -1.2819841 0.040147338 0.07940839 -0.034059357
000100 7b 49 e9 3c 41 1e c2 bc 9d 0e ab bd 22 77 61 3d
       0.028477421 -0.023696067 -0.08352397 0.055045255
000110 0a 54 27 3d ec 07 fe 3b 1e dd 74 3b 67 90 9e 3d
       0.04085163 0.007752409 0.0037363241 0.07742386
000120 33 60 c8 3c 2f 7f e3 3d 09 8d f3 bd e6 0b 08 3e
       0.024459934 0.11108243 -0.11892135 0.13285789
000130 8c 1b 96 3f 02 5c 59 bb eb c1 52 bd 95 e2 1c 3c
       1.1727157 -0.0033166413 -0.051454466 0.009575506
000140 9f c3 25 bc b9 46 cf bb d1 3a 16 be e2 09 50 3d
       -0.0101174405 -0.0063255695 -0.14670874 0.050790675
000150 a1 bb 2f 3d dd 65 4b 3c 26 3f be 3c 92 7d 93 3d
       0.042903546 0.012414423 0.02322347 0.07201685
000160 ba 3f e7 3c d2 fc 04 3e 4d c0 aa 3e 24 e9 e2 3d
       0.02822863 0.12987068 0.3334984 0.11079624
000170 40 bb 9d bf f1 06 6a b9 c5 aa 1d 3c fc 24 a5 3b
       -1.2322769 -0.00022318565 0.009623234 0.0050398093
000180 31 63 d1 3d 79 cb 49 3d 49 44 97 3d 8b a6 3e 3e
       0.102239974 0.049266312 0.07386071 0.18618219
000190 88 99 1f 3d e4 e2 8b 3d 1e 55 01 3e 30 3b bd 3d
       0.03896478 0.06830385 0.12630126 0.09239805
0001a0 73 aa 27 be 3e 40 29 bb 35 0a 05 3d 45 91 e0 bd
       -0.16373615 -0.0025825645 0.032480437 -0.10965208
0001b0 f8 0d 3b 3d 9c f3 86 be 3b a1 ea 3c 40 49 d4 be
       0.04566762 -0.26357734 0.028641334 -0.41462135
0001c0 8a c7 13 3d 61 b9 ea 3d 16 e8 56 39 52 07 d2 3d
       0.036078967 0.114611395 0.00020495089 0.102553025
0001d0 b2 61 75 bd 92 7e aa 3d 87 7f 89 3d 00 22 c4 3d
       -0.059907623 0.083249226 0.06713777 0.095767975
0001e0 e2 d4 85 bd fa 80 d5 3d aa 9d 30 bd 35 61 18 bd
       -0.06534745 0.10424991 -0.04311911 -0.03720208
0001f0 58 72 08 be c1 64 f0 bd 33 cd 04 3e f0 99 0c be
       -0.13324869 -0.11737967 0.12968902 -0.13730597
000200 a6 25 9e bb 6e aa 9a bd 4e c9 85 3d 46 1c d9 3d
       -0.0048262654 -0.07552038 0.065325364 0.10601096
000210 c2 40 e5 3c 7c 9a 00 3e c4 b2 a3 bd 3b e4 36 3e
       0.02798498 0.12558931 -0.07993081 0.178605
000220 5c c3 7e 3d 1e 47 12 3e 2b 19 5c 3e 6e 31 9a 3e
       0.062198028 0.14284942 0.21493976 0.30115837
000230 01 35 88 3e 92 fc b2 be 43 cb b4 bb 31 86 26 bf
       0.2660294 -0.3495832 -0.0055173947 -0.6504851
000240 e8 92 85 3c d5 c7 54 bd 01 e2 51 3d e1 74 ba bc
       0.016305402 -0.051948387 0.051240925 -0.02276081
000250 eb 15 ff bb ed 50 76 ba 24 7c 91 bd 99 c8 8a bc
       -0.0077845952 -0.0009396214 -0.07103756 -0.016941356
000260 8a 2f 84 bc 59 50 59 3d 70 1b 22 bc 15 8b 37 bd
       -0.01613595 0.05305514 -0.009894237 -0.044810373
000270 a4 95 d4 be 3e 82 e2 bc 11 dc 13 3d 29 14 e3 3e
       -0.41520417 -0.027649995 0.036098544 0.44351318
000280 95 e6 ff bc 77 67 46 3e 1d 83 48 3c 7d 0c 8d be
       -0.03123788 0.19375406 0.012238291 -0.2754859
000290 7e bf 3c be 73 37 f4 bb b9 51 22 3e 8d 19 05 3d
       -0.18432423 -0.007452899 0.15851487 0.03249507
0002a0 84 84 7b 3d 54 f1 31 3e b3 b2 7d bd d2 91 93 3d
       0.061405674 0.17377216 -0.061938 0.072055474
0002b0 9b 5b e9 bd 45 25 93 bc 40 e1 4e be f6 6b b4 3e
       -0.113944255 -0.017962107 -0.20203114 0.35238618
0002c0 0b 3a 1f 3e 2a 18 42 3e 5b 55 dc 3d 2e b1 b5 3d
       0.15549485 0.1895453 0.10758468 0.08871685
0002d0 ce 37 30 3d ea e2 a6 3d b0 e3 06 bb 7b f9 12 3d
       0.04302197 0.08148749 -0.002058249 0.035882454
0002e0 de b4 31 be 8b 9f f1 bd 78 72 ae 3b 40 53 10 be
       -0.17354152 -0.117980085 0.0053237043 -0.14094257
0002f0 f8 be 01 bd fd a4 84 bc fb 3a 00 be 96 64 94 3e
       -0.031676263 -0.016191954 -0.125225 0.2898299
000300 bf ab 55 3d e4 fd 12 bd 33 6b 9d bd 81 13 71 3c
       0.052165743 -0.03588666 -0.07686462 0.014714123
000310 14 48 af bd 6a 51 d0 3d d1 05 21 bd 32 ae c5 3d
       -0.0855867 0.101717785 -0.039312188 0.09652366
000320 44 0e 18 be 3a 5d 11 bd 8b 1f b9 bd 62 89 76 3d
       -0.14849192 -0.0354893 -0.090392195 0.060189612
000330 c5 ad 96 bd 34 06 a4 3d d9 a9 a8 3f 91 96 d4 bd
       -0.07357363 0.08008996 1.3176833 -0.10380281
000340 a9 3c 82 3d 44 72 ad bc 06 ad bc bd a1 08 23 3c
       0.06359226 -0.02117265 -0.09212689 0.009950788
000350 50 df f2 bc c2 86 d5 3d 96 c1 5f bd 15 77 97 3d
       -0.0296475 0.10426094 -0.054627977 0.0739576
000360 3d e9 eb bd 35 5a e5 bd 40 86 a5 bd dd 88 9c 3d
       -0.11519096 -0.11198846 -0.08082247 0.07643292
000370 91 ff 7f bd 4f 80 9d 3b 93 91 c6 bf 6b ea 01 bd
       -0.062499586 0.0048065553 -1.5513176 -0.0317177
000380 1b 66 06 bc b5 3f 49 bd 07 d6 1e 3c 73 81 b6 3c
       -0.008203055 -0.04913302 0.009694583 0.022278523
000390 89 51 a6 3d 1c ac 7d 3d 16 5e a0 3c f7 e3 29 bd
       0.0812102 0.061931714 0.019576114 -0.04147717
0003a0 bb ac 6a bd f1 cf 7c 3d 5f 8d b2 bc f5 96 13 ba
       -0.057293635 0.061721746 -0.021795927 -0.00056300993
0003b0 ff 27 d6 bd 5f 9b 1d be 85 e0 9a 3e 9c 4d a7 bd
       -0.104568474 -0.153913 0.3024942 -0.081691
0003c0 31 e4 ad 3d b4 e5 ec 3c e6 3d 81 3c 37 a9 ad 3d
       0.0849079 0.028918125 0.015776586 0.08479541
0003d0 df ef f8 3c 87 f4 03 bd 92 a4 24 3d be b2 62 3d
       0.030387817 -0.03221562 0.04019601 0.055346243
0003e0 1c 26 40 bd b3 9d af bd 16 1d 31 bc 97 cb d2 bd
       -0.046911344 -0.085750006 -0.010810157 -0.10292738
0003f0 31 d5 15 bd e1 10 9d be df 45 41 3e 59 dd c2 bd
       -0.03658027 -0.3067694 0.1887431 -0.09514875

encoder.attn_layers.0.attention.query_projection.bias f4 [16]
000000 1f 91 9b 3e 23 db aa bd b2 52 3c 3d d3 75 2e bd
       0.30384156 -0.08342578 0.045977302 -0.042592835
000010 ed 38 dd bd d9 1b 02 3d 35 da 8c 3f 9d f4 eb 3e
       -0.10801873 0.03176484 1.1004092 0.46085063
000020 4b 70 14 3f ac 25 af bf 42 92 b9 3e 63 0d 5a 3f
       0.57983845 -1.3683372 0.36244398 0.85176677
000030 cf 71 33 be 02 0b b4 3d 08 73 0f 3f d9 8d c0 3e
       -0.17523883 0.08791162 0.560349 0.3760822

encoder.attn_layers.0.attention.key_projection.weight f4 [16, 16]
000000 87 a8 88 3b e0 a8 48 bc 31 1e 1b 3d a9 46 7b bb
       0.0041704806 -0.012247294 0.03787059 -0.0038341677
000010 7e 7e 4c bd f4 aa 9c bc a2 5f 1c bd d3 61 f1 bc
       -0.04992532 -0.019124486 -0.03817714 -0.029465592
000020 6e ca 22 bc 10 8f 07 3d b2 ca 6e bc b6 ac df bd
       -0.009935958 0.03309542 -0.0145746935 -0.10921614
000030 dc 77 84 3c a0 c2 45 bd 43 a7 1b 3d 5f 1d 52 bc
       0.016170435 -0.048281312 0.03800131 -0.012824385
000040 c2 fe b6 bc 8e 3c d7 bc b2 6d 62 3c e9 88 0e 3c
       -0.022338275 -0.026273992 0.013820099 0.008699634
000050 50 0a dd 3d 9b b5 ed bb 8b 23 ad bc ff 85 70 bc
       0.107929826 -0.007254315 -0.021135112 -0.014680385
000060 5e f6 56 3d aa 3a ed 3c c4 96 9c 3c e8 5f 9f bb
       0.052481048 0.028958637 0.01911486 -0.004863728
000070 be 94 9d bc dd 7c 93 3d a4 f5 e2 bb 36 e5 a1 bc
       -0.019235965 0.0720155 -0.0069262553 -0.019762617
000080 ce 42 07 3d 78 d2 42 3c 68 a3 b3 3d 2b 5f b9 bd
       0.033022694 0.011891 0.08771402 -0.09051355
000090 23 94 33 bc 2b e9 11 3d e1 a7 d8 bc 2f 2d 23 3e
       -0.0109606115 0.035622757 -0.026447238 0.15935205
0000a0 c8 7a 60 be cc d7 1e 3e e8 5f e0 bc 05 94 99 be
       -0.21921837 0.15512007 -0.027389482 -0.29995742
0000b0 c4 8d 56 3e d0 7e da be e4 e4 26 be 9a a2 dc 3d
       0.20952517 -0.42674875 -0.16298252 0.10773201
0000c0 fc 96 62 3b 2a 1e 71 bd 66 61 d5 3b 2c 27 71 bb
       0.0034574857 -0.058866657 0.006511855 -0.003679703
0000d0 e6 72 14 bd 3e fd 4b bd b9 47 de bd a8 ac 93 be
       -0.03624239 -0.049802057 -0.10853524 -0.28842664
0000e0 67 0b cb 3c 46 d1 89 bd c0 69 b3 3c 22 be e6 be
       0.02478571 -0.06729369 0.021901011 -0.45066935
0000f0 79 d0 9d 3e be 93 83 be 15 7e 6c 3e fb bf a7 bd
       0.30823115 -0.25698656 0.23094971 -0.08190914
000100 f6 69 90 bd fe 95 a3 3c 98 ff 19 3d 37 8e 21 3b
       -0.070514604 0.019968983 0.03759727 0.0024651417
000110 a1 9f 37 3d 09 0f d1 3b 55 61 cb 3c 74 da c1 3c
       0.04482997 0.006379966 0.024826685 0.023663737
000120 8e b0 82 be 6d ec 9d 3d eb 13 ba bc 7a e1 9d 3e
       -0.25525326 0.0771111 -0.022714576 0.30836087
000130 4e 4a 68 bd 4b 48 a2 3a b0 16 31 3d eb bd c9 3d
       -0.056711487 0.0012381164 0.043234527 0.09850677
000140 a5 67 3b bd 06 00 7a 3c 15 17 23 3c bc 90 ff 3b
       -0.04575314 0.015258795 0.009954234 0.007799236
000150 6d d8 c8 3d 23 1b b0 3c e4 4f a3 3c 2a c6 c0 3c
       0.09806905 0.021497315 0.019935556 0.023531992
000160 99 19 07 3f 09 00 9d 3c fd c4 3e bc f8 0b 90 bd
       0.52773434 0.019165056 -0.011643645 -0.07033533
000170 3e 63 41 bd 71 57 e3 3c 9c 89 f2 3b d2 11 7b 3c
       -0.047213785 0.027751656 0.007401658 0.015324073
000180 61 08 cc 3c cb 45 2e bc e3 0f 81 ba 7f e0 43 3c
       0.02490634 -0.010636757 -0.0009846654 0.0119553795
000190 51 b0 40 bf 79 b3 a5 bb fe 25 dc 39 4a a9 bd 3c
       -0.7526904 -0.005056795 0.00041989976 0.023152012
0001a0 fa 4f 6a 3d a9 15 19 3c 46 dc ea 3c 9a f1 11 bd
       0.057205178 0.009343543 0.028669488 -0.0356308
0001b0 59 c6 1f 3a 1a 6f f6 3c 03 20 38 3c 40 c6 65 bd
       0.0006094925 0.030082274 0.011238101 -0.05609727
0001c0 8d c0 65 3d 3a 5d 89 bc 15 0c 8e 3c 67 66 2c bc
       0.056091834 -0.016768087 0.017339746 -0.0105224615
0001d0 34 93 e8 be d9 cd 28 bb 61 4c 0b bb 9d 90 87 bb
       -0.45424807 -0.002575746 -0.0021255242 -0.0041371123
0001e0 c2 b5 ec 3b 33 76 54 3c fb 49 fe bc 3a d5 57 bd
       0.0072238157 0.012967634 -0.031041136 -0.052693583
0001f0 c9 21 c9 bc 27 b9 bc bb 2b 0d 1c 3d cf 8b 08 bd
       -0.024552243 -0.0057593766 0.038098495 -0.033336457
000200 a1 29 8c bd 0e b3 5d bc b1 73 bf 3b 57 1d 8d 3c
       -0.068438776 -0.0135314595 0.005842649 0.017225904
000210 0f ce 95 3c 58 bb 81 bd dc a0 0c bd 4c 08 10 be
       0.018286733 -0.06334561 -0.034333095 -0.14065665
000220 77 72 9a bc 67 6a 18 3d 2c 83 37 3d 66 df 9c bd
       -0.01885341 0.03721085 0.04480283 -0.07659797
000230 6b 14 0f bb 76 96 dd be 3e 08 90 3d b3 e9 07 3d
       -0.0021832238 -0.43278855 0.07032822 0.033181857
000240 8d 76 4a 3d d7 dd 99 3c 95 b4 cb bc 6a ff d2 bc
       0.049429465 0.01878254 -0.024866382 -0.025756557
000250 0b bb 9d 3c 0c fe b0 3d 86 2b a9 3c c4 aa 69 3e
       0.019254228 0.086422056 0.020650636 0.22819048
000260 8f 35 88 3d 3d 55 03 bd 7c 15 a8 3e d4 da aa 3d
       0.066508405 -0.03206371 0.3282889 0.083425194
000270 70 76 15 bd 82 3a 03 3f 95 25 ba bd 2f 8a bd bd
       -0.036489904 0.5126115 -0.090891995 -0.09254872
000280 bb e1 cd bb 6e a1 2c 3c d8 81 68 39 b6 e0 8f 3c
       -0.0062830127 0.010536535 0.00022173615 0.017563205
000290 35 ce e4 bd e3 e9 0c 3d 85 a9 66 bc 26 0f 46 bd
       -0.11172143 0.03440274 -0.014078503 -0.04835429
0002a0 2d e9 c3 bd 94 bd 3f 3c b1 f4 1c bd 46 8a f2 3c
       -0.09565959 0.011702914 -0.038319293 0.02960695
0002b0 26 84 05 bc f3 32 de bb 42 10 0a 3f 4e 96 c2 3d
       -0.008149182 -0.006780976 0.5393106 0.095013246
0002c0 27 00 81 3c c5 69 88 3a 6d 99 74 ba fc f6 9b bc
       0.015747143 0.0010407498 -0.00093307236 -0.01903867
0002d0 6f 9f f7 3d fb ec 0e bd a4 b6 b8 3c dc ce 0b 3d
       0.120909564 -0.03489397 0.022548027 0.034132823
0002e0 dd f3 9c 3d 33 69 59 bc 4c 9f 0f 3d b6 c4 0b bd
       0.07663701 -0.01326971 0.035064027 -0.034123145
0002f0 63 78 23 bc 80 28 5d bc 7b e2 6c 3f 80 38 53 bd
       -0.009977433 -0.0134984255 0.9253308 -0.051567554
000300 ba 48 6e 3a 3f 30 22 bc da 46 7a 3c df e6 6c 3c
       0.00090898166 -0.009899198 0.015275681 0.014459341
000310 e5 aa c4 3d 8c 6a 79 bc e3 36 f2 bc a4 bb 12 bd
       0.09602908 -0.015223157 -0.029567188 -0.03582348
000320 79 3c 4b 3c 9d 7b 9a 3c 05 a9 af 3e b8 e8 19 bd
       0.0124045545 0.018857772 0.3430864 -0.037575454
000330 fd 2b cd 3c 09 0b f8 bd f5 65 a6 bd 07 be b4 3c
       0.02504539 -0.1211148 -0.081249155 0.022063268
000340 32 9e 14 3d 42 ea 80 3b d3 55 8e bb 05 5e 15 bc
       0.03628368 0.0039341757 -0.004343727 -0.009116654
000350 8a 61 3d 3c 43 b5 2a 3c 64 3a 98 bc 6d ec 81 3c
       0.0115589 0.010419193 -0.01858253 0.015859807
000360 41 d0 96 3a 68 8b 7d 3b 05 83 ad be f8 53 53 bc
       0.0011506156 0.003868783 -0.33889022 -0.012898438
000370 14 a8 28 3b ed 05 a1 bd 1d d3 73 bd bb e0 4d 3d
       0.0025734948 -0.078624584 -0.059527505 0.050263148
000380 f7 47 3f 3c 09 19 3c bb ca 1e d8 bb c3 e9 65 3c
       0.011674873 -0.0028701446 -0.006595467 0.014032784
000390 0f 50 01 3d 1d c3 c6 bb f2 f8 55 3c 10 35 ee ba
       0.03157049 -0.00606574 0.0130598415 -0.0018173773
0003a0 10 6e ee 3c e8 55 2b bc 4f 67 29 3d 11 bc 9f 3d
       0.029105216 -0.010457493 0.04135829 0.07799543
0003b0 04 63 86 bc 54 1b f2 3c fc 29 d7 bc c2 db e9 bc
       -0.016404636 0.029554047 -0.026265137 -0.028547172
0003c0 ce 1a eb 3d f0 af 9b 3c 3e 4d 34 3d 5b fa 1f ba
       0.11479722 0.019004792 0.044018976 -0.00061026745
0003d0 4e 6c fe 3e a1 50 11 3d 8c 68 10 bd d0 7b 02 3e
       0.49692005 0.035477284 -0.035255954 0.12742543
0003e0 88 af 2b 3d 0c bf 11 3d c6 8f 1b 3d c8 21 48 3d
       0.041915447 0.035582587 0.03797891 0.04886034
0003f0 d0 6a 26 bb 8b d9 6d bc fa 19 b1 3c fb e6 b1 3d
       -0.0025393255 -0.014517198 0.021618832 0.08686634

encoder.attn_layers.0.attention.key_projection.bias f4 [16]
000000 a6 60 73 be 39 fd 3b 3e f6 d7 85 bd c2 87 7b 3d
       -0.23767337 0.18358316 -0.06535332 0.061408766
000010 fc 30 94 3d 28 a4 10 be bd f5 fa 3b 1a 56 fd bd
       0.072359055 -0.1412512 0.007658689 -0.12369938
000020 31 95 ee 3d 24 1d 86 be e2 31 c3 3d 0b bd 5f be
       0.1164955 -0.26194108 0.09530999 -0.21849458
000030 1b 89 e9 3d 1a ee 07 3e 40 92 1d 3e 8c fd 80 3e
       0.11403104 0.13274422 0.15387821 0.2519344

encoder.attn_layers.0.attention.value_projection.weight f4 [16, 16]
000000 d9 c8 81 be 7e a1 87 be 7f a7 95 bd cb b6 55 3e
       -0.25348547 -0.26490396 -0.07307338 0.20870511
000010 2e 97 b1 3e 9e 97 09 bd 2c 67 11 3e 37 db fe 3d
       0.34685653 -0.03359186 0.14199513 0.12444156
000020 14 df 24 3e 0a e6 9c 3b ea 73 1b 3e 33 cb 17 3e
       0.16100723 0.004788165 0.15180936 0.14823608
000030 5d f5 35 be ac 78 54 3e 17 29 c1 3e 8c b3 87 be
       -0.1776938 0.20749158 0.37726662 -0.2650417
000040 02 e0 0f be 80 e7 19 be 68 2f 6b 3e 02 f3 cb 3d
       -0.14050296 -0.15029716 0.22967303 0.099584594
000050 aa fe 15 3f 24 a9 3a be 71 19 31 be 9b cb d8 bd
       0.5859171 -0.18228585 -0.17294861 -0.1058571
000060 a4 31 37 3d 43 74 0c 3e ca 19 e7 3c c9 a2 d4 be
       0.044725075 0.13716225 0.02821054 -0.41530445
000070 7a 3e 26 bd 2b 31 ee bd 07 b9 35 3e 5f 50 5c bd
       -0.040586926 -0.11630472 0.17746364 -0.053787585
000080 74 4c 05 3d 46 a0 74 ba e2 93 85 3c cc 0c b2 3c
       0.032543615 -0.0009331744 0.016305868 0.021734618
000090 8c cc 4f 3d d8 ea f3 bc 9e 7b e7 bc 16 5f 8f bd
       0.05073218 -0.029775068 -0.028257187 -0.07000558
0000a0 3b f6 18 3c 15 50 84 ba ee e8 2a bd 30 15 5e bd
       0.00933605 -0.0010094667 -0.041726045 -0.054219425
0000b0 d1 01 49 3d e7 b6 a8 bd 65 dd d1 3d 27 b2 aa bc
       0.049073998 -0.08238011 0.10247306 -0.020836903
0000c0 d4 5e 06 3c 2d b8 58 bc 46 f5 1d 3c 0e 5d 4e bd
       0.00820132 -0.013227505 0.009640997 -0.050381713
0000d0 fc ac 0f bd 3a b9 c6 3c bc fb 35 bc 2b 7f 53 3d
       -0.03507708 0.024258245 -0.011107381 0.05163495
0000e0 a0 6d 84 bd 85 03 eb 3c f8 73 0a 3d ea 0b 13 be
       -0.06466222 0.028688202 0.033802003 -0.14360014
0000f0 0b 21 d5 3c 3c 37 55 bd 99 c8 34 bd 0c c4 30 3d
       0.026016733 -0.05205463 -0.044136617 0.043155715
000100 4b 64 08 3d 5d 85 1c bc 89 45 58 bc 46 4b d0 bc
       0.03329877 -0.009553281 -0.013200172 -0.025426518
000110 e4 07 5d 3d e0 75 e1 3c 4d 6f 6b 3c 85 7d 03 3d
       0.053962603 0.027522027 0.014369798 0.032102127
000120 94 71 b2 3e d5 ae 42 bc 60 9e 2e 3c cd e1 f1 bd
       0.34852278 -0.0118825035 0.010657877 -0.11810646
000130 79 12 9f bc 6f f3 31 bd 05 57 59 bd f9 75 25 be
       -0.019417988 -0.043445047 -0.053061504 -0.16158284
000140 43 5d 80 bc 56 fa e4 3b fa 68 2d 3b e3 77 d1 3b
       -0.01566947 0.00698785 0.0026460276 0.0063924654
000150 71 ff 22 bd b3 52 dc bb 41 48 2b bb 53 51 39 bc
       -0.03979439 -0.0067237257 -0.0026135596 -0.011310893
000160 e5 1e cb be cd 96 1a bc e7 3a d4 b7 ec 83 85 3d
       -0.39672008 -0.009435368 -2.5299798e-05 0.06519303
000170 dc 7f 0b 3b 1f 11 75 bc 96 ff 5d bb 5c 95 a4 bc
       0.0021285927 -0.014957695 -0.0033874265 -0.020090751
000180 1b a3 16 3e f1 a3 90 bd 1b 33 01 3e ba a7 3e be
       0.14710657 -0.07062519 0.12617151 -0.1861867
000190 37 c6 9b 3f e6 f4 11 3d f5 c4 9b bd d5 06 86 bd
       1.2169865 0.035633944 -0.07605926 -0.06544272
0001a0 10 7e 63 be 3d 31 aa 3c 64 2a 5d be ac a4 8f be
       -0.22216058 0.020775432 -0.21598202 -0.28055322
0001b0 9c 2a dd 3d 74 36 99 be 9f 74 21 bd f4 90 d3 3b
       0.10799143 -0.29924357 -0.03941786 0.0064564887
0001c0 fc 14 b4 3e 7d bd 01 be 1b 81 30 3e 9a 89 1c be
       0.3517226 -0.1266994 0.1723675 -0.15286866
0001d0 39 9c f5 bf 52 34 24 bd 88 9d a9 bd 64 fd 38 3c
       -1.91883 -0.04008896 -0.08282 0.011290882
0001e0 30 90 a3 3c f8 7c 56 3c 7c ca e4 bd 43 ee 75 bd
       0.019966215 0.013091318 -0.11171433 -0.060041677
0001f0 44 43 6c 3e f9 3f 75 3e 54 82 17 3d fc c5 af 3e
       0.23072535 0.23950185 0.036989525 0.34330738
000200 73 bb 7e bd fd e4 56 3c 91 46 6d 3c 70 2d 0b 3d
       -0.062190484 0.0131161185 0.014482156 0.03397888
000210 52 d2 86 bd 0c 8d 66 bd 5b be 92 bc f2 3c fe bd
       -0.06583084 -0.056286857 -0.017913034 -0.12413968
000220 26 b3 d0 bc 8e 51 0f 3c d7 5c 16 3e 78 35 04 3e
       -0.02547605 0.0087474715 0.14683853 0.12911022
000230 71 5c 9e 3c 5e 56 a9 3c 0d 3a d5 bd ff 5f 88 3d
       0.019331189 0.020671066 -0.10411463 0.06658935
000240 40 4c 4b bd 7a 92 8f 3c a1 f2 a3 3c 40 13 a3 3c
       -0.049633265 0.0175259 0.020013155 0.01990664
000250 10 2e a6 bd 54 c4 66 bd fe 2e ad bc 08 75 10 be
       -0.081142545 -0.056339577 -0.021140572 -0.14107144
000260 16 1e 0c bd 2e 30 7e 3c 50 01 24 3d 02 1e 78 3d
       -0.03420838 0.015514417 0.040040314 0.060575493
000270 05 84 b9 3c ad a1 ae bd 14 46 88 bd 8b 11 38 3d
       0.02264596 -0.08526931 -0.06653991 0.044938605
000280 2a fa eb bc 98 88 72 3c 94 0b 4e 3c ea 2b ed ba
       -0.028805811 0.014803074 0.012576003 -0.0018094752
000290 c0 ae 8f bd e8 84 e8 bb d8 11 c0 bc bd ce 65 bd
       -0.07015753 -0.007095922 -0.023446009 -0.056105364
0002a0 41 9d 4d be 8d eb 58 3c c9 ad 2c bd 5e a2 79 3d
       -0.20079519 0.013239753 -0.042157922 0.06094586
0002b0 11 3b 5b 3d ca ab 1d bd 73 30 ef bc 2f 52 13 3d
       0.053523127 -0.03849391 -0.029197907 0.03596705
0002c0 c3 ca 66 bc 80 18 85 bb 28 ca 77 bc d9 57 5a 3b
       -0.014086428 -0.0040617585 -0.015123881 0.0033316521
0002d0 31 12 18 3c 57 ac cc 3b a4 bd 8c 3c 6a 80 09 3c
       0.009281681 0.0062461304 0.017180271 0.008392433
0002e0 02 2d 80 3d 00 5d 69 bc f5 6b 9f 3c 98 c8 8f 3b
       0.062585846 -0.014243364 0.019460658 0.0043879263
0002f0 f0 88 2f bb 4d 0b 18 bc 7c 4a 2c 3f 90 11 43 bd
       -0.0026784502 -0.009280038 0.67301154 -0.04762417
000300 71 9c fd 3c 2a 1d 07 bc c9 ec aa 3c 91 05 85 bc
       0.030958386 -0.008246699 0.020864861 -0.016238006
000310 74 41 a8 bc a6 1c 63 bc e5 73 a1 bc 1f e1 59 bd
       -0.020539023 -0.013861811 -0.019708583 -0.053193208
000320 cb 4f 10 bc 03 e9 90 3c e5 14 ac 3e 9a 2e ab bd
       -0.008808087 0.017689234 0.3360969 -0.08358498
000330 97 9a ec 3c e6 80 4c bd b4 16 c7 3c 81 da c0 39
       0.028882308 -0.049927615 0.024302818 0.00036783892
000340 a9 a3 44 bc 71 9f 7d bc f2 df d9 3c 63 68 41 bc
       -0.01200191 -0.015479908 0.026596043 -0.011804673
000350 91 dc 6f 3d f0 7e c5 bc fd 17 aa bc d1 d1 79 bd
       0.058559958 -0.02410838 -0.020763392 -0.060991112
000360 82 a0 9c bc 3d 99 d5 3c fc ba ed bd 7f 33 a2 bd
       -0.019119505 0.026074046 -0.1160793 -0.07919978
000370 41 42 1e 3d e1 42 5f bd 0e 98 98 3d d4 ed f8 bc
       0.038637403 -0.05450714 0.07450877 -0.030386843
000380 84 78 7f be 01 e9 b8 3d cc 0b 4c 3c d4 79 27 3e
       -0.24948317 0.09028817 0.0124539845 0.16355067
000390 4d d5 d8 bf fd c4 29 be 71 d7 18 bd bf 26 8d be
       -1.6940094 -0.16579051 -0.037314836 -0.27568623
0003a0 08 cf 12 bd 63 79 bb bd 1e 94 04 bd f9 5b 42 be
       -0.03584197 -0.09154012 -0.032367818 -0.18980397
0003b0 01 ca 4e 3d 23 44 87 bd 77 26 25 be f3 19 43 be
       0.050485615 -0.06604793 -0.16127954 -0.19052868
0003c0 a1 ea 05 3f d4 26 bc bd 9f 09 67 3e 99 7f af be
       0.5231114 -0.091870934 0.22562264 -0.34277037
0003d0 2a 72 14 3e d0 83 f7 3d d8 b3 0d be 08 4f 89 3e
       0.14496675 0.12085688 -0.13838136 0.2681811
0003e0 b4 57 00 be f2 b5 f3 3d 97 6c 09 be bb fc 39 be
       -0.12533456 0.11899938 -0.1342033 -0.18162815
0003f0 07 56 8b 3e d4 ca 64 be 27 b5 b9 3e 25 86 55 3e
       0.2721407 -0.22342998 0.3627102 0.20851953

encoder.attn_layers.0.attention.value_projection.bias f4 [16]
000000 41 13 fa 3c 57 11 69 3c 14 37 84 be bc 90 84 be
       0.03052676 0.014225326 -0.2582327 -0.25891674
000010 52 d1 e2 be bf b1 85 bf 8f 65 ec bd da ac c9 3e
       -0.44300324 -1.0444869 -0.11542808 0.39389688
000020 29 a0 a1 3f 64 7c a9 bf 46 db b0 3d cf a0 ac be
       1.2627002 -1.3241086 0.08635573 -0.33716437
000030 93 b7 48 3e d2 0a 1b be 3c 59 9c be 43 4f 11 bd
       0.19601278 -0.15140846 -0.3053683 -0.03547598

encoder.attn_layers.0.attention.out_projection.weight f4 [16, 16]
000000 5f 09 59 3e 41 40 28 bf 13 e2 81 3d 69 8a 65 bd
       0.21194981 -0.65723044 0.06341948 -0.0560402
000010 a2 c7 b0 3c 31 a2 e6 be b9 0b 23 3e d8 d3 8c be
       0.021579567 -0.45045617 0.1592244 -0.27505374
000020 29 40 f7 3e 69 b1 d1 be 73 37 a8 3d f0 a2 9d be
       0.48291138 -0.40955666 0.08213701 -0.30788374
000030 e4 bc 52 3e 75 30 43 bd 9c e5 b7 3d e3 c4 8f 3e
       0.20579869 -0.047653634 0.089793414 0.280799
000040 f3 4a 2a 3f 52 7e 3b be 6e df 34 bd a6 c1 54 3e
       0.66520613 -0.18309906 -0.04415839 0.20776996
000050 16 a2 cd bc f2 71 fb 3d 34 81 01 be ba 58 32 be
       -0.025101703 0.12277593 -0.12646943 -0.17416659
000060 9a 84 f7 3e 22 dc 29 bf e4 cc 92 be 13 44 c9 be
       0.48343354 -0.6635152 -0.28671944 -0.3930975
000070 34 6e 37 be fd 04 22 3e 02 25 21 3e 74 df da bd
       -0.17913133 0.15822215 0.15736774 -0.106871516
000080 cf 0e 67 3e 26 71 07 bf cf e2 f5 bc e4 28 23 be
       0.22564243 -0.52907026 -0.030015377 -0.15933567
000090 64 97 f0 3e 03 81 eb be af 60 31 3f 1d a4 e0 bc
       0.46990502 -0.45996866 0.6928815 -0.027422005
0000a0 62 2e 3b bd 38 2d cb 3b 51 c7 29 3c 32 ef 95 bd
       -0.04569853 0.006200459 0.010362462 -0.073210135
0000b0 1c e5 13 bb 91 21 01 3e 89 ae 6a bd 72 1e c8 be
       -0.002256698 0.12610461 -0.057295356 -0.39085728
0000c0 04 0a 5a 3d ca a7 55 3e ba c9 f0 3d 64 d1 99 3d
       0.053232208 0.20864788 0.11757226 0.07510641
0000d0 d2 51 be bd f5 2f 3e be 63 69 e5 3e f5 17 cd be
       -0.0929295 -0.18572982 0.44806966 -0.4005734
0000e0 a0 ca 15 3e af 47 26 be 81 82 75 3e 61 7f eb bd
       0.14628077 -0.16238283 0.23975565 -0.11498905
0000f0 21 6e 74 3d bb 32 fb 3c 22 5b 44 3e 87 0b 22 be
       0.05967534 0.030663839 0.1917539 -0.1582471
000100 66 82 56 3e 54 e9 6d bd ae 90 ce 3d 84 d3 05 bd
       0.2094818 -0.058083847 0.10086189 -0.03267242
000110 2c f7 a0 3d 55 14 4d be 01 7d 9c b8 4e 78 53 3b
       0.07859644 -0.20027287 -7.4619435e-05 0.0032267752
000120 ff ec 43 be 10 c9 0e bd f0 71 60 3d 38 7f aa be
       -0.19133376 -0.034859717 0.05479616 -0.33300185
000130 f0 ce 73 3f ed 3d 58 bf ec 96 1e 3e 25 6d 00 3f
       0.95237637 -0.8446949 0.1548726 0.5016654
000140 c0 48 c7 be 32 40 a2 3d 63 bc 3b be 41 38 f1 bd
       -0.3892269 0.079224005 -0.18333583 -0.11778308
000150 8f 46 84 bd 29 11 b1 3d 67 e6 db 3d 40 7d e3 be
       -0.064587705 0.08645851 0.10737305 -0.44431496
000160 59 29 b9 3d 3f 9f e2 bd 48 25 5f 3e f9 16 c0 3d
       0.090410896 -0.1106553 0.21791565 0.09379382
000170 b3 fc 8e bc 7d 5a 1b be c1 44 55 be ea 7f 20 3f
       -0.01745448 -0.15171237 -0.20827009 0.6269518
000180 a7 01 0f 3b 59 b2 70 3c dc e6 e2 3d 0d 37 9c 3d
       0.0021821053 0.014690959 0.11079189 0.076276876
000190 65 c3 b8 bd 21 66 50 bd 73 eb d0 3e 1b c0 f8 be
       -0.090216435 -0.050878648 0.40804633 -0.48584065
0001a0 ec b3 d4 3d 37 d5 3d bd 91 3f 74 be 0e 8f 17 be
       0.1038588 -0.046345916 -0.23852374 -0.14800665
0001b0 5f 62 1c be a6 6e 7f 3d 3d c9 71 3e 22 e3 4b 3e
       -0.152719 0.062361382 0.23611923 0.19910863
0001c0 cd 30 ff bd 74 7b 18 be 73 e8 1c 3e 0e 32 8b 3d
       -0.1246048 -0.14890844 0.15323047 0.067966565
0001d0 50 ff 4a be 8f ba 2e 3c 8d 44 e6 3d 23 98 69 bf
       -0.19823956 0.010664596 0.11243544 -0.9124777
0001e0 e9 0b e3 3d da e3 99 be 17 7e de bd 66 f8 42 be
       0.11086256 -0.3005665 -0.108638935 -0.19040069
0001f0 96 68 49 be cc 42 b1 bd 59 2f a9 3e 9c 4b 2f 3c
       -0.19668803 -0.086553186 0.33043936 0.010699179
000200 ac 41 33 be 52 2e 2c be 9f 43 21 3e e4 9f ea 3d
       -0.1750552 -0.16814545 0.15748452 0.11456278
000210 79 88 ef 3d f7 5f 85 3e d7 2d de be b9 e2 00 3e
       0.11695952 0.26049778 -0.43394348 0.12586488
000220 55 45 86 be 98 37 2e 3e 49 c3 c7 bd aa 3d 63 3e
       -0.2622477 0.17013395 -0.097540446 0.22191492
000230 47 e4 5f 3d b6 a4 d1 3c 88 e0 54 be 16 51 e6 bd
       0.05466106 0.025591236 -0.20788777 -0.11245935
000240 bf 97 97 3e d6 0c ce bd 4b 73 9c be 92 de 2c be
       0.2960796 -0.10061042 -0.30556712 -0.16881779
000250 57 47 31 bf 87 6c fa 3e f9 08 af 3d a1 96 0c bf
       -0.6924948 0.48910925 0.08546633 -0.5491734
000260 1a 15 77 3d 75 98 4c be f2 e0 88 be 4b 14 c5 3d
       0.06032286 -0.19980033 -0.2673412 0.09623011
000270 fb 0f 68 3e d2 95 44 be b6 8a df be 91 1e 90 3d
       0.22662346 -0.19197777 -0.43660516 0.0703708
000280 40 7f c2 bd d8 86 ae 3c 55 b6 1b 3e f9 13 fb 3d
       -0.09496927 0.021304533 0.15206273 0.12259669
000290 96 fc bc 3e 2e de 3f be 32 6b 5d 3e fb 44 84 3d
       0.36911458 -0.18737099 0.21622923 0.064584695
0002a0 76 e7 6c 3d 6e 87 12 be 7e ce 33 bd 6f 4d 12 3e
       0.057837926 -0.14309475 -0.0438981 0.14287351
0002b0 36 2e 03 bd b2 89 83 bd 92 dd 64 3d f3 4f 1d bc
       -0.032026492 -0.06422748 0.05587537 -0.009601581
0002c0 63 08 06 3e 9e fc 95 3d 17 1b bd bb b5 e8 f6 bc
       0.13089137 0.073235735 -0.0057710516 -0.03014026
0002d0 04 52 71 3d d2 0a 68 3e 90 fb 85 bd 06 ea 0d 3e
       0.058916107 0.22660378 -0.06542122 0.13858804
0002e0 d1 c3 0c be 69 c8 16 bd a7 82 2f 3c 8e c4 66 3e
       -0.13746573 -0.03681222 0.010712302 0.22535917
0002f0 38 10 87 3d f8 3f 33 bc da 85 98 3d 0b 45 2f 3e
       0.0659489 -0.010940544 0.07447405 0.17116182
000300 d2 82 c6 bd 1d b9 05 3e b1 7f e8 3c 7e 63 b4 3d
       -0.09692921 0.13058896 0.0283812 0.08808039
000310 c8 c5 56 bd a1 ac 0d be 09 9b c5 3e cc aa e6 bb
       -0.052434713 -0.13835384 0.38594845 -0.0070394035
000320 98 f2 53 3d 17 66 db bd 2e c2 4b 3d d7 44 b2 3d
       0.051745027 -0.107128315 0.04974573 0.087045364
000330 dc 7d 39 bc 26 ba eb bc 10 a6 c8 bd c2 62 3e be
       -0.011321511 -0.028775286 -0.09797299 -0.1859236
000340 24 b8 31 b8 e8 51 53 3d ff 80 86 3c 08 4f 58 3d
       -4.2371583e-05 0.051591784 0.016418932 0.052809745
000350 7f 61 4c 3d c4 97 c2 3d 99 d3 54 be 03 9a 04 3e
       0.049897667 0.09501603 -0.20783843 0.12949376
000360 37 11 68 bd ed 47 b7 3d 82 2d 08 bd 8f 68 1d be
       -0.056657042 0.08949266 -0.033246525 -0.15371917
000370 cb ff be bd 51 a1 ca bd ed 3d 39 be 6d 39 89 bd
       -0.093261324 -0.0989405 -0.18090029 -0.06700406
000380 b1 1c 5e be 36 70 1e 3e 75 4d 78 be 91 1e a9 be
       -0.21690632 0.15472493 -0.24248298 -0.33031133
000390 f2 2d 47 bd dc 16 b9 3d 7d b6 e1 bd a0 85 49 be
       -0.0486278 0.09037563 -0.11021135 -0.1967988
0003a0 75 01 34 3d e5 3b a3 bd bd d1 ad bc ea 9c 80 3d
       0.043946702 -0.07970408 -0.021218175 0.06279929
0003b0 1c de 9d 3d 13 46 d2 3d 3d c9 cd 3e bb 40 d7 3d
       0.077083796 0.10267272 0.40192595 0.10510393
0003c0 90 56 49 3d 46 e8 86 bd 14 d2 ac bc d1 cd 2f bd
       0.049154818 -0.065872714 -0.021096267 -0.04292089
0003d0 07 46 38 3d 7f 8d b5 3c f3 a9 12 be a2 45 5d 3e
       0.04498866 0.022162197 -0.14322643 0.21608594
0003e0 5f 9e 82 bd 15 1d 19 3e f6 89 2e 3d 26 bb 10 b9
       -0.06377863 0.149525 0.04261204 -0.00013802628
0003f0 45 12 0f bb 49 31 a9 3c 1e ac 7a 3d c0 a6 02 3d
       -0.0021830958 0.020653384 0.0611993 0.031897306

encoder.attn_layers.0.attention.out_projection.bias f4 [16]
000000 34 07 82 be 98 db 12 bf a2 1a c2 3b 39 89 7e bf
       -0.2539612 -0.57366323 0.005923585 -0.99428135
000010 ac cf bf 3e b6 54 c0 be cc 74 e4 be 47 f7 7a bf
       0.3746313 -0.3756463 -0.4462036 -0.98033565
000020 fa 7d 8a 3e 58 d5 19 3d 86 75 99 3c 0b 9a e4 bc
       0.27049237 0.037556976 0.018732797 -0.027905485
000030 2a 9a ad be d7 e7 9a 3e 60 31 18 be 29 ec bf 3e
       -0.3390668 0.30255005 -0.14862585 0.37484863

encoder.attn_layers.0.conv1.weight f4 [32, 16, 1]
000000 25 a9 53 be c2 12 9b 3e a5 c6 81 bd 30 1c 33 bd
       -0.20669992 0.3028775 -0.063367166 -0.043728054
000010 22 2e 69 bf 64 1c 72 3d d0 60 df 3e 5b 18 96 bc
       -0.9108602 0.059109107 0.4362855 -0.01832216
000020 72 70 90 be db dd 36 be 5a 31 c5 bc f8 75 75 3e
       -0.2821079 -0.17858069 -0.024071384 0.23970783
000030 11 45 d7 3d 43 2a 1c bf b9 d6 3f 3e 9e 21 0c bd
       0.1051122 -0.61001986 0.18734254 -0.034211747
000040 9d 02 cd 3e 29 12 89 be 36 7e 38 3e 64 1c c8 3e
       0.40041056 -0.26771668 0.18016896 0.3908416
000050 3d 5f 91 3e f8 6a e1 be 3c 9c 22 bd 46 c8 fd be
       0.28392974 -0.44026923 -0.039699778 -0.4956686
000060 ca 16 67 be 8e a3 94 be ee 42 38 3e 3a 91 ea 3d
       -0.22567287 -0.29031032 0.17994282 0.11453481
000070 fa c9 be bd 6c b9 d1 3a d7 40 22 bf 9d 73 a8 be
       -0.09315868 0.0016000695 -0.6338019 -0.32900706
000080 86 56 a3 3d 60 e0 2a be 5a fa e9 3c 67 11 d4 3e
       0.079754874 -0.16687155 0.02856176 0.41419527
000090 06 c5 8b be 1f e5 1b be 29 39 e2 bd a0 3a 7a 3e
       -0.27298754 -0.15224122 -0.11046059 0.24436426
0000a0 86 b7 cf bd 03 5b ca 3d 31 6f 37 be 2e 0b 8d bd
       -0.10142426 0.0988064 -0.1791351 -0.06886898
0000b0 b8 ae f4 3e e4 09 a3 be b2 3f ba 3e e2 76 bf bf
       0.4778955 -0.31843483 0.3637672 -1.4958155
0000c0 9f 12 46 3e f7 02 11 be 1c cf 22 3e fe 85 e4 3d
       0.19343041 -0.14161287 0.15899318 0.111583695
0000d0 cd 5f a6 bf 54 08 22 be 92 77 2a 3e dd 57 a6 3d
       -1.2997986 -0.1582349 0.16647175 0.08122227
0000e0 37 dc 03 3d 15 8d 16 be 9f 59 41 3e d5 61 90 3c
       0.032192435 -0.14702256 0.18881844 0.017624775
0000f0 06 f9 58 3e ac 8f a7 3e 82 78 dd 3e 84 1a 00 be
       0.21188745 0.327268 0.43256003 -0.12510115
000100 c4 01 45 3d 7d f1 d7 bd e5 58 94 3e 84 3d b9 3e
       0.048097387 -0.10544107 0.2897407 0.36179745
000110 13 97 88 be d2 fd 9d 3d a7 4d 93 bd ed 93 03 bd
       -0.2667776 0.07714428 -0.071925454 -0.032123495
000120 2b 40 de 3e ca 73 53 bd ad ad ac be 40 48 27 3f
       0.4340833 -0.051624097 -0.33726254 0.6534462
000130 e6 9b 61 bf 23 54 17 bd b1 94 90 bd b3 d4 d3 be
       -0.8812851 -0.036945473 -0.07059611 -0.41373214
000140 3f 79 f5 3d 65 95 7e 3e 98 5e 3c be 2b cd 0f be
       0.119860165 0.24861677 -0.1839546 -0.14043109
000150 65 71 8e 3e f0 16 ba bd b7 d1 b9 be ef d7 d1 3e
       0.27820888 -0.09086406 -0.36292812 0.40985057
000160 76 97 ed bb 9f b3 92 be e7 4c 81 bd 4f 4f 54 3e
       -0.0072507216 -0.28652665 -0.06313496 0.20733379
000170 27 3f ad 3d 69 d2 3a 3d af e2 be 3e f7 e3 9a bd
       0.08459311 0.04561082 0.3728232 -0.07563012
000180 60 2f 0d 3f dd 9c 66 be cd bc d6 bd 22 38 45 3e
       0.55150414 -0.22520776 -0.1048523 0.19259694
000190 0f 19 41 be e2 88 5f 3e 59 8a 02 be 68 63 1f bf
       -0.18857215 0.2182956 -0.12748088 -0.62261057
0001a0 15 6c 12 be 93 03 b7 bd d8 c0 16 be 23 7d 88 be
       -0.14299043 -0.089362286 -0.14722002 -0.26657972
0001b0 f5 58 3b 3b cf 8d 84 3e 42 d7 e0 bd f2 c7 d2 3e
       0.0028586958 0.2588944 -0.10978557 0.4116817
0001c0 97 15 6a bc da 97 25 3f ca 01 6d 3e 1e b8 d2 3d
       -0.014287374 0.6468483 0.23145214 0.10289024
0001d0 91 84 16 3d 5e ae e4 3d a4 19 b5 3d f5 a5 51 be
       0.03674752 0.111660704 0.08842781 -0.20473464
0001e0 ab b7 c7 be 08 46 44 bd dc 13 80 3c 7d d2 59 bf
       -0.39007315 -0.04791835 0.01563447 -0.85086805
0001f0 a5 e0 96 3e 97 8c 90 3e e0 b2 cd 3c 5c aa b7 bc
       0.29468265 0.28232262 0.025109708 -0.0224201
000200 24 fb b9 3d 3f a4 98 3e 6e fd 00 be 92 e1 7d bd
       0.090811044 0.2981281 -0.12596676 -0.0619827
000210 a6 18 8f bf 56 1b 01 bd f8 5a 89 3e 7c 0c 96 bc
       -1.1179397 -0.03152021 0.26827216 -0.0183165
000220 fe f1 18 3e cf 95 fb 3e 5b c7 d3 3d c9 c0 e4 bd
       0.14936063 0.49137732 0.103407584 -0.11169583
000230 49 24 dc be fd d1 92 3e b6 2f 7e be 51 cd 91 3c
       -0.42996433 0.28675833 -0.24822888 0.017798098
000240 7b 23 6f be ab 85 4b be 62 ea 7a be 1d 3b 49 3f
       -0.23353378 -0.19875209 -0.24503472 0.78605825
000250 54 37 04 bf dc 87 3f be c3 e3 01 3f 51 25 e2 bd
       -0.51646924 -0.1870417 0.5073816 -0.11042274
000260 4f 63 57 be c7 98 8f be 6a 5d da bc 14 b9 cc 3e
       -0.21033977 -0.28046247 -0.026655871 0.39984953
000270 9f 3f 29 be 55 1a 16 3c 62 44 21 be 82 d5 80 bf
       -0.16528176 0.0091615515 -0.15748742 -1.0065157
000280 96 f8 32 bf 9b db 41 be ca 3a 3a be 77 39 e3 be
       -0.6991056 -0.18931429 -0.18186489 -0.4437978
000290 84 fe bd bd 7c a2 31 be 0c 72 a8 be c5 98 b7 be
       -0.09277061 -0.17347139 -0.3289951 -0.3585874
0002a0 13 dc 1c 3e ed ed b7 3d 43 9e 4b be 20 26 2b 3f
       0.15318327 0.089809276 -0.19884591 0.6685505
0002b0 62 27 9c be 58 59 b0 3e fd ff 03 be 23 11 3b bc
       -0.30498797 0.34443164 -0.1289062 -0.01141766
0002c0 82 3a 4e be ed 7f 8d bf c6 65 ed bc 84 59 9d be
       -0.20139506 -1.1054665 -0.028979193 -0.30732358
0002d0 5f d0 a8 be eb 41 06 bd c8 29 85 be ed ab 99 be
       -0.32971475 -0.032777708 -0.2600844 -0.3001398
0002e0 5e c7 1f 3e db a8 08 bd cb b1 4b be 3a d5 1b bf
       0.15603396 -0.033364158 -0.19892041 -0.6087223
0002f0 85 4e c8 3e ad ac 7d 3e 85 6e a9 3c 0b 4f b2 bd
       0.39122406 0.24772902 0.020682583 -0.087064825
000300 1f f1 db bd 18 f7 4a 3e dd 67 26 bd 35 a6 46 be
       -0.107393496 0.19820821 -0.040626395 -0.1939934
000310 04 13 eb be 44 90 81 3b fa 40 3d be d3 fb d0 be
       -0.45912945 0.0039539654 -0.18481818 -0.40817127
000320 b0 e2 05 be e6 a4 b2 bd e5 3a f3 bd 1e 6a 37 3f
       -0.13074756 -0.08722858 -0.118764676 0.71646297
000330 03 80 a3 3e 55 f9 06 bf 69 7e 06 bf 6a 94 0c 3f
       0.31933603 -0.527242 -0.52536637 0.5491396
000340 81 4d 13 bf 60 36 f6 be 47 0f 96 3e c8 b5 24 bd
       -0.57540137 -0.4808836 0.2930853 -0.040212423
000350 6c 91 64 be 1f ac cb bc 06 4a b4 bb 7d cc 5e 3f
       -0.22321099 -0.024862347 -0.0055019883 0.87030774
000360 fd 91 c1 be a4 4f e0 bc 26 72 e3 bd 47 8a 38 3e
       -0.37806693 -0.027381726 -0.111057565 0.18021499
000370 8a 0c ac be f9 e7 92 3d f4 ea 89 3e 41 b5 5e 3d
       -0.33603317 0.071731515 0.26937068 0.054372076
000380 bd 65 df bd 71 10 9c bd e2 3c 58 3d 6e aa 9b 3e
       -0.10908077 -0.076203234 0.052792437 0.30403465
000390 6c 51 7e bd 33 8a b7 bd 9d 6d 3e bd f5 72 c5 bd
       -0.06208937 -0.08961906 -0.046491254 -0.09641067
0003a0 68 61 f3 be 32 ce 8e 3d 62 70 30 3f f3 21 de 3d
       -0.47535253 0.069729224 0.6892148 0.10846319
0003b0 ba 38 b8 3e d1 c6 84 be 44 32 4c 3e 1b e7 fe be
       0.3598078 -0.25932935 0.1994105 -0.49785694
0003c0 b0 35 39 be 21 82 a4 3d 2d 85 86 be 7e 0a 40 be
       -0.18086886 0.080326326 -0.2627348 -0.18754002
0003d0 13 eb b7 bd f9 63 01 bf d3 b0 60 bc 97 b2 f8 bd
       -0.08980384 -0.5054317 -0.013714033 -0.12143438
0003e0 db db c1 bd 64 46 16 bd c9 7a 37 be 60 04 84 be
       -0.09465762 -0.036688223 -0.17917933 -0.25784588
0003f0 9a d8 1a 3f cf 7f 00 3e e8 7f 22 be 18 f4 9e 3e
       0.6048676 0.12548755 -0.15869105 0.31045604

encoder.attn_layers.0.conv1.bias f4 [32]
000000 05 05 25 bf 1e e3 5e bf 98 56 b0 be c0 3a 40 bf
       -0.64460784 -0.87065303 -0.34441066 -0.75089645
000010 c5 78 3e be 77 b6 da be 89 c8 2c be 14 f7 90 bd
       -0.18600757 -0.42717335 -0.16873373 -0.070783764
000020 0d 86 17 be 56 ad 47 bf 3a 13 9a bf 21 b1 59 bf
       -0.1479723 -0.77998865 -1.2037117 -0.850359
000030 fa 29 6a bf 5f b5 c4 be 61 d0 d0 be 7b 71 e3 be
       -0.914703 -0.38419625 -0.4078398 -0.44422516
000040 23 5e f2 be 8a 9a fa be b9 5d cf bd 0a d5 08 bf
       -0.47337446 -0.4894603 -0.10125298 -0.5345007
000050 1f b6 2c bf 6d c2 76 bf 29 2c c3 be 5e 61 61 bf
       -0.67465395 -0.9639042 -0.3811963 -0.88039196
000060 7f 33 5b bf 10 51 11 bf 0b 14 9c bf 94 0b ce bd
       -0.8562545 -0.56764317 -1.2193617 -0.10060802
000070 9a 8c 38 3e 06 23 04 3e ca 60 10 be 57 58 96 be
       0.18022385 0.12903985 -0.14099422 -0.29364273
