SimMTM-main/SimMTM-main/SimMTM_Forecasting/outputs/pretrain_checkpoints/ETTh2/ckpt40.pth (torch, 347855 bytes, 37 tensors)

enc_embedding.value_embedding.tokenConv.weight f4 [16, 1, 3]
00000000: e572 253f 2d6f 02c0 0487 e53f 8f80 7540
00000010: e05d abbf c386 5fc0 825c 02c0 045f 3cc0
00000020: 6310 46bf f25b e6bf 8ba8 7c40 1194 ffbf
00000030: 0a63 57bf b4d5 533e f86d 2e3f e24f 9740
00000040: 15ad 52c0 308c 0240 a916 0f40 09a7 2340
00000050: c686 b93f 7df5 813f fcde 34bf c1ad 1640
00000060: 3d5d 753e 796b b13e 5cbb 4140 0de6 87c0
00000070: f9c1 e5bf 9da3 83bf 1b05 143d 85bc 0e41
00000080: 29c6 e83d 353d 5d3f 256c d93f a9fe 27c0
00000090: c264 b93c d2e3 89c0 468f 8e3c d13e 02c0
000000a0: 6e97 0140 9745 263f 3cab 0cc0 9bef 1f3b
000000b0: a7b3 623b 0759 fa3f 1fcd b5bf 354a 1dbf
0.6462844 -2.0380356 1.7931828 3.8359716 -1.3388023 -3.4926002 -2.0368962 -2.9432993
-0.77368754 -1.799681 3.947787 -1.9967061 -0.84135497 0.2068699 0.6813655 4.7285013
-3.291814 2.0398064 2.235758 2.55707 1.4494255 1.0153042 -0.7065275 2.354355
0.23961349 0.34652308 3.0270605 -4.2468324 -1.7949821 -1.0284306 0.03613768 8.921025
0.11365921 0.8642152 1.6986128 -2.6249182 0.022631053 -4.30906 0.017402302 -2.035084
2.0248675 0.64949936 -2.1979513 0.002440429 0.0034591944 1.9558419 -1.4203223 -0.61441356

enc_embedding.position_embedding.pe f4 [1, 5000, 16]
00000000: 0000 0000 0000 803f 0000 0000 0000 803f
00000010: 0000 0000 0000 803f 0000 0000 0000 803f
00000020: 0000 0000 0000 803f 0000 0000 0000 803f
00000030: 0000 0000 0000 803f 0000 0000 0000 803f
00000040: a46a 573f 4151 0a3f 3e39 9f3e 6b4e 733f
00000050: 7675 cc3d 98b8 7e3f 5b81 013d 3cdf 7f3f
00000060: 57d6 233c b9fc 7f3f 1c3e 4f3b acff 7f3f
00000070: 6d12 833a f8ff 7f3f 61cb a539 ffff 7f3f
00000080: b7c7 683f 3311 d5be 1b54 173f ec7b 4e3f
00000090: f86f 4b3e a5e5 7a3f c870 813d f97c 7f3f
000000a0: 3ed4 a33c e5f2 7f3f d83d cf3b b1fe 7f3f
000000b0: 6812 033b dfff 7f3f 60cb 253a fdff 7f3f
000000c0: c381 103e 2670 7dbf c209 503f 582f 153f
000000d0: 6c4e 973e ef90 743f c0ff c13d 4fd9 7e3f
000000e0: 1fb9 f53c 83e2 7f3f 0d6e 1b3c 0dfd 7f3f
000000f0: 929b 443b b5ff 7f3f 10b1 783a f9ff 7f3f
00000100: cfbd 41bf 3055 27bf de1d 743f b12e 9a3e
00000110: d761 c73e a7ca 6b3f 882e 013e 69f4 7d3f
00000120: dbcb 233d 94cb 7f3f c93c 4f3c c2fa 7f3f
00000130: 5712 833b 7aff 7f3f 5ecb a53a f3ff 7f3f
00000140: 107c 75bf 2c3c 913e 7ffc 7f3f e972 29bc
00000150: 4377 f53e 40a9 603f 1d3c 213e 81ce 7c3f
00000160: f4b6 4c3d 19ae 7f3f 7e85 813c cff7 7f3f
00000170: ddd6 a33b 2eff 7f3f 333e cf3a ebff 7f3f
00000180: 8c0f 8fbe b8cd 753f 4e78 723f 6d3f a4be
00000190: 688c 103f 3249 533f 6e20 413e e367 7b3f
000001a0: d19c 753d 128a 7f3f 436c 9b3c 34f4 7f3f
000001b0: 589b c43b d2fe 7f3f 08b1 f83a e2ff 7f3f
000001c0: 4630 283f bdff 403f 6ee8 4c3f bc74 19bf
000001d0: 72eb 243f b3cc 433f 50d3 603e eac0 793f
000001e0: 323e 8f3d 815f 7f3f a252 b53c f2ef 7f3f
000001f0: c55f e53b 65fe 7f3f ed11 113b d7ff 7f3f
00000200: 9546 7d3f f6fd 14be 7e06 133f e591 51bf
00000210: a5a4 373f 5f5b 323f 5126 803e 02da 773f
00000220: 50aa a33d 652e 7f3f 8a38 cf3c 08eb 7f3f
00000230: 1212 033c e7fd 7f3f 55cb 253b caff 7f3f
00000240: 3201 d33e d53f 69bf ee1f 953e a2e6 74bf
00000250: 1c88 483f d521 1f3f 2dc2 8f3e a9b3 753f
00000260: 3e12 b83d c2f6 7e3f ea1d e93c 76e5 7f3f
00000270: 3a74 133c 59fd 7f3f bc84 3a3b bcff 7f3f
00000280: f844 0bbf 64cd 56bf 9770 a9bc fbf1 7fbf
00000290: a46a 573f 4151 0a3f 3d39 9f3e 6b4e 733f
000002a0: 7675 cc3d 98b8 7e3f 5981 013d 3cdf 7f3f
000002b0: 57d6 233c b9fc 7f3f 223e 4f3b acff 7f3f
000002c0: 5cff 7fbf 7205 913b 1f41 a9be 8d9b 71bf
000002d0: 2a26 643f c33d e83e 8b87 ae3e e4aa 703f
000002e0: 72d3 e03d e873 7e3f 6873 0e3d 5bd8 7f3f
000002f0: 6938 343c 09fc 7f3f 87f7 633b 9bff 7f3f
00000300: d85c 09bf d006 583f 2491 1bbf 564f 4bbf
00000310: 1d9a 6e3f f786 b93e 2ca9 bd3e c3c9 6d3f
00000320: ac2b f53d b528 7e3f 1965 1b3d d2d0 7f3f
00000330: 709a 443c 48fb 7f3f ebb0 783b 87ff 7f3f
00000340: 2220 d73e 6f4e 683f 4c14 53bf 9dd9 10bf
00000350: c0ab 763f 9df5 883e 3f9a cc3e c3ab 6a3f
00000360: d0be 043e 00d7 7d3f 6556 283d a1c8 7f3f
00000370: 6afc 543c 76fa 7f3f 26b5 863b 72ff 7f3f
00000380: 7298 7d3f d704 0c3e b3a8 75bf 0a0d 90be
00000390: 6f46 7c3f e70b 2e3e f456 db3e b151 673f
000003a0: 64e4 0e3e cc7e 7d3f 4347 353d c9bf 7f3f
000003b0: 555e 653c 94f9 7f3f d611 913b 5cff 7f3f
000003c0: 4479 263f e87a 42bf 75e0 7fbf 9622 fe3c
000003d0: d55b 7f3f bade 903d 83db e93e 68bc 633f
000003e0: 4f06 193e 1a20 7d3f aa37 423d 49b6 7f3f
000003f0: 32c0 753c a1f8 7f3f 856e 9b3b 43ff 7f3f
0.0 1.0 0.0 1.0 0.0 1.0 0.0 1.0
0.0 1.0 0.0 1.0 0.0 1.0 0.0 1.0
0.84147096 0.54030234 0.3109836 0.9504153 0.099833414 0.9950042 0.031617504 0.99950004
0.009999833 0.99995 0.0031622713 0.999995 0.0009999998 0.9999995 0.00031622782 0.99999994
0.9092974 -0.41614684 0.5911271 0.8065784 0.19866931 0.9800666 0.063203394 0.9980007
0.019998666 0.9998 0.006324511 0.99998003 0.0019999985 0.99999803 0.0006324556 0.9999998
0.14112 -0.9899925 0.8126489 0.58275366 0.2955202 0.9553365 0.094726086 0.99550337
0.0299955 0.99955004 0.009486687 0.999955 0.0029999954 0.9999955 0.00094868336 0.9999996
-0.7568025 -0.6536436 0.95358074 0.30113748 0.38941833 0.921061 0.12615407 0.99201065
0.039989334 0.9992001 0.01264877 0.99992 0.003999989 0.999992 0.0012649109 0.9999992
-0.9589243 0.2836622 0.99994653 -0.010342338 0.47942552 0.87758255 0.15745588 0.987526
0.049979165 0.99875027 0.015810724 0.999875 0.004999979 0.9999875 0.0015811383 0.99999875
-0.2794155 0.96017027 0.9471482 -0.3207964 0.5646424 0.8253356 0.18860027 0.98205394
0.059964005 0.99820054 0.018972522 0.99982 0.0059999637 0.999982 0.0018973658 0.9999982
0.6569866 0.75390226 0.8004216 -0.5994375 0.6442176 0.7648422 0.2195561 0.9755999
0.06994285 0.997551 0.022134129 0.999755 0.006999942 0.9999755 0.0022135929 0.99999756
0.98935825 -0.14550003 0.5743178 -0.8186324 0.717356 0.6967067 0.25029233 0.9681703
0.07991469 0.9968017 0.025295515 0.99968004 0.007999914 0.999968 0.0025298197 0.9999968
0.4121185 -0.91113025 0.29125923 -0.9566442 0.78332686 0.62161 0.28077832 0.95977265
0.089878544 0.9959527 0.028456647 0.99959505 0.008999879 0.9999595 0.0028460464 0.99999595
-0.5440211 -0.8390715 -0.02068357 -0.9997861 0.84147096 0.54030234 0.31098357 0.9504153
0.099833414 0.9950042 0.031617496 0.99950004 0.009999833 0.99995 0.0031622727 0.999995
-0.9999902 0.004425698 -0.33057496 -0.94377977 0.89120734 0.4535962 0.34087786 0.9401076
0.1097783 0.9939561 0.03477803 0.9993951 0.010999777 0.9999395 0.003478499 0.999994
-0.53657293 0.84385395 -0.6076834 -0.7941793 0.9320391 0.36235783 0.3704313 0.9288599
0.119712204 0.99280864 0.03793821 0.9992801 0.011999711 0.999928 0.0037947248 0.9999928
0.42016703 0.9074468 -0.82452846 -0.5658205 0.9635582 0.26749888 0.3996143 0.9166834
0.12963414 0.9915619 0.041098017 0.9991551 0.012999633 0.9999155 0.00411095 0.99999154
0.9906074 0.13673721 -0.9596054 -0.28134948 0.98544973 0.16996728 0.42839777 0.90359026
0.13954312 0.990216 0.044257414 0.99902016 0.013999541 0.999902 0.004427175 0.9999902
0.65028787 -0.7596879 -0.9995187 0.031022351 0.997495 0.07073732 0.45675287 0.8895936
0.14943813 0.9887711 0.047416367 0.9988752 0.014999436 0.9998875 0.0047433996 0.99998873

enc_embedding.temporal_embedding.embed.weight f4 [16, 4]
00000000: a66a 9a3e 9269 ccbe fa38 bb3e de3d f53e
00000010: 0c14 d53e 243e 77be f29f a53e 3ae2 afbe
00000020: c8cd fbbe a081 a5bc 48db 60be 9c90 dd3e
00000030: 06c6 a7be 18c7 1c3e 94d0 323e e0a7 bd3c
00000040: 380b dabd 48c4 b23e a08e 5f3e 58d9 8fbd
00000050: a439 fa3e 28a4 c73d 4615 f9be 621a eabe
00000060: cc82 e5be c259 e63e 7ce7 aebe 7430 e83e
00000070: 002e 4abc 089c eebe 784b b13e 680e 3f3e
00000080: ac98 f93e 1238 e4be 941b 80be 7032 41be
00000090: 303b 9b3e 68cc e23e b284 cb3e 9eed f03e
000000a0: 0cd1 033e c85b 853e 8e18 be3e 9cd5 c33e
000000b0: a07e 193e 8e9a 903e 0089 3c3c fcb2 943e
000000c0: 30cd a2bd 4034 edbc 20fa fbbc e8de b93e
000000d0: 705f d83e 9a71 c93e 145a 87be 1e75 d03e
000000e0: 3cfb 473e 00a0 eebd c022 84bc 30ba c8be
000000f0: befa f63e b2f1 edbe 620a f1be f8f7 963d
0.3015949 -0.39924294 0.36566907 0.47898763 0.41616857 -0.24144799 0.3234859 -0.34352285
-0.49180436 -0.020203412 -0.21958649 0.4327439 -0.32768267 0.15310323 0.17462379 0.023151338
-0.10646671 0.34915376 0.21831751 -0.07023877 0.488721 0.09748107 -0.48649043 -0.45723253
-0.44826353 0.44990355 -0.34160984 0.45349467 -0.012340069 -0.46603417 0.3462789 0.1865784
0.48749292 -0.44574028 -0.2502104 -0.18866897 0.30318594 0.44296575 0.39749676 0.47056288
0.12872714 0.26046586 0.3712811 0.3824891 0.1498971 0.28242916 0.011507273 0.29042804
-0.07949293 -0.028955579 -0.030758917 0.36302876 0.42260313 0.39344484 -0.26435912 0.40714353
0.19529432 -0.11651611 -0.016129851 -0.3920455 0.48238176 -0.4647346 -0.47078234 0.07371515

encoder.attn_layers.0.attention.query_projection.weight f4 [16, 16]
00000000: 56c5 953d 60fb ce3c 245c 143d 7972 143b
00000010: 1de3 8f3d fe90 8bbd f01e 013c 1c67 acba
00000020: d56a 303d 34af 503b 1293 6a3d 3a90 a5bd
00000030: 6326 b4bd d919 c93c d5e7 c7bd 2c1d ad3c
00000040: c9cd b8bd 9ca1 42b8 c53a 7a3d 28cb f53c
00000050: e4df babd eeb1 143c aac3 45bd 8669 dfbd
00000060: ed47 f0bc d6fc 53bd da90 903d 4507 133e
00000070: 5f3f de3d 4da8 3c3b c94d 06bd 4609 b53c
00000080: 0276 1e3c ad7e acbc 06ee 313c 6925 b53d
00000090: b6dc afbd ca20 ddbb 813c 0c3c 1e7d f2bc
000000a0: f703 233e c14a efbd 4983 003f 062c 82bd
000000b0: b625 77bf 92db 0a3d 2cc3 e5bb 137e f93d
000000c0: 080d d73a 768b 353c 57cc 1abe d1f5 0bbe
000000d0: c480 083e dccb 563d 08ff 863d eafa 213d
000000e0: 829e c1bd 2549 113e 3213 573e 2785 0f3e
000000f0: 3e46 a4bf d19e 223d 3a36 973d 3f2b 0ebd
00000100: 28e7 013d 7aa3 bfbc 6645 aebd 3ada 6c3d
00000110: 82cd 2a3d 7406 013c ab79 cc3b 5d4f a33d
00000120: 4058 d73c 49e5 e33d 9094 f6bd 2d71 063e
00000130: 74d1 963f 47bf 2cbb 4919 53bd 0a07 163c
00000140: 087e 57bc 2e7e eebb f8fb 16be b352 473d
00000150: b1de 263d f29b 5d3c ae58 ae3c 09cb 8f3d
00000160: a971 d73c 5c2f 053e fd17 ab3e cc42 e83d
00000170: c3bc 9dbf 6361 3bbb a7ee 2b3c 2463 953b
00000180: 23a6 cf3d 84f0 443d 35e9 943d 029b 403e
00000190: 0611 1c3d 4086 8a3d bb3e 023e 5984 bf3d
000001a0: efd1 28be ac26 66bb 6909 0a3d 3d43 e0bd
000001b0: cdad 353d cdcd 85be 842f c63c 3368 d8be
000001c0: 2ea8 2d3d 35c3 ee3d 1d60 6d39 bf5b c73d
000001d0: e736 7fbd 2869 ac3d 73dd 873d b1f7 c03d
000001e0: b17f 85bd 3251 d43d ba5b 31bd 2519 2fbd
000001f0: 65be 09be ff3d f6bd b96c f73d ce30 0cbe
00000200: db29 c13b 3ca4 98bd 5410 873d 3e35 d83d
00000210: 62cb c23c 722c 063e beaf 9dbd b521 383e
00000220: e705 843d ae80 133e 9878 623e 4dc2 9a3e
00000230: e867 8b3e b356 b0be 9b95 af3b be89 22bf
00000240: 3fd9 043c f875 61bd 7990 523d 75a0 b1bc
00000250: ad61 00bc 664d ddba 07a3 96bd 04a8 90bc
00000260: 1aea 80bc fac2 5a3d d4ba 25bc 8be3 3fbd
00000270: fac6 d6be badb d4bc 373a ae3c b5e4 e03e
00000280: 338d febc c781 473e b2b3 413c 4e16 8bbe
00000290: fd9b 4abe 15f7 dcbb 4f13 203e 8883 063d
000002a0: 8daa 783d 3b57 323e 9176 88bd e7cb 903d
000002b0: 185d f2bd bbec aebc 944f 51be b841 b63e
000002c0: 1a54 223e f3a6 433e a1f4 e53d 000e be3d
000002d0: 7e8d 293d 4c6d ad3d 47cf 153b 6fe2 113d
000002e0: f339 32be 7d89 efbd 850c 853b bb50 0abe
000002f0: 10ce f2bc fe0a 95bc 962b 01be 6d69 973e
00000300: 158e 463d a43d 18bd 22a7 9dbd 92f6 9c3c
00000310: 27d3 acbd e0c9 ca3d 7537 2abd 8a8f c53d
00000320: 60f0 1abe 5137 08bd f200 b6bd 1015 773d
00000330: a9e1 94bd 6584 a63d 0f74 a53f 64e9 d8bd
00000340: 2928 883d d5a0 a4bc 7fbd bebd 544c ff3b
00000350: 3641 f0bc 5caa d93d 210b 5bbd 130a 943d
00000360: 0b16 e7bd 8d88 e9bd 9eb1 a7bd 4d0a a43d
00000370: 3000 85bd 92c7 c23b 702f c3bf 857a dfbc
00000380: 0701 2ebc 719f 52bd b1ab ef3b acd2 d73c
00000390: 2012 a73d 909a 813d f787 b73c d5a6 2fbd
000003a0: 0c6f 7cbd efd7 813d 2e7b babc daf8 0d3a
000003b0: 1754 d5bd f87a 1ebe 834e 993e 9232 abbd
000003c0: 1af7 ad3d 6eb6 f93c dd9d 8f3c 7e4c a53d
000003d0: cfc8 f23c f1e3 e3bc 5943 1c3d 3809 5e3d
000003e0: cfac 33bd 991e a7bd d011 5bbc 453a d9bd
000003f0: 566d 1abd a342 9ebe e195 433e 6098 c3bd
0.073130295 0.02526635 0.036220685 0.0022651239 0.0702574 -0.068147644 0.007880911 -0.0013153288
0.043070633 0.003184271 0.057269163 -0.0808415 -0.08796384 0.024548458 -0.09761015 0.021132074
-0.090236254 -4.6403715e-05 0.061091203 0.030004099 -0.09124735 0.009075625 -0.048282303 -0.10908799
-0.029331172 -0.051754795 0.07058878 0.14358242 0.10851931 0.0028786839 -0.032789025 0.022099148
0.00967169 -0.021056497 0.010859972 0.08845026 -0.08587019 -0.0067482935 0.008559347 -0.029600676
0.15919481 -0.1168418 0.50200325 -0.06356053 -0.9654192 0.033900805 -0.0070117917 0.1218225
0.0016407082 0.011080613 -0.15117012 -0.1366799 0.1333037 0.05244051 0.06591612 0.03954593
-0.09454061 0.14188059 0.21003416 0.14015637 -1.2833936 0.03970224 0.0738339 -0.03470921
0.03171459 -0.023393381 -0.085093305 0.057825305 0.041699894 0.007875074 0.00624009 0.07974122
0.026287198 0.11127717 -0.12040055 0.1312911 1.178267 -0.0026359127 -0.051537786 0.009156952
-0.013152607 -0.0072782254 -0.14744556 0.048662852 0.04073972 0.01352595 0.02128252 0.07021148
0.026299315 0.13006347 0.3341674 0.113408655 -1.232323 -0.0028591983 0.010493911 0.0045589376
0.1013911 0.048080936 0.07271043 0.18809131 0.038102172 0.067638874 0.12719242 0.09351415
-0.16486333 -0.0035118265 0.03370038 -0.10950325 0.044355202 -0.26133576 0.02419258 -0.42266998
0.042396717 0.116583265 0.00022637886 0.09734296 -0.06230822 0.084184945 0.06634035 0.094222434
-0.06518496 0.10367049 -0.043300368 -0.04274859 -0.13451536 -0.120235436 0.12081284 -0.13690493
0.005894882 -0.074532 0.06594911 0.1055703 0.023778621 0.13102892 -0.07699536 0.17981608
0.06446438 0.14404556 0.22116315 0.30226365 0.27227712 -0.34441146 0.0053584105 -0.6349143
0.008108436 -0.055044144 0.05140731 -0.021682957 -0.007835788 -0.0016884028 -0.07355314 -0.017658241
-0.015736628 0.0534086 -0.010115344 -0.04684786 -0.41948682 -0.02598368 0.021267993 0.4392449
-0.031073188 0.194831 0.011822628 -0.27165455 -0.19786067 -0.0067433217 0.15632366 0.03284028
0.060709525 0.17416088 -0.0666324 0.07070141 -0.118341625 -0.021353116 -0.20440513 0.35597014
0.15852395 0.19106655 0.112283 0.09280014 0.041394703 0.08468112 0.0022859143 0.035616335
-0.17404918 -0.11696146 0.0040603303 -0.13507359 -0.029639274 -0.018193718 -0.12614283 0.2957262
0.048475344 -0.03716816 -0.07697894 0.019160543 -0.084387116 0.09901786 -0.041556794 0.096465185
-0.15130758 -0.03325588 -0.08886899 0.06032282 -0.07269604 0.08130721 1.2926043 -0.10591391
0.06648285 -0.020096222 -0.09313487 0.0077910814 -0.02932797 0.106281966 -0.05347741 0.07228484
-0.11283501 -0.11402998 -0.08188175 0.08009777 -0.064941764 0.005944201 -1.5248852 -0.027280102
-0.010620362 -0.051421586 0.0073141684 0.026345573 0.08157754 0.063283086 0.0224037 -0.042883713
-0.06162934 0.06340014 -0.022763815 0.0005415805 -0.104164295 -0.15476596 0.29942712 -0.08359255
0.084943965 0.030482497 0.01753133 0.0807123 0.029636769 -0.027818652 0.038150165 0.05420801
-0.043865975 -0.08160133 -0.013370946 -0.10606817 -0.037701927 -0.30910215 0.19100143 -0.095505476

encoder.attn_layers.0.attention.query_projection.bias f4 [16]
00000000: 8d7b 993e 8ac0 b1bd c8f1 2d3d 6834 3dbd
00000010: c052 e0bd 6c76 fe3c 1d86 8b3f 82e5 e83e
00000020: 76fa 163f 3fa6 aebf c936 b83e de49 593f
00000030: a48a 36be 01cc bf3d 6e97 0f3f ff0a bf3e
0.29977074 -0.08679302 0.04246691 -0.046192557 -0.10953283 0.031062327 1.0900303 0.454876
0.58975923 -1.3644484 0.35979298 0.8487834 -0.17826325 0.093650825 0.5609044 0.37313077

encoder.attn_layers.0.attention.key_projection.weight f4 [16, 16]
00000000: 14a3 893a 956c 31bc 2f2a 173d 25bc 68bb
00000010: 724e 4fbd 5433 aebc 157b 24bd 95e8 f5bc
00000020: 63b6 34bc 14a7 093d 0ec1 7ebc 7e36 e7bd
00000030: 8ad1 753c d6ef 50bd 99f6 1a3d a432 3abc
00000040: ba06 b8bc e73d d1bc 18de 7a3c 8617 233c
00000050: 2b15 df3d a5c5 f5bb 5be7 a3bc 5c5c 82bc
00000060: 5e32 583d 8836 ef3c b780 b03c ab26 4b3b
00000070: 2e5c a2bc 9b5b 973d fab0 dbbb 7d89 adbc
00000080: 6533 f83c 0474 593c d1d6 ae3d 03d4 d2bd
00000090: 85ac 2fbc ac22 3e3d ef87 8abc df50 273e
000000a0: bb13 59be 378b 183e c938 e4bc d806 9cbe
000000b0: 9138 563e 88c1 dcbe f3c4 2cbe 111a e73d
000000c0: 0946 8e39 9717 74bd 7c80 373c c122 3bbc
000000d0: 464b f6bc 13cd 4bbd 0458 dcbd 242b 97be
000000e0: be8b d13c 14f0 8bbd e26c 953c f64a e7be
000000f0: 52fa 9d3e aaca 85be a246 703e bf8b b5bd
00000100: 2107 9bbd 35e6 b63c 6ebf 163d 0105 6f3a
00000110: 66cb 363d 477f 373c a144 c53c cc8a b63c
00000120: bd0e 84be b2f4 a13d 23f0 d5bc 8d55 a03e
00000130: 6e6c 79bd df95 a13a dab0 343d dd7c cd3d
00000140: 2d56 3cbd eafc 863c d3df 523c e50f 2e3c
00000150: 5802 c83d 08fd 933c 9c0a bf3c 2fde e83c
00000160: 4b3e 073f cfeb 9e3c 6561 20bc aee8 97bd
00000170: 4d59 36bd a529 e43c 0ae4 0f3c 275f 833c
00000180: 914d aa3c bf25 7dbc 7e70 3abb 6d85 883c
00000190: d299 3ebf 9062 c4bb 7b78 a03a 2f76 a03c
000001a0: 42bd 653d b8c0 3c3c c22f eb3c e07c f1bc
000001b0: 7cee 7b3b 92ad f83c 0a87 6c3c b1b9 72bd
000001c0: 42ce 5a3d 901b 8ebc 042c 893c c5ae 0cbc
000001d0: 7a2d e5be 31ba faba 2f62 343a 5236 26ba
000001e0: 1318 1e3c 5df4 3d3c 45b4 03bd 10a2 5abd
000001f0: 4145 dbbc bf78 9bbb 5659 173d 8c58 05bd
00000200: 5c98 98bd 45aa 2abc 0ca7 d43b 9a6b a23c
00000210: 8a88 5e3c d126 76bd 586b 00bd 2617 0cbe
00000220: 2c5f 6fbc 28a0 043d 0cae 3c3d dc45 9cbd
00000230: f234 e4bb 6143 e3be eadd 8a3d 0fe6 1c3d
00000240: f467 4a3d 6c16 3f3c 3866 a5bc 2f47 c5bc
00000250: d888 463c 89d5 b23d 434a bb3c 3ccb 6a3e
00000260: 9a90 983d 7bf6 01bd 3d5c a63e c628 b63d
00000270: dc4c 44bd 0f05 083f 2bb8 adbd 8bc6 c7bd
00000280: a2e1 a3bb 3b04 fe3b d385 0cba a9ce a13c
00000290: 1d4b e1bd 3533 153d fb0d 7dbc 8fce 5abd
000002a0: ba8f bfbd 0dcb 403c 9a17 22bd 3d68 e23c
000002b0: 01cc 17bc db87 bcbb 0a6b 0b3f 2d04 bf3d
000002c0: 9c3c 953c c890 50bb 4bb4 5a37 4343 a2bc
000002d0: 1876 f73d dd81 09bd 522d c03c 6ddc 153d
000002e0: 2546 9f3d 8335 6cbc 83b1 0b3d 7c68 21bd
000002f0: 675f 2fbc f6b5 53bc ea0c 6d3f a40b 59bd
00000300: e406 c03a ad25 38bc 94d4 893c ef9b 6e3c
00000310: 1357 b93d de79 36bc c6ba f1bc 13f9 28bd
00000320: e71f 1e3c 0243 ae3c dbac ad3e 08de 28bd
00000330: 7668 023d cd95 edbd 945b a9bd d70f da3c
00000340: 55e4 153d cd43 e03b 1376 b4bb 51c7 28bc
00000350: 632c 7b3c 29ad 2c3c 4874 b6bc c700 a03c
00000360: e24a 473b 35c4 3f3a b659 a9be 8341 1cbc
00000370: 80f8 c93a 4640 a9bd 0ef9 64bd d858 513d
00000380: 15a2 343c 25a2 a0bb 5d14 d2bb 7ade 8b3c
00000390: 09c5 163d e19e dabb f135 633c e9bd 4cbb
000003a0: dd21 033d ea63 37bc ddb6 2c3d 134e ab3d
000003b0: 4cc2 8bbc 6bbe f53c 5d07 debc b272 eabc
000003c0: 08a6 ed3d 7002 c23c 2129 333d fd80 10bb
000003d0: 3ff2 f53e db07 1c3d 153c 1dbd 8d1d 053e
000003e0: 93de 2c3d ba2d 0b3d 7f15 1f3d 95dc 4a3d
000003f0: 43ae 96bb c813 8bbc d94b b53c ec33 b43d
0.0010500872 -0.010829111 0.036905464 -0.0035512534 -0.05061192 -0.02126471 -0.040156443 -0.03001813
-0.0110298125 0.033606604 -0.0155489575 -0.112896904 0.015003571 -0.051009975 0.03783283 -0.011364613
-0.022464145 -0.025542213 0.01531174 0.009954339 0.10892709 -0.0075003677 -0.02000778 -0.015913181
0.05278241 0.029200807 0.021545751 0.003099839 -0.019819345 0.07390519 -0.006704447 -0.021183724
0.030297944 0.013272289 0.08537067 -0.10294344 -0.010722284 0.046419784 -0.016910521 0.16339444
-0.21198933 0.14896856 -0.027859109 -0.3047397 0.20920016 -0.43116403 -0.16872005 0.11284269
0.0002713653 -0.05959281 0.011200067 -0.01142186 -0.03006519 -0.04975612 -0.10758975 -0.295251
0.02557933 -0.06832901 0.018240396 -0.45174378 0.30855042 -0.26131183 0.23464444 -0.08864545
-0.07569719 0.022326568 0.036803655 0.0009117872 0.04462757 0.011199779 0.024080576 0.02228298
-0.25792494 0.07908 -0.026115483 0.3131527 -0.060894422 0.001232799 0.04411397 0.100335814
-0.04598062 0.01647802 0.012870747 0.010623907 0.09766072 0.01806499 0.023320489 0.028426258
0.52829427 0.019399552 -0.009788846 -0.07417427 -0.044518758 0.027851889 0.008782396 0.016036583
0.02078894 -0.015450894 -0.0028448398 0.016665185 -0.7445346 -0.005993195 0.0012242937 0.019587604
0.056088693 0.011520557 0.028709296 -0.02947849 0.0038441708 0.030356202 0.014436493 -0.05925912
0.05341936 -0.017347127 0.016744621 -0.00858659 -0.44761258 -0.0019128976 0.00068810856 -0.0006340492
0.009649294 0.011593905 -0.03215434 -0.05337721 -0.026766421 -0.0047446187 0.03695043 -0.032555148
-0.07450935 -0.010416572 0.00648964 0.019826699 0.013582358 -0.060095612 -0.03135237 -0.13680705
-0.014610093 0.0323793 0.04606442 -0.07630512 -0.0069643194 -0.44387344 0.06780608 0.03830534
0.049415544 0.011663061 -0.020190343 -0.024081795 0.012117587 0.08732135 0.02286256 0.2292909
0.074494556 -0.031729203 0.32492247 0.08894496 -0.04792486 0.5313272 -0.08482393 -0.09754666
-0.0050012628 0.007751969 -0.00053605175 0.019751864 -0.11000655 0.036425788 -0.015445228 -0.053419646
-0.093535855 0.011767161 -0.03957329 0.027637595 -0.009264947 -0.0057535 0.54460204 0.09326968
0.018217377 -0.0031824578 1.303579e-05 -0.019807464 0.120830715 -0.033571113 0.02345911 0.036587168
0.07777051 -0.014417055 0.034104835 -0.039406285 -0.010703898 -0.012921801 0.9259783 -0.052989617
0.0014650491 -0.011239451 0.016824998 0.014563545 0.09049811 -0.011137454 -0.029508006 -0.04125316
0.009651161 0.021272186 0.3392094 -0.04122737 0.031837903 -0.11600838 -0.0826942 0.026618881
0.036594708 0.00684402 -0.0055072396 -0.010301427 0.015330407 0.0105393315 -0.022272244 0.01953162
0.0030409624 0.0007315309 -0.33076257 -0.009537104 0.0015409142 -0.08264212 -0.05590158 0.05111012
0.0110249715 -0.0049021416 -0.006411119 0.017073859 0.036809 -0.006671772 0.013867841 -0.0031241125
0.032014716 -0.011193255 0.04216658 0.08364501 -0.017060421 0.029998025 -0.02710312 -0.028619144
0.116039336 0.023682803 0.043740395 -0.002204954 0.48036382 0.03809343 -0.038387377 0.12999554
0.04220445 0.033979155 0.03883886 0.04952677 -0.0045984103 -0.016977206 0.022130894 0.08798966

encoder.attn_layers.0.attention.key_projection.bias f4 [16]
00000000: 7933 73be 95e8 3b3e 172c 85bd c4e2 7b3d
00000010: 4ad8 923d 4f6d 10be 9b03 ee3b dd9d fdbd
00000020: d3a6 ee3d 050b 86be 6354 c33d 64d3 5fbe
00000030: 3a92 e93d d7fb 073e 618f 1d3e 5106 813e
-0.23750104 0.18350442 -0.0650255 0.061495557 0.0717016 -0.14104198 0.0072636134 -0.12383626
0.11652913 -0.26180282 0.0953758 -0.21857983 0.11404844 0.13279663 0.15386726 0.25200132

encoder.attn_layers.0.attention.value_projection.weight f4 [16, 16]
00000000: 02d9 81be 4163 84be 9488 8fbd c8e2 533e
00000010: 41d4 aa3e e9f8 14bd 3ff3 113e 5924 f53d
00000020: 1ff7 1e3e ae24 9a3b 2bd2 1a3e 8e00 193e
00000030: 8455 36be d645 523e 1874 c03e 4395 86be
00000040: bd27 0bbe c2f9 1abe 5078 693e 23bf cd3d
00000050: c74e 123f 6b51 39be 8e95 31be 31bd cebd
00000060: f933 323d 21c1 0b3e 6389 e93c 0b08 d5be
00000070: d249 29bd 3e57 f7bd fe17 333e 2376 66bd
00000080: b267 003d 1e1a 05ba 13cc 9b3c a34f b93c
00000090: 3b0b 543d 23a6 03bd cfd0 d4bc 1ee7 92bd
000000a0: 2b48 0e3c 4e5c 923a 89b5 2dbd c859 4abd
000000b0: 39c1 523d 30f0 a7bd 94c0 d53d ea1d c6bc
000000c0: 8e7c 233c f6d7 31bc 3f7b 0a3c 349a 56bd
000000d0: d1ae fabc e17a cd3c f850 f9bb 7556 553d
000000e0: f6de 88bd c813 f83c a273 033d 8285 0dbe
000000f0: 7db8 ee3c 6669 6cbd 3dc6 3cbd 7331 373d
00000100: fa7e fd3c 3da9 40bc 7c0d 89bc e69d a6bc
00000110: d61c 4c3d ca96 d23c f156 6b3c 5cd0 093d
00000120: 755a af3e e75e 5dbc 4bb8 433c 3f6d f4bd
00000130: 5168 acbc f092 3cbd f493 5dbd 8b31 2ebe
00000140: 9e98 8abc 92cb c03b ae6a 8f3a 78f9 ff3b
00000150: 8040 26bd c824 88bb 7a1e 83ba fdb2 47bc
00000160: 8af4 cdbe 6e5b 55bc 0c57 9aba 8a93 843d
00000170: b638 573b 9233 8bbc 41f7 0ebc 5943 b9bc
00000180: 9d96 123e 7333 5dbd 8efb 013e d67f 41be
00000190: 482e 9a3f 6d4d 163d f4f6 a2bd 3513 8ebd
000001a0: 75e2 67be 87e4 a73c 7d84 5ebe 060e 91be
000001b0: dd71 e23d e1f0 9abe 2a5f 32bd decb 723b
000001c0: 371e b23e 9358 10be 6d40 313e 04a2 1bbe
000001d0: f139 f3bf 9ba9 34bd de78 a5bd cf67 4e3c
000001e0: 13ef c73c 88c1 2d3c 367a dfbd 90e5 5bbd
000001f0: 1ee4 6d3e 360d 7a3e c4dc 173d ef0b b33e
00000200: 4d10 7cbd e0c2 4e3c a610 963c c85b 0d3d
00000210: f358 8dbd eea7 6bbd f3b8 8fbc e2ba fbbd
00000220: ac8c c0bc 4c73 213c 7b18 163e 3c59 063e
00000230: b78a 9d3c d26f ec3c 455f d7bd a487 8c3d
00000240: d15b 4bbd 09aa 993c 65f6 923c cd42 a43c
00000250: a265 a0bd cc11 74bd 5baf bcbc 7733 14be
00000260: c4e4 0dbd 618d 803c ab0b 1d3d 6dbb 793d
00000270: ad3e d23c 3e94 bdbd 9dd9 88bd 1008 373d
00000280: cad5 05bd 566c 643c ea0d 653c 7596 383b
00000290: 81f6 89bd 4cfb a6bb 74fc abbc c954 76bd
000002a0: f5ba 4dbe c97d 7a3c bd81 2cbd b0cb 7c3d
000002b0: d06a 573d f1cc 17bd 71c2 ebbc 6d5f f23c
000002c0: 8a4c 07bc 8819 f9bb 1b90 7dbc 4b63 82ba
000002d0: 9002 473c c8e7 0f3c 721f 803c 5ab9 253c
000002e0: 03a6 843d 6577 65bc fe3a a03c ff01 e0ba
000002f0: 4a04 5abb ce41 41bc 192a 2c3f 8abb 4cbd
00000300: a680 ce3c 35af fbbb 3e77 b73c 50cb 7bbc
00000310: 3f12 ddbc dbe2 82bc 3a06 a0bc b1ad 53bd
00000320: 517c d1bb 974d 883c b0b1 ad3e 2a1f b0bd
00000330: 2761 043d 757d 46bd 457d bf3c 5e5f 843b
00000340: 31be 1dbc f91b abbc 32b2 ea3c fb29 36bc
00000350: 1c45 6b3d c3df d2bc 1f0e a8bc 9a60 76bd
00000360: 69ac b2bc 301a d33c 1a85 efbd 5b8b a0bd
00000370: fc31 193d f906 55bd c1b0 993d 56fd 17bd
00000380: 6618 83be 2a37 bf3d 5a17 453c d483 293e
00000390: c691 d2bf 065c 2cbe 388f 19bd f665 8ebe
000003a0: 0ea8 11bd 7e89 c1bd 79c0 03bd b456 43be
000003b0: b00f 543d ce7f 85bd 1e35 28be 33b0 44be
000003c0: 018c 053f c893 b3bd c6c2 643e 51fa adbe
000003d0: 784a 0b3e 5323 fd3d 65f6 08be e296 893e
000003e0: 7f14 ffbd 365b ed3d cb1f 02be 19e5 37be
000003f0: b8fd 8b3e 8af9 62be 7dfc b83e ac0f 523e
-0.25360876 -0.25856975 -0.07008472 0.20691979 0.33365062 -0.03637019 0.14252947 0.119698234
0.15523957 0.0047040796 0.15119235 0.14941618 -0.17806059 0.20534453 0.37588573 -0.26285753
-0.13589378 -0.15134338 0.22799802 0.10046222 0.57151455 -0.18097465 -0.17342207 -0.10094679
0.043506596 0.13647892 0.028507894 -0.416077 -0.041330166 -0.12077187 0.17489621 -0.056265008
0.03134889 -0.0005077439 0.019018209 0.022620982 0.051768523 -0.032140862 -0.025978474 -0.07172988
0.008684198 0.0011166425 -0.042409454 -0.04940203 0.051453803 -0.08200109 0.10437122 -0.024184186
0.009978427 -0.010854712 0.008452236 -0.052393153 -0.030600937 0.025083007 -0.007608529 0.052084405
-0.066831514 0.03028287 0.032092698 -0.1382046 0.029140705 -0.057717703 -0.046087492 0.044724893
0.030944336 -0.0117591 -0.016730063 -0.020338964 0.049832188 0.025706667 0.01436399 0.033645973
0.342487 -0.013511396 0.011945794 -0.119348995 -0.021045836 -0.046038568 -0.054096177 -0.17011087
-0.016918477 0.0058836425 0.0010941827 0.0078117214 -0.040588856 -0.0041547753 -0.001000359 -0.01218867
-0.4022563 -0.013022287 -0.001177521 0.06473453 0.00328402 -0.016992364 -0.008725942 -0.022615122
0.14315267 -0.054004144 0.12693617 -0.18896422 1.2045374 0.036694933 -0.07957259 -0.06937257
-0.2264498 0.020494713 -0.21730228 -0.28331012 0.11056874 -0.302619 -0.043547787 0.0037047784
0.34788677 -0.14096288 0.17309733 -0.15198523 -1.9002057 -0.04410706 -0.08079694 0.012597992
0.024405992 0.0106052235 -0.10911982 -0.053685725 0.23231551 0.24419102 0.037075773 0.34970042
-0.061538983 0.012619704 0.018318485 0.034511358 -0.06901731 -0.057533197 -0.017544245 -0.122915044
-0.023504578 0.009854149 0.14657776 0.13119978 0.019231183 0.028861914 -0.10516218 0.06861809
-0.04964811 0.018757837 0.017939756 0.020051384 -0.07831885 -0.059587285 -0.023032835 -0.14472757
-0.034641996 0.015692415 0.038341206 0.06096976 0.025664652 -0.092567906 -0.066821314 0.044685423
-0.03267459 0.013941845 0.013980368 0.0028165851 -0.0673647 -0.005095875 -0.020994402 -0.06013945
-0.2009085 0.015288779 -0.042115916 0.06171769 0.0525921 -0.03706068 -0.02877924 0.029586518
-0.008257994 -0.0076019205 -0.015476252 -0.0009947805 0.012146607 0.008783288 0.015639994 0.010114992
0.06476977 -0.014005517 0.01955938 -0.0017090439 -0.0033266717 -0.011795474 0.67251736 -0.04998354
0.025207829 -0.0076807984 0.022395726 -0.015368298 -0.02698624 -0.015977314 -0.019534219 -0.051679317
-0.0063929935 0.01663856 0.33924627 -0.08599694 0.032319214 -0.04845949 0.023375163 0.004039689
-0.009627865 -0.020887362 0.028649423 -0.011118407 0.057438955 -0.025741464 -0.020514546 -0.06015072
-0.021810727 0.025769323 -0.11695309 -0.0783908 0.037401184 -0.052008603 0.07504416 -0.037106834
-0.25604552 0.093366936 0.012029493 0.16554195 -1.6450737 -0.16831979 -0.0374901 -0.27812165
-0.03556066 -0.09450053 -0.032165978 -0.19076043 0.051772773 -0.065185174 -0.16426513 -0.1920784
0.52166754 -0.087684214 0.22339925 -0.3398004 0.13602626 0.12360253 -0.13375242 0.26872927
-0.12455081 0.11589663 -0.1270744 -0.17958488 0.2734201 -0.22165504 0.36130133 0.20513791

encoder.attn_layers.0.attention.value_projection.bias f4 [16]
00000000: f534 fc3c b68b 313c ae0b 84be 8d5b 84be
00000010: 0cc5 d9be 4426 84bf cf65 e8bd 58b2 c93e
00000020: 4480 a03f 28ff a7bf 8464 ba3d 89ab aabe
00000030: de2a 483e a205 1bbe 2982 9bbe 653d 15bd
0.03078697 0.010836532 -0.2579016 -0.25851098 -0.42533147 -1.0324178 -0.113475434 0.39393878
1.2539144 -1.3124743 0.09101203 -0.33333996 0.19547603 -0.15138867 -0.30372742 -0.036435504

encoder.attn_layers.0.attention.out_projection.weight f4 [16, 16]
00000000: 1dee 583e 4f3b 28bf 0f00 8c3d 2c13 6ebd
00000010: f068 e23c e077 e5be 216e 1a3e 3694 8ebe
00000020: 078d f43e 6873 cbbe 9705 a93d 6d5d 9fbe
00000030: 3733 583e 473d 4cbd cc3e ae3d 6405 8e3e
00000040: f01a 2b3f f912 3dbe 51b5 30bd 9e79 573e
00000050: c2d1 c6bc 3041 033e 5975 06be 522e 2abe
00000060: 5c07 f43e 8f46 29bf 9a16 93be a3bd c6be
00000070: ebf1 36be 81c6 243e 59fd 163e 7d7f e3bd
00000080: 32c7 693e 2f95 06bf bbb5 f0bc 11d0 25be
00000090: c606 ef3e 5b6e e9be 12da 2f3f 3b1a cebc
000000a0: afff 40bd ffc2 963b d5ba 2a3c 7c08 9fbd
000000b0: 8687 81bb 7dc5 ff3d d874 75bd 4270 c8be
000000c0: f7f9 5e3d 3266 583e fa55 fc3d 1cd5 983d
000000d0: f77d b5bd f387 39be 00d4 e63e 556f c9be
000000e0: 359a 133e 4d20 22be 2402 783e c60c edbd
000000f0: 9970 7d3d bf49 fe3c 105d 403e b97d 25be
00000100: 04ef 523e 6ee8 81bd ed9f b73d 97a4 11bd
00000110: c901 a03d 3721 4ebe ef17 c9ba 0e71 1f3b
00000120: f108 42be 6857 04bd 4e02 5b3d ae6d acbe
00000130: 1ab4 733f 0389 57bf 2351 1a3e e39a fd3e
00000140: aa16 c3be 6594 a53d c66d 3bbe d031 f2bd
00000150: c8bf 83bd 79c9 b73d 0735 cb3d 4ada e0be
00000160: 6cfe b33d 3cf1 dbbd 28ee 5b3e 84b3 bb3d
00000170: f0a2 90bc bd1a 1bbe c6fd 4dbe 5b37 203f
00000180: 9c16 55bb 5033 893c 4bdd da3d e9db 9a3d
00000190: 618f bbbd 2b49 41bd 864a d13e d822 f8be
000001a0: 999f da3d 1d32 25bd 3881 72be 8347 1cbe
000001b0: e5e1 20be 55c2 8c3d 2383 733e 94b4 503e
000001c0: 0647 ffbd d7d4 16be 64c8 1b3e c4a8 903d
000001d0: 1dd6 49be 6810 743c 452b e73d 24fa 69bf
000001e0: d40d d63d f84a 98be bc07 e1bd b8f3 42be
000001f0: 1a95 4abe b322 bcbd 4c75 ac3e 3279 743c
00000200: 420b 30be 7933 2ebe ad5c 223e e362 ec3d
00000210: 1ee8 de3d 08c9 833e dc69 dfbe 1e10 f23d
00000220: 2365 86be a4ce 2d3e e68e ccbd 0ff6 5c3e
00000230: 2025 6e3d 1069 b63c d021 4cbe c5f0 e6bd
00000240: 7f22 933e 12d1 c9bd b916 9cbe c5cf 28be
00000250: 755f 30bf 650e f93e 9069 b63d 4295 09bf
00000260: 996a 7e3d 0e4b 48be d789 8abe cddd c13d
00000270: 04b1 673e 3d26 4bbe b49c dabe 053b 8c3d
00000280: 0318 c2bd d7dd 8c3c b8b9 1c3e de08 013e
00000290: 64be bc3e 6225 44be acd5 5e3e 8f50 753d
000002a0: 6239 713d f7d9 0dbe 35f3 17bd 70b1 0e3e
000002b0: 84e2 f4bc 31ec 81bd fa0a 643d 872b 40bc
000002c0: 3f22 073e e126 893d 7e99 d0bb 0c86 edbc
000002d0: 8407 653d 4848 693e ad38 85bd 6a57 123e
000002e0: 6b3d 0dbe efc7 09bd 5862 343c 1283 683e
000002f0: 8627 833d 1398 42bc 2a9a 9e3d ac17 2e3e
00000300: 932c c9bd 0ff0 053e 4806 ca3c 9bdd ad3d
00000310: ca44 4abd 6689 0cbe fb70 c53e 2158 7fbb
00000320: c042 403d 4857 dabd 7ada 473d 91ca ae3d
00000330: 8ba8 3dbc a191 f3bc 00fe c2bd 142f 3abe
00000340: d890 54bb bacc 513d da21 8f3c 6fa6 563d
00000350: f38a 423d b649 c03d 079d 56be 5686 033e
00000360: f10a 65bd 9d13 b53d 3291 f5bc 3018 1cbe
00000370: 3497 c0bd 10c0 ccbd c07e 3abe 2837 89bd
00000380: 44a2 5bbe 16c8 1c3e fabb 79be f0b5 a7be
00000390: 4819 48bd 2151 c13d e755 e0bd a23f 41be
000003a0: 2ecc 263d e53e a8bd 1186 d8bc be82 873d
000003b0: 38e5 993d 544b cc3d 48b0 cb3e a08b ce3d
000003c0: e765 513d 5a3c 85bd b05b a8bc 0e90 2cbd
000003d0: 4619 353d f296 903c a882 14be c966 5c3e
000003e0: 47e8 7dbd a09c 143e 98c4 333d 6e88 4c3b
000003f0: 9019 2cbb bd5b ac3c 0eaf 6e3d dfbb 0a3d
0.21184583 -0.657155 0.06835949 -0.058123752 0.027637929 -0.4481802 0.15081073 -0.2784745
0.47763845 -0.39736485 0.08253019 -0.31125966 0.21113287 -0.049863126 0.08508071 0.27738488
0.6683798 -0.18464269 -0.043141667 0.21042487 -0.024269942 0.12817836 -0.13130702 -0.16619232
0.47661865 -0.6612329 -0.2872818 -0.38816556 -0.17865722 0.16091348 0.14745082 -0.11108301
0.22829893 -0.52571386 -0.02938353 -0.16192652 0.46684855 -0.45592007 0.68692124 -0.025158992
-0.04711884 0.004600882 0.010420521 -0.0776529 -0.003952923 0.1248884 -0.059925884 -0.39148146
0.054437604 0.21132734 0.12321086 0.074625224 -0.088619165 -0.18118267 0.45083618 -0.39342752
0.14414294 -0.15832634 0.24219567 -0.11574702 0.06187496 0.031041024 0.187855 -0.1616124
0.2059899 -0.063431606 0.0896605 -0.035557356 0.078128405 -0.20129858 -0.0015342216 0.002432886
-0.18948723 -0.03230992 0.053468995 -0.3367743 0.9519669 -0.8419344 0.15070014 0.49532232
-0.3810323 0.08084945 -0.18303594 -0.11825907 -0.06433064 0.08973975 0.099222235 -0.4391654
0.087887615 -0.10739371 0.21477568 0.09165099 -0.01765582 -0.15146919 -0.20116338 0.62584466
-0.0032514697 0.0167481 0.106867395 0.07561476 -0.09158207 -0.04718892 0.4087717 -0.48464084
0.10674972 -0.040330995 -0.23682106 -0.15261655 -0.15711172 0.068730034 0.23780493 0.20381385
-0.124647185 -0.1472963 0.15213162 0.070634395 -0.19710584 0.01489649 0.1128755 -0.9139731
0.10451856 -0.29744697 -0.10987803 -0.19038284 -0.1978344 -0.09186306 0.3368324 0.014921473
-0.17191795 -0.17011823 0.15855666 0.11542299 0.108841166 0.25739312 -0.43635452 0.1181948
-0.26249036 0.16973358 -0.09988193 0.21578239 0.058140874 0.022266895 -0.19934773 -0.11276392
0.28737256 -0.0985433 -0.30486086 -0.16485508 -0.68895656 0.48643795 0.08906853 -0.53743374
0.06211338 -0.19559881 -0.27058288 0.09466133 0.2262612 -0.19838805 -0.4269768 0.068471946
-0.09477236 0.017195625 0.15305221 0.12601039 0.36864007 -0.19154885 0.21761197 0.05989128
0.058892615 -0.13852678 -0.037097175 0.13934875 -0.029893167 -0.06343878 0.05567453 -0.011729128
0.13196658 0.06696869 -0.006365954 -0.028994583 0.05591537 0.2278148 -0.06504951 0.14291158
-0.1379296 -0.033637937 0.011009775 0.2270625 0.06404023 -0.011877078 0.07744248 0.17001218
-0.09822955 0.13079856 0.024661198 0.084895335 -0.04938201 -0.13724288 0.3856276 -0.003896244
0.046938658 -0.10661179 0.04879234 0.0853473 -0.011575828 -0.029732527 -0.09521103 -0.18182021
-0.0032434966 0.051220633 0.017472196 0.052404817 0.047495794 0.09389059 -0.20958339 0.12844214
-0.055918638 0.088416316 -0.029976461 -0.15243602 -0.0940384 -0.099975705 -0.18212414 -0.06699973
-0.21448618 0.15310702 -0.24388114 -0.32755995 -0.048852235 0.09439302 -0.109538846 -0.1887193
0.040722065 -0.08215121 -0.026431115 0.06616734 0.07514423 0.09975305 0.3978293 0.10085225
0.051122572 -0.06505652 -0.020551533 -0.04212957 0.044213556 0.017650101 -0.14502966 0.21523584
-0.061989095 0.14512873 0.04388866 0.0031209248 -0.0026260354 0.021039838 0.058272414 0.033870574

encoder.attn_layers.0.attention.out_projection.bias f4 [16]
00000000: abbd 7fbe e5d2 11bf 0ed2 003c 79ca 7fbf
00000010: e685 c23e d657 c0be a37b e4be af82 7abf
00000020: 9ccd 893e 94fd 123d f4b6 963c d986 0fbd
00000030: 00c6 a9be 36e9 983e 307e 17be 4f82 c03e
-0.24974696 -0.56962425 0.007862581 -0.99918324 0.3799278 -0.37567014 -0.44625577 -0.9785566
0.2691468 0.035886362 0.018397786 -0.03504071 -0.33158875 0.29865426 -0.1479423 0.37599418

encoder.attn_layers.0.conv1.weight f4 [32, 16, 1]
00000000: fd21 57be f3e8 983e 1bf2 83bd 7143 34bd
00000010: 634b 67bf eb4d 843d fb24 e23e 4d5e b6bc
00000020: 5db6 91be e763 38be ccbf a8bc 18b6 743e
00000030: 2a34 ce3d 4866 1dbf fbb4 433e 1a92 f2bc
00000040: 5c9e cf3e 624a 87be 8f6e 353e 91cc c63e
00000050: e69c 8d3e 271d e3be 969d 24bd 4560 f9be
00000060: 223a 66be 8028 95be 4a14 3f3e c29d f03d
00000070: 77ef b5bd ad9d 09ba 396c 21bf 76cb acbe
00000080: 155c 9b3d 3425 2bbe bc8b c63c b866 d23e
00000090: 2dbc 8bbe 8a83 1abe 54ce ddbd ba1a 813e
000000a0: e166 cfbd a904 d03d d1c2 32be fc0d 8fbd
000000b0: d13f f63e 78e0 a1be e1c8 ba3e 9a0c c0bf
000000c0: 159d 453e d992 13be 2c6c 273e 14a0 d63d
000000d0: 74de a5bf 4fa8 23be 2421 253e eb3b 9a3d
000000e0: 3bbd ff3c 2cc5 13be 93a4 433e c7ec d63c
000000f0: ebe8 633e 9eb8 a73e 5c3a df3e 65d5 f3bd
00000100: 51eb 173d a171 e8bd 73f0 913e 0d94 bb3e
00000110: f7e3 88be 3046 9a3d 370b 8ebd e7fb 1abd
00000120: 196f dc3e c0d4 57bd fded aabe f3be 273f
00000130: 0ac5 5fbf 7bd8 e8bc 8867 8ebd e806 d3be
00000140: 6884 fb3d f5ee 7e3e d201 36be b175 13be
00000150: 5e79 8b3e deaf b3bd cb39 bbbe f8ae d33e
00000160: e35a b1bb 628d 92be 69d9 85bd 353f 573e
00000170: cb48 a93d 0708 4a3d 3cec bf3e e637 99bd
00000180: b380 0d3f e3ab 69be 6dd4 d4bd f180 473e
00000190: b788 3abe b731 633e 8381 00be 92ec 1ebf
000001a0: 5d97 0ebe f1f3 b8bd 3d8f 16be 73ea 8abe
000001b0: 3481 89ba 9200 833e 32b4 e2bd 1708 d23e
000001c0: fb1d a9bc 4d80 243f 175e 773e 338f c93d
000001d0: fe8e 173d 0c56 d53d 0bc0 b53d 6edd 4dbe
000001e0: 79b6 c5be b25e 48bd 6261 5d3c a55e 5abf
000001f0: 496b 973e bbbb 8f3e 009c dd3c 9373 d2bc
00000200: c518 b03d 722c 973e 9bf2 05be 0ca7 6abd
00000210: 711e 8dbf 4f9d 14bd c0aa 883e 946d e7bc
00000220: e618 1c3e 5363 fc3e 7580 d73d dbd6 ebbd
00000230: e18d dabe dcca 903e 0918 85be 0933 8d3c
00000240: a5d6 70be f52c 4fbe 227e 82be 9805 493f
00000250: 5721 03bf 62e7 3fbe 4f50 003f 5de7 dbbd
00000260: f0f9 50be ef8c 90be 0437 bebc 670c cf3e
00000270: af9f 2abe ba7e 153c 5458 22be 6963 80bf
00000280: 64d3 31bf 8764 40be 6263 3fbe 25ba e2be
00000290: 7cb0 bbbd f957 2abe 07ac a7be 042e b7be
000002a0: e8a5 1f3e 8081 ba3d 7cb3 49be d349 2c3f
000002b0: f612 9fbe ea19 af3e e0d5 02be ae13 89bc
000002c0: f924 4fbe 2973 8dbf a31f fcbc ed93 99be
000002d0: 1789 a8be 9a80 0dbd 56a6 81be 3b29 99be
000002e0: 208b 1f3e 3a5d 0bbd f18b 49be e62d 1bbf
000002f0: b24a c93e 50ea 803e a57a 883c c369 bbbd
00000300: 8184 e0bd d312 533e 1843 1cbd 6d5a 46be
00000310: e394 e9be bc1c a33a a2e1 41be 9f67 d1be
00000320: 210a 07be ea3b abbd 7b28 febd 1ac6 363f
00000330: 212f a33e c249 07bf a032 06bf 51ca 0b3f
00000340: 2b08 14bf 3efa f3be 4766 973e 4316 41bd
00000350: 27d9 69be 72d7 1cbd e447 62bc 496f 5c3f
00000360: 98a2 bebe 94f1 d8bc a646 e0bd c62a 373e
00000370: ff75 abbe 8db1 a03d 3161 8a3e f290 6c3d
00000380: b3df d8bd 3552 99bd 0f32 703d 6189 9e3e
00000390: 8b46 6bbd 7056 babd f82c 41bd 22ee c4bd
000003a0: 40f7 f4be 828b 963d b58b 2f3f 4153 da3d
000003b0: a30a b33e 9450 83be 8bdd 4a3e f111 fbbe
000003c0: 9fb7 2ebe c821 ab3d f8ba 89be ea79 43be
000003d0: 2d59 bbbd 9cfb ffbe 9df0 4bbc 79bc f2bd
000003e0: ee13 c6bd 7de7 10bd 0a05 3dbe 8e6a 83be
000003f0: ef3b 1a3f 19ff f73d 6cfb 1ebe db77 9d3e
-0.21009059 0.29865226 -0.06442662 -0.04400963 -0.90349406 0.06460174 0.4416884 -0.022261763
-0.28459445 -0.1800686 -0.020599268 0.23897588 0.10068543 -0.61484194 0.19112007 -0.029610682
0.40550506 -0.26423937 0.17717956 0.38827947 0.27658767 -0.4435818 -0.04018935 -0.4870626
-0.22483113 -0.29132462 0.18660083 0.1174884 -0.08883565 -0.0005249631 -0.6305576 -0.33748978
0.07585923 -0.1671341 0.024236552 0.41093993 -0.27292004 -0.1508924 -0.108303696 0.25215703
-0.101270445 0.10157139 -0.17457129 -0.06985089 0.48095563 -0.3161657 0.36481383 -1.5003846
0.19298203 -0.14411487 0.16349858 0.10479751 -1.2958512 -0.15982173 0.16125923 0.0753096
0.031218162 -0.14430684 0.19105749 0.026235951 0.2225682 0.3275804 0.43599212 -0.11905936
0.03708965 -0.11349798 0.2850376 0.3663639 -0.26736423 0.075329185 -0.06935733 -0.03783789
0.4305351 -0.05269313 -0.33384696 0.6552574 -0.8741003 -0.028423538 -0.06953341 -0.41216207
0.12281114 0.24895842 -0.17774132 -0.14400364 0.27241033 -0.087737784 -0.3656753 0.41344428
-0.005412446 -0.28623492 -0.06535608 0.21020205 0.08265837 0.04932406 0.3748492 -0.07481365
0.55274504 -0.22819476 -0.103920795 0.19482781 -0.18216215 0.22186933 -0.12549405 -0.6207973
-0.13924928 -0.09030903 -0.14703079 -0.27131996 -0.0010490776 0.25586373 -0.11069526 0.41021797
-0.020644179 0.6425827 0.24156986 0.09841766 0.037001602 0.10416803 0.0887452 -0.20104
-0.38615778 -0.048918433 0.013511987 -0.85300666 0.2957404 0.28072914 0.027051926 -0.025689876
0.085984744 0.29526097 -0.13080828 -0.057288215 -1.1024915 -0.036282834 0.26692772 -0.028250493
0.15243873 0.49294528 0.10522548 -0.1151559 -0.4268637 0.2827977 -0.259949 0.01723625
-0.2351938 -0.20231993 -0.25486857 0.7852416 -0.5122275 -0.1874061 0.5012254 -0.107374884
-0.20407844 -0.28232524 -0.023219593 0.4043915 -0.16662477 0.009124452 -0.15854007 -1.0030338
-0.6946318 -0.18788348 -0.18690255 -0.44282642 -0.09164521 -0.16635121 -0.32748434 -0.35777295
0.15590632 0.091067314 -0.19697374 0.67300147 -0.31069154 0.34199458 -0.127769 -0.016733017
-0.20228948 -1.1050769 -0.030776804 -0.2999567 -0.3291709 -0.034546472 -0.25322217 -0.2991427
0.15580416 -0.034024455 -0.1968229 -0.6061691 0.393148 0.25178766 0.016660044 -0.09151032
-0.10962773 0.2061265 -0.038149923 -0.19370432 -0.45621404 0.0012444477 -0.18933728 -0.4089937
-0.13187458 -0.08361037 -0.12410065 0.7139603 0.31871894 -0.5284692 -0.52421 0.54605585
-0.57824963 -0.47651857 0.2957022 -0.04714037 -0.22836743 -0.038291402 -0.013811085 0.8610731
-0.37233424 -0.02648238 -0.10950975 0.1788741 -0.3348846 0.07846365 0.27027276 0.057755418
-0.10589542 -0.07486383 0.05864149 0.30964187 -0.057440322 -0.09098518 -0.047162026 -0.09615733
-0.47844887 0.07350828 0.6857255 0.10660411 0.34969053 -0.25647414 0.19811074 -0.49037126
-0.17062233 0.08356053 -0.26900458 -0.19089475 -0.09147868 -0.4999665 -0.012447503 -0.118523546
-0.0967177 -0.035377014 -0.18458953 -0.25667232 0.602477 0.12109203 -0.15525597 0.30755505

encoder.attn_layers.0.conv1.bias f4 [32]
00000000: 6071 24bf b601 5fbf 696f aebe 702e 3fbf
00000010: fd55 43be 095e dabe a166 29be 9418 97bd
00000020: 5200 19be b08d 47bf 2f83 99bf c5b3 58bf
00000030: 8439 6abf dff5 c7be 9ed9 cdbe 59ab e3be
00000040: f2c8 f1be dffb f9be 2cc0 ccbd a78f 08bf
00000050: 84e4 2cbf b958 75bf fda7 c1be dc3e 60bf
00000060: 9f59 5abf dbd1 10bf 0590 9bbf 25cc d2bd
00000070: 1e53 363e 305d 073e 4ed0 11be 5dd1 94be
-0.64235497 -0.87111986 -0.34069374 -0.74680233 -0.1907577 -0.42649868 -0.16543056 -0.07377735
-0.14941528 -0.7795057 -1.1993159 -0.84649307 -0.9149401 -0.39054772 -0.4020509 -0.44466665
-0.47223622 -0.48824975 -0.099975914 -0.53344196 -0.6753619 -0.95838505 -0.37823477 -0.87595916
-0.85293 -0.56570214 -1.2153326 -0.10292844 0.17805144 0.13219142 -0.14239618 -0.29065982

encoder.attn_layers.0.conv2.weight f4 [16, 32, 1]
00000000: d2f0 893d 759f c8be e928 d83e ae7b c4be
00000010: d0c5 db3d 4af6 0cbe b528 54bd 439e d23e
00000020: ea86 84be 7166 133e a247 a63e 259a 75bd
00000030: 7877 0fbe 9a93 a73e a0de 8fbd 5c5b 8c3e
00000040: e099 dcbd 9eea 123e 1ab9 a03d f0ba d7bb
00000050: 7ab2 e03e 6038 753e c2f6 a93e 402c 3dbd
00000060: dd62 3ebd f031 413f a7da 10bf f4ed f03d
00000070: 709d 823d a482 e93e a538 f53b dc97 2d3e
00000080: b7d2 95bd f098 c4bd e25f 16bf d9fd 94be
00000090: 2b96 ea3e c93c b5be 4733 b8bd 7d4f d4bd
000000a0: 709b 5bbe 4b25 9fbe da2b 34be b52b 363f
000000b0: d062 713e 5c46 7fbd b420 c73e 8ef9 acbd
000000c0: 3c11 cd3e 130a 54bc cc87 d7be 4f7a 88bd
000000d0: 4dc7 413f 49ca 663e 009a 22bc 2d37 22be
000000e0: 4f73 84be ddc1 853f 5319 013e 95e0 803e
000000f0: 07c2 cd3d e2b7 04bf 9ed0 47be a398 c63d
00000100: e09a 80bf ad22 ae3c 6fec 57be 06cd ed3e
00000110: cbfd ebbe 1542 cb3e 600d 723e 754b 59be
00000120: bbef 433e 550a 96bf 8b5c 10bf e0e1 ffbd
00000130: 0fe3 2abe 5297 1bbf 3740 0dbf fa63 873d
00000140: 3bea 5fbe 05bf 22bd 3bc4 d4be a4d7 843f
00000150: e111 0d3f 0c68 533e a7f4 34bd 9e4d df3e
00000160: f78f 4f3f f8e1 ff3d 0a55 e23e f1fa 873e
00000170: efd8 b7be b712 d8be 99d2 b8be adf7 443e
00000180: 95a7 67bf e5a9 7bbe 5dfd ce3e e4ca e23e
00000190: fae5 06be 301b 0c3e a4fa 1bbf 7722 6f3e
000001a0: daf1 b83d 72bd ee3b 2700 2e3e beda 45be
000001b0: 135b 773d 2e64 313e 42e5 3ebe 7fc3 60bb
000001c0: a9b7 11bf 72ae 8abe b035 f33e e3f8 9bbe
000001d0: 040f 3d3f 1fcb 083f baf3 cbbb faeb 043d
000001e0: 4c5f 4b3e b1ce ca3e b822 8ebe f710 893d
000001f0: deec 493e 8147 8c39 cf89 3abe 9fae f5be
00000200: 7443 65bd cdb1 f53e 1f0d dcbe c148 3d3f
00000210: 48d4 3bbd 403d 22be 3d24 b03e 75e9 ef3d
00000220: 6b1e 0e3e 0ccb 6c3e 9ea4 b73d 0700 1cbe
00000230: 6d46 813c b4cc 383e 5d94 8e3e cb00 d03d
00000240: c9a5 17be 5b30 8bbe a57d 1bbe 9e66 e2be
00000250: 30d2 923e ec2a 0bbe 7a7b 8bbd ad7a 7cbe
00000260: 83dc 34bf f16b b9bc 6699 29be 0089 24bd
00000270: 411f b53d 8b77 463e 62f3 03be 11a9 dcbe
00000280: f206 6a3f 82cd 78be a86c 34bf c537 323e
00000290: a7be 6fbe 25aa ff3d 6885 a1be 318e dcbe
000002a0: 726e c33d c5c7 a03e 33ee 00be ac4d ee3c
000002b0: c84d 56be f046 3dbe ec84 7dbd 3dee ac3e
000002c0: 29bb 2bbe da9f 033e d773 e23e 66bb b73d
000002d0: 9b45 2bbd 835e 9abe a31c b9be 497a 5fbc
000002e0: ed9c 993e 71a1 713e 7469 79bf 3103 f63d
000002f0: 9f77 24be 7a45 c3bd 0a90 23bf 864d d93c
00000300: 81f6 94bd 063e 323e 6448 173f a0e4 38be
00000310: 5b40 4a3e ebfd 5b3e b456 883b 57ad e7bd
00000320: 5d34 36be 8f07 4b3e 725d 32be 2580 863e
00000330: 42b4 7b3e 5e1f cfbd c1e0 ec3d fa3c aabe
00000340: b673 f03d 82be 79be fefa a8bd b823 b0be
00000350: 2e23 c9be 6011 e33d b829 ad3c fb49 29be
00000360: 9ea6 6cbe c0ca 013f b7e0 99be 9d47 623e
00000370: b943 40bf 13be 73bd 4d22 ce3e f0ba 39be
00000380: 353a 073f c9ac 8f3e 3212 8dbe 711c 253b
00000390: c7f8 1f3e 5cc8 c2be 3cfc 393e eacf 9f3e
000003a0: 4227 1abc add3 073f da75 5ebe ef0b c83e
000003b0: f7fd bc3e 15f5 c0be 858e 833d bdff 143e
000003c0: 7672 593e efe5 9bbe fcf5 9d3e b306 cd3a
000003d0: 2561 77be 18ba 5bbe 0c5c c33c 5ee0 85be
000003e0: 7450 d6be 4599 bebf fbe6 f33d d112 e2bd
000003f0: 61eb 173e 680a 9f3e 1906 13bd bed6 a43d
0.06735386 -0.39184156 0.42218712 -0.3837561 0.10731089 -0.13765827 -0.051796634 0.4113637
-0.2588418 0.14394547 0.32476526 -0.059961457 -0.14010417 0.327298 -0.07024884 0.27413452
-0.10771537 0.14347312 0.07847805 -0.006583564 0.43886167 0.23947287 0.33196074 -0.04618478
-0.046481002 0.75466824 -0.56583637 0.11764136 0.06377685 0.45607483 0.007483559 0.16952461
-0.07315581 -0.09599483 -0.58740056 -0.2909992 0.45817694 -0.35397938 -0.089941554 -0.10366724
-0.21446013 -0.3108314 -0.17594853 0.7116044 0.2357285 -0.06232296 0.38892138 -0.08446036
0.4005221 -0.012941855 -0.42095792 -0.066639535 0.75694734 0.22538103 -0.009924412 -0.1584136
-0.25869223 1.0449787 0.12607317 0.25171342 0.100467734 -0.5184308 -0.19513175 0.09697082
-1.0047264 0.02125677 -0.21086286 0.46445483 -0.46092066 0.39698854 0.23637915 -0.21220191
0.19134419 -1.1721903 -0.5639121 -0.12494254 -0.16688178 -0.6077777 -0.5517611 0.06610866
-0.21866696 -0.03973295 -0.41555962 1.0378308 0.55105406 0.2064516 -0.04417863 0.43613905
0.8107905 0.12494272 0.44205505 0.2655864 -0.35907695 -0.42201778 -0.36098173 0.19235106
-0.90490085 -0.24576528 0.40427676 0.44295418 -0.13173667 0.13682246 -0.6092932 0.23352991
0.090305045 0.0072857672 0.16992246 -0.19321725 0.06038959 0.17323372 -0.18642142 -0.0034296212
-0.5692087 -0.27086216 0.47501898 -0.30463323 0.7385104 0.5343494 -0.006224123 0.032451607
0.19860572 0.39610818 -0.27760863 0.06692689 0.19719264 0.00026756155 -0.18216632 -0.47984788
-0.05597253 0.47987214 -0.4297876 0.7393914 -0.045856744 -0.15843678 0.34402648 0.1171445
0.13878791 0.23124331 0.08966945 -0.15234385 0.015780652 0.18046838 0.27847567 0.10156401
-0.14809336 -0.2718533 -0.15184648 -0.44218916 0.28675985 -0.13590592 -0.06810661 -0.24656172
-0.70648974 -0.022634478 -0.16562423 -0.040169716 0.08843852 0.1938154 -0.12885812 -0.43097737
0.9141685 -0.24297145 -0.70478296 0.17404087 -0.23412572 0.12483624 -0.31547093 -0.43077233
0.0954255 0.31402412 -0.12590866 0.029089771 -0.20928109 -0.18484092 -0.061894342 0.3377551
-0.16770615 0.12853947 0.44229004 0.0897129 -0.041814428 -0.30150232 -0.3615466 -0.013639995
0.30002537 0.23596741 -0.97426534 0.120123275 -0.16061257 -0.09534736 -0.6389166 0.026526224
-0.072735794 0.17406473 0.59094834 -0.18055964 0.19751112 0.21483581 0.0041607264 -0.11312359
-0.17793413 0.19827102 -0.17418459 0.26269642 0.24580482 -0.10113405 0.11566306 -0.33249646
0.1174082 -0.24389079 -0.08250998 -0.3440225 -0.39284652 0.110872984 0.021138057 -0.16532128
-0.23110434 0.50699997 -0.30054256 0.22097631 -0.75103337 -0.05950744 0.40260544 -0.18137717
0.5282319 0.28061512 -0.27552944 0.0025193954 0.15622245 -0.38043487 0.18162626 0.31213313
-0.009408774 0.53057367 -0.21724644 0.39071605 0.3691251 -0.37686983 0.06423668 0.14550681
0.2123507 -0.30448863 0.30851734 0.0015642255 -0.24158151 -0.21457708 0.023847602 -0.2614774
-0.41858256 -1.4890524 0.119092904 -0.11038745 0.14835884 0.31062627 -0.035894487 0.08048771

encoder.attn_layers.0.conv2.bias f4 [16]
00000000: 04d1 91bc 12af 413d 0045 b4bd 41aa 7dbc
00000010: d8a4 aa3d 8901 20bd 9902 3cbd 7ed6 543d
00000020: a07b fc3c c0be bdbd 8188 1f3d 2b56 2fbd
00000030: e345 213b b772 e3bb aa63 143c 4564 2c3d
-0.017799862 0.0472861 -0.08802223 -0.015482486 0.08332223 -0.039063964 -0.045900915 0.05196237
0.030820668 -0.09264898 0.03894854 -0.042806786 0.0024608306 -0.0069411653 0.009056965 0.042087812

encoder.attn_layers.0.norm1.weight f4 [16]
00000000: 1a46 e23e f579 043f adc9 433f 96b6 403f
00000010: 1866 ae3e 2fae 893f 1130 5c3f 537b 103f
00000020: 9037 643f 9c4b 963f 99de 8a3f 135d 733f
00000030: cc4a 913f 41db c93f 7f30 953f cbc2 b23f
0.44194108 0.5174859 0.7647961 0.75278604 0.34062266 1.0756282 0.86010844 0.5643818
0.8914728 1.1741824 1.0849181 0.95063895 1.1350951 1.5770036 1.1655425 1.3965696

encoder.attn_layers.0.norm1.bias f4 [16]
00000000: 024f 81be 42d6 a93e 27ba 1c3e 37db a73e
00000010: 213e ca3e 04de f23d 88ad 9bbd 8e79 e33e
00000020: b4be 583e dfa5 e6bd 90a5 a83d 9faa dcbd
00000030: e4a4 70be 47ce 743d 3e06 cf3e 959b a03e
-0.2525559 0.33171278 0.15305386 0.32784435 0.39500526 0.11858752 -0.07601458 0.44428676
0.21166497 -0.11262106 0.082347035 -0.10774731 -0.23500401 0.059767034 0.4043445 0.313687

encoder.attn_layers.0.norm2.weight f4 [16]
00000000: bc84 873f 9660 7e3f 16a0 733f 5b94 4e3f
00000010: 3037 863f 818a 843f 6704 a83f bf1e 7a3f
00000020: eaa4 863f 735b 813f 5974 463f faf1 b33f
00000030: bed3 783f b6c8 763f de77 853f 0f2b bb3f
1.0587382 0.9936613 0.95166147 0.8069512 1.0485592 1.0354768 1.3126343 0.97703165
1.0519078 1.0106033 0.7752128 1.405822 0.9719809 0.9640001 1.0427206 1.4622515

encoder.attn_layers.0.norm2.bias f4 [16]
00000000: fda3 b3be 8a23 6f3e 8920 b93e 635a 033f
00000010: 2029 77bd f199 be3d 30c1 fcbd 60fe be3e
00000020: 6e84 a73d aafa acbe eb58 89bd 8016 03be
00000030: 6ac4 1abd 0aef 86be be8c 98bd 1f47 1b3e
-0.3508605 0.23353401 0.36157635 0.51309794 -0.060341954 0.09306706 -0.12341535 0.37303448
0.08179556 -0.33784992 -0.06706413 -0.12801552 -0.03778497 -0.26354247 -0.074487194 0.1516385
