SimMTM-main/SimMTM-main/SimMTM_Forecasting/outputs/pretrain_checkpoints/ETTh2/ckpt10.pth (torch, 347855 bytes, 37 tensors)

enc_embedding.value_embedding.tokenConv.weight f4 [16, 1, 3]
00000000: e576 433f 89b9 eebf bbbd 793f ad04 3a40
00000010: 21a4 86bf 2123 23c0 6ee5 8bbf d470 25c0
00000020: 74d3 3cbf de47 88bf 032a 2c40 ca58 e1bf
00000030: a615 83bf 2ef0 973e 1bf0 373f 0441 5440
00000040: a7d7 0bc0 c0d5 ec3f 9a40 f03f 8282 ea3f
00000050: 81a7 8e3f 8b11 403f dfa5 29bf 96e1 d83f
00000060: e48c 813e 401c 833f 01bf fa3f aade 5cc0
00000070: 8e49 a0bf 1e6e b5be df74 78bd 17d0 a140
00000080: 3abd 6f3f c12e 843e 765e f23f 977d c2bf
00000090: 7751 18be 1823 ddbf c5f3 9ebe 9b9b a9bf
000000a0: 3ba8 0c40 7ecd 643f 2f17 febf 10d6 d03e
000000b0: 62c4 1a3f 8da2 cd3f c83d 83bf 1eb6 22bf
0.76353294 -1.8650371 0.9755513 2.9065354 -1.0518838 -2.549019 -1.0929391 -2.5850115
-0.7376015 -1.0646932 2.6900642 -1.7605221 -1.0240982 0.2967543 0.71850747 3.3164682
-2.1850374 1.8502731 1.8769715 1.8321078 1.1144868 0.7502677 -0.66268724 1.6943843
0.25302804 1.0242996 1.958954 -3.4510903 -1.2522447 -0.35435575 -0.060658332 5.0566516
0.9364811 0.2581692 1.8935077 -1.5194577 -0.14874826 -1.7276335 -0.31045356 -1.3250612
2.197768 0.89376056 -1.9850825 0.40788317 0.60455906 1.6065232 -1.0253229 -0.6355914

enc_embedding.position_embedding.pe f4 [1, 5000, 16]
00000000: 0000 0000 0000 803f 0000 0000 0000 803f
00000010: 0000 0000 0000 803f 0000 0000 0000 803f
00000020: 0000 0000 0000 803f 0000 0000 0000 803f
00000030: 0000 0000 0000 803f 0000 0000 0000 803f
00000040: a46a 573f 4151 0a3f 3e39 9f3e 6b4e 733f
00000050: 7675 cc3d 98b8 7e3f 5b81 013d 3cdf 7f3f
00000060: 57d6 233c b9fc 7f3f 1c3e 4f3b acff 7f3f
00000070: 6d12 833a f8ff 7f3f 61cb a539 ffff 7f3f
00000080: b7c7 683f 3311 d5be 1b54 173f ec7b 4e3f
00000090: f86f 4b3e a5e5 7a3f c870 813d f97c 7f3f
000000a0: 3ed4 a33c e5f2 7f3f d83d cf3b b1fe 7f3f
000000b0: 6812 033b dfff 7f3f 60cb 253a fdff 7f3f
000000c0: c381 103e 2670 7dbf c209 503f 582f 153f
000000d0: 6c4e 973e ef90 743f c0ff c13d 4fd9 7e3f
000000e0: 1fb9 f53c 83e2 7f3f 0d6e 1b3c 0dfd 7f3f
000000f0: 929b 443b b5ff 7f3f 10b1 783a f9ff 7f3f
00000100: cfbd 41bf 3055 27bf de1d 743f b12e 9a3e
00000110: d761 c73e a7ca 6b3f 882e 013e 69f4 7d3f
00000120: dbcb 233d 94cb 7f3f c93c 4f3c c2fa 7f3f
00000130: 5712 833b 7aff 7f3f 5ecb a53a f3ff 7f3f
00000140: 107c 75bf 2c3c 913e 7ffc 7f3f e972 29bc
00000150: 4377 f53e 40a9 603f 1d3c 213e 81ce 7c3f
00000160: f4b6 4c3d 19ae 7f3f 7e85 813c cff7 7f3f
00000170: ddd6 a33b 2eff 7f3f 333e cf3a ebff 7f3f
00000180: 8c0f 8fbe b8cd 753f 4e78 723f 6d3f a4be
00000190: 688c 103f 3249 533f 6e20 413e e367 7b3f
000001a0: d19c 753d 128a 7f3f 436c 9b3c 34f4 7f3f
000001b0: 589b c43b d2fe 7f3f 08b1 f83a e2ff 7f3f
000001c0: 4630 283f bdff 403f 6ee8 4c3f bc74 19bf
000001d0: 72eb 243f b3cc 433f 50d3 603e eac0 793f
000001e0: 323e 8f3d 815f 7f3f a252 b53c f2ef 7f3f
000001f0: c55f e53b 65fe 7f3f ed11 113b d7ff 7f3f
00000200: 9546 7d3f f6fd 14be 7e06 133f e591 51bf
00000210: a5a4 373f 5f5b 323f 5126 803e 02da 773f
00000220: 50aa a33d 652e 7f3f 8a38 cf3c 08eb 7f3f
00000230: 1212 033c e7fd 7f3f 55cb 253b caff 7f3f
00000240: 3201 d33e d53f 69bf ee1f 953e a2e6 74bf
00000250: 1c88 483f d521 1f3f 2dc2 8f3e a9b3 753f
00000260: 3e12 b83d c2f6 7e3f ea1d e93c 76e5 7f3f
00000270: 3a74 133c 59fd 7f3f bc84 3a3b bcff 7f3f
00000280: f844 0bbf 64cd 56bf 9770 a9bc fbf1 7fbf
00000290: a46a 573f 4151 0a3f 3d39 9f3e 6b4e 733f
000002a0: 7675 cc3d 98b8 7e3f 5981 013d 3cdf 7f3f
000002b0: 57d6 233c b9fc 7f3f 223e 4f3b acff 7f3f
000002c0: 5cff 7fbf 7205 913b 1f41 a9be 8d9b 71bf
000002d0: 2a26 643f c33d e83e 8b87 ae3e e4aa 703f
000002e0: 72d3 e03d e873 7e3f 6873 0e3d 5bd8 7f3f
000002f0: 6938 343c 09fc 7f3f 87f7 633b 9bff 7f3f
00000300: d85c 09bf d006 583f 2491 1bbf 564f 4bbf
00000310: 1d9a 6e3f f786 b93e 2ca9 bd3e c3c9 6d3f
00000320: ac2b f53d b528 7e3f 1965 1b3d d2d0 7f3f
00000330: 709a 443c 48fb 7f3f ebb0 783b 87ff 7f3f
00000340: 2220 d73e 6f4e 683f 4c14 53bf 9dd9 10bf
00000350: c0ab 763f 9df5 883e 3f9a cc3e c3ab 6a3f
00000360: d0be 043e 00d7 7d3f 6556 283d a1c8 7f3f
00000370: 6afc 543c 76fa 7f3f 26b5 863b 72ff 7f3f
00000380: 7298 7d3f d704 0c3e b3a8 75bf 0a0d 90be
00000390: 6f46 7c3f e70b 2e3e f456 db3e b151 673f
000003a0: 64e4 0e3e cc7e 7d3f 4347 353d c9bf 7f3f
000003b0: 555e 653c 94f9 7f3f d611 913b 5cff 7f3f
000003c0: 4479 263f e87a 42bf 75e0 7fbf 9622 fe3c
000003d0: d55b 7f3f bade 903d 83db e93e 68bc 633f
000003e0: 4f06 193e 1a20 7d3f aa37 423d 49b6 7f3f
000003f0: 32c0 753c a1f8 7f3f 856e 9b3b 43ff 7f3f
0.0 1.0 0.0 1.0 0.0 1.0 0.0 1.0
0.0 1.0 0.0 1.0 0.0 1.0 0.0 1.0
0.84147096 0.54030234 0.3109836 0.9504153 0.099833414 0.9950042 0.031617504 0.99950004
0.009999833 0.99995 0.0031622713 0.999995 0.0009999998 0.9999995 0.00031622782 0.99999994
0.9092974 -0.41614684 0.5911271 0.8065784 0.19866931 0.9800666 0.063203394 0.9980007
0.019998666 0.9998 0.006324511 0.99998003 0.0019999985 0.99999803 0.0006324556 0.9999998
0.14112 -0.9899925 0.8126489 0.58275366 0.2955202 0.9553365 0.094726086 0.99550337
0.0299955 0.99955004 0.009486687 0.999955 0.0029999954 0.9999955 0.00094868336 0.9999996
-0.7568025 -0.6536436 0.95358074 0.30113748 0.38941833 0.921061 0.12615407 0.99201065
0.039989334 0.9992001 0.01264877 0.99992 0.003999989 0.999992 0.0012649109 0.9999992
-0.9589243 0.2836622 0.99994653 -0.010342338 0.47942552 0.87758255 0.15745588 0.987526
0.049979165 0.99875027 0.015810724 0.999875 0.004999979 0.9999875 0.0015811383 0.99999875
-0.2794155 0.96017027 0.9471482 -0.3207964 0.5646424 0.8253356 0.18860027 0.98205394
0.059964005 0.99820054 0.018972522 0.99982 0.0059999637 0.999982 0.0018973658 0.9999982
0.6569866 0.75390226 0.8004216 -0.5994375 0.6442176 0.7648422 0.2195561 0.9755999
0.06994285 0.997551 0.022134129 0.999755 0.006999942 0.9999755 0.0022135929 0.99999756
0.98935825 -0.14550003 0.5743178 -0.8186324 0.717356 0.6967067 0.25029233 0.9681703
0.07991469 0.9968017 0.025295515 0.99968004 0.007999914 0.999968 0.0025298197 0.9999968
0.4121185 -0.91113025 0.29125923 -0.9566442 0.78332686 0.62161 0.28077832 0.95977265
0.089878544 0.9959527 0.028456647 0.99959505 0.008999879 0.9999595 0.0028460464 0.99999595
-0.5440211 -0.8390715 -0.02068357 -0.9997861 0.84147096 0.54030234 0.31098357 0.9504153
0.099833414 0.9950042 0.031617496 0.99950004 0.009999833 0.99995 0.0031622727 0.999995
-0.9999902 0.004425698 -0.33057496 -0.94377977 0.89120734 0.4535962 0.34087786 0.9401076
0.1097783 0.9939561 0.03477803 0.9993951 0.010999777 0.9999395 0.003478499 0.999994
-0.53657293 0.84385395 -0.6076834 -0.7941793 0.9320391 0.36235783 0.3704313 0.9288599
0.119712204 0.99280864 0.03793821 0.9992801 0.011999711 0.999928 0.0037947248 0.9999928
0.42016703 0.9074468 -0.82452846 -0.5658205 0.9635582 0.26749888 0.3996143 0.9166834
0.12963414 0.9915619 0.041098017 0.9991551 0.012999633 0.9999155 0.00411095 0.99999154
0.9906074 0.13673721 -0.9596054 -0.28134948 0.98544973 0.16996728 0.42839777 0.90359026
0.13954312 0.990216 0.044257414 0.99902016 0.013999541 0.999902 0.004427175 0.9999902
0.65028787 -0.7596879 -0.9995187 0.031022351 0.997495 0.07073732 0.45675287 0.8895936
0.14943813 0.9887711 0.047416367 0.9988752 0.014999436 0.9998875 0.0047433996 0.99998873

enc_embedding.temporal_embedding.embed.weight f4 [16, 4]
00000000: a66a 9a3e 9269 ccbe fa38 bb3e de3d f53e
00000010: 0c14 d53e 243e 77be f29f a53e 3ae2 afbe
00000020: c8cd fbbe a081 a5bc 48db 60be 9c90 dd3e
00000030: 06c6 a7be 18c7 1c3e 94d0 323e e0a7 bd3c
00000040: 380b dabd 48c4 b23e a08e 5f3e 58d9 8fbd
00000050: a439 fa3e 28a4 c73d 4615 f9be 621a eabe
00000060: cc82 e5be c259 e63e 7ce7 aebe 7430 e83e
00000070: 002e 4abc 089c eebe 784b b13e 680e 3f3e
00000080: ac98 f93e 1238 e4be 941b 80be 7032 41be
00000090: 303b 9b3e 68cc e23e b284 cb3e 9eed f03e
000000a0: 0cd1 033e c85b 853e 8e18 be3e 9cd5 c33e
000000b0: a07e 193e 8e9a 903e 0089 3c3c fcb2 943e
000000c0: 30cd a2bd 4034 edbc 20fa fbbc e8de b93e
000000d0: 705f d83e 9a71 c93e 145a 87be 1e75 d03e
000000e0: 3cfb 473e 00a0 eebd c022 84bc 30ba c8be
000000f0: befa f63e b2f1 edbe 620a f1be f8f7 963d
0.3015949 -0.39924294 0.36566907 0.47898763 0.41616857 -0.24144799 0.3234859 -0.34352285
-0.49180436 -0.020203412 -0.21958649 0.4327439 -0.32768267 0.15310323 0.17462379 0.023151338
-0.10646671 0.34915376 0.21831751 -0.07023877 0.488721 0.09748107 -0.48649043 -0.45723253
-0.44826353 0.44990355 -0.34160984 0.45349467 -0.012340069 -0.46603417 0.3462789 0.1865784
0.48749292 -0.44574028 -0.2502104 -0.18866897 0.30318594 0.44296575 0.39749676 0.47056288
0.12872714 0.26046586 0.3712811 0.3824891 0.1498971 0.28242916 0.011507273 0.29042804
-0.07949293 -0.028955579 -0.030758917 0.36302876 0.42260313 0.39344484 -0.26435912 0.40714353
0.19529432 -0.11651611 -0.016129851 -0.3920455 0.48238176 -0.4647346 -0.47078234 0.07371515

encoder.attn_layers.0.attention.query_projection.weight f4 [16, 16]
00000000: 1842 113e 36e1 68bc c7d7 d63c 5080 023d
00000010: e8b9 1a3e f950 cabd 5542 693d 6f9a a4bc
00000020: 4aab 323e 3dce 08bd 8637 0f3d 0fa1 183d
00000030: 67f1 52bd bfb1 903d 8286 b0bd a973 d6bc
00000040: 1cb0 b4bd e0c7 e3bc 116d 783c 8536 213d
00000050: f710 283d 613c bfbd 6f2f ee3b 69e8 30be
00000060: 1b7f ca3d b1b3 ffbd 76e6 02bd 5472 883e
00000070: 978a 3f3d decc 92bd fe3a 4f3d 6bb3 e03d
00000080: 82dd b7bc 9f49 a5bc af68 fdbb d709 f93d
00000090: fa83 8b3d 7292 73bd de43 203d 5f3e c6bc
000000a0: 0cce 383e 9015 3dbe e459 c93e 1370 e13d
000000b0: dc24 06bf 4079 423d 1699 963d f84c 2e3e
000000c0: 77d9 6b3d 1c6c 05bd afd2 6dbd c0e8 32be
000000d0: c389 0a3d c826 013e 36de 1b3d 8979 b63c
000000e0: d3c8 3bbd ff6a 423e 8820 103e 40d7 bd3e
000000f0: 1079 3abf 6b9d b13d 68d1 5e3c e3e2 113d
00000100: 99ea a53d 3374 87bd 138e 45be 3a01 e03c
00000110: 3f9d 6d3d f948 633d 0b2c f5ba 370a e93d
00000120: 50fc 38bd 28e1 ea3d 9828 37be ea20 2a3d
00000130: 75dc 663f ba14 dbbd 33a5 abbd 464d 15bc
00000140: a0f4 b23c 6d10 a7bc 2305 51be 14b6 2c3d
00000150: 0b0b a43d 03f6 383d 1a73 f93c 803c c13d
00000160: 20f7 063e c548 223e d4af f33e 01f1 113e
00000170: 17e7 3cbf 7940 603d b6d5 203c 139d 54bc
00000180: f5ce f83d 0938 33bc de7b 043d e076 103e
00000190: d743 b4bc e96a d33a b9e2 ef3d ec6c 883d
000001a0: dc91 aebd b402 fdbb a2d5 263d 6dfb b7bd
000001b0: 3b0a ec3d 14a9 14be a23e eabd 6878 c0be
000001c0: ac82 403b 7aa4 923d 88e9 21bc 9dfb d53d
000001d0: ab99 9cbc 0d2a 273d 0272 04bd 4e79 d23c
000001e0: 5496 abbc b7de a33d f15f 99bc a4e6 873d
000001f0: f7a7 f5bd 4c2f b3bd 0c16 8abd 5290 f2bd
00000200: de4f c03d 4114 583d 15ac fb3d db97 ef3d
00000210: 3461 20bd 0f1f 883e e8b4 25be af7f 843d
00000220: 74d3 10bd 889a 5b3e 4837 813e 2670 673e
00000230: dcb9 823e b2eb 34be f4bb 883e ff25 b6bc
00000240: 4d44 cabc a444 0abe 013a b93d 3714 edbc
00000250: 84e4 83bd 157f 15bd 74ce ebbd 3b3b a5bd
00000260: 1dfe 1bbc 7284 103d ef71 983d cdd2 d63c
00000270: a6be a8be bf47 813b e187 97be f669 833e
00000280: adc9 a9bd 5bd9 403e 8093 2cbd 0866 38be
00000290: a410 91be 5f25 ef3d c95a b13d 3487 4abc
000002a0: 8b2f 313d dadd d53d 09d5 f1bd ddda 09bc
000002b0: 94a6 efbd babc 35bb ce55 e1be 86db 8e3e
000002c0: 754a 5d3e 412e e63d 79de f43d c0d8 973d
000002d0: e709 dd3d de7b af3d 8714 343c 9cab ff3d
000002e0: 1c8b eebd 7ce6 a5bd c600 bd3d 243b cd3d
000002f0: 168e 423e 368c 31bd b8b7 fabe 0cc3 343e
00000300: 5259 a4bc 332d 05bd 7aa8 d2bd 53b2 303e
00000310: 882e f6bd b6ad 603c 6565 15be 3342 4f3c
00000320: 33a4 83be 00dc 6e3d 3b93 bbbd 97b4 0b3e
00000330: b5c1 853e 9fcf dc3d 8389 e13e f233 21be
00000340: 0f25 a63d fb44 b63c e8b3 f6bd 9640 f43c
00000350: 9e06 22bd 53f9 153e 8eab a4bd 784f 833d
00000360: 38b5 a0bd a996 3cbe f063 c1bd 457c 173e
00000370: 47db dcbe 1f3a 1ebc fc8a 1bbf 5627 463d
00000380: a746 77bd 270e 46bd 2e00 15bb 98d3 883d
00000390: b673 283d c62a bc3d a6e5 ef3c b7ea 5cbd
000003a0: 034c 0bbe a4be 153d 8337 4dbb b8a0 663d
000003b0: f962 01be 8711 3ebe e572 d43e bc6a d2bd
000003c0: 4371 923d 4cda 8d3d 6002 9a3c 036f ea3d
000003d0: ecc1 92bb 5330 d03c 8ac9 993d fd04 a83d
000003e0: 2a28 b2bc 865f afbd 5c6b 9ebb dd36 97bc
000003f0: d5cc b03c f8c6 54be 050e 483e 5a6d 14be
0.14185369 -0.014213851 0.026225938 0.03186065 0.1510998 -0.098787256 0.056948025 -0.02009317
0.17448154 -0.03339981 0.03496506 0.037262972 -0.05149975 0.070651524 -0.08619405 -0.026178198
-0.08822653 -0.027805269 0.015162722 0.039358635 0.041031804 -0.09337688 0.007268838 -0.17276157
0.09887525 -0.12485445 -0.031958066 0.26649725 0.04676303 -0.071679816 0.05059337 0.10971721
-0.02244449 -0.020176707 -0.0077334265 0.1216008 0.06812282 -0.059465833 0.039127223 -0.024199663
0.1804735 -0.18465257 0.39326394 0.110077046 -0.5239999 0.047478914 0.073534176 0.17021549
0.057580438 -0.032573804 -0.05806225 -0.174716 0.033822786 0.1261245 0.038053714 0.02227475
-0.045845818 0.18986128 0.1407491 0.37078285 -0.72840977 0.08672603 0.013599731 0.035616767
0.081013866 -0.0661396 -0.19292478 0.027344335 0.05801129 0.055489514 -0.0018705142 0.113789015
-0.0451625 0.114687264 -0.17886579 0.041535296 0.9018014 -0.10697313 -0.083811186 -0.009112662
0.021845162 -0.020393575 -0.20412116 0.04216583 0.08009919 0.04515649 0.030450393 0.094353676
0.13180208 0.15848072 0.47595084 0.14252092 -0.73790115 0.054748986 0.009816578 -0.012976903
0.12148849 -0.010938653 0.03234469 0.14107847 -0.022005005 0.0016129884 0.11713166 0.066614
-0.08523914 -0.0077212695 0.04073108 -0.089835025 0.11525389 -0.14517623 -0.114377275 -0.37591863
0.0029374762 0.07160278 -0.009882338 0.10448382 -0.019116243 0.040811587 -0.03233529 0.025692608
-0.020945705 0.08001464 -0.018722506 0.06635788 -0.119949274 -0.087492555 -0.06742486 -0.11843933
0.093902335 0.05275369 0.122886814 0.11698886 -0.0391552 0.26586196 -0.16182292 0.06469666
-0.035357907 0.21445668 0.2523749 0.22601375 0.25532424 -0.17668036 0.26705897 -0.022234915
-0.024690771 -0.13502747 0.090442665 -0.028940303 -0.0644007 -0.036498148 -0.11513987 -0.08067938
-0.009521035 0.03528256 0.07443606 0.026223565 -0.32957953 0.0039453204 -0.29595855 0.2566678
-0.0829042 0.18832915 -0.042132854 -0.18007672 -0.28333008 0.1167705 0.08659894 -0.0123613365
0.04325823 0.104427055 -0.11808211 -0.0084139975 -0.11701694 -0.0027730898 -0.44010776 0.27901858
0.21610434 0.11239291 0.11956496 0.07414389 0.10792904 0.08568548 0.010991222 0.12483904
-0.11647627 -0.08100602 0.09228663 0.10021046 0.18999514 -0.043346606 -0.4896829 0.1765253
-0.020062122 -0.03251381 -0.102860406 0.17255525 -0.12020594 0.013713291 -0.1458946 0.0126500605
-0.25711212 0.058315277 -0.09158941 0.13643108 0.2612435 0.10781788 0.44050226 -0.15742472
0.08112537 0.02224969 -0.12046033 0.029815953 -0.039557092 0.14645891 -0.08040534 0.06411642
-0.07847065 -0.18416847 -0.0944289 0.14793499 -0.43136045 -0.009657412 -0.6075895 0.048377357
-0.060370114 -0.04835334 -0.0022735703 0.06680983 0.041125976 0.09187846 0.02928431 -0.05393478
-0.13603215 0.036558762 -0.0031313605 0.056305617 -0.12635411 -0.18561374 0.41493908 -0.10274264
0.07150509 0.069264024 0.01879996 0.11446955 -0.0044786837 0.025413668 0.07509144 0.082040764
-0.021747667 -0.085631415 -0.0048345756 -0.018458778 0.021582047 -0.20779026 0.19536598 -0.1449484

encoder.attn_layers.0.attention.query_projection.bias f4 [16]
00000000: 1399 303e 3c46 2cbe 9744 e7bd 1b6f 10be
00000010: e94c 1f3e 34e6 87be 3ce6 283f 251c 833e
00000020: 7def 103f 550e 7bbf 4025 223e 03ce e03e
00000030: 45b6 51be 5261 163e 3135 d03e 8fe8 383e
0.17245893 -0.16823667 -0.11292379 -0.14104883 0.15556683 -0.2654282 0.6597631 0.2560741
0.5661543 -0.98068744 0.15834522 0.43907174 -0.20479687 0.14685562 0.40665582 0.18057464

encoder.attn_layers.0.attention.key_projection.weight f4 [16, 16]
00000000: 8325 b23a dcef 0f3d 183d 093d fe2c cebc
00000010: 386d 5dbd 1f1a e1bc 2c48 b4bd e2ba 3fbc
00000020: 843f 3ebd efef 053d c859 b0bb 40ce 4ebe
00000030: 2a74 90bb cfd2 1ebc 30f4 123d a1b8 583c
00000040: 8ad7 0a3b b0ac bebd 90c9 b23c fa80 b3bc
00000050: 399a 063e 5491 87bd 33dc fb3a 8e26 d2bb
00000060: eb5a 053e faaa 853c 02c4 b23c 7c16 333e
00000070: 243a cb3d e5a5 b13b 0121 313c ab2e 83bd
00000080: 036d 143d c94f fdbc b928 e63c 740d 3abd
00000090: 3be7 49bd 809c 0c3e d982 213c 2361 1b3e
000000a0: f544 82be aa31 143e f340 13bd 2c74 8ebe
000000b0: 9fa8 f73d 474a 9bbe 91fc b2bd 3539 a23d
000000c0: 5677 ef3d d8b5 3b3d 710d 963c dabd 89bd
000000d0: bca9 d13c 5751 51bd 8784 efbd 03f1 55be
000000e0: 4bcd 933d 68f0 aabd 1e1b 183d c66e b3be
000000f0: 0992 653e 4b8f abbe 464c 6b3e 4166 2abd
00000100: 72be 52be cf50 273e 90da de3d cb63 bb3d
00000110: e3e9 ee3d b5ab f83a 4759 b63d 188c febd
00000120: 235d 8bbe a43e 4e3e 9d58 18be bbd0 d93e
00000130: eb92 07be a31e 02bd dadb e5bd ee28 6b3e
00000140: 3ba3 28bd 3675 bebd 7dfa 253c 7d7b 92bd
00000150: 589b dc3d 48c9 2d3e 3826 9f3d 9340 913e
00000160: 4e16 073f a9f0 573c cf68 c7bc ccf4 42be
00000170: 1f16 81bd ec25 cd3d 833b 443e e22e 61bd
00000180: 2ff8 80bd ebb5 653d 9146 773c ab34 44bb
00000190: c8ec 72be 26f8 b2bb f481 663d d763 9e3d
000001a0: 6f46 623d e305 e43b 2574 8a3d 7280 2e3d
000001b0: 78e2 77bd 318c 9cbd ee14 fabd 8f0c a53c
000001c0: 1d49 c43c 1a8c 203b fcbe 533d 5966 7bbc
000001d0: 2829 33be 726a cf3c 6bb7 5f3d 09bf e5bc
000001e0: b3db 0a3d 54da f6bc d10d aebd 7199 09bd
000001f0: da4e 18bd a78d a0bd e1d4 e8bc 0d4b b03d
00000200: d0ac 5abd 2b6a e0bc 1e69 4b3d 4366 5a3d
00000210: f84f 123e 8809 01bd a72f 0dbe d091 46bd
00000220: 1331 d23d 490d d9bc ceee a03d 1c91 51be
00000230: 6167 9dbc 55ae f7be 3feb c63d d7fd e23d
00000240: 430f 46bd 1f61 c9bc 36e4 dabd 32a3 d63d
00000250: 5ca1 b43d ad12 c93d 5bd4 b33b 5aa8 f63d
00000260: 4f60 893e cea5 1dbe c5d1 233e 2af8 be3e
00000270: d8ef 1cbe 0692 083f fc3a 763d 0b19 c2bd
00000280: 6afc a43c 66f2 1cba ae6b 1fbb b406 6a3d
00000290: 7200 fdbd 03cb d03d d127 89bd 54de 20be
000002a0: c839 87bd 23ad 423e 180d 35bd 8fb4 dcbc
000002b0: 8e83 183e 2346 afbc eb49 873e 594e b3bc
000002c0: 75ed b6bc 6219 203b 7ce8 223d f700 a0bc
000002d0: 4e13 2e3e f152 06be a773 46bc bb2f cb3a
000002e0: 64bb 94bc abb4 bc3d 47c2 893c 90e3 503b
000002f0: b947 463d 5172 b4bc fe1b 163f eba2 37be
00000300: 137f 0a3d 61f2 27bd b143 8c3a 7ff9 2c3a
00000310: 41aa e13c 0ee2 2abd 9169 96bd 3f12 b6bc
00000320: 4bcf 68bd 4aff f13b fdf0 a73e 7016 88bd
00000330: 9bfa 633d 6330 a6bd ccdb 25be c3db 453d
00000340: 7ffe 243d 4755 44bd 480e c5bc 62f1 5dbd
00000350: a0a0 6b3c 49c8 913c 8bad 98bc f716 473d
00000360: edf6 b4bc c005 48bc 7063 6fbe 7b8a 85bd
00000370: 0965 873d f906 b2bd 390f 6c3d ba79 cd3d
00000380: 03fa b03c 02ba c33c 79b4 38bc d481 923c
00000390: f837 6d3d c8ee 7d3c cf80 01bd c253 76bd
000003a0: 939c 003e 8c44 513c 7783 403d dc57 fc3d
000003b0: 866d 10be 1270 873d a061 9dbc 0f61 813c
000003c0: 3b58 2e3e baa2 583b 1c93 483d 49e0 a7bd
000003d0: 47f8 533e b6cf 223d e394 febc 83e0 603d
000003e0: 2493 253e 5e13 cb3c 3201 053d 67ca 293c
000003f0: 79b9 983c de08 4b3b 475a 8f3d b522 b43d
0.0013591502 0.035140857 0.03350553 -0.025167938 -0.054059237 -0.027478276 -0.08802828 -0.011702271
-0.046447292 0.03269952 -0.0053817965 -0.20195866 -0.004408379 -0.009693815 0.035877407 0.013227613
0.00211856 -0.09310281 0.021824628 -0.021912087 0.13144769 -0.06619516 0.0019215405 -0.0064132875
0.13022964 0.01631688 0.02182198 0.17489046 0.09923199 0.0054213875 0.010811091 -0.064053856
0.036236774 -0.030921834 0.02809559 -0.045422986 -0.049292784 0.13731575 0.009857857 0.15173773
-0.25443235 0.1447207 -0.035950612 -0.27823007 0.12092709 -0.30330107 -0.087395795 0.079210676
0.116926834 0.045827717 0.018316956 -0.067256644 0.025593631 -0.051102962 -0.116951995 -0.2089272
0.07216891 -0.08346635 0.037135236 -0.3504545 0.22418989 -0.3350776 0.22978315 -0.041601423
-0.20580462 0.1633942 0.10881531 0.091498934 0.11665704 0.0018972071 0.08903747 -0.124290645
-0.27219495 0.20141083 -0.14877553 0.4254206 -0.13239639 -0.0317675 -0.11223574 0.22964832
-0.041171294 -0.092997 0.010130522 -0.0715246 0.10771817 0.16971314 0.077709615 0.2836958
0.5276841 0.013179936 -0.024341969 -0.19038695 -0.063030474 0.10016999 0.19163327 -0.05497635
-0.06297337 0.056081694 0.015092508 -0.002993862 -0.23723137 -0.0054617105 0.056276277 0.07733887
0.055242952 0.0069587096 0.06760434 0.042602964 -0.06051871 -0.07643927 -0.12211023 0.02014759
0.023960644 0.002449757 0.05169581 -0.015344226 -0.17496169 0.025319312 0.05461828 -0.028045194
0.033900928 -0.030133404 -0.08498729 -0.0335936 -0.037184574 -0.07839518 -0.028421821 0.08608065
-0.053387463 -0.027394375 0.049660794 0.05332018 0.14288318 -0.03150323 -0.13787709 -0.0484789
0.102632664 -0.026495593 0.078580484 -0.20465511 -0.019214334 -0.48375192 0.097128384 0.11083572
-0.0483544 -0.024582444 -0.10688059 0.10480346 0.08819839 0.09818015 0.005487961 0.12043829
0.2683129 -0.1539528 0.1599799 0.3729871 -0.15325868 0.53347814 0.060114846 -0.09477433
0.020139892 -0.0005987048 -0.0024325657 0.0571353 -0.123536006 0.101949714 -0.066970475 -0.15709811
-0.06602818 0.19011359 -0.04420194 -0.026941566 0.14893934 -0.021395748 0.26423582 -0.021887945
-0.022330025 0.0024429192 0.039772496 -0.01953171 0.16999552 -0.13117577 -0.012112535 0.0015501896
-0.018155761 0.09214147 0.016816271 0.003187392 0.048408244 -0.022027167 0.5863646 -0.17933242
0.033812594 -0.041002635 0.0010701326 0.0006598457 0.027547004 -0.04171949 -0.07344354 -0.022225497
-0.056838315 0.007385169 0.32801047 -0.066449046 0.055658918 -0.08114698 -0.16197127 0.048305284
0.04028177 -0.04793289 -0.024054661 -0.05418528 0.014381558 0.017795699 -0.01863744 0.048605885
-0.0220904 -0.012208402 -0.23377776 -0.06520554 0.06611068 -0.08692736 0.057631705 0.10032983
0.02160359 0.023892406 -0.011273497 0.017884172 0.057914704 0.015498824 -0.031616982 -0.06013847
0.12559728 0.0127726905 0.047000375 0.12321445 -0.1410428 0.066131726 -0.01921159 0.015793351
0.17025845 0.0033055977 0.04896842 -0.08197076 0.20700179 0.03974887 -0.031076854 0.05490161
0.16169411 0.024789508 0.032471843 0.010363198 0.018643128 0.0030980627 0.06999641 0.08795682

encoder.attn_layers.0.attention.key_projection.bias f4 [16]
00000000: cb99 77be 61ee 383e a6a6 7fbd d9dd 873d
00000010: 7f4a 783d d7a6 00be bcde 973a 277c febd
00000020: b54c e43d e190 7dbe 3a95 e43d 0530 57be
00000030: b2b2 ec3d b875 f83d 51ee 213e 1c8b 7d3e
-0.24179761 0.18059684 -0.062414788 0.06634111 0.06061792 -0.12563644 0.0011586766 -0.12426024
0.11147443 -0.24762298 0.11161275 -0.21014412 0.11557521 0.12131828 0.15813567 0.24760097

encoder.attn_layers.0.attention.value_projection.weight f4 [16, 16]
00000000: ee23 88be 525d a0be 8dd6 bb3b b380 903e
00000010: 58e7 bdbd 6a39 3bbd fbce 643e 3009 aa3c
00000020: 0dae 713d a8e3 d53c 141e 8e3d d681 0d3e
00000030: 1d08 93be da63 143e f599 923e 0ac4 58be
00000040: ac95 88bd e3b6 4bbe 739d 903e 4aa9 453e
00000050: f78d 763e 0646 85be 3800 35be ea3e 533d
00000060: 47ae 7ebb 8b44 693c 66df 2fbd 3d9e e5be
00000070: a6cb 423d af8f 65be 1bb4 c63d 3554 e7bd
00000080: 47e0 55bd 908b 753d 3941 ca3c 61f0 503d
00000090: 736f 2bbd 1241 1abe 951b a7bc 8f40 8dbd
000000a0: 774f 923d 0b72 5d3d 14c6 14bd 16ba 0fbe
000000b0: 0941 943d cf03 71bd fe77 593d 918f febc
000000c0: 9b72 cc3d ea76 d3bc 71d9 03bc c86a 94bd
000000d0: ba30 393d d96c ca3d 9de0 3d3c 1540 f23c
000000e0: 086e 49be 5c52 44ba b7b2 e63c 2cec 67be
000000f0: b11e 863b 1f3a ccbd 9963 0abd c17f 393d
00000100: 98fd 893d 6645 7fbd 1145 1dbd 88c8 9fbd
00000110: 6de0 bb3d a92a d23d 0af8 b63c 72ae 3d3e
00000120: accb 2d3e f7c0 12bd 38b9 0e3d ffae e6bd
00000130: e48a 86bd 17d3 353d 9dff e73d eeb7 96bd
00000140: 1ed9 36bd 7361 6c3d 355f 873b 18fa 6d3d
00000150: 97f5 35bd 3fbf a4bc 0ea3 f1bb b066 f1bd
00000160: 1e56 e1be 5e65 f4ba 992e e03a fd1a 383e
00000170: f252 85bc 0a44 39bd 324f 583a f459 90bc
00000180: 7c40 a33e b03f 9fbc 53ea af3d f4b3 74be
00000190: 9509 0f3e 7619 623d 491c 2cbe 2d63 89bd
000001a0: 8bbf 48be b68a 483c 2b7e ccbd 7791 a8be
000001b0: 7317 4e3e bde1 a6be ff90 ae3d 89bf f7bd
000001c0: fe6c 553e bb8a 2b3e 2f53 6c3e ef93 a6be
000001d0: c99e 12bf a2b6 693e 4c99 ffbb 1ba9 be3c
000001e0: 0de1 0f3d 683c eebd 19a5 48be 2f91 f83d
000001f0: 1124 753e 6e98 523e f917 92be 2b2d 023f
00000200: b571 94bd 8186 783c def1 4a3d db8b b63d
00000210: a732 7ebd ea58 2ebe fedb 943c dbc5 edbd
00000220: d027 9e3d 452a 62bc 0b13 bf3d 3a89 e53e
00000230: 811c d23d 927c 333e 2f12 29be 2fa4 4f3e
00000240: 7272 47bd 7738 9e3c 955c 543d 861f a53d
00000250: 653c c8bd 774d 0abe 02a1 55bd 1fe8 10be
00000260: 6648 d53b 0bbd e23b 63c7 813d 41a5 98bd
00000270: 6f2b 683d e05e 70be 0410 f3bd 9b62 483d
00000280: 0952 e5bc 3b2c 1e3d e9fc c83b 7ac3 a83d
00000290: af88 9bbb 5d8e 30bd 72eb 1ebc 112c 5fbd
000002a0: 36c4 cbbd 60d9 e23d b220 50bc 4ab0 75bd
000002b0: 3fde 1fbc 1bab adbd e6cb 8bbd 135e 7cbd
000002c0: ddc8 9dbd 6d31 38bd 9c0a e7bb 266c da3c
000002d0: 61b4 233d a9a1 86bc 9b62 373c 9b30 b2bb
000002e0: e871 843c 848f e93d 805c 303d f7ff fd3c
000002f0: cc0b 513e 49b0 043e caaf e03e 7c5f 5abe
00000300: 7296 e1bc 6ca2 523b e391 91ba 1367 023d
00000310: ca81 20bd afc0 d0ba 2afd 14bc 0c26 a9bd
00000320: d922 5739 28c7 9ebc 822c c13e f8af cf3d
00000330: 2712 13bd c1a9 7a3d 0679 133d cd82 f13d
00000340: 58f6 183d 9be4 6c3b a12c 6b3c e25a 03bd
00000350: 9abc 84bc aa63 0dbd fe8e dcbb 0015 94bd
00000360: 19a6 71bd f330 b83c 0c65 4dbe 11cd 9abd
00000370: 5f03 8c3d b47a 80bd 2507 6a3d 165f e4bd
00000380: 177a 57be 0cc3 523e 466f 9abc b025 653e
00000390: a9c7 e1be f704 dfbd 6314 9dbd 91a1 a5be
000003a0: fdef 92bc 33ac f0bd 0809 1cbe 2c3a 5fbe
000003b0: b59a 1d3e b77f 30bd 1d50 81be 7d72 57be
000003c0: 06b9 e93e 508d 59be 997a 503e cf88 5dbe
000003d0: 0f87 d53d eace 133e 3181 99bd 1222 7b3e
000003e0: 7a02 71be 5325 223e 9dd5 a2bc 0140 80be
000003f0: ea23 ac3e b2bf 97be 4a49 a93e ea43 82bd
-0.26589912 -0.31321198 0.0057323636 0.2822319 -0.09272641 -0.04570905 0.22344582 0.020756334
0.05900388 0.026109532 0.06939331 0.1381906 -0.28717127 0.14491215 0.28633085 -0.21168533
-0.06669173 -0.19893984 0.28245124 0.1930286 0.24077593 -0.26029986 -0.17675865 0.05157367
-0.0038861202 0.014237533 -0.04293766 -0.4484729 0.047557496 -0.22418092 0.09702321 -0.11295358
-0.05221584 0.05994755 0.024689304 0.051010493 -0.041854333 -0.15063885 -0.020398894 -0.06897079
0.07144063 0.054063838 -0.036321715 -0.1403583 0.07238967 -0.058841523 0.05309295 -0.031074317
0.09982797 -0.025813539 -0.008047448 -0.072469294 0.045212485 0.09884042 0.0115891965 0.029571572
-0.1967088 -0.0007489079 0.02816139 -0.22648686 0.004093014 -0.09972023 -0.03378639 0.04528785
0.06737822 -0.062322043 -0.038395945 -0.0780192 0.09173665 0.10262043 0.022335071 0.18523577
0.16972226 -0.035828557 0.034844607 -0.112638466 -0.0656946 0.044390764 0.11328051 -0.073593006
-0.044640653 0.057710122 0.0041312226 0.058099836 -0.044423666 -0.020110724 -0.007374174 -0.11787164
-0.44011015 -0.0018645932 0.0017103731 0.17979045 -0.016274903 -0.045230903 0.0008251547 -0.017621018
0.31885135 -0.019439548 0.08589616 -0.23896772 0.13968499 0.055200063 -0.16807665 -0.067083694
-0.19604318 0.0122401025 -0.09985002 -0.3292348 0.20126133 -0.325941 0.085237496 -0.12097079
0.20842358 0.1675214 0.23078607 -0.3253474 -0.57273537 0.22823575 -0.007800257 0.023273995
0.035126735 -0.11632615 -0.1959423 0.121370666 0.2393954 0.2056596 -0.28533915 0.5085017
-0.072482504 0.015168787 0.04954707 0.08913394 -0.062060025 -0.17026106 0.018171307 -0.116100036
0.077224374 -0.013804023 0.09329804 0.44831258 0.10259343 0.17527989 -0.16510843 0.20277475
-0.048693128 0.019314034 0.051846106 0.08062653 -0.09777144 -0.13506113 -0.052155502 -0.14151047
0.0065088747 0.0069195083 0.06336858 -0.07453395 0.056682047 -0.23473692 -0.11868289 0.048922163
-0.027993219 0.0386164 0.006133665 0.08240409 -0.0047465186 -0.04310452 -0.009699689 -0.054485384
-0.09949534 0.11076617 -0.012703108 -0.059982575 -0.009757577 -0.084799014 -0.06826 -0.061613154
-0.07704327 -0.04496901 -0.0070508253 0.026662897 0.039966945 -0.016434507 0.011192943 -0.005437923
0.016167596 0.114043266 0.043056965 0.031005843 0.20414656 0.12957872 0.43884116 -0.21325487
-0.027537558 0.0032140268 -0.00111061 0.03183658 -0.039186276 -0.0015926565 -0.009093562 -0.0825921
0.0002051698 -0.019382074 0.3772927 0.10140985 -0.035905983 0.061197046 0.03600409 0.117925264
0.037344307 0.0036147002 0.014353902 -0.032069094 -0.016203213 -0.034518875 -0.006730913 -0.07230568
-0.058996294 0.022484278 -0.20058078 -0.075586446 0.068365805 -0.06273404 0.05713572 -0.11150949
-0.21042667 0.20582217 -0.018851887 0.22377658 -0.4409764 -0.10889619 -0.07669904 -0.32349828
-0.017936701 -0.117515944 -0.1523782 -0.21799535 0.15391047 -0.04309055 -0.25256434 -0.21039768
0.45648974 -0.21245313 0.20359267 -0.2163422 0.10426151 0.144344 -0.074953444 0.24524716
-0.23536101 0.1583455 -0.01987725 -0.2504883 0.3362115 -0.2963844 0.33063728 -0.0636061

encoder.attn_layers.0.attention.value_projection.bias f4 [16]
00000000: b9dd b83c 5ba5 aebc ecd3 47be c6ba 32be
00000010: 2e76 553c bbed 91be 3b0f 08bc 0db9 8f3e
00000020: a441 eb3e f304 8cbe 0ba5 383e 3e34 00be
00000030: f1bb 1e3c 6bd1 0a3d 82df 65be cbe1 6cbe
0.022566663 -0.021319082 -0.19514436 -0.17454061 0.0130286645 -0.28501686 -0.0083044125 0.2807087
0.45948517 -0.27347526 0.18031709 -0.12519929 0.009688363 0.033891123 -0.22448543 -0.23133008

encoder.attn_layers.0.attention.out_projection.weight f4 [16, 16]
00000000: 50fe 963e f266 22bf 6331 0e3e bdfc 12bd
00000010: 4675 e53d 9a97 a2be 1534 3bbc 647b 04be
00000020: 5899 3e3e 87ed 6cbe e8c2 e83c 9cef a0be
00000030: d3e0 823e 8c02 cebd b500 0bbc dd51 6c3e
00000040: e1ef c13e b263 8cbd 54cb ae3d 4a46 4b3e
00000050: 54a0 42bd d55b 5c3e d8e4 22be 44e0 c73d
00000060: b145 c03e 2d12 fabe 249a 91be d3df 4fbd
00000070: 6ebf 92bd bb6d 5d3d e5ac 033d f9b1 2fbe
00000080: d2ff 883e 1b82 87be 4bdf 61bd fada f3bd
00000090: aa66 4f3e 202b 22be 05fd 443e d6c6 213e
000000a0: 7d64 11bb 5bda c8bc 80c7 4a3d 63d3 3cbe
000000b0: d437 15be fe86 163d 572e 77be 851d c3bd
000000c0: 7362 ee3d a9a0 993d 5079 9f3d 4c3d 88bc
000000d0: 28cd 1abd 59c4 21be db93 cb3e 1260 a6be
000000e0: f8c3 bb3d 86b5 1dbe a6d6 f43d 6f61 3fbd
000000f0: 3275 053c 547d 8b3d 165c b23d d1ab a5be
00000100: 934a 9cbd 5740 a9be a672 65be 85b3 a6bd
00000110: 52b6 4ebd 5409 2fbd cc6a a83d cf5b 2b3c
00000120: 3f62 9abd 52ad 5e3d b7fa 763d 4f93 babe
00000130: 41ea 423f 38e4 27bf 057d ccbd 89f0 6abe
00000140: be04 8fbe cd54 123e 4feb d6bd c499 16bd
00000150: d6be 75bd 5f7e d53d edd9 98be f322 82be
00000160: d423 033d e79b 1ebd f6b9 c03d 76ad 41bc
00000170: ee9b cebc 3f25 fabc c4ff 7b3d 784c 093f
00000180: af89 0bbc 0a1f c9bd 5cbe 663d 4240 143d
00000190: 325a 8ebd 15f7 50be dcb7 f03e 562f 50be
000001a0: ed5f 383d 7a0d 8dbc 54d7 82be 6a76 cfbd
000001b0: 2e32 4bbe e64c e23d 6d4d 713e 695b 463e
000001c0: ab83 4fbd f91b 1c3d a6cc 873d 5d69 2d3e
000001d0: 4ffa 0dbe 6630 a43b 3831 acbd 12b3 3dbf
000001e0: a9b1 913d e2ed 60be 675b a43c 5c63 a3be
000001f0: 371c 28be d36d 70be 4a30 9d3e d052 dc3c
00000200: 271d 30be 7f64 92be 95f6 9f3e e73e 403e
00000210: 757d 5dbd c65d 973d a708 c9be 0dc9 163d
00000220: 72c8 acbe f269 253e 9fb5 4f3d a00a 22bd
00000230: 16df 073e 58e8 85ba 707e 15be 10c1 83bd
00000240: bb72 353e 9065 2b3e 5a3f 11be b01d 5bbe
00000250: b424 21bf e703 b43e 659d 033e fdc7 c3be
00000260: 3b54 54bc b310 cdbd cb31 8abe 11f3 0abe
00000270: edb1 503d 96a3 a3be 5844 84be 915c 793c
00000280: fcf8 d6bd a422 f1bd 1ca9 773d b364 0b3e
00000290: 85a2 f33d 59ca 77be 6613 613e 9560 9c3d
000002a0: f06c 093d ab01 ecbc 0f4d c6bc 12e8 2d3d
000002b0: c1f4 adbd 8e12 a3bd 60d9 493d 3cad c2bb
000002c0: c624 763e 54c4 1dbd 54ed 203c 1589 db3c
000002d0: 86f1 0f3d ff5a 243e 7b02 38be 9054 c83d
000002e0: 2f35 30be e212 703d 05c0 353d 5779 263e
000002f0: fc9e 8a3b d400 b0bd 3eb6 233d 8b3b 753e
00000300: 25b0 0bbd 39d1 703d 5a5d 243d fb69 b83d
00000310: ce67 983d 25db 6f3b c022 853e a96f 273e
00000320: 5198 85bc b08e 06bc b8d7 983d c23e 633c
00000330: 92b1 6a3d 984f a93d e18c 7c3d e564 b6bd
00000340: 363e 8e39 cc91 d43d 4f1c e9bc 55d8 e03d
00000350: a331 0d3c 3719 253d 3e34 0fbe 0f67 9f3d
00000360: ebe9 8bbc 90d0 403d 7399 c2bd f400 85bd
00000370: b3df c1bd 6935 c2bd 96e4 9fbe f6c8 2fbe
00000380: 7a9b a5be 9e64 6c3e 06fe 28be b4db aabe
00000390: 2c3d 8abc fb32 673e c11e 85bd 3ac3 76be
000003a0: 9028 68bb 55ca bbbd c4f1 cebd 3a12 333e
000003b0: 3714 70bd 0db4 29ba c5f8 3d3e d7c7 74bd
000003c0: 7d6d 11bb 1ad1 4abd 7d7b 38bd 8906 3dbd
000003d0: d15e aebb cb99 c3bb 9133 06be 354a 373e
000003e0: 3826 4dbb 7151 1f3d dd94 9b3c 2c6d d63c
000003f0: d3a8 ba3a 25ab 6a3d d8a8 943d c2d5 4b3d
0.294909 -0.6343833 0.13886027 -0.03588556 0.11204009 -0.31756288 -0.011425992 -0.12937695
0.18613183 -0.23137484 0.028413251 -0.31432807 0.25562152 -0.100590795 -0.008484055 0.23078103
0.37878326 -0.06854953 0.085348755 0.19851032 -0.047516182 0.21519406 -0.1590761 0.09759572
0.3755317 -0.48841992 -0.28437912 -0.050750565 -0.071654186 0.054059725 0.032147307 -0.17157735
0.26757675 -0.2646645 -0.05514459 -0.11907001 0.20254007 -0.15836763 0.19237144 0.15798506
-0.002218514 -0.024518183 0.049506664 -0.18440013 -0.14572078 0.036749832 -0.24138771 -0.09527115
0.116398714 0.075013466 0.077868104 -0.016630791 -0.03779331 -0.15797557 0.39761242 -0.3249517
0.091682374 -0.15401277 0.119550034 -0.04672378 0.008145617 0.06811014 0.0870897 -0.32357648
-0.076314114 -0.330569 -0.22407016 -0.081397094 -0.050466843 -0.042733505 0.08223495 0.010458901
-0.0753827 0.05436451 0.060297694 -0.36440513 0.76138693 -0.6558261 -0.09984783 -0.2294332
-0.27933306 0.14290161 -0.104941 -0.036767736 -0.05999645 0.10424494 -0.29853764 -0.2541729
0.03201659 -0.0387229 0.09410469 -0.0118211415 -0.025220837 -0.030535338 0.061523214 0.5363231
-0.008516713 -0.09820373 0.056333885 0.036194094 -0.06950797 -0.20406754 0.47015274 -0.20330557
0.045013357 -0.01721834 -0.25554907 -0.101300076 -0.19843361 0.110498235 0.23564692 0.19370808
-0.050662678 0.038112614 0.066308305 0.16934724 -0.13865016 0.0050106524 -0.08407825 -0.74101365
0.07113964 -0.21965745 0.020063115 -0.31911743 -0.16417013 -0.23479395 0.30700904 0.026894957
-0.1719862 -0.28592297 0.31242815 0.18773995 -0.054074723 0.07390933 -0.39264414 0.03681283
-0.33746678 0.16153696 0.050710317 -0.039560914 0.13268694 -0.0010216339 -0.14599013 -0.06433308
0.17719547 0.16737962 -0.14184323 -0.21398044 -0.6294663 0.35159227 0.1285301 -0.38238516
-0.012959535 -0.10012951 -0.26991114 -0.13569285 0.050950933 -0.31960744 -0.25833392 0.015219823
-0.10496709 -0.11774185 0.06046401 0.13612632 0.118962325 -0.24198283 0.21980056 0.07635609
0.033551157 -0.02880939 -0.024206666 0.042457648 -0.08493949 -0.079625234 0.04927957 -0.0059410613
0.24037465 -0.03851731 0.009822208 0.026798764 0.035142444 0.16050337 -0.17969696 0.09781754
-0.17207788 0.058611758 0.044372577 0.16257225 0.004230378 -0.08593908 0.03996872 0.23948495
-0.03410353 0.05879328 0.04012809 0.09004589 0.07441674 0.0036599126 0.26003075 0.16351189
-0.016307982 -0.00821273 0.0746302 0.013869943 0.05729825 0.082671344 0.06165779 -0.08905963
0.000271307 0.10379371 -0.028455881 0.10978762 0.008617791 0.04030725 -0.13984773 0.07783329
-0.017079314 0.0470739 -0.09501924 -0.064943224 -0.09466495 -0.094828434 -0.31229085 -0.17166504
-0.32345182 0.23085257 -0.16503152 -0.33370745 -0.016874872 0.22578041 -0.065000065 -0.2409791
-0.0035424568 -0.09169451 -0.10104707 0.17487422 -0.05861303 -0.0006473668 0.1855193 -0.059760895
-0.0022190504 -0.04951582 -0.045039643 -0.04614881 -0.0053213616 -0.0059692613 -0.13105609 0.17899401
-0.0031303298 0.038896028 0.018991882 0.026175104 0.0014240987 0.057292122 0.07258767 0.049764402

encoder.attn_layers.0.attention.out_projection.bias f4 [16]
00000000: 5c18 3dbe f9db a1be c6fc 113e 8cc6 61bf
00000010: bb22 ce3e c08d bdbe e502 8dbe 298f 30bf
00000020: 06e1 e73d 3311 9a3d 8e26 e43c 3048 73be
00000030: bb2e f3bd 2136 2d3e cb1a 5abd 0c35 b93e
-0.18466324 -0.31613138 0.14256582 -0.88193583 0.40260872 -0.3702221 -0.2754127 -0.68968445
0.11322217 0.07522812 0.027850416 -0.23758006 -0.118741475 0.1691518 -0.053248208 0.36173284

encoder.attn_layers.0.conv1.weight f4 [32, 16, 1]
00000000: f087 62be 6629 733e 3193 1ebe ac14 fd3d
00000010: cba1 13bf 83d5 b73e 6cf4 b53e 3302 05be
00000020: 1a82 12bf d28f 78be 47be a1bd b1df bd3e
00000030: d315 38be 2d01 34bf aec9 923e 67e4 41bc
00000040: 7e3c 953e cd99 463d 6ea7 c0bd 12e9 353e
00000050: e579 1a3e b64f 08bf 435b 273e 5055 3bbe
00000060: 06f5 4fbd e125 7dbd 1efc e03e d8b0 88bc
00000070: 04de 053f 07cd 00bd 2b31 4fbf 3b05 0fbf
00000080: 2c8f b13d 404a c4bc 3f4d 24bc b6c6 dc3e
00000090: 7f55 3cbe b57f 6a3c 0e42 47be 9eac 0a3f
000000a0: 1cfa 22be ffff 703e db39 8bbd 7f92 22be
000000b0: b6c2 ee3e abc4 e0be e60b 793e 7ab3 abbf
000000c0: 8529 313d 93b6 24be 5d2c a63d 158e 15bd
000000d0: f131 46bf 2710 93be 9608 033e df29 903d
000000e0: 8609 8cbd b4ff acbc 3a2a 7a3e b78d f63d
000000f0: 3615 153f 253e 663e 715c 053f 418a 89bd
00000100: 7aa3 b7bd 28f5 a2be d9fa 2cbc 31b2 503e
00000110: bce9 5bbe 9f86 633d 3616 25bd aa37 aabe
00000120: 8c33 9c3e 8992 8ebc e1d4 00be 347f ff3e
00000130: 5975 10bf 5868 e03d 8dbf 09bd c91e 55be
00000140: c4a5 023e ae51 633e c68e 51bd 1109 a43d
00000150: d76d d83d 3f8f 76bd 28e4 30be ee4b 993e
00000160: 6060 063e a057 11be 67f9 fabd ce95 763e
00000170: 9f0f 67bd efb0 0e3e e7a4 e53d 8c19 58bc
00000180: 9bd7 243f bb40 bfbd 6da8 0fbe 29f5 45bd
00000190: 164b 46bd 66b6 bd3d 55a3 63bd 6630 b5be
000001a0: 8458 2c3d ca48 913d 773f e8bd 68c7 bcbe
000001b0: aa86 c9be de44 ab3d 5989 9fbe c3f4 513e
000001c0: 1fbe 4fbe 2f79 e23e cb04 d73e d7db 13be
000001d0: fa07 3c3e 482f 1b3d e1e9 883d 70c2 cdbd
000001e0: 10a2 31bd 9a3a 01be ed40 5bbd 209a e7be
000001f0: 7beb 963e 9b83 683e 020e 96be bf35 40bd
00000200: aed1 7abb 0267 8f3d 3cdc 74be 3d73 c23d
00000210: cd68 e3be 8c95 60bd 2713 893e 5a86 7cbe
00000220: 9c21 853e 9293 a63e f589 043d 2773 c4be
00000230: ffb0 d1bd 8abe 1a3e 705e 6fbe 9fa5 273e
00000240: b0fe 30be 064e eebd 9f03 eabe fa18 623f
00000250: c1ec abbe 4f60 94be 6ba6 843e 37d2 a4bd
00000260: 60db 94bd 04db 60be d99c b6bc 410a 183f
00000270: 804b 43be a3e7 a6bd 3eba 94bc bbf5 78bf
00000280: 17cb a7be 34f5 4b3e 8268 f6bc 4d38 fcbe
00000290: 4ac0 623d 60d2 12bc 0844 babe b6c5 49be
000002a0: 1211 3d3e 514e 743c be6d 02be b61c 073f
000002b0: e8a5 74be 309c 843e 8fc7 15be b05a 2ebe
000002c0: c113 58be e547 25bf 84eb 9e3e 8430 16be
000002d0: 3645 2bbe c906 2bbe c3f9 adbd f1e9 a0be
000002e0: 0494 4e3d 0df7 33bd 4da0 7dbe fce4 bfbe
000002f0: 2793 0e3f 70bc e53d c51f 29be 47b0 e03c
00000300: ad79 0bbe 078e 0b3f 4d7e 01be 5783 87bd
00000310: 2056 5ebe c14e d43c 40b1 3abe 65e9 bcbe
00000320: 16af 00be 3150 81bd 6f86 82be 7c7d ea3e
00000330: e312 d33d 81d5 e7be e510 0fbf ff96 ce3e
00000340: 00d9 bfbe 892e d2bd 3cf2 843e d18a 95bc
00000350: 9a56 40be 8129 b2be dcbe 17be eadc b93e
00000360: 5d73 98be f25c b2bd 31c1 78bd 8816 acbc
00000370: e227 90be 2b5c 433e e078 b53e 3ab5 ff3d
00000380: 9cf4 72bc 1224 9bbe 2627 f63d e123 3e3f
00000390: f5fe 5d3d f781 66be bfae d93d 59c4 f7bd
000003a0: e854 f0be 22ca cd3d 3ab1 f53e 167c cf3e
000003b0: e60f 833e 2332 2abd c909 233d 45ea fdbe
000003c0: 5d0d 8cbd 37b5 6f3e f006 25bd d1ad 91be
000003d0: 1c3e b6bc 0547 9ebe d86f e4bd df16 04bd
000003e0: 6f02 c1bd c5b8 7bbd 635c 75be beaa 98be
000003f0: da1e 003f e4b7 cf3b 2729 663d 8737 3d3e
-0.22122169 0.23746261 -0.15485837 0.123574585 -0.5766875 0.35905084 0.35538042 -0.1298912
-0.5722977 -0.24273613 -0.07897621 0.37084725 -0.17977075 -0.70314294 0.28669494 -0.0118342405
0.29147714 0.04848652 -0.09406935 0.1776469 0.15085562 -0.5324663 0.16343407 -0.18294263
-0.050770782 -0.061803702 0.4394235 -0.016685888 0.52291894 -0.03144553 -0.809344 -0.55867356
0.08669886 -0.023961186 -0.0100281825 0.43120354 -0.18391989 0.014312674 -0.19458792 0.5416964
-0.15915722 0.23535155 -0.067981444 -0.15876196 0.46632928 -0.43900046 0.24320945 -1.3414147
0.043252487 -0.16085272 0.081139304 -0.036512453 -0.77419955 -0.2872326 0.12796244 0.07039236
-0.06837754 -0.021118023 0.2443017 0.12038749 0.5823549 0.22484644 0.5209418 -0.06715823
-0.089667276 -0.31827664 -0.010557854 0.20380475 -0.21475881 0.055548307 -0.040304385 -0.33245593
0.30508077 -0.017403858 -0.12581207 0.49901736 -0.5642906 0.10957402 -0.033629943 -0.20812525
0.12758547 0.22199127 -0.05116155 0.08009542 0.10567825 -0.060195204 -0.17274535 0.29940742
0.13122702 -0.14193583 -0.12254601 0.24080583 -0.05641138 0.13934682 0.11213093 -0.013189685
0.6439149 -0.09338518 -0.14029093 -0.048329506 -0.04841145 0.09263305 -0.055575687 -0.35388488
0.042076603 0.070939615 -0.1134023 -0.36870885 -0.39360553 0.08362745 -0.31159475 0.20503525
-0.20287369 0.4423308 0.41995844 -0.14439331 0.18362418 0.037886888 0.06685234 -0.10046852
-0.043367445 -0.12620011 -0.053528715 -0.45234776 0.29476532 0.22706454 -0.29307562 -0.046926256
-0.0038271951 0.07002069 -0.23912138 0.09494636 -0.44415894 -0.05483012 0.26772425 -0.24660626
0.26002204 0.32534462 0.03235813 -0.38369104 -0.102388375 0.15111747 -0.23375869 0.16371773
-0.17284656 -0.116359755 -0.45705888 0.8831936 -0.33579066 -0.28979728 0.25908217 -0.08047908
-0.07268405 -0.21958548 -0.022291588 0.59390646 -0.1907177 -0.0814965 -0.018155213 -0.97249955
-0.32772133 0.19917756 -0.03007913 -0.49261704 0.055359162 -0.00896129 -0.3638003 -0.19704327
0.18463543 0.01491125 -0.12737176 0.52778184 -0.23891413 0.25900412 -0.14626907 -0.17026782
-0.21101286 -0.6456283 0.3103906 -0.14666945 -0.1672562 -0.16701807 -0.08494904 -0.31428483
0.050434127 -0.043936778 -0.24768181 -0.3747939 0.55693287 0.11217582 -0.16516025 0.027427806
-0.13620634 0.5451359 -0.12645836 -0.06616848 -0.21712542 0.025916459 -0.18231678 -0.36896816
-0.1256679 -0.063141234 -0.2549319 0.45798862 0.10306337 -0.45280078 -0.55885154 0.40349576
-0.37470245 -0.10262782 0.2596606 -0.01825467 -0.18783036 -0.3479729 -0.14818901 0.36301357
-0.29775515 -0.08709134 -0.060731117 -0.021006837 -0.28155428 0.19078128 0.35443783 0.12485738
-0.014828827 -0.30300957 0.12019186 0.74273497 0.054198224 -0.22510515 0.10629033 -0.12097997
-0.46939778 0.100483194 0.47986776 0.40524358 0.25598067 -0.04155172 0.039804254 -0.49592796
-0.06838486 0.23408972 -0.04028982 -0.28452924 -0.022246413 -0.3091356 -0.11154145 -0.032248374
-0.09424292 -0.061455507 -0.23961024 -0.29817766 0.50047076 0.00633906 0.05619159 0.18478213

encoder.attn_layers.0.conv1.bias f4 [32]
00000000: b221 07bf b104 d2be 08a4 47bd c82f c7be
00000010: 61cc 95be d01f 54be a1d0 04bd 1ee1 38bd
00000020: eac1 07bd 89a1 27bf 21d1 59bf b3da d5be
00000030: 8c50 40bf 67eb a6be cf6e 5bbe f4b6 a6be
00000040: f592 83be 7182 9fbe 9c55 353b 8afd 59be
00000050: 612d 14bf dd34 18bf ea8c fabd 7bb8 15bf
00000060: d367 e1be a1aa e1be b034 5ebf 510f 27be
00000070: 3cd9 a93d 4781 443e a754 33bd f129 4ebe
-0.5278579 -0.41019204 -0.048740417 -0.38903642 -0.2925749 -0.2071526 -0.032425527 -0.045136563
-0.033143915 -0.6548086 -0.8508473 -0.41768417 -0.75122905 -0.32601473 -0.21428989 -0.32561457
-0.25698057 -0.31154206 0.0027669435 -0.21288124 -0.5788174 -0.5945566 -0.122339085 -0.5848462
-0.44024524 -0.44075492 -0.86799145 -0.16314436 0.08293387 0.1918994 -0.043781903 -0.20133187

encoder.attn_layers.0.conv2.weight f4 [16, 32, 1]
00000000: ad31 83bd 4388 97be 2009 c13e f6b2 efbe
00000010: b593 a13d f370 01bd 476d 1abe 7004 973e
00000020: c4a0 c1bd 1ec4 c8be 3156 793e a068 413e
00000030: f35e 6dbe 7a43 103e a410 27be 44c2 d43d
00000040: 3f0b f5be 9d9e 283e 8d7b 913d 371a 07be
00000050: 6bb5 f63e bc0a 7c3e e04b ae3e 7d34 b43d
00000060: c31f adbe b69a 243f fe44 c2be db43 8b3d
00000070: a6c8 abbd 104a cd3d 6d13 30be 4a8c 3c3e
00000080: 7044 3c3d f5df 5ebe cc95 0cbf c500 acbd
00000090: 7f5c 433e 0fcd 23be 4e29 ad3d 9dae 1bbe
000000a0: f3b0 e6bd c17e aabe 7f7c 51be 0971 473d
000000b0: 2ada 153e 2de1 3abe ad54 213f 5e86 ebbd
000000c0: df69 233f d2a0 093d dfcf 91be 1441 05be
000000d0: 9119 423f c797 913e d789 a4bd c812 eabd
000000e0: 6565 74be bab0 713f 6b55 2cbe 5add e13c
000000f0: f7d7 eb3c 1125 a5be 704a 0cbd d21a e73d
00000100: 794a 61bf 9a6e 8e3e 73f1 9a3e b8b5 573e
00000110: c685 88bd 9882 d13d 7f1d 0d3e 4831 4cbe
00000120: 2a26 573e a90f 60bf ac2c 63be da3c f5be
00000130: 6939 e6bd 9f54 debe 3f86 44bf 8e44 ba3e
00000140: 6e12 83be f5d0 0ebe fccc 77be fb3f 063f
00000150: c9ae 103f 15d7 9a3d 5bc2 0c3c 4ab6 e03d
00000160: ef31 2c3f 639d fc3c d9b6 a7bc 8d1d 31bd
00000170: c1bd 8bbe 4302 16bf 784a 4bbe 4fda 0b3d
00000180: b550 e0be 3b1e 5bbe aef0 8f3e 9fce 883e
00000190: 1d60 cebd b315 c2bb 8987 eebe 84a5 0f3e
000001a0: 48c1 7cbd fb30 20bf 68c7 283e dceb 3fbe
000001b0: db72 49bd 11c6 d43d 7880 f5bc a1e2 4a3d
000001c0: 81ff 9ebe 0ee7 63be dbd2 113f 6119 56bc
000001d0: 995c db3e 64f2 ce3e 6ae6 0e3e 3f75 533d
000001e0: 04fc 763d 7332 a33e d697 403e 91a8 543e
000001f0: 88e0 4f3d 923b acbd a99c 42be 8ce0 fcbe
00000200: 4f2e d7be 974e d7bd 54e3 26bd 4be5 473f
00000210: a29f 1e3e 264a 62bd bd52 c13e 806b 2cbd
00000220: 7c9a bf3c a158 343e 7480 4cbe 35c3 90bd
00000230: 5cba 0c3e bd40 733e 8302 bb3c 3a7a 4c3c
00000240: 1bc5 2ebe 552e 7f3d 7b7e 2c3d c347 a83b
00000250: f8fa 123f dbdf dfbd 21f1 333d 8ed4 a9be
00000260: 8c10 9cbe ac75 ad3e dc28 a23d 73f9 2cbe
00000270: 156d 683e 0470 483e c8a1 8a3d 50c9 90be
00000280: 0b6d 183f d1f5 8fbd 15a9 f0be bf9a 123b
00000290: b736 81be b169 a6bc 0ea1 f3bd 3642 a7be
000002a0: ace9 8c3d 5318 413e 9efe 0abe 041e 343e
000002b0: afdb 0abe 273a 063d 30ba a0be 34e4 aa3e
000002c0: 0cf4 d8bd 6ba9 13bd 2fc3 4fba 28a1 3a3e
000002d0: 7777 983d 1cd4 073e edcf 0cbe 2950 273d
000002e0: 8dd2 a03e b131 79bc 5dd1 a3bf a0dd 853e
000002f0: 90c0 4ebe cdb5 443d 4a47 ffbe 3439 74bb
00000300: 3d63 8ebc c06f 0ebd 49fa 1f3f e3b3 ccbd
00000310: 37b5 783d 99b6 353d 3f38 113c ce7b 2ebe
00000320: 7df0 babd 5c8c b13e 5979 d1bc ea3b a0bd
00000330: 526a 523e 9d76 87bd 8ffc 4b3e f7fa f7bd
00000340: 238e c43d 82e9 6cbe aa31 f2bc aecf 43bd
00000350: b075 9bbe b3f6 a93d 4286 d13d 5036 cabe
00000360: af5a 43be dae9 1a3d bf9e 83bd 1f2b 7b3e
00000370: 20e1 34bf 3dcc babd 6830 013f 235d 63be
00000380: eec3 c13e 9f95 673e 82e5 0fbf 0000 21be
00000390: 630a d23d fa0b 5bbe 7660 1b3e 6a55 333e
000003a0: 433f 1d3e 5659 f23e 07af 8bbe 479e 8e3e
000003b0: f2a3 ff3e 48ec 04bf ff6f 0b3e f792 ab3d
000003c0: 702b ae3e 4703 7abe 87fb 883d 5ae1 9f3b
000003d0: 8dcd 7abe bb42 6bbe 2a75 c4bd 5923 6abe
000003e0: 50cd 11be 66d8 41bf fc03 363e de87 6dbe
000003f0: ca01 0e3e 8321 56be 1c89 b33d dbe8 e3bd
-0.06405959 -0.29596147 0.37702274 -0.46816224 0.07889501 -0.031601857 -0.15080748 0.29495573
-0.09454492 -0.39212126 0.24349286 0.18887568 -0.23180752 0.1408824 -0.16314942 0.10388616
-0.47860143 0.16466756 0.071036436 -0.13193594 0.48185286 0.2461347 0.34042263 0.08799074
-0.33813295 0.6429857 -0.37943262 0.06800052 -0.0838788 0.10023892 -0.1719491 0.18412891
0.045963705 -0.2176512 -0.5491607 -0.08398584 0.19078253 -0.15996192 0.08455144 -0.15203328
-0.11264219 -0.3329983 -0.20457648 0.048691783 0.14634004 -0.1824996 0.6301983 -0.11500238
0.6383342 0.033600636 -0.28478906 -0.13013107 0.7582026 0.2843611 -0.08034103 -0.114293635
-0.23866804 0.9441029 -0.1682946 0.027571369 0.028789503 -0.32254842 -0.034250677 0.112844124
-0.8800426 0.27818757 0.30262336 0.21065414 -0.0666614 0.10229987 0.13780783 -0.19940674
0.21010652 -0.87523896 -0.2218501 -0.4789799 -0.11241419 -0.43423936 -0.76767343 0.36380428
-0.25599998 -0.13946898 -0.24199289 0.52441376 0.565167 0.07560555 0.00859126 0.10972269
0.6726369 0.030836767 -0.02047293 -0.043241072 -0.27293208 -0.585972 -0.19852626 0.034143742
-0.43811575 -0.21398251 0.28113312 0.2672014 -0.10076926 -0.005922997 -0.4658778 0.14027983
-0.061707765 -0.6257474 0.16482317 -0.18742317 -0.0491818 0.10389341 -0.029968485 0.049532536
-0.3105431 -0.22256109 0.56962365 -0.013067574 0.42844084 0.40419304 0.13955083 0.051625486
0.060298935 0.31874427 0.18807921 0.20767428 0.05075124 -0.084098 -0.19005074 -0.49390066
-0.42027518 -0.10513037 -0.04074414 0.7808425 0.15490583 -0.055246495 0.37758437 -0.042094707
0.023389094 0.17611934 -0.19970876 -0.07068483 0.13742965 0.23755164 0.022828346 0.012480313
-0.17067377 0.062300045 0.04211281 0.005135508 0.574142 -0.10931369 0.04393113 -0.3316998
-0.30481374 0.3387884 0.079179496 -0.16892032 0.22697861 0.1957398 0.067691386 -0.2827859
0.59541386 -0.07029308 -0.47004 0.0022370068 -0.25237057 -0.02031407 -0.11895953 -0.32667702
0.06880507 0.18856935 -0.13573691 0.17589575 -0.13560365 0.032770302 -0.3139205 0.3337723
-0.10593423 -0.03605024 -0.0007925508 0.18225539 0.07444661 0.13264507 -0.13751192 0.04084793
0.31410637 -0.015209601 -1.2798268 0.2614565 -0.20190644 0.04802494 -0.49859077 -0.003726554
-0.017381305 -0.03477454 0.6249128 -0.09995248 0.060719695 0.04436359 0.008863508 -0.17039415
-0.09127901 0.34677398 -0.025570558 -0.07823928 0.2054837 -0.066144206 0.19920562 -0.121084146
0.09597423 -0.23135951 -0.029564697 -0.04780548 -0.30363226 0.08299007 0.10230686 -0.39494562
-0.19077562 0.037820674 -0.06426763 0.24528168 -0.70656013 -0.091209866 0.5046449 -0.22203498
0.37844795 0.2261567 -0.56209576 -0.15722656 0.10255887 -0.21391287 0.15173516 0.17513052
0.15356164 0.47333783 -0.27281973 0.2785513 0.49929768 -0.51923037 0.13616942 0.08377641
0.34017515 -0.24415313 0.066886 0.004879159 -0.24492474 -0.22974674 -0.0959266 -0.22865047
-0.14238477 -0.7572082 0.17774957 -0.2319636 0.1386787 -0.20911221 0.08766386 -0.11128398

encoder.attn_layers.0.conv2.bias f4 [16]
00000000: eecd 5fbd 7215 1d3e 73bf 523d 0da8 923d
00000010: bba3 9b3d 2c79 82bc 5692 a6bd e147 ac3d
00000020: a284 f539 2f85 16bd 72c7 2cbd 6a37 f33c
00000030: 59d9 92bd 98ea 763c e04c 9ebd fa0e 853d
-0.05463975 0.15340212 0.05145211 0.071609594 0.075995885 -0.01592692 -0.0813338 0.08412147
0.0004682886 -0.036748108 -0.042182393 0.02968951 -0.07170362 0.01507058 -0.077295065 0.06496997

encoder.attn_layers.0.norm1.weight f4 [16]
00000000: 2b5b 253f c9b7 1c3f 8ecc 473f 7e2d 523f
00000010: 6b84 013f 4ec5 863f 7ff5 703f dc52 333f
00000020: fc01 533f 8e65 903f c284 873f 6eac 8c3f
00000030: 7e07 b03f b576 9d3f ce82 8b3f 7be8 b53f
0.64592236 0.61217934 0.780465 0.82100666 0.5059268 1.0528963 0.941246 0.7004831
0.824249 1.1280992 1.058739 1.0990121 1.3752286 1.2301852 1.0899293 1.4211572

encoder.attn_layers.0.norm1.bias f4 [16]
00000000: b28b 5cbe 2a3f f43d 1003 f3b8 ff2c 823e
00000010: 703e 7f3e 3f31 3f3d 39ed 8cbe 1359 8b3e
00000020: a58b 693e b568 18be eb3b 7c3d b9ff a4bd
00000030: 5d79 33be 5ec0 df3d 943b 623e 0ea3 5d3e
-0.21537665 0.1192611 -0.000115877134 0.25424954 0.24926162 0.046677824 -0.27524737 0.27216396
0.22807176 -0.14883693 0.06158058 -0.08056588 -0.17526765 0.10925363 0.2209304 0.21644232

encoder.attn_layers.0.norm2.weight f4 [16]
00000000: a5ea 773f 8845 733f 49d1 803f 77e8 4a3f
00000010: 115a 5c3f b8b2 743f 08e0 993f 3bcc 753f
00000020: b9a0 893f 2dfa 9b3f 86b8 623f b21c 9c3f
00000030: fb40 863f 619a 793f 70fb 623f 543c ba3f
0.96842414 0.9502797 1.0063869 0.79260963 0.8607493 0.95585203 1.2021494 0.96014756
1.0752174 1.2185723 0.8856281 1.2196257 1.048858 0.9750119 0.88664913 1.4549661

encoder.attn_layers.0.norm2.bias f4 [16]
00000000: b06c 6ebe 059e 5d3e 3b17 3d3e 8ace b73e
00000010: b255 3b3b 3dd9 fe3d dd52 a1be 97fe 493e
00000020: ccfd dc3d d3ff 85be cabf edbd b22e 6dbd
00000030: dab5 21be 0d24 08be d6c1 c63c 9739 593e
-0.23283648 0.21642311 0.18465893 0.35899764 0.0028585014 0.12443779 -0.31508532 0.19726025
0.107905954 -0.2617174 -0.116088465 -0.05790586 -0.15792027 -0.13295002 0.02426235 0.21213375
