SimMTM-main/SimMTM-main/SimMTM_Forecasting/outputs/pretrain_checkpoints/ETTh1/ckpt10.pth (torch, 356303 bytes, 37 tensors)

enc_embedding.value_embedding.tokenConv.weight f4 [16, 1, 3]
000000 d6 98 67 3f 83 05 ec bf 3e b2 94 3f 1c f0 53 40
       0.90467584 -1.8439182 1.1616895 3.31153
000010 3a 03 16 bf 23 ab 3f c0 d4 1f c2 bf 1d a3 18 c0
       -0.58598673 -2.9948204 -1.5165963 -2.3849556
000020 25 59 c7 be 13 da f1 bf dd b6 17 40 e1 89 b1 bf
       -0.389352 -1.8894676 2.370536 -1.3870202
000030 38 01 f5 bf 59 8a 57 bf d5 76 d2 3f f8 f3 62 40
       -1.9140997 -0.84195477 1.6442515 3.5461407
000040 23 54 11 c0 4b 37 30 40 16 1e 23 40 86 c0 b9 3f
       -2.2707603 2.7533748 2.5487113 1.4511878
000050 5a d6 db 3f e0 80 a7 3f 81 df 46 bf f7 46 98 3f
       1.717479 1.3086205 -0.7768479 1.1896657
000060 f7 e1 1f 3f 00 48 92 3f 28 a5 cd 3f 0f 14 8a c0
       0.6245417 1.1428223 1.6066027 -4.3149486
000070 9e 72 0f c0 9a 24 bb 3e 93 1d 8e bc 4b 36 c3 40
       -2.2413707 0.36551362 -0.017348086 6.1003776
000080 e4 7a 5b 3e 44 17 2b bf 89 0a 28 40 9c 6b db bf
       0.21433598 -0.66832376 2.625643 -1.7142215
000090 f2 0b 65 bc e6 61 b5 c0 8d 0e a7 bd 16 1d 9b bf
       -0.013979899 -5.6682005 -0.08157072 -1.2118251
0000a0 e0 c0 05 40 a7 65 01 3f db 97 a6 bf 5a 0c be 3d
       2.0898972 0.50545734 -1.3015093 0.092796996
0000b0 ee db fa 3f c8 5b c1 3f 91 4d aa bf 61 5c e1 be
       1.9598367 1.5106134 -1.3304921 -0.44015792

enc_embedding.position_embedding.pe f4 [1, 5000, 16]
000000 00 00 00 00 00 00 80 3f 00 00 00 00 00 00 80 3f
       0.0 1.0 0.0 1.0
000010 00 00 00 00 00 00 80 3f 00 00 00 00 00 00 80 3f
       0.0 1.0 0.0 1.0
000020 00 00 00 00 00 00 80 3f 00 00 00 00 00 00 80 3f
       0.0 1.0 0.0 1.0
000030 00 00 00 00 00 00 80 3f 00 00 00 00 00 00 80 3f
       0.0 1.0 0.0 1.0
000040 a4 6a 57 3f 41 51 0a 3f 3e 39 9f 3e 6b 4e 73 3f
       0.84147096 0.54030234 0.3109836 0.9504153
000050 76 75 cc 3d 98 b8 7e 3f 5b 81 01 3d 3c df 7f 3f
       0.099833414 0.9950042 0.031617504 0.99950004
000060 57 d6 23 3c b9 fc 7f 3f 1c 3e 4f 3b ac ff 7f 3f
       0.009999833 0.99995 0.0031622713 0.999995
000070 6d 12 83 3a f8 ff 7f 3f 61 cb a5 39 ff ff 7f 3f
       0.0009999998 0.9999995 0.00031622782 0.99999994
000080 b7 c7 68 3f 33 11 d5 be 1b 54 17 3f ec 7b 4e 3f
       0.9092974 -0.41614684 0.5911271 0.8065784
000090 f8 6f 4b 3e a5 e5 7a 3f c8 70 81 3d f9 7c 7f 3f
       0.19866931 0.9800666 0.063203394 0.9980007
0000a0 3e d4 a3 3c e5 f2 7f 3f d8 3d cf 3b b1 fe 7f 3f
       0.019998666 0.9998 0.006324511 0.99998003
0000b0 68 12 03 3b df ff 7f 3f 60 cb 25 3a fd ff 7f 3f
       0.0019999985 0.99999803 0.0006324556 0.9999998
0000c0 c3 81 10 3e 26 70 7d bf c2 09 50 3f 58 2f 15 3f
       0.14112 -0.9899925 0.8126489 0.58275366
0000d0 6c 4e 97 3e ef 90 74 3f c0 ff c1 3d 4f d9 7e 3f
       0.2955202 0.9553365 0.094726086 0.99550337
0000e0 1f b9 f5 3c 83 e2 7f 3f 0d 6e 1b 3c 0d fd 7f 3f
       0.0299955 0.99955004 0.009486687 0.999955
0000f0 92 9b 44 3b b5 ff 7f 3f 10 b1 78 3a f9 ff 7f 3f
       0.0029999954 0.9999955 0.00094868336 0.9999996
000100 cf bd 41 bf 30 55 27 bf de 1d 74 3f b1 2e 9a 3e
       -0.7568025 -0.6536436 0.95358074 0.30113748
000110 d7 61 c7 3e a7 ca 6b 3f 88 2e 01 3e 69 f4 7d 3f
       0.38941833 0.921061 0.12615407 0.99201065
000120 db cb 23 3d 94 cb 7f 3f c9 3c 4f 3c c2 fa 7f 3f
       0.039989334 0.9992001 0.01264877 0.99992
000130 57 12 83 3b 7a ff 7f 3f 5e cb a5 3a f3 ff 7f 3f
       0.003999989 0.999992 0.0012649109 0.9999992
000140 10 7c 75 bf 2c 3c 91 3e 7f fc 7f 3f e9 72 29 bc
       -0.9589243 0.2836622 0.99994653 -0.010342338
000150 43 77 f5 3e 40 a9 60 3f 1d 3c 21 3e 81 ce 7c 3f
       0.47942552 0.87758255 0.15745588 0.987526
000160 f4 b6 4c 3d 19 ae 7f 3f 7e 85 81 3c cf f7 7f 3f
       0.049979165 0.99875027 0.015810724 0.999875
000170 dd d6 a3 3b 2e ff 7f 3f 33 3e cf 3a eb ff 7f 3f
       0.004999979 0.9999875 0.0015811383 0.99999875
000180 8c 0f 8f be b8 cd 75 3f 4e 78 72 3f 6d 3f a4 be
       -0.2794155 0.96017027 0.9471482 -0.3207964
000190 68 8c 10 3f 32 49 53 3f 6e 20 41 3e e3 67 7b 3f
       0.5646424 0.8253356 0.18860027 0.98205394
0001a0 d1 9c 75 3d 12 8a 7f 3f 43 6c 9b 3c 34 f4 7f 3f
       0.059964005 0.99820054 0.018972522 0.99982
0001b0 58 9b c4 3b d2 fe 7f 3f 08 b1 f8 3a e2 ff 7f 3f
       0.0059999637 0.999982 0.0018973658 0.9999982
0001c0 46 30 28 3f bd ff 40 3f 6e e8 4c 3f bc 74 19 bf
       0.6569866 0.75390226 0.8004216 -0.5994375
0001d0 72 eb 24 3f b3 cc 43 3f 50 d3 60 3e ea c0 79 3f
       0.6442176 0.7648422 0.2195561 0.9755999
0001e0 32 3e 8f 3d 81 5f 7f 3f a2 52 b5 3c f2 ef 7f 3f
       0.06994285 0.997551 0.022134129 0.999755
0001f0 c5 5f e5 3b 65 fe 7f 3f ed 11 11 3b d7 ff 7f 3f
       0.006999942 0.9999755 0.0022135929 0.99999756
000200 95 46 7d 3f f6 fd 14 be 7e 06 13 3f e5 91 51 bf
       0.98935825 -0.14550003 0.5743178 -0.8186324
000210 a5 a4 37 3f 5f 5b 32 3f 51 26 80 3e 02 da 77 3f
       0.717356 0.6967067 0.25029233 0.9681703
000220 50 aa a3 3d 65 2e 7f 3f 8a 38 cf 3c 08 eb 7f 3f
       0.07991469 0.9968017 0.025295515 0.99968004
000230 12 12 03 3c e7 fd 7f 3f 55 cb 25 3b ca ff 7f 3f
       0.007999914 0.999968 0.0025298197 0.9999968
000240 32 01 d3 3e d5 3f 69 bf ee 1f 95 3e a2 e6 74 bf
       0.4121185 -0.91113025 0.29125923 -0.9566442
000250 1c 88 48 3f d5 21 1f 3f 2d c2 8f 3e a9 b3 75 3f
       0.78332686 0.62161 0.28077832 0.95977265
000260 3e 12 b8 3d c2 f6 7e 3f ea 1d e9 3c 76 e5 7f 3f
       0.089878544 0.9959527 0.028456647 0.99959505
000270 3a 74 13 3c 59 fd 7f 3f bc 84 3a 3b bc ff 7f 3f
       0.008999879 0.9999595 0.0028460464 0.99999595
000280 f8 44 0b bf 64 cd 56 bf 97 70 a9 bc fb f1 7f bf
       -0.5440211 -0.8390715 -0.02068357 -0.9997861
000290 a4 6a 57 3f 41 51 0a 3f 3d 39 9f 3e 6b 4e 73 3f
       0.84147096 0.54030234 0.31098357 0.9504153
0002a0 76 75 cc 3d 98 b8 7e 3f 59 81 01 3d 3c df 7f 3f
       0.099833414 0.9950042 0.031617496 0.99950004
0002b0 57 d6 23 3c b9 fc 7f 3f 22 3e 4f 3b ac ff 7f 3f
       0.009999833 0.99995 0.0031622727 0.999995
0002c0 5c ff 7f bf 72 05 91 3b 1f 41 a9 be 8d 9b 71 bf
       -0.9999902 0.004425698 -0.33057496 -0.94377977
0002d0 2a 26 64 3f c3 3d e8 3e 8b 87 ae 3e e4 aa 70 3f
       0.89120734 0.4535962 0.34087786 0.9401076
0002e0 72 d3 e0 3d e8 73 7e 3f 68 73 0e 3d 5b d8 7f 3f
       0.1097783 0.9939561 0.03477803 0.9993951
0002f0 69 38 34 3c 09 fc 7f 3f 87 f7 63 3b 9b ff 7f 3f
       0.010999777 0.9999395 0.003478499 0.999994
000300 d8 5c 09 bf d0 06 58 3f 24 91 1b bf 56 4f 4b bf
       -0.53657293 0.84385395 -0.6076834 -0.7941793
000310 1d 9a 6e 3f f7 86 b9 3e 2c a9 bd 3e c3 c9 6d 3f
       0.9320391 0.36235783 0.3704313 0.9288599
000320 ac 2b f5 3d b5 28 7e 3f 19 65 1b 3d d2 d0 7f 3f
       0.119712204 0.99280864 0.03793821 0.9992801
000330 70 9a 44 3c 48 fb 7f 3f eb b0 78 3b 87 ff 7f 3f
       0.011999711 0.999928 0.0037947248 0.9999928
000340 22 20 d7 3e 6f 4e 68 3f 4c 14 53 bf 9d d9 10 bf
       0.42016703 0.9074468 -0.82452846 -0.5658205
000350 c0 ab 76 3f 9d f5 88 3e 3f 9a cc 3e c3 ab 6a 3f
       0.9635582 0.26749888 0.3996143 0.9166834
000360 d0 be 04 3e 00 d7 7d 3f 65 56 28 3d a1 c8 7f 3f
       0.12963414 0.9915619 0.041098017 0.9991551
000370 6a fc 54 3c 76 fa 7f 3f 26 b5 86 3b 72 ff 7f 3f
       0.012999633 0.9999155 0.00411095 0.99999154
000380 72 98 7d 3f d7 04 0c 3e b3 a8 75 bf 0a 0d 90 be
       0.9906074 0.13673721 -0.9596054 -0.28134948
000390 6f 46 7c 3f e7 0b 2e 3e f4 56 db 3e b1 51 67 3f
       0.98544973 0.16996728 0.42839777 0.90359026
0003a0 64 e4 0e 3e cc 7e 7d 3f 43 47 35 3d c9 bf 7f 3f
       0.13954312 0.990216 0.044257414 0.99902016
0003b0 55 5e 65 3c 94 f9 7f 3f d6 11 91 3b 5c ff 7f 3f
       0.013999541 0.999902 0.004427175 0.9999902
0003c0 44 79 26 3f e8 7a 42 bf 75 e0 7f bf 96 22 fe 3c
       0.65028787 -0.7596879 -0.9995187 0.031022351
0003d0 d5 5b 7f 3f ba de 90 3d 83 db e9 3e 68 bc 63 3f
       0.997495 0.07073732 0.45675287 0.8895936
0003e0 4f 06 19 3e 1a 20 7d 3f aa 37 42 3d 49 b6 7f 3f
       0.14943813 0.9887711 0.047416367 0.9988752
0003f0 32 c0 75 3c a1 f8 7f 3f 85 6e 9b 3b 43 ff 7f 3f
       0.014999436 0.9998875 0.0047433996 0.99998873

enc_embedding.temporal_embedding.embed.weight f4 [16, 4]
000000 a6 6a 9a 3e 92 69 cc be fa 38 bb 3e de 3d f5 3e
       0.3015949 -0.39924294 0.36566907 0.47898763
000010 0c 14 d5 3e 24 3e 77 be f2 9f a5 3e 3a e2 af be
       0.41616857 -0.24144799 0.3234859 -0.34352285
000020 c8 cd fb be a0 81 a5 bc 48 db 60 be 9c 90 dd 3e
       -0.49180436 -0.020203412 -0.21958649 0.4327439
000030 06 c6 a7 be 18 c7 1c 3e 94 d0 32 3e e0 a7 bd 3c
       -0.32768267 0.15310323 0.17462379 0.023151338
000040 38 0b da bd 48 c4 b2 3e a0 8e 5f 3e 58 d9 8f bd
       -0.10646671 0.34915376 0.21831751 -0.07023877
000050 a4 39 fa 3e 28 a4 c7 3d 46 15 f9 be 62 1a ea be
       0.488721 0.09748107 -0.48649043 -0.45723253
000060 cc 82 e5 be c2 59 e6 3e 7c e7 ae be 74 30 e8 3e
       -0.44826353 0.44990355 -0.34160984 0.45349467
000070 00 2e 4a bc 08 9c ee be 78 4b b1 3e 68 0e 3f 3e
       -0.012340069 -0.46603417 0.3462789 0.1865784
000080 ac 98 f9 3e 12 38 e4 be 94 1b 80 be 70 32 41 be
       0.48749292 -0.44574028 -0.2502104 -0.18866897
000090 30 3b 9b 3e 68 cc e2 3e b2 84 cb 3e 9e ed f0 3e
       0.30318594 0.44296575 0.39749676 0.47056288
0000a0 0c d1 03 3e c8 5b 85 3e 8e 18 be 3e 9c d5 c3 3e
       0.12872714 0.26046586 0.3712811 0.3824891
0000b0 a0 7e 19 3e 8e 9a 90 3e 00 89 3c 3c fc b2 94 3e
       0.1498971 0.28242916 0.011507273 0.29042804
0000c0 30 cd a2 bd 40 34 ed bc 20 fa fb bc e8 de b9 3e
       -0.07949293 -0.028955579 -0.030758917 0.36302876
0000d0 70 5f d8 3e 9a 71 c9 3e 14 5a 87 be 1e 75 d0 3e
       0.42260313 0.39344484 -0.26435912 0.40714353
0000e0 3c fb 47 3e 00 a0 ee bd c0 22 84 bc 30 ba c8 be
       0.19529432 -0.11651611 -0.016129851 -0.3920455
0000f0 be fa f6 3e b2 f1 ed be 62 0a f1 be f8 f7 96 3d
       0.48238176 -0.4647346 -0.47078234 0.07371515

encoder.attn_layers.0.attention.query_projection.weight f4 [16, 16]
000000 2d 37 a8 3d 1b 24 83 3d 0b 95 28 bd 51 8a bd bb
       0.08213649 0.06403371 -0.041157763 -0.005784311
000010 30 6e 56 3d 61 2d 48 bd fd f9 08 3e 5c 18 e6 bc
       0.052351177 -0.0488714 0.13376613 -0.028087787
000020 45 72 d5 3c fb 5f 27 3d e7 dd 5b 3d ff 0a 9e 3c
       0.026055465 0.04086302 0.05367842 0.019292353
000030 e0 c6 4d 3b f2 3f 07 3d 36 50 1d 3d 04 da 02 be
       0.0031399056 0.033019967 0.038406573 -0.12778479
000040 b3 be 09 bc 0b d7 34 be ac 6b 53 3d 7b 31 40 bd
       -0.008407283 -0.17660157 0.051616356 -0.04692219
000050 f8 70 83 3d 04 04 93 bd be 69 88 bc a9 5f 2e be
       0.064180315 -0.071785 -0.016651984 -0.17028679
000060 de 1c 56 3e 9e ea 51 bd 15 32 15 3b 8f 7e fb 3d
       0.2090945 -0.05124914 0.0022765447 0.122799985
000070 fa ff 66 bd e2 d2 f6 bc 52 66 6e be 32 e6 23 3e
       -0.056396462 -0.030129854 -0.2328122 0.16005781
000080 4a 1d a9 3b 74 1f 28 3c 54 d6 9d bb 75 43 ca bc
       0.005160962 0.010261405 -0.0048168097 -0.02469037
000090 58 d8 93 bc 87 c9 5b 3c 90 33 dc bc cc 49 c3 bc
       -0.018047497 0.013414747 -0.026880056 -0.0238389
0000a0 d5 ad f4 bc 97 9f 5e be d6 c3 9c bd 37 3f d9 3b
       -0.029868046 -0.21740566 -0.0765454 0.0066298502
0000b0 54 c8 b5 bf f3 0a 8d bd 23 fd 29 bc 66 78 0c 3e
       -1.420176 -0.06886854 -0.010375294 0.13717803
0000c0 8d cf 24 be 35 43 15 3d 47 e8 62 3c f6 40 62 3e
       -0.160948 0.036441047 0.013849325 0.22095093
0000d0 ab 6f 4c 3d 63 1a ac 3e 87 e6 bf bd 42 90 88 be
       0.049911182 0.3361388 -0.093701415 -0.2667256
0000e0 02 f8 06 be 81 9f 11 3d cc f1 60 3d e9 99 5d bd
       -0.13180545 0.035552505 0.054918095 -0.05410186
0000f0 26 ab e7 bd 6f 19 d0 3d 38 f9 a6 bd 9b f7 6f 3d
       -0.11311941 0.10161101 -0.081530035 0.058585744
000100 46 1a e4 bd 20 fd 04 3c c4 b4 d1 bd 2e ab b3 bd
       -0.11137824 0.00811699 -0.102395564 -0.08772884
000110 81 f1 81 bd 52 7e a0 3b d1 08 bb bd 67 30 1a bb
       -0.06344891 0.004897871 -0.09132541 -0.0023527385
000120 23 5b df 3c 3e 3d 00 3d 87 ad e8 3d 8d e0 b1 3d
       0.027265137 0.031308405 0.11361223 0.08685408
000130 46 82 16 3d 04 fc 55 3d 35 71 02 3e 7a cb 63 3d
       0.036745332 0.052242294 0.12738498 0.055613972
000140 41 c4 fd 3d 6d 0d 0f 3c 04 f0 71 bd d2 00 bc bc
       0.12390948 0.008731228 -0.059066787 -0.02294961
000150 c4 76 4f 3d e2 df 3c 3d f5 0a 3a bd 69 43 a4 3d
       0.050650373 0.04611195 -0.045420606 0.0802067
000160 10 f0 dd 3d 26 e1 96 3d fc ff 6e 3d 49 7f 14 3e
       0.10836804 0.073671624 0.058349594 0.1450168
000170 1e 6a 65 3c 66 b2 b0 bd 1a 31 cd 3d 25 bf 84 bd
       0.014002351 -0.08627777 0.10019131 -0.064817704
000180 e2 68 cd bc cc c9 a9 3c 07 d9 9e bc dd 88 88 3c
       -0.025074426 0.020726107 -0.019390596 0.016666824
000190 a3 7c ba bd 0b 79 ae 3b 4c 53 31 3d 9c 22 94 3c
       -0.09105804 0.005324488 0.04329233 0.01808291
0001a0 10 dc 0f bd 43 03 6f bb 8d 1b d3 3c 84 de 81 3c
       -0.035121977 -0.003647045 0.025769973 0.015853174
0001b0 d4 6b b9 bc e7 16 e7 bd 1b 3c 26 3e 87 75 49 be
       -0.022634424 -0.11283665 0.16233866 -0.1967374
0001c0 fc 25 6d bb c1 37 2e 3d e7 ca 02 bd 4f 2a f7 3a
       -0.003618597 0.04253364 -0.031931784 0.0018857213
0001d0 37 4e 19 bd 11 f3 15 bd a0 b2 64 bd 6c 66 6f bd
       -0.037428107 -0.03660876 -0.055834413 -0.058447286
0001e0 c1 45 82 bd a9 62 72 bd fc 60 32 bf 4f c3 a4 3e
       -0.06360961 -0.05917612 -0.69679236 0.3218026
0001f0 da 70 81 be be 0b 2c be 5f 7a f1 bd 94 22 34 3e
       -0.2528141 -0.16801354 -0.117909186 0.17591316
000200 90 50 20 3c 32 b8 3a bc 9f c1 80 3c f7 23 4e 3b
       0.009784833 -0.011396455 0.015717326 0.0031454542
000210 c6 e9 e7 3b 96 06 c6 bc f8 9b b0 bc 28 25 4a 3a
       0.0070774285 -0.024173062 -0.021558747 0.0007711225
000220 a7 a0 94 bd c2 36 1b 3d fb 1e e1 be 24 8e 0f 3c
       -0.072572045 0.037894018 -0.4396895 0.008761916
000230 ad 82 ca 3f da a0 29 bd 3a bf 36 bc 12 19 1b 3c
       1.5821129 -0.041413166 -0.01115399 0.009466426
000240 9f 88 32 bd b5 11 20 bd ea 9a 92 3b 5d 53 ec bc
       -0.043587323 -0.039079387 0.0044740336 -0.028848344
000250 1f d0 a5 3b 1e 59 6e bc ff 7e ba bc 46 d8 ad bb
       0.0050602104 -0.014547614 -0.022765635 -0.005305323
000260 c0 fa ad 3c f2 33 e5 bb 4b 60 0c ba 94 b6 2f bc
       0.021237731 -0.0069947178 -0.0005354925 -0.010724682
000270 be e5 04 be e1 57 ba 3c f2 22 2c bd 69 15 37 3e
       -0.12978265 0.022746982 -0.042025514 0.17879261
000280 cb 3e 01 3c cb a8 12 3a ca 0a 1d bd 2b 2a 14 bc
       0.007888506 0.000559461 -0.038340367 -0.009043257
000290 de 61 43 bb 5a 58 4c bc b2 37 a9 3c 63 28 25 3c
       -0.0029812972 -0.0124722365 0.02065644 0.01008043
0002a0 0b f8 f1 bc 7d 9b a8 bb f9 82 b7 be bd 29 4a 3c
       -0.029537221 -0.005145489 -0.35842112 0.012339053
0002b0 19 49 be 3f c8 a1 db bd 51 2f bd 3d 6c b5 f9 bc
       1.4866058 -0.10724217 0.092375405 -0.030482017
0002c0 b4 63 69 3d 5d 8e 63 bb b9 5f 08 bd 19 85 82 bc
       0.05697985 -0.0034722306 -0.033294413 -0.015932607
0002d0 0c f7 88 bd 35 9e 9f 3c f4 01 36 bc f2 5f 37 3d
       -0.066877455 0.019484619 -0.011108864 0.044769235
0002e0 7d a7 35 3d 14 65 af 3d 19 74 a3 3a ac 4c bb bd
       0.044349182 0.08564201 0.0012470513 -0.091454834
0002f0 99 d8 74 3d 93 96 89 3d 2a 51 52 be 33 29 98 bd
       0.059776876 0.06718173 -0.20538774 -0.07429733
000300 34 fc da bd a1 c9 8a bd 27 f8 14 3e 3d c7 d4 bb
       -0.10692635 -0.06776739 0.14547788 -0.0064934776
000310 00 c9 04 be 9e a1 ed bb 90 9c 9a bb 73 d4 70 3c
       -0.129673 -0.0072519323 -0.0047183707 0.014699089
000320 de 82 c9 be 16 ec 2c bd 7d bb 0d be e2 00 b5 3d
       -0.39357656 -0.042217337 -0.13841052 0.08838059
000330 1e 65 b1 3d a2 68 60 be 23 7c 60 be 6f 43 57 3d
       0.08661865 -0.21914914 -0.21922354 0.052554544
000340 41 96 d0 3d 7a c8 e3 3d f9 fe c7 ba b8 3d 21 3e
       0.10184909 0.11122222 -0.0015258483 0.157462
000350 7c 7f 6f bd 46 7e 3a 3d 07 aa 21 bd 55 ec ac 3d
       -0.058471188 0.04553058 -0.03946879 0.08443514
000360 c8 38 dc bd 9b 0d 07 3c 54 8f 85 3c d6 50 d9 bd
       -0.10753018 0.00824299 0.016303696 -0.10611121
000370 e9 89 69 3c 33 37 7a bd df f7 fc 3d 42 f7 74 be
       0.014254072 -0.0610878 0.12351965 -0.23922446
000380 7e c0 17 bc ad 1b 7f 3c 67 8f 15 bc 59 43 50 3d
       -0.009262202 0.015570563 -0.009128428 0.050845478
000390 df ac 0f 3c e7 c8 e0 3c 10 ee d3 bd 04 34 a5 3c
       0.008769243 0.027439548 -0.10348141 0.020166405
0003a0 52 07 9c bd 00 43 a9 bb de 1b 57 bc 09 65 3c bd
       -0.07618584 -0.0051654577 -0.013129203 -0.045994792
0003b0 d9 aa 9c 3b 77 80 11 3d ce 7d 76 3b 54 da 76 be
       0.004781109 0.035522904 0.0037611607 -0.24106723
0003c0 28 bc de bd 91 6c cb 3c 85 7e c7 ba e5 6a 9e 3d
       -0.10875732 0.024832042 -0.0015220201 0.07735232
0003d0 81 5f 1c 3c 97 57 0a be a0 64 86 bd aa b4 f1 bd
       0.009544254 -0.13509975 -0.065621614 -0.11802037
0003e0 f4 06 20 be 42 8f e5 3c 6b 64 d6 3b 0d bc 85 3e
       -0.15627652 0.028022412 0.0065427325 0.26120034
0003f0 36 96 8c 3d 9b 00 a3 bd 46 83 89 bf 15 8d b9 3d
       0.06864588 -0.079591 -1.0743186 0.090601124

encoder.attn_layers.0.attention.query_projection.bias f4 [16]
000000 cd 9e 63 3e c0 71 5f bf e0 eb 84 3e a6 b3 96 bd
       0.22228546 -0.87282944 0.25961208 -0.07358484
000010 2b bd 1c be 1e 25 21 be 22 52 c4 3e 21 a2 d9 3d
       -0.15306537 -0.15736815 0.38343912 0.10626627
000020 e1 18 01 bd 56 e4 79 bf ce 2b d1 3d bd e0 c7 3e
       -0.031517867 -0.9761404 0.10213433 0.3903865
000030 f6 c0 41 3d 83 17 43 3f d9 b6 09 3f 7d 39 4e bd
       0.047303163 0.7620775 0.5379463 -0.050347794

encoder.attn_layers.0.attention.key_projection.weight f4 [16, 16]
000000 23 2b 8f bb 62 5a d8 3c 35 94 b6 3c 34 45 33 bd
       -0.004369156 0.026410285 0.022287467 -0.04376717
000010 b8 0c 97 bc 6f 32 03 3a 42 18 97 bc 7a 86 ee 3a
       -0.018438682 0.00050047686 -0.018444184 0.0018198036
000020 dd 95 c5 bd 31 db 00 3e 89 db 84 3c e4 6b 31 be
       -0.09647725 0.12583615 0.016217964 -0.17326313
000030 07 e6 3d 3c 63 96 ab bc 1c 43 99 bd b5 15 45 3e
       0.011590487 -0.020945733 -0.07483503 0.19246562
000040 b8 59 8e 3d 8b 12 ce bd 4b 03 20 3c b5 10 0e bc
       0.06950706 -0.100621305 0.00976641 -0.008670975
000050 c1 12 09 3e c5 2c a2 be 9a 01 86 3c 4f ff b0 3c
       0.1338606 -0.3167478 0.016358186 0.021606116
000060 78 5d 2b 3d d7 28 68 3d 4a 67 2c 3c c3 e7 c2 3b
       0.041837186 0.056679573 0.010522673 0.0059480383
000070 00 14 a1 3d 6e f3 21 3d da 71 d4 3d de 91 f4 3d
       0.07865143 0.039538793 0.10373278 0.119418845
000080 42 62 82 3e 72 07 40 3d 81 f7 c5 3d a0 ad 9d be
       0.2546559 0.0468821 0.09666348 -0.30796528
000090 65 d5 67 3d 81 8a 9c 3d a9 3d 36 be 1d 53 a2 bc
       0.056599993 0.07643605 -0.17796959 -0.019815022
0000a0 12 cf ef be 5e 52 76 3e 17 2c 51 bf dc 2f ae bc
       -0.4683767 0.24054858 -0.817079 -0.021263056
0000b0 ed b6 4c 3d e4 e1 22 be ec 87 4b be ec 09 54 3e
       0.04997914 -0.15906483 -0.19876069 0.2070691
0000c0 2c fb 4d 3d 7a 76 a3 3b b1 b1 89 3b 94 4c da ba
       0.050288364 0.0049884887 0.0042020907 -0.0016654902
0000d0 9e 22 e3 3b 37 33 6b bc 97 d0 81 bc 23 79 3a bd
       0.006931617 -0.014355472 -0.015846534 -0.04552568
0000e0 d1 d1 b5 ba 03 47 be b9 83 c8 24 bc a9 c0 f4 3c
       -0.0013871734 -0.00036292532 -0.010057571 0.029877024
0000f0 1d a1 86 3d ed 68 02 3c 64 07 02 bd 02 fd fa bc
       0.06573699 0.007959587 -0.03174533 -0.030638222
000100 57 69 14 bd 04 3d ae 3c 36 ed 11 3d cb 80 24 3d
       -0.036233272 0.021269329 0.035626613 0.04016189
000110 cf 0c 40 bd 2d 46 46 bd 4f 14 0b bb a4 70 c8 bc
       -0.046887215 -0.04840677 -0.0021221822 -0.024467774
000120 d5 0f 54 bc a5 37 91 bc fd f1 22 bd 76 b5 0f 3d
       -0.012943228 -0.017726729 -0.03978156 0.035085164
000130 85 55 2f bc a1 b7 93 bc 8d b7 23 bd 4f ad a8 3d
       -0.010701542 -0.018031897 -0.03996997 0.08236181
000140 98 78 be 3d 3e f3 4b bd 17 6a ba 3b aa 5b 49 bd
       0.09300345 -0.04979252 0.0056889164 -0.049159683
000150 f4 bb 7b 3d 78 d4 18 3c 26 37 f2 bb ec 0e e3 bb
       0.061458543 0.009328 -0.007391828 -0.006929269
000160 60 3d b8 3c 86 f9 62 bd 71 db 17 ba 1d d9 d7 3c
       0.022490203 -0.055413745 -0.0005792892 0.026348645
000170 45 bc 81 39 70 e8 8c 3d 83 94 25 3d 10 d6 82 ba
       0.0002474507 0.068802714 0.040424835 -0.0009982008
000180 1b e6 14 bd 26 ff 64 bc 2b 9c f7 3a 3f 4f 61 39
       -0.03635226 -0.013976848 0.0018891146 0.00021487194
000190 2e d1 f2 bb 38 64 d4 ba 2d 6d 07 3d b3 9f 33 3c
       -0.00741019 -0.0016204184 0.033063103 0.010963368
0001a0 16 9b 91 bc c2 c6 12 bb e7 76 a1 3d 73 41 9d bb
       -0.017774146 -0.00223963 0.07884007 -0.004799062
0001b0 f6 34 97 bb b8 4d a9 bc 70 13 02 bc b1 6f f9 bc
       -0.0046144677 -0.020666942 -0.007939205 -0.030448766
0001c0 74 eb f0 bd 43 39 18 3d 32 eb b8 bc 6e a2 9e 3d
       -0.11763659 0.037163984 -0.022573087 0.07745825
0001d0 84 f1 c6 bc 73 3c f4 bc 6e 14 e1 3d 2a 36 57 3d
       -0.024285085 -0.02981398 0.10990225 0.05254189
0001e0 49 68 23 3d 13 db 0b be 79 b7 13 bd 28 16 87 bb
       0.039894376 -0.13657789 -0.036063645 -0.0041225143
0001f0 f6 3a 97 be eb b5 31 3d f7 73 3d 3e 4c ac 2b bc
       -0.2953717 0.04338638 0.18501268 -0.0104780905
000200 4e 90 12 be 89 8c da 3d 2b 2a 90 be 83 db 9f 3d
       -0.1431286 0.10671336 -0.28157172 0.078055404
000210 02 2d 21 be 2a 4a ef 3d f2 2d c2 3d a1 4d d1 3d
       -0.15739825 0.116840675 0.094814196 0.10219885
000220 54 26 e2 3e 60 51 50 be 81 f6 e7 3e 80 ce 15 3f
       0.44169867 -0.20343542 0.45305255 0.5851822
000230 33 a3 f4 bd c4 28 9e 3d ea 4f 8d 3d 51 40 49 bd
       -0.1194519 0.07722619 0.06900008 -0.049133603
000240 d9 fe 9b bc 05 6e 05 bc a4 ef e9 bd 0d 9e 62 3d
       -0.01904242 -0.0081439065 -0.11422661 0.05532651
000250 16 8c 2d bc ec 52 f6 3b 22 ef a8 bb cc e3 00 bb
       -0.010592481 0.0075172093 -0.00515546 -0.0019667028
000260 b4 3a 59 3d f6 07 e7 bb 01 65 b2 3c 59 df 00 3d
       0.0530345 -0.0070505096 0.021776678 0.031463
000270 44 c1 4b 3c 4b d9 c5 3d 85 9a 66 3c 38 0b 4f 3d
       0.012436215 0.09660586 0.014074926 0.05054781
000280 f6 d0 a2 3d 8b da 29 3c 9a de a5 3b eb d1 83 bd
       0.079500124 0.010367046 0.0050619366 -0.06436523
000290 c6 ea b8 3c 89 cb 1a 3c f1 9b f6 bd 62 6c 62 bd
       0.022572886 0.009447941 -0.12041462 -0.055279143
0002a0 53 f9 31 bd ee cf 00 3e 1c 4b 7f bd 13 63 d7 bd
       -0.043450665 0.12579319 -0.06232749 -0.10516944
0002b0 19 21 94 3d 86 8b a2 bc 5b c9 12 be 20 2b 11 3e
       0.072328754 -0.01984192 -0.14334624 0.14176607
0002c0 0a 9b e5 b9 c8 72 bd bc a5 86 f4 3a 7c 0f f7 bb
       -0.00043793797 -0.023126021 0.001865585 -0.0075396877
0002d0 7d fc da 3c bc c3 a1 bd 95 bc ff bb 7a 24 48 3c
       0.026731724 -0.078986615 -0.007804463 0.012215728
0002e0 6c 26 03 3b 1a a4 dc bb 9c 43 1c 3c e0 86 df bc
       0.0020011915 -0.0067334296 0.009537604 -0.027285993
0002f0 44 db dd 3c a8 4d cc 3c 92 d5 46 3d 9e 82 28 bd
       0.027082093 0.024939373 0.04854352 -0.04114019
000300 49 14 88 bc 3e 4a 0b 3d 14 3e 4e 3c 55 14 ad bc
       -0.016611235 0.03400635 0.012588043 -0.02112786
000310 9b 83 c1 3c ee a6 54 bc 2c cf 1f bd 17 3c ea bc
       0.023622325 -0.012979252 -0.039015934 -0.028593106
000320 1f ba 78 bd d1 fd ac 3c 7f 3b b3 3e 75 fb 84 bd
       -0.060724374 0.021117123 0.3500633 -0.06493274
000330 6d f2 96 3c b3 44 1b bc 11 3f 00 be 6f b1 9c bc
       0.018426144 -0.009476828 -0.12524058 -0.019127576
000340 85 63 a4 bc 97 8b 48 bc 29 92 4e bb 18 56 11 ba
       -0.020066986 -0.012240312 -0.0031520224 -0.000554414
000350 94 d8 65 be 9d 0c 95 bc e2 1f 10 bb 58 e1 d1 bc
       -0.22445899 -0.018194491 -0.002199166 -0.025620148
000360 68 ce 02 3c b1 bf 37 3c dd da 96 bc 68 41 02 bb
       0.007983781 0.011215136 -0.018414909 -0.001987541
000370 04 a4 3d 3b e7 86 9c bc af 32 3a 3b 2f 6d 28 3d
       0.0028936872 -0.019107295 0.0028411557 0.04111975
000380 b1 62 20 bd b0 67 84 3c 27 7d 0c bd 48 cc 2b 3d
       -0.03915662 0.016162723 -0.034299042 0.041942865
000390 41 23 84 bc 81 fb 62 bb a4 23 f0 3c 60 7f 29 bc
       -0.016130092 -0.0034634771 0.02931387 -0.01034531
0003a0 4d 1f 6a 3d 9a 7e f5 bc 1b e7 9b 3c d9 01 ae 3c
       0.057158757 -0.029967595 0.019031098 0.021241115
0003b0 ae 7e 58 bc a9 d6 63 3c 05 ab b2 3c 5e b4 ed bc
       -0.013213797 0.013906159 0.021810064 -0.02901667
0003c0 6c db 3a be 6f a2 90 be 72 1c 76 3d a5 6a 38 3e
       -0.18247765 -0.28248927 0.06008572 0.18009432
0003d0 8f 28 52 3e a2 d1 0d be 0d fc 31 be 66 67 78 be
       0.20523284 -0.138495 -0.17381306 -0.24258193
0003e0 5d da 7c bd 05 7c 9a 3e 8e 2e 0d bd 49 75 26 3e
       -0.061731685 0.30172744 -0.034468226 0.16255678
0003f0 42 a3 2e 3d 2a 16 b8 3d 23 49 79 3e 17 1a f4 bd
       0.042636164 0.089886025 0.24344306 -0.11919039

encoder.attn_layers.0.attention.key_projection.bias f4 [16]
000000 dd 87 73 be e7 c2 38 3e e9 fe 6c bd 3d f9 96 3d
       -0.23782296 0.180431 -0.05786029 0.07371757
000010 96 2a 6b 3d 67 e7 03 be 16 2b 46 3b 03 1f fc bd
       0.05741366 -0.12881242 0.0030238084 -0.123106025
000020 96 ee dc 3d 5a 27 81 be 5f ed 05 3e 8e d7 51 be
       0.10787694 -0.25225335 0.13078831 -0.20492384
000030 76 03 d6 3d 4c b4 fc 3d c1 ae 20 3e 73 3e 7f 3e
       0.10449879 0.123390764 0.15691663 0.24926166

encoder.attn_layers.0.attention.value_projection.weight f4 [16, 16]
000000 f7 43 47 be ea 34 c9 bd 78 d4 e4 3c 67 18 82 bc
       -0.1945952 -0.09824546 0.027933344 -0.015880777
000010 82 2b 53 be 97 70 96 3d 1d a4 f6 3d 88 a5 e9 bc
       -0.20622066 0.073456936 0.12043021 -0.028521314
000020 cf 74 a0 3d eb 17 0b be 07 bf 39 3d 0b 09 48 3e
       0.078347795 -0.13583343 0.045348193 0.195347
000030 b9 86 23 be 27 b1 9e 3d 11 48 33 3e bc 9e 11 be
       -0.15969361 0.07748633 0.1750796 -0.14220709
000040 c3 fe 95 3d 24 01 08 3b b9 92 6b 3d f0 71 1d bc
       0.073239826 0.0020752633 0.057512973 -0.009609684
000050 6e b0 32 3d 13 35 8e be 25 38 d3 bc de d8 af bc
       0.043625288 -0.27774867 -0.025783608 -0.021465715
000060 5a 2f 3e bd 5e 3e 1d bd 03 3d 4e bd 7a 46 49 be
       -0.046431877 -0.038389556 -0.050351154 -0.19655791
000070 a0 af ae bd 51 76 1c be 76 a2 91 3d f1 f4 8f bd
       -0.085295916 -0.15279509 0.07111065 -0.07029141
000080 d2 01 4e ba 60 1c 9f ba 6a b8 b5 b9 4d 54 16 3d
       -0.00078585476 -0.0012139194 -0.0003466041 0.03670149
000090 d8 d8 3c bb 04 13 7f bc 65 e3 45 3b a9 08 55 bc
       -0.0028815772 -0.0155684985 0.0030195352 -0.013002553
0000a0 57 52 1f 3d 1f 7c 71 bc cc 95 3b 3e 70 4a 28 3d
       0.038896885 -0.014739065 0.18318862 0.041086614
0000b0 74 b1 68 bc 91 9b bc 3c 95 ee de bb 60 10 08 bd
       -0.014202464 0.023023399 -0.0068033435 -0.03321874
0000c0 7e f7 e3 3e 00 09 4b be af a1 20 3e 34 d4 01 be
       0.4452476 -0.19827652 0.15686677 -0.12678605
0000d0 4c 49 1b 3e 1a 92 b5 3d fd 95 f0 bd 10 3e 1f be
       0.1516468 0.08865757 -0.11747358 -0.15551019
0000e0 b5 ec 79 be 0c 59 43 3d 02 9d a7 bc 57 c3 11 be
       -0.24406703 0.047692344 -0.02046061 -0.14234672
0000f0 40 0e 81 3d f9 e6 7d be c8 5a 7d be b4 73 47 3e
       0.06301546 -0.2479514 -0.24741662 0.19477731
000100 7e 05 37 3e 44 e8 87 be 2f 3e 0f bd 33 4d 94 bd
       0.17873189 -0.26544392 -0.034971412 -0.07241287
000110 bf 6e c7 3e 9d dd 80 3e a9 6b c2 3c 45 e3 0e 3e
       0.3895168 0.25169078 0.023732977 0.13953884
000120 22 7b be 3d 61 07 83 bd ef 0a 95 3d 8f a1 8e 3c
       0.093008295 -0.06397892 0.07277476 0.017411022
000130 ee 9b b5 bd 48 67 ab 3e 07 a3 6f 3e 70 49 5c 3d
       -0.08867632 0.33477235 0.23402034 0.053780973
000140 63 ff bd be 62 c6 dd 3e 78 be 02 3e 07 54 9d 3e
       -0.37108907 0.43315417 0.1276797 0.3072817
000150 c2 a8 d2 be 4f ad 9c bd f7 c6 ff 3d 07 f0 31 bd
       -0.41144377 -0.076502435 0.124891214 -0.0434418
000160 71 6f 20 be d3 9f 37 3e d1 44 82 be a6 36 2d 3e
       -0.15667512 0.17932062 -0.25443128 0.16915378
000170 27 d6 ba bd 8f 2d ae be ca 1e dd be 33 26 32 3e
       -0.091228776 -0.34019133 -0.43187553 0.17397384
000180 a6 dc c7 3e 56 ab aa 3d 2e e5 d3 3d 61 b2 82 be
       0.3903553 0.08333461 0.10346447 -0.25526717
000190 e7 40 98 3d 33 63 b2 bc 29 08 7a be 59 0f 2f be
       0.07434254 -0.021775817 -0.24417175 -0.17095698
0001a0 50 50 42 be 71 78 83 3c ca 69 37 be e2 62 a4 be
       -0.1897595 0.016048642 -0.17911449 -0.32106692
0001b0 2d 71 75 3e 1d d3 b7 be 19 71 4a be 6e 84 00 bc
       0.23968954 -0.35903254 -0.19769706 -0.007844074
0001c0 7d 95 cf 3c 15 93 80 3c 2e d0 f1 3b 8a e4 e0 bc
       0.025339836 0.015695134 0.0073795533 -0.027452726
0001d0 33 26 b9 bc 4a 77 dc ba 6d bd ba bc 56 b1 d5 bb
       -0.022601223 -0.0016820219 -0.022795403 -0.006521384
0001e0 12 df 51 bc f2 98 94 3d 73 bd f2 3c 27 7f 14 bd
       -0.012809532 0.072557345 0.029631352 -0.036254074
0001f0 69 76 b2 3d 7e 2d e2 bc c6 e9 b0 bd 5a 44 5e 3d
       0.08713991 -0.027609583 -0.08638339 0.054264404
000200 51 06 17 bd da 6a 0a 3c 4a f6 01 bd 63 5c 06 3d
       -0.03687126 0.008448327 -0.03172902 0.03280295
000210 67 ab d4 bc c9 0e aa 3c 71 9a 65 3c 50 08 4f 3d
       -0.025960637 0.020759003 0.0140138725 0.050545037
000220 5c e3 ab 3d 68 6a b2 bc 88 83 f2 3d 9a da 06 3e
       0.08392975 -0.021779254 0.11841494 0.13169327
000230 28 e5 8d bc cc 8c 63 3d 08 ab df 3b 85 27 86 bc
       -0.017321184 0.055554196 0.0068258084 -0.016376266
000240 47 02 a4 3e bd 83 3b bd 51 86 79 3e 80 d4 c6 be
       0.32032987 -0.045779932 0.24367644 -0.38834
000250 f9 25 b7 3d 1a aa 52 bc 6c 90 16 be 34 78 18 be
       0.089427896 -0.012857938 -0.1470353 -0.14889604
000260 cb 9c e6 3d 19 fd 9c 3d f8 cc 3c 3d 58 a4 b6 bd
       0.11260375 0.07665462 0.04609391 -0.08918065
000270 74 bc 23 3e 82 eb d0 bd c6 95 99 bd 6d 02 db 3e
       0.15989858 -0.102011696 -0.0749927 0.42775288
000280 d8 83 c3 3d 71 d1 15 3c 82 cb 70 3c 23 ea 8d bd
       0.095466316 0.009144173 0.014696958 -0.06929424
000290 36 7f 0e 3d 32 35 ff bb 3e a8 cc bd 12 a6 ca bc
       0.034789287 -0.007788324 -0.09993027 -0.024737392
0002a0 de ad 1e bd 5c 32 f5 3d d5 16 2c bd a0 d5 ce bd
       -0.03874003 0.11972496 -0.04201396 -0.100993395
0002b0 88 a3 a1 3d 3d 00 2c bd 04 c3 cf bd bb 8d f6 3d
       0.07892519 -0.041992415 -0.10144618 0.12038752
0002c0 e5 6d a9 3d b0 17 10 bf 25 aa 13 3e 95 99 dc 3d
       0.08272914 -0.56286144 0.14420374 0.10771481
0002d0 35 43 bb 3e 32 13 de be aa 05 17 be 7f cb c0 bd
       0.36574712 -0.4337402 -0.14748254 -0.09413814
0002e0 d8 7e e9 bc 2d b1 3c 3e 7e b0 7a 3e d4 6e 02 bd
       -0.028502867 0.18426962 0.24481389 -0.031843975
0002f0 31 e2 4f 3e a2 a4 82 3e 96 37 ad 3e fc af 0a be
       0.20301129 0.2551623 0.3383147 -0.13543695
000300 96 40 a1 3c fa 47 4f 3c a3 29 fe 3c 56 ba 16 bb
       0.019684117 0.012651438 0.031025713 -0.0022999248
000310 d9 b0 f3 bc 3e b9 a6 bc bd 1e 39 bc f6 92 6d bd
       -0.029747413 -0.020352002 -0.0112988325 -0.05800148
000320 7d cf 08 bc 8d 7d f1 3c b5 d8 95 3e 38 2e 64 bd
       -0.00835025 0.029478813 0.29266897 -0.05570814
000330 45 7d ac 3b f2 cc 43 3c af 6d cd 3c 88 38 c3 3d
       0.0052639567 0.011950718 0.025076715 0.09532267
000340 3b c9 f7 3d 1c 97 02 bf 1f 6b 10 3e d5 f2 88 be
       0.120989285 -0.51011825 0.14103363 -0.26747766
000350 4a e1 5c 3f e4 3e 15 3e 60 44 bb bc 16 fa cf 3d
       0.86281264 0.14574772 -0.022859752 0.10155122
000360 0a f1 2f be e2 0a 99 3d d1 d2 30 3e 77 89 26 be
       -0.17181793 0.07472779 0.1726792 -0.16263376
000370 f3 09 de bd 53 40 18 be e2 49 d8 3e f1 44 b1 be
       -0.108417414 -0.14868288 0.42243868 -0.3462291
000380 00 9c c6 3e 0f 18 e6 3d 92 07 60 3c 87 68 c5 be
       0.38790894 0.112350576 0.01367368 -0.3855631
000390 38 a0 95 3d 5f b4 89 3e 6b 55 6e be df 1c 85 bb
       0.0730595 0.26895425 -0.23274772 -0.0040622796
0003a0 2a 6f 19 bc 4a 2e 0d 3e e1 14 24 be 01 1b 0c bf
       -0.0093648825 0.13787189 -0.1602359 -0.54728705
0003b0 46 33 67 3e 76 2a 61 be f7 20 a5 bd eb 14 55 be
       0.22578153 -0.21988854 -0.08062928 -0.20808761
0003c0 ef ad cb bc 53 98 5e bd ac c9 30 3c ef 17 4b 3d
       -0.024863211 -0.054344486 0.01079027 0.04958337
0003d0 8c c2 43 3d 49 88 94 bb a3 f6 87 bb a9 44 d8 bb
       0.047792956 -0.004532848 -0.0041492744 -0.006599982
0003e0 ee 7e e6 bc a7 66 a1 3d 14 b3 0c bc 11 41 8e 3c
       -0.028136697 0.078809075 -0.008587617 0.01736501
0003f0 25 41 1a ba 06 60 84 3d bf d9 a7 3d 9f e8 b0 bc
       -0.0005884341 0.064636275 0.08195829 -0.021595297

encoder.attn_layers.0.attention.value_projection.bias f4 [16]
000000 6c f0 31 3d 4b a1 33 bd 8a bb 3a 3e 87 40 c4 3d
       0.043442175 -0.043854993 0.18235603 0.0958262
000010 10 31 6b bd f2 42 bc bb 15 b2 96 3d 65 f6 e9 bd
       -0.057419837 -0.005745285 0.07358185 -0.11423949
000020 24 c0 83 be 82 37 f3 3e ad 82 6a 3e fe f9 8d bd
       -0.2573253 0.47503287 0.22901411 -0.06932448
000030 23 c9 89 3d 84 0a 08 3d 98 e1 50 be 5c e9 4b 3c
       0.06727817 0.033213153 -0.20398557 0.012445774

encoder.attn_layers.0.attention.out_projection.weight f4 [16, 16]
000000 51 fa 18 3e 2d 05 33 be 07 4c 2c 3e 1f 00 bc 3d
       0.14939238 -0.17482443 0.16825877 0.091797106
000010 3a 32 42 be 18 5a 90 bd 53 05 3a be 8d 4a ac bd
       -0.18964472 -0.07048434 -0.18166094 -0.08412657
000020 30 be 81 3c 8f 69 10 bf d4 05 84 bd 51 b6 fe be
       0.015837759 -0.5641107 -0.06446424 -0.4974847
000030 5f 4c 4e 3e c8 04 1e 3f 16 63 a0 3e e9 c1 28 3c
       0.20146321 0.61726046 0.31325597 0.010300138
000040 11 8f 4b 3e 8b eb 14 3e 48 c4 1b be 59 cd 1b bd
       0.19878794 0.14542978 -0.15211594 -0.03803763
000050 be 32 01 3e 4e 38 56 3e 37 53 22 be 9c 19 84 3d
       0.12617013 0.20919916 -0.15852056 0.06450197
000060 88 b5 93 3a b6 3b 71 be 27 3d 75 bb bf 7c 15 3e
       0.001126931 -0.23557934 -0.0037420483 0.14598368
000070 2f b6 53 3e fb be 04 3e 48 34 11 3d 88 a1 25 be
       0.20674966 0.12963478 0.03545025 -0.161749
000080 12 cd 17 bf e1 30 0b bb 16 d7 d8 be 7d 80 4b 3e
       -0.5929729 -0.002123885 -0.42351598 0.19873233
000090 24 d0 12 bf 42 98 e1 be ef d4 6c be fb 1d a3 3d
       -0.5734885 -0.44061476 -0.23128103 0.07964703
0000a0 30 26 c2 3e f0 11 78 3e a3 e0 0d 3f b5 d7 b3 3d
       0.3791976 0.24225593 0.55420893 0.08781377
0000b0 62 a9 8d be 86 c7 0c be b4 48 f3 be 4c 04 65 3e
       -0.2766829 -0.13747987 -0.47516406 0.2236492
0000c0 02 23 dc bd 6a df ba 3d 64 48 1b be b1 2d a6 bc
       -0.10748865 0.09124644 -0.15164334 -0.02028546
0000d0 7f 61 ab be 44 44 fa 3c 9f 6d 1d bd 5b ad 86 bd
       -0.3347282 0.03055013 -0.03843462 -0.06576034
0000e0 06 b4 5e 3e 66 bb 35 be 80 01 0c 3d a8 1f 52 be
       0.21748361 -0.17747268 0.034181118 -0.20519888
0000f0 51 7e ab bb 87 8a 04 3f 9e d0 91 3d df ac 76 bc
       -0.005233564 0.51773876 0.07119869 -0.015055864
000100 7b f1 eb 3d 97 d4 43 be 44 57 09 be 5f 8a a2 be
       0.11520668 -0.19124065 -0.13412195 -0.31746194
000110 0b ad 81 3e 22 87 14 bd 6a 0d 7b 3c c5 89 85 3e
       0.25327334 -0.036261685 0.015323022 0.26081672
000120 77 2f f9 3d a0 5f 16 3f 1c ae 28 be 5a fa 34 3e
       0.12167256 0.5873966 -0.16472667 0.17673627
000130 e2 a2 5c 3e 08 df 14 bf bf a5 09 bf a2 65 3c be
       0.2154651 -0.5815282 -0.53768533 -0.18398145
000140 09 d6 10 be de de 1a 3d 39 bc 7b 3d 47 59 1d bf
       -0.14144148 0.0378102 0.0614588 -0.6146435
000150 9f 89 c2 3d ed 12 82 3d 94 df c6 3d 20 a5 01 3d
       0.094989054 0.06351266 0.09710613 0.031651616
000160 3b 45 9b 3d e6 9c 42 3d c1 ac 87 3d 9b f4 05 3e
       0.07581564 0.04751291 0.06624747 0.13081591
000170 e8 6a 0c be 52 d7 18 3d 85 79 ad 3e 83 8c 25 3e
       -0.13712656 0.03731472 0.33881775 0.16166882
000180 ea 54 fe 3e c8 24 a8 bd f5 59 c3 be 69 e1 3e 3d
       0.4967416 -0.082101405 -0.3815457 0.046601687
000190 ea 7d c8 be 68 86 af be ae 0a 8a 3e 1e f1 cd 3d
       -0.39158565 -0.3428223 0.26961273 0.10055755
0001a0 f8 63 05 bf d0 0f af be 4c 04 66 be 33 78 83 3e
       -0.52105665 -0.3419175 -0.22462577 0.25677642
0001b0 db 24 07 bf 07 e9 bf be 4f fd 54 be ef 12 47 3d
       -0.5279061 -0.37482473 -0.20799755 0.04860204
0001c0 b4 b8 12 bc d4 44 9c 3e d0 18 bb 3d fe 48 74 3e
       -0.0089551695 0.30521262 0.09135592 0.2385597
0001d0 a8 ae 78 bd 3b 6c b4 bd 1e f5 59 bd 08 6d d0 bd
       -0.06071344 -0.08809706 -0.053212278 -0.10177046
0001e0 19 71 15 be 62 37 05 be 35 51 e7 3d 4a b9 9c be
       -0.14593925 -0.13009408 0.11294786 -0.30610114
0001f0 77 a3 a2 bd 40 f7 a9 3e 55 cf de 3e 83 bd 05 3e
       -0.07941335 0.3319645 0.43517557 0.13060574
000200 27 8b 74 3d b1 a5 aa be 8e 06 22 3d e5 81 0a bd
       0.05970302 -0.33329538 0.039557032 -0.033815283
000210 1a 54 60 3e 6e c7 1f 3d 4b cb 83 bd 2a 62 9f bd
       0.21907082 0.03900855 -0.064352594 -0.07782395
000220 49 d9 50 be f3 9f 50 3e ad a4 58 bd 3f a1 23 bc
       -0.20395388 0.20373516 -0.052891422 -0.0099871745
000230 79 5f 9b 3c ae 6e 90 be 98 e9 df bd 2c ba 21 3d
       0.018966423 -0.28209442 -0.10933226 0.039484188
000240 7e fb 91 3e 63 68 5f 3e ad 59 8a 3c 4d 23 89 bc
       0.28512186 0.21817164 0.016888464 -0.016740466
000250 c7 a1 ca 3e b2 c8 bf 3e 0f 7c d2 3e 04 80 71 3d
       0.3957655 0.37457806 0.41110274 0.058959976
000260 79 1e e4 3c 33 03 0e bd 5c 08 30 bd ab 3d 90 be
       0.027846562 -0.03467102 -0.042976722 -0.2817205
000270 e3 0f 5a 3d 3a ee fc bd 31 b8 a0 be 34 b5 59 bc
       0.053237807 -0.123501256 -0.31390527 -0.013287831
000280 82 33 d4 bc 09 5a 1e bd a5 88 8d 3c 39 26 f9 3a
       -0.025903467 -0.038660083 0.017277071 0.0019008584
000290 84 1a 51 bd c6 63 e3 bd 83 6d dd 3d 5b f3 9f bd
       -0.051050678 -0.11103015 0.10811903 -0.07810088
0002a0 1a 2f 27 bd f4 f1 fa bc c0 61 c9 bd 8c 57 4a 3c
       -0.040816404 -0.03063295 -0.098330975 0.012349974
0002b0 f6 5b 7d 3d 3b b9 84 3d 8e 81 0d bd 85 29 03 3d
       0.06185528 0.064806424 -0.03454738 0.032022018
0002c0 ae f4 01 bd f4 74 a9 3d da 18 c9 bc 07 12 83 3d
       -0.031727485 0.0827426 -0.024547983 0.06399923
0002d0 8b 79 0c be c4 4c c1 3e 01 f4 d7 3d 07 ff 5a 3d
       -0.1371824 0.3775388 0.10544587 0.05346587
0002e0 2d 9f bf bc 1b a1 e1 3d ed 05 8b bd 1c 6b 5a 3e
       -0.02339133 0.110170566 -0.0678824 0.21329921
0002f0 89 eb 06 bd a2 91 83 be 08 d5 85 bc 8d d2 a9 bd
       -0.032939468 -0.25697047 -0.016336933 -0.082921125
000300 e3 7e f0 3c 1e 1a 97 3c 11 1b a9 3b c5 e4 7e bb
       0.02935738 0.01844507 0.0051606973 -0.0038893681
000310 44 2d ed 3d e3 bf f9 bd 7d b1 dc 3c 77 9d 16 3a
       0.11580899 -0.121948026 0.026940102 0.000574551
000320 8f 51 6e bd eb 9b c0 bd ff 96 ee 3d 24 5a f0 bd
       -0.05818325 -0.09404739 0.11649894 -0.11735943
000330 ea 16 25 3d c5 1f 5b 3d 96 58 de bd f0 b4 09 bc
       0.040305056 0.053497095 -0.1085674 -0.008404955
000340 65 40 c7 bd 7f 7f c9 3c 01 d5 cc 3d 66 a5 93 3d
       -0.09729079 0.024596928 0.10001565 0.072092816
000350 cf 21 f5 bd e0 40 d2 be 20 cb 0a bf e9 13 65 be
       -0.11969339 -0.4106512 -0.54216194 -0.22370876
000360 2c 39 9e 3b 0f 25 9a 3d f8 7b 54 3e 9d c0 0b bf
       0.0048285928 0.075265996 0.20750415 -0.5459078
000370 fb 9a 6a 3d a9 7f e6 bc 7f 96 1a 3e 49 5a 4c 3e
       0.057276707 -0.028137045 0.15096472 0.19956316
000380 db 3d f6 bb 7b da a3 bc 81 81 ae ba 1f 95 a9 bc
       -0.007514698 -0.02000164 -0.0013313742 -0.02070099
000390 8a 1a 64 3e e3 9c 70 3d d7 a5 8c 3e b9 91 89 3d
       0.22275749 0.05874337 0.27470276 0.067172475
0003a0 c3 32 55 bc d6 58 d5 bd 55 2f a8 bd 67 ac fd 3d
       -0.013012591 -0.10417335 -0.08212153 0.12386399
0003b0 c1 c1 c6 bd df c3 52 3d 90 24 c4 bd bb 41 96 bb
       -0.097049244 0.05145633 -0.09577286 -0.0045854724
0003c0 ed 55 1e 3c fe 48 31 bd df 4c 25 bc 9b 53 87 bc
       0.009664041 -0.0432825 -0.010089128 -0.016519358
0003d0 02 d1 7e bc 55 49 6d 3c f4 5c ac bb 3a 61 a8 bb
       -0.015552761 0.014482816 -0.0052601043 -0.0051385434
0003e0 e5 c8 eb 3c a9 b6 b2 bc 61 e2 9c 3b c3 9f cc 3d
       0.028782317 -0.021815615 0.0047877287 0.0999141
0003f0 e0 09 08 bc 2a af 43 be 66 11 d6 3d 4e 2a 61 ba
       -0.008303136 -0.19109789 0.10452537 -0.0008589373

encoder.attn_layers.0.attention.out_projection.bias f4 [16]
000000 ec 91 7f be 33 eb ae be 75 90 c4 3e 18 0a 00 bf
       -0.24958009 -0.34163818 0.38391462 -0.500154
000010 76 0d 17 3f 6f cd 80 be 96 00 8a 3c 48 47 2c bf
       0.59004915 -0.25156733 0.016845983 -0.67296267
000020 38 cc 09 3f 27 4b 60 3d e6 10 11 be 45 a3 1e be
       0.5382724 0.05475917 -0.14166602 -0.1549197
000030 6e ae 25 bc e6 95 36 3d f4 4a 05 3d 4f 8e bf 3e
       -0.010112388 0.044576548 0.032542184 0.3741326

encoder.attn_layers.0.conv1.weight f4 [64, 16, 1]
000000 21 d0 b0 bd 9a b6 9b 3e cc 06 db be db 2c 1e 3f
       -0.086334474 0.3041275 -0.42778623 0.61787194
000010 c4 0f 0a bf 55 da 4f 3d 2e 12 c7 3d a9 1e dd 3e
       -0.53930306 0.050745327 0.097202644 0.43187454
000020 30 d5 29 3d 90 7e 5f be c3 93 a3 bf e8 8a a0 3e
       0.041463077 -0.21825624 -1.2779468 0.31355977
000030 37 68 bf be 92 80 da 3e d2 d6 92 3e 7b fe 47 bf
       -0.37384197 0.42676216 0.2867952 -0.7812268
000040 54 2a 35 be db d4 c9 3e 34 70 15 bd 6a 2c b2 3e
       -0.17691928 0.39420208 -0.03648396 0.3479951
000050 30 a9 3c be cc 2d bc be ba 85 6d 3e a8 6b 63 3e
       -0.18423915 -0.3675369 0.23195544 0.22209036
000060 c3 f4 7d be 0e d3 11 be ec e4 83 3e 93 6f a6 3d
       -0.248004 -0.14240667 0.2576059 0.0812675
000070 d1 c8 db ba 41 57 4d 3d c6 cb ac 3d 3d 56 2f bf
       -0.0016768222 0.05013204 0.08437304 -0.68490964
000080 cc ba ab be 34 9d 91 bd 19 74 8e 3c 56 12 b0 3e
       -0.33540952 -0.07110062 0.017389344 0.3438899
000090 e6 17 49 bd a3 4e 67 3e 2b ee ef be 5a bd c0 3e
       -0.049095057 0.22588591 -0.46861395 0.37644464
0000a0 b4 91 cf 3e db de 72 bd 1d 5e 0b 3e 72 df e9 bb
       0.4054085 -0.059294563 0.1361012 -0.0071372325
0000b0 d2 44 6e be 4d d2 15 bf 4c e0 15 3e d5 ae 25 3d
       -0.2326844 -0.5852402 0.14636344 0.040449936
0000c0 17 04 02 bd 8a 83 df 3d 72 63 1f 3e 71 3c 77 3e
       -0.03174218 0.10913761 0.15565279 0.2414415
0000d0 ca 87 b3 be c0 00 49 3c c3 a3 00 3d 80 69 ac 3e
       -0.35064536 0.012268245 0.031406175 0.3367424
0000e0 a1 9c c4 be 35 8b 1f be 1c 5c 31 3f 76 93 6f bd
       -0.38400748 -0.15580447 0.6928117 -0.05849024
0000f0 57 20 b3 3d ec 49 c2 be d5 27 4a 3e 23 80 2f bf
       0.08746403 -0.37947023 0.19741757 -0.68554896
000100 8d d9 5e 3e 5e 8f c6 3d 7a 67 fd 3d 01 4a c5 bd
       0.21762677 0.09695314 0.12373252 -0.09633256
000110 bb 1a 1b be fc 57 2c be 51 0b c5 3d 01 7b 42 be
       -0.15146916 -0.16830438 0.09621299 -0.18992235
000120 fe af 78 be 34 85 6f be 4b e2 db be b3 1d 5d 3e
       -0.24285886 -0.23390657 -0.42946085 0.2159336
000130 e2 78 00 be 50 57 bc 3e 4e 3d 42 3d c1 77 d0 3d
       -0.12546113 0.36785364 0.047421746 0.10179091
000140 b8 69 8a be b1 07 29 3d 79 26 4c 3e 7e 0f 67 be
       -0.27033782 0.0412671 0.19936551 -0.22564504
000150 53 b3 f4 3e 04 17 1d 3d d9 81 6c bd 67 6f 83 3e
       0.47793064 0.038352028 -0.05774102 0.2567093
000160 36 78 27 bc b9 a9 b0 bd 99 92 ed bd ba 0f f3 3a
       -0.010221532 -0.08626122 -0.11600227 0.0018544116
000170 23 ba b8 be ed f8 9a 3e 5b 15 b5 bd 87 b8 40 3e
       -0.3607951 0.3026804 -0.08841964 0.18820392
000180 3a 91 7e 3e 36 d3 7f 3e 58 93 cb be 85 bf 12 3e
       0.24860087 0.24982914 -0.39760852 0.14330871
000190 a1 d9 db be 43 93 3b 3e 73 bf 5a bb ee 3e 45 3e
       -0.42939475 0.18317895 -0.0033378273 0.19262287
0001a0 3c b7 18 be 1d de 23 3e fe e9 c0 bd 7d 36 52 be
       -0.14913648 0.16002698 -0.094196305 -0.20528598
0001b0 25 fe d8 be 80 66 ea bd ef 7c 73 3e 10 a6 74 bc
       -0.42381397 -0.114453316 0.23778127 -0.0149321705
0001c0 0f 87 11 3d 33 af ac 3e 34 fd 22 3e e7 0c 1e 3d
       0.035529193 0.33727416 0.15916902 0.038586523
0001d0 7d 55 38 3d b0 6f b6 be 34 a2 88 bb 5f 28 ae 3c
       0.045003403 -0.35632086 -0.0041697267 0.021259485
0001e0 8f b9 e8 3d 16 bd d5 be f2 c6 89 be 50 40 a9 be
       0.113635175 -0.41745824 -0.26909596 -0.3305688
0001f0 6a 91 11 3e 8a ff d5 3e d7 21 3c 3f 98 1a c2 3d
       0.14215627 0.41796523 0.73489136 0.094777286
000200 c9 76 f7 bc 18 1f a5 3c 07 f1 e7 3d ea 81 93 3e
       -0.030208008 0.020156428 0.11325269 0.28810054
000210 59 3f ea be d7 63 33 3e 13 12 21 3e 1f 63 18 bf
       -0.45751455 0.17518555 0.15729551 -0.59526247
000220 6b 59 05 3e 8f 09 90 3d be 57 de 3c e9 ad 83 3d
       0.13022391 0.07033073 0.027141448 0.06429655
000230 e9 d7 0b 3e 35 6b 55 3e 09 6a 8e 3e 53 1a 71 3e
       0.13656582 0.20841677 0.27815273 0.23545198
000240 4c 3e b4 3e 67 65 3c be f1 67 88 bd 7e 5f 9a 3b
       0.3520378 -0.18398057 -0.0666045 0.0047110906
000250 b2 a8 76 be 55 0a 17 be 84 26 9a be 17 0c ff bc
       -0.2408779 -0.14750035 -0.3010751 -0.031133695
000260 8b f6 de 3e 18 ea 6a be db cc ee bd 64 45 75 be
       0.43547472 -0.22940862 -0.11660167 -0.23952252
000270 29 4d fc bd 65 77 4c 3c c8 12 95 be 06 42 4e be
       -0.12319405 0.012479638 -0.2911589 -0.20142373
000280 8e 75 50 be 1a 49 bb bd 62 94 40 3e 27 90 79 be
       -0.20357344 -0.091448024 0.18806604 -0.24371396
000290 33 57 fe bd 48 c9 12 3e 6e 33 57 be 36 71 8d 3d
       -0.12418976 0.14334595 -0.21015713 0.06906359
0002a0 90 29 53 be e3 40 e9 3d 5b 9e 40 3f c5 ce 8a 3d
       -0.20621324 0.11389329 0.7524163 0.067777194
0002b0 58 88 1c be 8f b1 f7 be 3e 56 8c be d5 63 fb bd
       -0.15286386 -0.48377654 -0.27409548 -0.12274901
0002c0 36 a7 f0 be 70 e7 8e be b5 0d 91 3e 77 4c 6f be
       -0.47002572 -0.27910948 0.2833077 -0.23369013
0002d0 29 3d 6a bd 7d ba 81 bd 54 40 1c 3d 2c 8b 74 be
       -0.057187233 -0.06334398 0.038147286 -0.23881215
0002e0 a1 49 0f be cf a6 33 3d 3b a2 23 be 6f 46 04 3e
       -0.13992931 0.043860253 -0.15979855 0.12917493
0002f0 69 4c 54 3d 75 1b 27 bf e7 9b 0e 3f 06 a7 55 3c
       0.051830683 -0.6527627 0.5570664 0.01304031
000300 a8 54 c6 3e 4b 3a e5 3e 9f 4f ff bd ef b0 e0 3e
       0.38736463 0.44771037 -0.124663584 0.4388499
000310 54 64 df be ad 0d 1c bc 90 8a 15 be 3f 97 92 3e
       -0.43631232 -0.009524745 -0.14603639 0.28631017
000320 43 db 83 be c8 f9 56 be aa 3d a1 bd be ae 7e 3d
       -0.2575322 -0.20993721 -0.078730896 0.062178366
000330 e0 d0 62 bd fe 15 28 3d 35 95 d2 be fe 9b 8e be
       -0.05537498 0.0410366 -0.4112946 -0.27853388
000340 7b a3 6f bd fe 3b a6 3d 76 26 b9 3b 9c 77 d5 be
       -0.058505516 0.08116911 0.005650337 -0.41692817
000350 0d 21 24 bd 5a 19 33 3e 6e fe 9f be cf 35 26 3e
       -0.040070582 0.1749014 -0.31248802 0.16231464
000360 91 4d c6 be 10 4c 99 bd 96 3d 56 3e ad a9 64 bd
       -0.38731053 -0.07485211 0.2092193 -0.055825878
000370 0f 77 96 be e6 e5 70 3d 05 dd 9b 3e 75 08 a0 3e
       -0.2938771 0.058813 0.30442062 0.31256452
000380 62 a8 ca bc 98 76 fa bd 90 0d 8a 3e 21 c9 99 3e
       -0.024738494 -0.12229651 0.26963472 0.30036262
000390 de ea 20 be 68 1a 0d be 3d 53 d7 3d 13 46 0e 3e
       -0.15714595 -0.13779604 0.10513923 0.13893919
0003a0 03 6d b4 bd 68 84 7a bc 61 91 1c 3e b7 96 c0 3e
       -0.08809855 -0.015290357 0.15289833 0.37614986
0003b0 bf 56 fe 3e dd 3f 85 bd 4a 32 18 3e 54 ce 0d bf
       0.49675557 -0.065063216 0.14862934 -0.55392957
0003c0 f7 32 95 3e 34 ef 8a 3e 47 3d 5c 3e 30 b9 d7 3e
       0.29140446 0.27135623 0.2150775 0.42133474
0003d0 cf a9 8e be 24 78 e8 3d 17 e8 bd be 4e bb 71 3e
       -0.2786393 0.1135104 -0.37091133 0.23606607
0003e0 0d dc fa be 91 aa b0 3d 55 e5 9e be 3f 26 bc be
       -0.4899601 0.08626283 -0.3103434 -0.3674793
0003f0 c0 b1 66 3e 73 69 f1 3c 57 a5 2c bd 74 19 49 be
       0.22528744 0.029469227 -0.042149868 -0.19638616

encoder.attn_layers.0.conv1.bias f4 [64]
000000 24 8d 31 bf c9 00 2b bf da 15 8c bd 37 fe be be
       -0.6935599 -0.66798073 -0.06840105 -0.37303326
000010 3a c9 86 bd 92 9a f2 be 8d c3 40 3c 44 b3 ca bc
       -0.0658135 -0.47383553 0.011765373 -0.024743684
000020 a8 74 05 bf 59 15 cd be f9 d2 8a bd 03 34 04 bf
       -0.5213113 -0.4005535 -0.06778521 -0.51641864
000030 fc 54 9a be 11 d3 d8 3c 8c 32 21 3e 61 86 ac be
       -0.30142963 0.026467832 0.15741938 -0.33696273
000040 36 05 27 bf 1b 50 24 3e 85 03 c3 be d2 91 9d be
       -0.65242326 0.16046183 -0.38088623 -0.30775315
000050 cd 5a 7a bf 16 e2 63 bd 91 17 28 be b2 5d 0e bf
       -0.977948 -0.055635534 -0.1641524 -0.5561172
000060 bd b8 f0 bd ab 21 08 bf b8 08 8e bd c1 75 31 be
       -0.11753986 -0.53176373 -0.06935257 -0.17330076
000070 3a 2f 13 3e 4a 4e 89 be 11 33 6c be 47 d0 ff bd
       0.14373484 -0.26817542 -0.23066355 -0.124908976
000080 45 ef 01 bf 34 4b 1b 3e 4b 73 1d be 32 82 66 bf
       -0.5075572 0.15165406 -0.15376012 -0.9004241
000090 8a 21 bb 3d 33 fa f6 3d f1 e4 f8 be 52 b2 13 3d
       0.091372564 0.120594405 -0.48612168 0.03605873
0000a0 a9 3f 98 be ac 36 1b be c8 05 a9 bd 18 63 a9 bd
       -0.2973607 -0.15157574 -0.08253056 -0.08270854
0000b0 f4 d8 65 bf c3 9d f2 be ac 37 94 be 64 a9 5d 3e
       -0.8978417 -0.47385988 -0.28948724 0.21646649
0000c0 9d 22 ae bd 3e 6d 5d bc 48 1f f8 be d4 cd 09 bf
       -0.08502696 -0.013514815 -0.48461366 -0.53829694
0000d0 a8 32 42 bf d5 c4 de bd 3e 52 bb bd c2 14 1d bf
       -0.75858545 -0.108773865 -0.09146546 -0.613598
0000e0 61 a9 9d be 6e 08 6e 3b ff ee a4 bd 7f 6f 96 3e
       -0.30793288 0.0036320942 -0.080533974 0.2938194
0000f0 0b 66 3f be dc f4 20 bf 9a b8 22 bf 86 31 20 be
       -0.1869127 -0.62873626 -0.6356293 -0.15643892
