SimMTM-main/SimMTM-main/SimMTM_Forecasting/outputs/pretrain_checkpoints/ETTh1/ckpt_best.pth (torch, 341001 bytes, 21 tensors)

enc_embedding.value_embedding.tokenConv.weight f4 [16, 1, 3]
0	0x3e3634c7	0.1779357
1	0xbfc69524	-1.5514264
2	0xbf7e1ec5	-0.992657
3	0xc0022a37	-2.0338266
4	0x3f27ac6c	0.6549747
5	0xbf6dd0b8	-0.92896605
6	0x3fa94073	1.3222793
7	0xbf672ee4	-0.90305924
8	0x3fa33e08	1.2753305
9	0x3f732f6f	0.9499425
10	0x40000027	2.0000093
11	0x3fb70a3e	1.4300001
12	0xbfbf297d	-1.4934536
13	0xbfff0ca7	-1.9925736
14	0x3ea6b3d6	0.3255908
15	0x3f45a0f9	0.7719875
16	0x3faeab16	1.3645961
17	0xbfd92ce4	-1.6966825
18	0x3da183a7	0.07886439
19	0x3fcf491c	1.6194186
20	0x3fa70652	1.3048804
21	0xbf83f3a2	-1.0308726
22	0x3fa9a17f	1.325241
23	0x3fbe703e	1.4878004
24	0x4008a2ad	2.134929
25	0x3fe51f6a	1.7900212
26	0xbef2136a	-0.47280437
27	0xbeb63950	-0.355906
28	0xc00f1c41	-2.2360995
29	0xbe2998ca	-0.1656219
30	0x3f3c23bc	0.73492026
31	0xc00e9fdb	-2.2285068
32	0x3feb4774	1.8381181
33	0x3f370dc9	0.7150541
34	0xbfe689aa	-1.8010762
35	0xbd4a243c	-0.049350962
36	0xbf558e0b	-0.83419865
37	0xbf76fc54	-0.9647877
38	0xbfc62720	-1.548069
39	0xbe4e24f3	-0.20131283
40	0x3fbfbade	1.4978902
41	0xbf07bcdc	-0.5302255
42	0x3c58e82f	0.013238951
43	0xbfac057a	-1.3439171
44	0x3c5c8008	0.013458259
45	0x3f8b1fe4	1.0869107
46	0xbfa3e8f7	-1.280547
47	0xbf7b366f	-0.98129934

enc_embedding.position_embedding.pe f4 [1, 5000, 16]
0	0x00000000	0.0
1	0x3f800000	1.0
2	0x00000000	0.0
3	0x3f800000	1.0
4	0x00000000	0.0
5	0x3f800000	1.0
6	0x00000000	0.0
7	0x3f800000	1.0
8	0x00000000	0.0
9	0x3f800000	1.0
10	0x00000000	0.0
11	0x3f800000	1.0
12	0x00000000	0.0
13	0x3f800000	1.0
14	0x00000000	0.0
15	0x3f800000	1.0
16	0x3f576aa4	0.84147096
17	0x3f0a5141	0.54030234
18	0x3e9f393e	0.3109836
19	0x3f734e6b	0.9504153
20	0x3dcc7576	0.099833414
21	0x3f7eb898	0.9950042
22	0x3d01815b	0.031617504
23	0x3f7fdf3c	0.99950004
24	0x3c23d657	0.009999833
25	0x3f7ffcb9	0.99995
26	0x3b4f3e1c	0.0031622713
27	0x3f7fffac	0.999995
28	0x3a83126d	0.0009999998
29	0x3f7ffff8	0.9999995
30	0x39a5cb61	0.00031622782
31	0x3f7fffff	0.99999994
32	0x3f68c7b7	0.9092974
33	0xbed51133	-0.41614684
34	0x3f17541b	0.5911271
35	0x3f4e7bec	0.8065784
36	0x3e4b6ff8	0.19866931
37	0x3f7ae5a5	0.9800666
38	0x3d8170c8	0.063203394
39	0x3f7f7cf9	0.9980007
40	0x3ca3d43e	0.019998666
41	0x3f7ff2e5	0.9998
42	0x3bcf3dd8	0.006324511
43	0x3f7ffeb1	0.99998003
44	0x3b031268	0.0019999985
45	0x3f7fffdf	0.99999803
46	0x3a25cb60	0.0006324556
47	0x3f7ffffd	0.9999998
48	0x3e1081c3	0.14112
49	0xbf7d7026	-0.9899925
50	0x3f5009c2	0.8126489
51	0x3f152f58	0.58275366
52	0x3e974e6c	0.2955202
53	0x3f7490ef	0.9553365
54	0x3dc1ffc0	0.094726086
55	0x3f7ed94f	0.99550337
56	0x3cf5b91f	0.0299955
57	0x3f7fe283	0.99955004
58	0x3c1b6e0d	0.009486687
59	0x3f7ffd0d	0.999955
60	0x3b449b92	0.0029999954
61	0x3f7fffb5	0.9999955
62	0x3a78b110	0.00094868336
63	0x3f7ffff9	0.9999996
64	0xbf41bdcf	-0.7568025
65	0xbf275530	-0.6536436
66	0x3f741dde	0.95358074
67	0x3e9a2eb1	0.30113748
68	0x3ec761d7	0.38941833
69	0x3f6bcaa7	0.921061
70	0x3e012e88	0.12615407
71	0x3f7df469	0.99201065
72	0x3d23cbdb	0.039989334
73	0x3f7fcb94	0.9992001
74	0x3c4f3cc9	0.01264877
75	0x3f7ffac2	0.99992
76	0x3b831257	0.003999989
77	0x3f7fff7a	0.999992
78	0x3aa5cb5e	0.0012649109
79	0x3f7ffff3	0.9999992
80	0xbf757c10	-0.9589243
81	0x3e913c2c	0.2836622
82	0x3f7ffc7f	0.99994653
83	0xbc2972e9	-0.010342338
84	0x3ef57743	0.47942552
85	0x3f60a940	0.87758255
86	0x3e213c1d	0.15745588
87	0x3f7cce81	0.987526
88	0x3d4cb6f4	0.049979165
89	0x3f7fae19	0.99875027
90	0x3c81857e	0.015810724
91	0x3f7ff7cf	0.999875
92	0x3ba3d6dd	0.004999979
93	0x3f7fff2e	0.9999875
94	0x3acf3e33	0.0015811383
95	0x3f7fffeb	0.99999875
96	0xbe8f0f8c	-0.2794155
97	0x3f75cdb8	0.96017027
98	0x3f72784e	0.9471482
99	0xbea43f6d	-0.3207964
100	0x3f108c68	0.5646424
101	0x3f534932	0.8253356
102	0x3e41206e	0.18860027
103	0x3f7b67e3	0.98205394
104	0x3d759cd1	0.059964005
105	0x3f7f8a12	0.99820054
106	0x3c9b6c43	0.018972522
107	0x3f7ff434	0.99982
108	0x3bc49b58	0.0059999637
109	0x3f7ffed2	0.999982
110	0x3af8b108	0.0018973658
111	0x3f7fffe2	0.9999982
112	0x3f283046	0.6569866
113	0x3f40ffbd	0.75390226
114	0x3f4ce86e	0.8004216
115	0xbf1974bc	-0.5994375
116	0x3f24eb72	0.6442176
117	0x3f43ccb3	0.7648422
118	0x3e60d350	0.2195561
119	0x3f79c0ea	0.9755999
120	0x3d8f3e32	0.06994285
121	0x3f7f5f81	0.997551
122	0x3cb552a2	0.022134129
123	0x3f7feff2	0.999755
124	0x3be55fc5	0.006999942
125	0x3f7ffe65	0.9999755
126	0x3b1111ed	0.0022135929
127	0x3f7fffd7	0.99999756
128	0x3f7d4695	0.98935825
129	0xbe14fdf6	-0.14550003
130	0x3f13067e	0.5743178
131	0xbf5191e5	-0.8186324
132	0x3f37a4a5	0.717356
133	0x3f325b5f	0.6967067
134	0x3e802651	0.25029233
135	0x3f77da02	0.9681703
136	0x3da3aa50	0.07991469
137	0x3f7f2e65	0.9968017
138	0x3ccf388a	0.025295515
139	0x3f7feb08	0.99968004
140	0x3c031212	0.007999914
141	0x3f7ffde7	0.999968
142	0x3b25cb55	0.0025298197
143	0x3f7fffca	0.9999968
144	0x3ed30132	0.4121185
145	0xbf693fd5	-0.91113025
146	0x3e951fee	0.29125923
147	0xbf74e6a2	-0.9566442
148	0x3f48881c	0.78332686
149	0x3f1f21d5	0.62161
150	0x3e8fc22d	0.28077832
151	0x3f75b3a9	0.95977265
152	0x3db8123e	0.089878544
153	0x3f7ef6c2	0.9959527
154	0x3ce91dea	0.028456647
155	0x3f7fe576	0.99959505
156	0x3c13743a	0.008999879
157	0x3f7ffd59	0.9999595
158	0x3b3a84bc	0.0028460464
159	0x3f7fffbc	0.99999595
160	0xbf0b44f8	-0.5440211
161	0xbf56cd64	-0.8390715
162	0xbca97097	-0.02068357
163	0xbf7ff1fb	-0.9997861
164	0x3f576aa4	0.84147096
165	0x3f0a5141	0.54030234
166	0x3e9f393d	0.31098357
167	0x3f734e6b	0.9504153
168	0x3dcc7576	0.099833414
169	0x3f7eb898	0.9950042
170	0x3d018159	0.031617496
171	0x3f7fdf3c	0.99950004
172	0x3c23d657	0.009999833
173	0x3f7ffcb9	0.99995
174	0x3b4f3e22	0.0031622727
175	0x3f7fffac	0.999995
176	0xbf7fff5c	-0.9999902
177	0x3b910572	0.004425698
178	0xbea9411f	-0.33057496
179	0xbf719b8d	-0.94377977
180	0x3f64262a	0.89120734
181	0x3ee83dc3	0.4535962
182	0x3eae878b	0.34087786
183	0x3f70aae4	0.9401076
184	0x3de0d372	0.1097783
185	0x3f7e73e8	0.9939561
186	0x3d0e7368	0.03477803
187	0x3f7fd85b	0.9993951
188	0x3c343869	0.010999777
189	0x3f7ffc09	0.9999395
190	0x3b63f787	0.003478499
191	0x3f7fff9b	0.999994
192	0xbf095cd8	-0.53657293
193	0x3f5806d0	0.84385395
194	0xbf1b9124	-0.6076834
195	0xbf4b4f56	-0.7941793
196	0x3f6e9a1d	0.9320391
197	0x3eb986f7	0.36235783
198	0x3ebda92c	0.3704313
199	0x3f6dc9c3	0.9288599
200	0x3df52bac	0.119712204
201	0x3f7e28b5	0.99280864
202	0x3d1b6519	0.03793821
203	0x3f7fd0d2	0.9992801
204	0x3c449a70	0.011999711
205	0x3f7ffb48	0.999928
206	0x3b78b0eb	0.0037947248
207	0x3f7fff87	0.9999928
208	0x3ed72022	0.42016703
209	0x3f684e6f	0.9074468
210	0xbf53144c	-0.82452846
211	0xbf10d99d	-0.5658205
212	0x3f76abc0	0.9635582
213	0x3e88f59d	0.26749888
214	0x3ecc9a3f	0.3996143
215	0x3f6aabc3	0.9166834
216	0x3e04bed0	0.12963414
217	0x3f7dd700	0.9915619
218	0x3d285665	0.041098017
219	0x3f7fc8a1	0.9991551
220	0x3c54fc6a	0.012999633
221	0x3f7ffa76	0.9999155
222	0x3b86b526	0.00411095
223	0x3f7fff72	0.99999154
224	0x3f7d9872	0.9906074
225	0x3e0c04d7	0.13673721
226	0xbf75a8b3	-0.9596054
227	0xbe900d0a	-0.28134948
228	0x3f7c466f	0.98544973
229	0x3e2e0be7	0.16996728
230	0x3edb56f4	0.42839777
231	0x3f6751b1	0.90359026
232	0x3e0ee464	0.13954312
233	0x3f7d7ecc	0.990216
234	0x3d354743	0.044257414
235	0x3f7fbfc9	0.99902016
236	0x3c655e55	0.013999541
237	0x3f7ff994	0.999902
238	0x3b9111d6	0.004427175
239	0x3f7fff5c	0.9999902
240	0x3f267944	0.65028787
241	0xbf427ae8	-0.7596879
242	0xbf7fe075	-0.9995187
243	0x3cfe2296	0.031022351
244	0x3f7f5bd5	0.997495
245	0x3d90deba	0.07073732
246	0x3ee9db83	0.45675287
247	0x3f63bc68	0.8895936
248	0x3e19064f	0.14943813
249	0x3f7d201a	0.9887711
250	0x3d4237aa	0.047416367
251	0x3f7fb649	0.9988752
252	0x3c75c032	0.014999436
253	0x3f7ff8a1	0.9998875
254	0x3b9b6e85	0.0047433996
255	0x3f7fff43	0.99998873

enc_embedding.temporal_embedding.embed.weight f4 [16, 4]
0	0x3da13c80	0.078728676
1	0x3ecef388	0.40420175
2	0x3d9e5ec8	0.07732922
3	0x3e129a20	0.14316607
4	0xbde9d4c8	-0.11417538
5	0x3dfed5d0	0.12443125
6	0xbe8b03c4	-0.2715131
7	0x3ed55f9a	0.416745
8	0x3dde4f20	0.10854936
9	0xbecc486e	-0.3989901
10	0x3eb52446	0.35379237
11	0x3edfccda	0.43710977
12	0xbe2dc648	-0.1697017
13	0x3eb7a380	0.35866928
14	0xbd791c50	-0.060818017
15	0xbecbe452	-0.39822632
16	0x3ee8e2a4	0.45485413
17	0x3e1d8460	0.15382528
18	0x3db3b2b0	0.08774316
19	0x3e4666f0	0.19375205
20	0x3c94ac60	0.018148601
21	0xbe188bdc	-0.14897102
22	0xbd44c450	-0.04803878
23	0x3ec33298	0.38124537
24	0x3e401bd0	0.1876061
25	0xbdaf8480	-0.08570194
26	0x3e115ae8	0.14194834
27	0xbef7ee7e	-0.48424143
28	0xbe4ade40	-0.19811344
29	0x3e02a214	0.1275714
30	0x3e6f9804	0.23397833
31	0x3ef1ada8	0.47202802
32	0xbe9a8c5e	-0.30185217
33	0x3efc4284	0.49269497
34	0xbeb7a084	-0.3586465
35	0xbefc3564	-0.49259484
36	0xbac9be00	-0.0015391707
37	0x3c9569c0	0.018238902
38	0x3dc99ca8	0.09844333
39	0x3eed30ec	0.46326387
40	0x3e67040c	0.22560138
41	0x3ee2ab7a	0.4427145
42	0x3e8febf4	0.28109705
43	0xbeaaec98	-0.33383632
44	0x3e947d88	0.29002023
45	0xbdc8dca8	-0.09807712
46	0x3eccd626	0.40007132
47	0xbea85128	-0.32874417
48	0x3ed7f624	0.42179978
49	0xbe7c9008	-0.24664319
50	0xbd91aca0	-0.07113004
51	0xbefcf50c	-0.49405706
52	0xbed41444	-0.4142171
53	0xbe9b2c10	-0.30307055
54	0xbea76f4a	-0.32702094
55	0xbdfeec48	-0.12447411
56	0x3e9a86b6	0.301809
57	0xbe2ca9e0	-0.16861677
58	0xbe5626bc	-0.20913213
59	0xbed6b9c4	-0.41938603
60	0xbdbbec68	-0.0917595
61	0x3eff1604	0.49821484
62	0x3e9cd5f2	0.30631977
63	0x3b659400	0.0035030842

encoder.attn_layers.0.attention.query_projection.weight f4 [16, 16]
0	0x3ccf3cca	0.025297541
1	0x3c75f24c	0.015011381
2	0x3d117a22	0.035516866
3	0xbc3f068e	-0.011659278
4	0xbd539be1	-0.05166233
5	0x3bea4673	0.0071495115
6	0x3cef4e1d	0.029212052
7	0x3d6d80e6	0.057984255
8	0x3c6628cd	0.014047814
9	0x3cdd1b27	0.026990486
10	0x3bc60471	0.00604301
11	0x3cdf7c93	0.027281081
12	0x3cd402bb	0.025880208
13	0x3d0cf99b	0.03441773
14	0x3ef40b0f	0.47664687
15	0x3bf8b5ed	0.0075900466
16	0x3d1cd355	0.03828748
17	0xbdc4986b	-0.09599384
18	0x3e2de612	0.16982296
19	0x3da32ecd	0.07967911
20	0xbd97ceb8	-0.07412475
21	0xbd9e654e	-0.07734166
22	0x3cfe0903	0.031010156
23	0x3d2d6bed	0.042339254
24	0x3d77a9b6	0.060464583
25	0x3dd51a29	0.1040538
26	0x3f2b156e	0.66829574
27	0x3e1536e2	0.14571717
28	0xbdf804b8	-0.12110275
29	0xbdc56367	-0.096381
30	0x3ef99bf6	0.487518
31	0x3d59ff8e	0.05322223
32	0x3b4f1660	0.003159903
33	0x3db455dd	0.088054396
34	0x3d6de23e	0.05807709
35	0x3ca087a5	0.01959593
36	0xbc4a479b	-0.012346174
37	0xbc34ff90	-0.011047259
38	0x3db88f08	0.09011656
39	0x3cea1869	0.028576093
40	0xbc42e68d	-0.011895788
41	0x3d9489c5	0.0725284
42	0x3d1e94c1	0.03871608
43	0x3ddc315c	0.10751602
44	0xbd8abbd0	-0.06774104
45	0x3dcdfb8d	0.10057745
46	0xbe3f4f1b	-0.1868252
47	0x3db8a84c	0.09016475
48	0xbcb0b8d0	-0.0215725
49	0xbdbeb34b	-0.09311541
50	0x3cc6080e	0.024173763
51	0x3d2aa5ed	0.041662145
52	0x3d2f8a96	0.042856775
53	0xbcdbbdc6	-0.02682389
54	0x3dd34f06	0.10317807
55	0x3d79f76f	0.061026987
56	0x3d0278ed	0.031853605
57	0xbd103b57	-0.03521284
58	0x3eb51dbe	0.35374254
59	0x3d7fd57b	0.06245945
60	0xbf6436cd	-0.8914612
61	0x3ddd82e3	0.1081598
62	0xbefbf56a	-0.49210674
63	0xbe0090f4	-0.12555295
64	0xbdad4dbb	-0.084620915
65	0xbdf08596	-0.117442295
66	0x3d6a5b7e	0.05721616
67	0x3e1a7c35	0.15086444
68	0xbe13047b	-0.14357178
69	0xbbb92724	-0.005650418
70	0x3e1e135d	0.15437074
71	0xba8ed9e5	-0.0010898678
72	0x3e19bf88	0.1501447
73	0xbe25a4cb	-0.16176145
74	0x3dbce911	0.092241414
75	0xbdae6569	-0.08515436
76	0xbea9cd2e	-0.33164352
77	0xbdab12b7	-0.08353179
78	0xbfa1d718	-1.2643766
79	0x3c9d5d38	0.01920949
80	0x3c30b101	0.0107843885
81	0x3c528848	0.012849875
82	0x393bdf6a	0.00017916938
83	0x3b8c07fa	0.004273412
84	0x3c852660	0.01625365
85	0x3ba4d789	0.0050305766
86	0xbc7bf4e0	-0.015378207
87	0x3b98c8fa	0.00466263
88	0xb9aeb7a3	-0.00033324686
89	0x3dab32a0	0.08359265
90	0x3bb0a98a	0.0053913044
91	0x3d2dcdf2	0.042432733
92	0x3c536b2c	0.01290397
93	0xbd1b4ef2	-0.037917085
94	0x3ff74005	1.9316412
95	0x3c1412b7	0.009037665
96	0x3d8edbbf	0.06975507
97	0x3ccf116a	0.025276858
98	0x3d1a7e16	0.0377179
99	0x3b52c756	0.003216227
100	0xbbd5bab7	-0.0065225023
101	0x3b291e96	0.0025805584
102	0xbd2b22b7	-0.041781154
103	0x3d861261	0.06546474
104	0x3d48837c	0.04895352
105	0x3cb6a28d	0.022294307
106	0x3b618c00	0.0034415722
107	0xbb765833	-0.0037589192
108	0xbc3b4aab	-0.011431376
109	0x3e01bf59	0.1267065
110	0xbe694157	-0.22778831
111	0xbdc9412a	-0.09826882
112	0xbdfce678	-0.12348646
113	0x3e05dcf3	0.13072567
114	0x3c902402	0.017595295
115	0xbca61075	-0.02027152
116	0xbe5b6d23	-0.21428351
117	0x3dd905be	0.10596798
118	0xbd15851d	-0.0365039
119	0x3a754042	0.00093555835
120	0x3d9644f0	0.073373675
121	0xbd7a47e1	-0.061103705
122	0x3e60865f	0.21926259
123	0x3cb8a2d1	0.022538574
124	0x3dfab923	0.12242343
125	0x3accb59f	0.0015618092
126	0x3a84b1d6	0.00101238
127	0x3d4c8094	0.04992731
128	0x3c386e9d	0.011256841
129	0x3cb47d94	0.022032537
130	0x3d8ca8d7	0.06868141
131	0x3cb3afab	0.021934351
132	0xbcecbba5	-0.02889807
133	0x3ded56c1	0.115888126
134	0x3d5c37c4	0.05376412
135	0x3cd4d4e5	0.025980422
136	0x3dbf11d1	0.0932957
137	0xbe476724	-0.19472939
138	0x3da690bd	0.081330754
139	0x3e5cf3dc	0.215774
140	0x3cad8217	0.021180196
141	0xbc557290	-0.013027802
142	0x3e17f17e	0.14838216
143	0x3c28415c	0.010269489
144	0xbd806a2b	-0.0627025
145	0xbd7899be	-0.060693495
146	0xbdc2e978	-0.09517187
147	0xbe03b441	-0.1286173
148	0xbd101eed	-0.035185743
149	0x3e03f2f7	0.12885652
150	0x3d986516	0.074411556
151	0xbd35f485	-0.044422645
152	0xbdc2a141	-0.09503413
153	0xbdab9992	-0.083789006
154	0x3e28b70f	0.16476081
155	0x3e9641b0	0.2934699
156	0x3d866105	0.06561474
157	0x3e811f80	0.25219345
158	0xbea41666	-0.3204834
159	0x3c6280b3	0.01382463
160	0x3d204744	0.039130464
161	0xbd13568b	-0.035971206
162	0xbd1ab1b5	-0.03776713
163	0xbc87f8b0	-0.016598076
164	0x39878aaa	0.0002585252
165	0x3c32992c	0.010900777
166	0x3cf197a4	0.029491253
167	0xbc839b67	-0.016065313
168	0xbd80e095	-0.062928356
169	0x3b900ccb	0.0043960563
170	0xbdab4fb6	-0.08364813
171	0x3d79b1b1	0.060960475
172	0x3e281da9	0.16417564
173	0xbd596309	-0.053072963
174	0xbd58c15b	-0.052918773
175	0xbca8c4ac	-0.020601593
176	0xbbba9ce8	-0.005694974
177	0x3d579cc2	0.05263973
178	0xbd57b3db	-0.052661758
179	0x3d4b153f	0.04958081
180	0x3b9df9fd	0.0048210607
181	0x3dab0f43	0.0835252
182	0x3d912cea	0.07088645
183	0xbd019942	-0.0316403
184	0xbbe46318	-0.0069698207
185	0xbcf817cc	-0.030284785
186	0xb9797f97	-0.00023794021
187	0x3ca07ea5	0.019591639
188	0xbd999711	-0.07499517
189	0x3de12625	0.109936036
190	0xbde930f3	-0.113862894
191	0x3a315945	0.00067653164
192	0xbc258b02	-0.010103943
193	0x3c14e116	0.009086868
194	0x3be8e04c	0.0071068164
195	0x3bc1b2cf	0.005911208
196	0x3c5f79b0	0.013639852
197	0x3c677cc9	0.014128872
198	0xbb7e8629	-0.003883729
199	0xba2947d2	-0.00064575404
200	0x3bcd5e5c	0.006267352
201	0xbbfd7b3a	-0.007735637
202	0x3bca7dc5	0.0061795437
203	0x3ca47c63	0.020078843
204	0xbca44147	-0.020050658
205	0x3c8164ea	0.01579519
206	0xbb3d77c0	-0.0028910488
207	0x3c887a32	0.01665983
208	0x3d4c5286	0.049883388
209	0x3b88f0c5	0.0041790926
210	0x3c1266c6	0.008935636
211	0xbd24225b	-0.040071826
212	0x3a94ab34	0.0011342526
213	0xbc61e3fc	-0.013787266
214	0x3c0e434b	0.008683036
215	0x3c7c2a3d	0.01539093
216	0x3d49311e	0.049119107
217	0x3c8ec06d	0.01742574
218	0x3ce81331	0.028329464
219	0xbd1fac63	-0.03898276
220	0xbe15b176	-0.14618477
221	0xbc488893	-0.012239593
222	0xbde92868	-0.1138466
223	0xbd153d8a	-0.03643564
224	0x3d1db4c0	0.038502455
225	0x3da3d1b8	0.07998985
226	0x3ca6c0c8	0.020355597
227	0x3bcbb7df	0.0062169875
228	0xbca27e90	-0.01983574
229	0x3d0bdd39	0.03414652
230	0x3cc8d469	0.024515348
231	0xbc0bb925	-0.008528029
232	0x3d8a5acf	0.067556016
233	0x3d46fb57	0.04857954
234	0x3da0ed32	0.078577414
235	0x3e3984c7	0.18117057
236	0x3d2abe65	0.04168548
237	0x3dcfe8dd	0.10151837
238	0x3f59c900	0.85072327
239	0xbd9ba3e8	-0.07599622
240	0xb8545511	-5.0623963e-05
241	0xbd7c8043	-0.061645757
242	0x3d33b34f	0.043872174
243	0x3cc15090	0.023597986
244	0xbc2311fb	-0.009953017
245	0xbb134ab5	-0.0022474949
246	0x3c97275d	0.018451387
247	0x3d3d5809	0.046226535
248	0x3b1f2dc1	0.0024288746
249	0xbd2daa64	-0.042398825
250	0xbd970f4d	-0.07375965
251	0xbdeb0624	-0.114757806
252	0xbc0e6aac	-0.008692425
253	0x3dae4323	0.08508899
254	0xbe937f67	-0.28808138
255	0xbce68506	-0.028139602

encoder.attn_layers.0.attention.query_projection.bias f4 [16]
0	0x3f01e4a3	0.50739497
1	0x3efbfc95	0.49216142
2	0x3e308a1d	0.17240186
3	0xbcd51a64	-0.02601356
4	0x3e34d117	0.17657886
5	0xbdb8f3bb	-0.09030863
6	0x3f0ad17d	0.54225904
7	0xbd839d6c	-0.0642651
8	0xbeb412b8	-0.3517053
9	0xbf134de1	-0.5754071
10	0xbcb79691	-0.022410663
11	0xbeaaae47	-0.33336088
12	0xbefc9fc0	-0.4934063
13	0x3e1e2662	0.1544433
14	0x3e4ab9bf	0.19797419
15	0x3f0ed9d6	0.5580114

encoder.attn_layers.0.attention.key_projection.weight f4 [16, 16]
0	0x3da45cdb	0.08025523
1	0xbcbfeaef	-0.023427455
2	0x3d01e119	0.03170881
3	0x3b524fdc	0.0032091057
4	0x3c702a2c	0.014658492
5	0xbe0b66ff	-0.13613509
6	0x3c647420	0.013943702
7	0x3d71e0cc	0.059052274
8	0xbdaffa7a	-0.085926965
9	0xbcecb1f7	-0.028893454
10	0x3c20625a	0.009789074
11	0x3dfccd0c	0.12343797
12	0x3e00b2b4	0.1256817
13	0xbddd92cb	-0.10819014
14	0x3decf1bb	0.11569544
15	0x3deced90	0.11568749
16	0x3d3b7349	0.04576424
17	0x3daf703b	0.08566328
18	0xbe4a95fe	-0.1978378
19	0xbe09dd8d	-0.13463421
20	0xbd2b74d8	-0.041859478
21	0x3f03322a	0.5124842
22	0xbd8412a9	-0.06448872
23	0xbeac2849	-0.33624485
24	0x3e159429	0.146073
25	0xbd662e9b	-0.05619679
26	0xbefb7dd8	-0.4911945
27	0x3ec5df4a	0.3864692
28	0x3f5795d1	0.84212977
29	0x3ecc6be5	0.39926067
30	0xbdd1f876	-0.10252468
31	0x3f4022f5	0.7505334
32	0xbcb7a85e	-0.02241915
33	0xbcef15db	-0.029185226
34	0xbc6c5061	-0.014423461
35	0xbd939a28	-0.07207137
36	0xbdc5e71f	-0.096632235
37	0x3e3cbdb5	0.18431742
38	0xbca7a995	-0.020466605
39	0xbe2ffb9b	-0.17185824
40	0xbd31f33c	-0.043444857
41	0xbe0ed06a	-0.13946691
42	0xbddd622b	-0.1080974
43	0x3da55839	0.08073468
44	0x3e7af619	0.24507941
45	0x3e119872	0.1421831
46	0xbe18df0a	-0.14928833
47	0x3e0c9a8b	0.13730828
48	0x3df16822	0.1178744
49	0xbd816d19	-0.06319637
50	0x3d564b0f	0.052317675
51	0xbe1ac29c	-0.151133
52	0x3dea9766	0.11454658
53	0xbe44eab0	-0.19230151
54	0xbe44a21e	-0.19202468
55	0xbe9233ad	-0.2855505
56	0xbd8bd49d	-0.06827662
57	0x3def8e10	0.11697018
58	0x3f0bd361	0.54619414
59	0x3e4e22f9	0.20130529
60	0xbc4dff7e	-0.012573121
61	0xbe99fe2a	-0.30076724
62	0x3e56fc3a	0.20994654
63	0x3ea467d8	0.32110476
64	0xbba61f04	-0.0050696153
65	0x3d8f08bf	0.0698409
66	0x3e3bb00d	0.18328877
67	0xbc9dcac1	-0.01926172
68	0x3e58bf54	0.21166736
69	0xbe25a461	-0.16175987
70	0xbcf8cb82	-0.030370478
71	0x3d300b7e	0.04297971
72	0xbe9482cb	-0.29006037
73	0x3e01e94f	0.12686656
74	0x3dc3ff9e	0.095702395
75	0x3e189790	0.14901567
76	0xbc9b4a32	-0.018956278
77	0xbd94db6b	-0.07268413
78	0x3e5633bb	0.20918171
79	0xbe516f6c	-0.2045266
80	0xbe810dc8	-0.25205827
81	0xbe5c246c	-0.21498269
82	0x3ef70c5e	0.48251623
83	0x3e9eba7e	0.31001657
84	0xbd8c46ad	-0.06849418
85	0xbf546523	-0.8296682
86	0x3ec281f3	0.37989768
87	0x3f5b3e56	0.8564199
88	0xbd6c33f0	-0.05766672
89	0xbe6e9133	-0.23297577
90	0x3f1ea79b	0.61974496
91	0xbe360079	-0.17773618
92	0xbeef481c	-0.46734703
93	0xbe7f186d	-0.24911661
94	0x3d7bda72	0.061487623
95	0xbed9fd58	-0.42576098
96	0xbdc60751	-0.09669364
97	0x3d625b96	0.055263124
98	0xbe5aaa8a	-0.21354118
99	0xbc14cdd2	-0.0090822745
100	0xbd300018	-0.04296884
101	0x3d6dcc2b	0.058056038
102	0x3b5bbcbf	0.003352925
103	0x3d0bbb67	0.034114268
104	0x3da41c5d	0.08013222
105	0x3a3c9200	0.00071933866
106	0xbe0f56bb	-0.13997929
107	0xbe38193b	-0.17978375
108	0xbd9b6530	-0.07587659
109	0xbda44da3	-0.080226205
110	0x3d6b4e04	0.05744745
111	0xbdd39d85	-0.10332779
112	0x3daceeaa	0.08443959
113	0xbdcc6a82	-0.09981252
114	0xbb403aff	-0.002933204
115	0xbd47474f	-0.04865199
116	0x3d202bbe	0.039104216
117	0x3d2e917a	0.042619206
118	0xbcfc6e89	-0.030814426
119	0xbda7a39f	-0.08185505
120	0x3d21e6ca	0.03952674
121	0x3c392f04	0.011302713
122	0x3e061c72	0.13096789
123	0x3d0ededd	0.034880508
124	0x3d680548	0.05664566
125	0xbc8886ac	-0.016665779
126	0x3d8ab552	0.06772865
127	0x3e099e34	0.13439256
128	0x3d5314b6	0.051533423
129	0x3dbff605	0.093730964
130	0x3c446520	0.011987001
131	0xbcde2db9	-0.027121412
132	0x3d4dc5e0	0.050237536
133	0x3aa17847	0.0012319171
134	0xbc3a2983	-0.011362436
135	0xbcd6ba6c	-0.02621194
136	0x3cf115d7	0.02942936
137	0x3dcba2e0	0.09943175
138	0xbda43817	-0.08018511
139	0xbc1948f1	-0.0093557695
140	0x3dd9b318	0.106298625
141	0xbdd0f735	-0.10203401
142	0x3db4efce	0.088348016
143	0xbbe176e6	-0.006880629
144	0x3e28b3be	0.16474816
145	0xbe3eba93	-0.1862586
146	0x3d080bac	0.033214256
147	0xbdcecacb	-0.100972734
148	0x3d926f4c	0.071501344
149	0xbe4842a4	-0.19556671
150	0x3dd4f943	0.103991054
151	0x3eb1d8aa	0.34735614
152	0xbd961ab3	-0.07329311
153	0x3d410633	0.047125053
154	0xbd27867e	-0.040899746
155	0xbd7b8e4c	-0.061415
156	0xbd0fea1d	-0.035135377
157	0x3e0aced0	0.13555455
158	0xbdb2556d	-0.087077
159	0x3df85a4c	0.12126598
160	0x3e1a628d	0.15076657
161	0xbd8f79db	-0.07005664
162	0x3c8dabd1	0.017293843
163	0xbd5dab6e	-0.054118566
164	0xbb473aa8	-0.0030399952
165	0x3d0ecc26	0.03486266
166	0xbcf74f04	-0.030189045
167	0x3d518177	0.051148858
168	0xbdd0940b	-0.10184487
169	0xbbb4f7c2	-0.005522699
170	0x3c87deb8	0.016585693
171	0x3d409e04	0.047025695
172	0xbca6471b	-0.020297578
173	0x3d9fad9f	0.077967875
174	0x3ab70fb8	0.0013966477
175	0xbcad4218	-0.02114968
176	0x3dd652ff	0.10465049
177	0x3d9dbba6	0.07701807
178	0xbc7a4154	-0.0152743645
179	0xbd71a240	-0.058992624
180	0x3d27df69	0.040984545
181	0x3e11b74a	0.14230075
182	0xbcc1ebee	-0.02367207
183	0xbe04aa78	-0.12955654
184	0x3d84cbd1	0.064841874
185	0x3d535efa	0.05160425
186	0xbd877601	-0.06614304
187	0xbca6b121	-0.020348134
188	0x3d4a6371	0.04941124
189	0x3d7c4229	0.061586533
190	0xbdbce9c1	-0.092242725
191	0xbd01587b	-0.031578522
192	0xbd4d8a5b	-0.050180774
193	0x3bf15dfe	0.007365941
194	0xbddfb33d	-0.10922859
195	0xbe0e8581	-0.13918115
196	0x3c7369c5	0.01485676
197	0x3d2c46c8	0.04205969
198	0xbd7b6d84	-0.06138374
199	0x3dde5db8	0.10857719
200	0xba3a0f1d	-0.0007097589
201	0xbc2430be	-0.010021387
202	0xbcbd7900	-0.023128986
203	0x3e147e52	0.14501312
204	0x3c8b34c8	0.016992941
205	0xbdab7a09	-0.08372886
206	0x3df3426b	0.118779026
207	0xbd2677f1	-0.04064173
208	0x3d11ccd0	0.035595715
209	0x3d35e2b8	0.04440567
210	0xbcda492f	-0.026646225
211	0x3d243607	0.040090587
212	0x3ccca084	0.024978884
213	0x3dac2661	0.08405758
214	0xbbaced38	-0.005277302
215	0xbd9cdf52	-0.076597825
216	0xbdae2f61	-0.085051306
217	0x3d8b149f	0.067910425
218	0xbd4d71f2	-0.050157495
219	0xbd77e725	-0.06052317
220	0x3d064688	0.032782108
221	0xbe228db5	-0.1587437
222	0xbe0ad3fa	-0.13557425
223	0xbca6a3be	-0.02034175
224	0x3c6e88f0	0.014559016
225	0xbcdba082	-0.026809935
226	0x3d3c2ee2	0.04594315
227	0xbc590976	-0.013246885
228	0x3c0d386d	0.00861941
229	0xbb1c64ff	-0.002386391
230	0x3c396306	0.011315113
231	0xbd4791cc	-0.048723027
232	0x3e75fdf4	0.24022657
233	0xbccde05a	-0.025131393
234	0x3d5390a1	0.0516516
235	0x3df0c683	0.11756613
236	0xbcda1ea1	-0.026625933
237	0x3d2f89df	0.042856093
238	0x3ce119b7	0.027478082
239	0x3e158483	0.1460133
240	0x3d8daab1	0.069173224
241	0xbb2085b3	-0.0024493753
242	0x3c605c30	0.013693854
243	0xbbcf5351	-0.0063270708
244	0x3d0b4961	0.034005526
245	0xbd10306f	-0.03520244
246	0xbd20dc0d	-0.039272357
247	0xbcb0a0ab	-0.021560987
248	0xbe303f57	-0.17211662
249	0x3d0a6eb1	0.03379697
250	0x3d0d184d	0.034447003
251	0xbcf2cb4e	-0.029637959
252	0xbc2f2619	-0.0106902355
253	0xbe023ceb	-0.12718551
254	0x3d34e8d2	0.044167347
255	0x3c62c34c	0.013840508

encoder.attn_layers.0.attention.key_projection.bias f4 [16]
0	0x3cc8c22b	0.024506649
1	0xbdef401b	-0.11682149
2	0x3e7fb8ff	0.24972914
3	0xbe1ba843	-0.15200906
4	0x3d98ab40	0.07454538
5	0x3c7e675c	0.0155275725
6	0xbdfce85e	-0.12349008
7	0xbe380e41	-0.17974187
8	0xbe597789	-0.21237005
9	0x3e7185df	0.23586224
10	0x3dbe3b9d	0.09288714
11	0xbe5fa450	-0.21840024
12	0x3e737d9d	0.23778386
13	0xbe106853	-0.14102297
14	0xbdede895	-0.11616627
15	0x3d237698	0.03990802

encoder.attn_layers.0.attention.value_projection.weight f4 [16, 16]
0	0xbe84dba6	-0.25948828
1	0x3d96bf8c	0.073607534
2	0xbef3e1fc	-0.4763335
3	0x3e583703	0.21114735
4	0xbe2811e4	-0.16413075
5	0x3e76f618	0.24117315
6	0x3d69e497	0.057102766
7	0x3e392ac4	0.1808272
8	0x3e40d7b4	0.18832284
9	0xbe4b15bb	-0.19832508
10	0xbee48bbf	-0.44637868
11	0xbe0dbb03	-0.1384087
12	0xbe1d608b	-0.1536886
13	0x3d32507b	0.043533783
14	0xbe8027f8	-0.25030494
15	0x3de3d885	0.11125282
16	0x3b359363	0.0027706258
17	0xbd15fb38	-0.036616534
18	0xbcb204d8	-0.021730825
19	0xbcf3d9aa	-0.029766876
20	0x3afe8ed8	0.0019421233
21	0x3db4f69e	0.08836101
22	0xbc4fe75b	-0.012689437
23	0xbc8765e5	-0.01652808
24	0x3b7c47ac	0.0038494868
25	0x3b387998	0.0028148647
26	0xbe3e487e	-0.18582341
27	0xbdced682	-0.10099508
28	0x3e981061	0.29699996
29	0xbe0d8e77	-0.13823877
30	0xbd785577	-0.06062838
31	0x3df3136a	0.11868937
32	0xbe8b9c0b	-0.2726749
33	0xbe87f955	-0.26557413
34	0x3ecde5d6	0.40214413
35	0x3e55ee7c	0.20891756
36	0x3d5db7cf	0.05413037
37	0xbe7566dc	-0.23965019
38	0x3e52bcb6	0.205798
39	0x3ed362a9	0.4128621
40	0xbe4ade0e	-0.1981127
41	0xbdf0c961	-0.1175716
42	0x3e270f83	0.16314511
43	0xbe633930	-0.22189784
44	0xbebbc187	-0.36671087
45	0xbe6b6e34	-0.22991258
46	0x3e06e25b	0.13172285
47	0x3dec6d4d	0.11544285
48	0x3d1446e1	0.036200408
49	0x3bec2493	0.0072065084
50	0xbc481776	-0.012212625
51	0xbd31202d	-0.043243576
52	0x3cc1f8eb	0.023678264
53	0xbd85eef0	-0.06539714
54	0xbd4f6b9e	-0.05063974
55	0xbdb5c85f	-0.088761084
56	0xbbf3af71	-0.0074366857
57	0x3ca0e52a	0.019640524
58	0x3e5ea362	0.21742013
59	0x3d80818b	0.06274708
60	0x3c118056	0.008880695
61	0xbd62709d	-0.055283178
62	0x3d75a082	0.059967525
63	0x3deb9849	0.115036555
64	0x3d341d0a	0.043973006
65	0xbd5d51f6	-0.054033242
66	0xbd8f5f48	-0.07000595
67	0x3b6fd651	0.0036596248
68	0xbddba4b0	-0.10724771
69	0x3d830d87	0.063990645
70	0x3c16a4d6	0.009194573
71	0xbd64be2b	-0.05584542
72	0x3dff4266	0.12463836
73	0xbcdf8bfd	-0.027288431
74	0xbcbac6fc	-0.022799961
75	0xbe0360ac	-0.12829846
76	0xbd09832f	-0.033572372
77	0x3dbc4f04	0.091947585
78	0xbdedb485	-0.11606697
79	0x3e0796b8	0.13241088
80	0xbe0e7454	-0.13911563
81	0xbe0cb2d9	-0.137401
82	0x3e5e51f4	0.2171095
83	0x3e0a92e5	0.13532598
84	0x3be3145b	0.006929917
85	0xbef0ebfe	-0.47055048
86	0x3e1d0c96	0.15336832
87	0x3f027720	0.5096302
88	0xbccb0f2c	-0.024787508
89	0xbe1784e7	-0.14796792
90	0x3ed972fb	0.42470536
91	0xbd269fdc	-0.040679798
92	0xbe4166ba	-0.18886843
93	0x3cb70a42	0.022343758
94	0xbcde689f	-0.027149497
95	0xbd1c5354	-0.038165405
96	0x3c9a012f	0.018799393
97	0xbdf5fdc7	-0.12011295
98	0xbda9f1fa	-0.082981065
99	0xbde93474	-0.11386958
100	0x3dcc520f	0.09976589
101	0xbe2147bf	-0.15750025
102	0xbd990dfd	-0.07473371
103	0x3bf2f0aa	0.0074139433
104	0xbe55fc3d	-0.20897003
105	0xbc80e89b	-0.015735915
106	0x3d7444a4	0.059635773
107	0x3d84df05	0.0648785
108	0x3e33dae4	0.17563969
109	0xbe4dfbf6	-0.20115647
110	0x3eba5bb2	0.36398083
111	0x3e2e693b	0.1703233
112	0xbc16c93a	-0.00920325
113	0xbeab5be5	-0.33468547
114	0xbd6a7bbd	-0.057246912
115	0xbe228c56	-0.15873846
116	0xbde5b920	-0.112169504
117	0x3deaf5bc	0.11472651
118	0xbd37cb15	-0.04487141
119	0x3d145e3c	0.03622268
120	0x3db86a8f	0.090046994
121	0xbe09509b	-0.13409655
122	0x3e82b98d	0.2553219
123	0x3ecc6518	0.39920878
124	0x3cb0a437	0.021562679
125	0x3dc3e6c7	0.09565502
126	0x3d837c1f	0.064201586
127	0x3e98c8c9	0.29840687
128	0xbe70f862	-0.2353225
129	0xbdf04142	-0.11731197
130	0xbd125513	-0.035725664
131	0x3bbcef41	0.005765826
132	0xbc94d6d8	-0.018168852
133	0xbe6b2e8c	-0.22966975
134	0x3e5d891c	0.21634334
135	0x3cb0a4e9	0.02156301
136	0x3e8016bb	0.25017342
137	0xbdb542e4	-0.08850649
138	0x3e5c6164	0.21521527
139	0x3da6837b	0.08130547
140	0xbe3a13ce	-0.18171617
141	0xb75b2412	-1.30618155e-05
142	0x3df40993	0.11915889
143	0xbd006323	-0.031344544
144	0xbde544cf	-0.11194765
145	0x3e8ffa88	0.28120828
146	0xbdab3511	-0.08359731
147	0x3e4c097d	0.19925494
148	0x3deffe00	0.117183685
149	0x3e15dcbe	0.14634988
150	0xbd8f6b36	-0.07002871
151	0xbf19635e	-0.5991725
152	0x3ea13b3f	0.31490514
153	0xbe6e2ee8	-0.23260081
154	0x3ce09790	0.02741602
155	0x3de9dd51	0.11419166
156	0x3e0d44d4	0.13795787
157	0x3ea5604e	0.32300037
158	0x3dda409a	0.10656853
159	0x3e9b9df6	0.30393952
160	0x3e35ccb7	0.17753874
161	0x3ee447f0	0.44586134
162	0xbe24340f	-0.16035484
163	0xbea8b7b4	-0.32952654
164	0x3e15be1a	0.14623299
165	0xbe5bf463	-0.21479945
166	0xbe6a9f3b	-0.22912304
167	0xbeb80f64	-0.35949242
168	0xbe7a9158	-0.24469507
169	0xbccce069	-0.02500935
170	0xbe4f56d7	-0.2024797
171	0xbe035e22	-0.12828878
172	0x3d845794	0.06462017
173	0xbe753c1c	-0.23948711
174	0x3a7d4e1d	0.0009662824
175	0xbc440f0a	-0.011966476
176	0x3e49db76	0.19712624
177	0x3e3657f1	0.17806984
178	0xbdfbaec7	-0.122891955
179	0xbea05ea8	-0.31322217
180	0xbdc03e03	-0.09386828
181	0x3e8509f1	0.25984147
182	0xbe40d0ff	-0.18829726
183	0xbec77425	-0.389558
184	0xbea695e4	-0.32536232
185	0xbddb5315	-0.10709206
186	0xbea7ab27	-0.32747766
187	0xbd92b44f	-0.071632974
188	0x3d83a21b	0.064274035
189	0xbd015432	-0.031574436
190	0xbe61f3bb	-0.22065632
191	0xbd22a054	-0.039703682
192	0x3f3ebb69	0.74504715
193	0x3f042acb	0.51627797
194	0xbe0bfa2b	-0.1366965
195	0xbed4a63e	-0.41533083
196	0x3e8a9d21	0.27073005
197	0xbe37e0b1	-0.17956807
198	0xbf0ee74d	-0.55821687
199	0xbf6b1282	-0.91825116
200	0xbec3f8e9	-0.3827584
201	0x3e97f592	0.29679543
202	0x3e0f764e	0.14009973
203	0x3e26dbb8	0.16294754
204	0x3ed568cd	0.4168152
205	0xbeb895c8	-0.36051774
206	0x3eac00ac	0.33594263
207	0xbe19f882	-0.15036204
208	0x3ed57716	0.41692418
209	0x3daaa755	0.08332697
210	0xbbe2234d	-0.006901181
211	0xbf317b95	-0.69329196
212	0x3e9f119f	0.3106813
213	0xbf211631	-0.62924486
214	0xbe936245	-0.2878591
215	0xbee022ec	-0.43776643
216	0xbe531dd0	-0.20616841
217	0x3eba57b5	0.3639504
218	0x3dffd386	0.12491517
219	0x3e9fc267	0.31203005
220	0x3e5612e0	0.20905638
221	0x3e2d8e7c	0.16948885
222	0x3f0a8360	0.5410671
223	0x3dc06298	0.09393805
224	0x3d1684b7	0.03674766
225	0xbe3be259	-0.18348064
226	0xbd319f4a	-0.0433648
227	0x3d8cb02a	0.06869538
228	0xbe5872be	-0.2113752
229	0x3e932c01	0.2874451
230	0xbca6e6bb	-0.020373693
231	0xbea33b39	-0.3188112
232	0x3ef2917e	0.47376627
233	0xbe850865	-0.25982967
234	0x3dace366	0.0844181
235	0x3df8af61	0.12142826
236	0x3c7d2a0e	0.015451921
237	0xbdb209a0	-0.08693242
238	0x3be37859	0.006941837
239	0x3d28f695	0.041250784
240	0xbdd8687f	-0.10566806
241	0xbb470be8	-0.0030372087
242	0x3d465731	0.048422996
243	0x3e76141f	0.24031113
244	0xbe293a67	-0.16526185
245	0x3e20d004	0.15704352
246	0x3e180fc6	0.14849767
247	0xbe0f5b94	-0.13999778
248	0x3e15ed42	0.14641288
249	0xbed69d4f	-0.41916892
250	0xbe853e71	-0.26024202
251	0xbe6b5975	-0.22983344
252	0xbde9662b	-0.1139644
253	0xbe7164d6	-0.23573622
254	0xbea467ab	-0.32110342
255	0xbe9ae800	-0.30255127

encoder.attn_layers.0.attention.value_projection.bias f4 [16]
0	0x3d9bb3ca	0.076026514
1	0xbdb868e0	-0.09004378
2	0x3dfc5041	0.12319995
3	0x3cbe4759	0.02322738
4	0xbe86a11c	-0.26294792
5	0xbe52ccbd	-0.20585914
6	0xbd9fcab7	-0.07802337
7	0x3eae8020	0.34082127
8	0x3d121789	0.035666976
9	0x3e8b0c15	0.27157655
10	0x3e34c243	0.1765223
11	0xbe605282	-0.21906474
12	0x3d83e33c	0.06439826
13	0x3e0bb0aa	0.1364161
14	0x3e8e8ea1	0.27843192
15	0x3d6c00bd	0.05761789

encoder.attn_layers.0.attention.out_projection.weight f4 [16, 16]
0	0x3e9ef187	0.31043646
1	0xbe9dab0b	-0.30794558
2	0x3e273d49	0.16331972
3	0xbe241382	-0.16023067
4	0x3ca3c006	0.019989025
5	0xbda20391	-0.079108365
6	0x3eba9aac	0.3644613
7	0x3e9fad4e	0.31186908
8	0xbd234d8c	-0.039868876
9	0xbea17234	-0.31532443
10	0x3daa7f83	0.08325102
11	0xbdc64efb	-0.09683033
12	0x3f0253d6	0.50909173
13	0xbe59f77b	-0.21285813
14	0x3e2e8c57	0.17045723
15	0x3eaa7be0	0.33297634
16	0xbe19630c	-0.1497919
17	0xbd8cacdc	-0.06868908
18	0x3e9bf14e	0.30457538
19	0x3eaf1121	0.34192756
20	0xbe2c6775	-0.1683634
21	0xbe3ae419	-0.18251075
22	0xbd0884db	-0.033329826
23	0xbec6b0f0	-0.38806868
24	0x3e63b58e	0.22237226
25	0xbe5938e0	-0.21213102
26	0x3ee77f38	0.45214248
27	0xbf019864	-0.50623155
28	0xbed010c4	-0.4063779
29	0xbdc99b55	-0.0984408
30	0xbea87fa3	-0.3290988
31	0xbe43ae2a	-0.19109407
32	0x3e108159	0.14111842
33	0xbe0480b5	-0.12939723
34	0x3e241ca9	0.16026558
35	0x3df00b7a	0.11720939
36	0xbe3be92f	-0.18350671
37	0xbc9de22a	-0.019272882
38	0x3e4b84de	0.19874904
39	0x3e7ad59b	0.24495547
40	0xbd69d5b3	-0.057088565
41	0xbd07562a	-0.033041157
42	0x3db2527e	0.087071404
43	0x3e988972	0.29792362
44	0xbdd313d8	-0.10306519
45	0xbeb4b8d7	-0.35297272
46	0xba8a65c1	-0.001055889
47	0x3e6c29be	0.23062798
48	0x3d3e1e02	0.046415336
49	0xbddaeadc	-0.10689327
50	0xbda6eaef	-0.08150279
51	0x3e947899	0.2899826
52	0xbe53043a	-0.20607081
53	0xbf3e02f4	-0.74223256
54	0x3cf45063	0.029823488
55	0x3e5b44b9	0.21412934
56	0xbe2c2492	-0.16810825
57	0xbe6a8ad4	-0.22904521
58	0xbeac41cb	-0.33643946
59	0x3e1dfe9e	0.1542916
60	0x3e9ab380	0.30215073
61	0x3f3cba75	0.7372201
62	0xbedca38f	-0.43093535
63	0xbe079e0d	-0.13243885
64	0xbf42b1f8	-0.7605281
65	0x3e571c31	0.21006848
66	0x3dbabe46	0.09118323
67	0xbe9db39d	-0.30801097
68	0xbc10bb81	-0.008833767
69	0xbd082d95	-0.033246595
70	0x3de3a0b6	0.111146376
71	0x3e136c17	0.14396702
72	0x3ec050ec	0.37561738
73	0xbd3b093b	-0.0456631
74	0xbd1973fd	-0.03746413
75	0xbe998fc0	-0.29992485
76	0xbf496937	-0.7867617
77	0x3e8aa42f	0.27078387
78	0x3d30b135	0.043137748
79	0x3c437365	0.011929368
80	0xbce05cc2	-0.02738798
81	0x3e5d629e	0.2161965
82	0xbe7c5035	-0.24639972
83	0xbdd22ae1	-0.10262085
84	0xbe061d37	-0.13097082
85	0xbea7d427	-0.32779047
86	0xbee18be9	-0.44052055
87	0xbc1482f8	-0.0090644285
88	0x3d06f32f	0.03294676
89	0xbe29ad82	-0.16570094
90	0x3d4b6bb8	0.049663275
91	0xbe4f9103	-0.20270161
92	0xbf0863c7	-0.5327725
93	0x3df9c336	0.12195437
94	0xbe0b9244	-0.13630015
95	0xbd7a9a4e	-0.061182313
96	0x3e77ad8e	0.241873
97	0x3e184402	0.14869693
98	0x3e7c17cd	0.24618454
99	0xbe77a2c2	-0.24183181
100	0x3dfcf0db	0.12350627
101	0x3e49a493	0.19691686
102	0xbeb8bb30	-0.36080313
103	0x3e144dd0	0.14482808
104	0xbd8ab5da	-0.06772967
105	0x3e943e75	0.289539
106	0xbebb087c	-0.3652991
107	0xbe7416f7	-0.23836885
108	0x3d936343	0.07196667
109	0xbe81bcdd	-0.25339404
110	0xbe8bbd65	-0.27292934
111	0xbdbb9f4b	-0.09161242
112	0x3f13df4f	0.57762617
113	0xbc106fc6	-0.008815711
114	0xbc8e007a	-0.017334212
115	0xbe324862	-0.17410424
116	0x3cfe36fe	0.031032082
117	0xbe38f6ab	-0.18062846
118	0x3e1b5b6d	0.15171595
119	0xbd6adc60	-0.057339072
120	0x3dd9b536	0.10630266
121	0x3d9fed65	0.07808951
122	0x3d62d34a	0.055377282
123	0x3be09502	0.0068537006
124	0xbdedc404	-0.11609653
125	0xbe3caaba	-0.18424502
126	0x3ea16b87	0.3152735
127	0x3d641ab1	0.055689517
128	0xbe34b9f1	-0.17649056
129	0x3df31492	0.11869158
130	0xbe146f28	-0.14495528
131	0x3d92dc0b	0.07170876
132	0x3d88797f	0.066637985
133	0xbd088194	-0.0333267
134	0x3bb57472	0.005537563
135	0x3e03bc8e	0.12864897
136	0x3b016d37	0.0019748935
137	0xbe8f6514	-0.28006804
138	0x3e702bad	0.23454161
139	0x3e54eb3e	0.20792863
140	0xbd2c2156	-0.04202398
141	0xbed52d30	-0.41636038
142	0xbe301148	-0.17194092
143	0xbe089186	-0.13336763
144	0x3e3d2a7a	0.18473235
145	0xbe920690	-0.28520632
146	0x3eeb1ae8	0.45918965
147	0xbe75b741	-0.23995687
148	0x3e8fe18a	0.2810176
149	0x3dd0388d	0.10167036
150	0x3e6f57aa	0.23373285
151	0xbe0bdec8	-0.13659203
152	0xbe8be49b	-0.2732285
153	0xbe2614e4	-0.16218907
154	0x3dbfa2d0	0.09357226
155	0xbe19fb1f	-0.15037201
156	0x3e973e59	0.29539755
157	0x3dbc2db6	0.09188406
158	0x3c547485	0.012967234
159	0x3ee5cf2f	0.4488463
160	0xbe53f16e	-0.20697567
161	0xbd876998	-0.06611937
162	0xbe35fdf6	-0.1777266
163	0x3e1b9261	0.15192558
164	0xbd5cf3f0	-0.053943574
165	0xbd0a25b3	-0.03372736
166	0x3bd678ab	0.0065451465
167	0xbe7186e9	-0.2358662
168	0x3e2a5d0a	0.16637054
169	0x3eb9ce68	0.36290288
170	0x3e34ac8c	0.17643946
171	0xbe42112f	-0.18951868
172	0x3e17493c	0.1477403
173	0xbe66aa64	-0.22525936
174	0x3caea309	0.021317976
175	0x3d54f48f	0.05199104
176	0xbd052344	-0.032504335
177	0x3d9a8545	0.075449504
178	0x3d1a7cbd	0.037716616
179	0x3e160784	0.14651304
180	0xbc6dd375	-0.014515747
181	0x3e1565ae	0.14589569
182	0xbd41c8ae	-0.047310524
183	0x3b910921	0.004426137
184	0xbe0bc825	-0.13650568
185	0x3e85b8f3	0.26117668
186	0x3d2f956c	0.04286711
187	0xbde6fef8	-0.112791
188	0xbdf53475	-0.11972896
189	0xbda075b8	-0.07834953
190	0x3e9d5f13	0.30736598
191	0xbd5526f8	-0.052039117
192	0xbde73cd9	-0.11290903
193	0x3d88e496	0.06684224
194	0xbd67c4ef	-0.056584295
195	0xbd587a2e	-0.052850895
196	0x3e6e3a3e	0.23264405
197	0xbd3583e4	-0.044315234
198	0xbd9c1fa8	-0.076232255
199	0xbe0d1f8c	-0.13781565
200	0x3dba6be5	0.091026105
201	0xbd1497f3	-0.036277723
202	0xbea40b30	-0.32039785
203	0x3e3d2147	0.18469726
204	0x3e1fe8df	0.15616177
205	0x3ee804c8	0.45316148
206	0xbd6f27b6	-0.05838748
207	0x3db694a4	0.0891507
208	0xbce846d4	-0.028354086
209	0xbe1a0756	-0.15041861
210	0x3dbb23a1	0.09137655
211	0xbd764fbb	-0.06013463
212	0x3cb91241	0.022591712
213	0xb99a156a	-0.00029389124
214	0xbe3ebe20	-0.18627214
215	0x3e4d8480	0.20070076
216	0xbd326223	-0.04355062
217	0x3e767920	0.24069643
218	0xbda03331	-0.07822264
219	0x3e5cf26e	0.21576855
220	0xbde3ac01	-0.111167915
221	0xbdc51b99	-0.096244045
222	0xbd169e21	-0.036771897
223	0xbb995fbd	-0.0046806023
224	0xbd5f8942	-0.05457426
225	0x3d68a6f6	0.05679985
226	0xbc65923c	-0.014011916
227	0x3cd697d0	0.026195437
228	0xbcf6ba1b	-0.030118039
229	0x3dcb271c	0.09919569
230	0xbd9a0369	-0.07520182
231	0xbdbe16f5	-0.092817225
232	0xbcca396c	-0.024685584
233	0xbd419511	-0.0472613
234	0xbcadd284	-0.021218546
235	0x3e4e0c55	0.20121892
236	0xbd069fad	-0.032867122
237	0x3c936736	0.01799355
238	0xbdbefa43	-0.093250774
239	0xbd8cfde9	-0.06884367
240	0xbd3bc069	-0.045837793
241	0xba652592	-0.0008741255
242	0x3d8e4b01	0.069478996
243	0xbd0025e3	-0.03128613
244	0xbd38d9de	-0.04512965
245	0xbc01d95b	-0.007925357
246	0xbde225fb	-0.110424004
247	0x3c2a96eb	0.010411958
248	0xbe1c1a49	-0.15244402
249	0xbdc5cde1	-0.09658409
250	0x3e06d6fd	0.13167949
251	0x3da3f4ff	0.08005714
252	0xbde4c6d8	-0.11170739
253	0x3d99646d	0.07489858
254	0x3e5bd76e	0.21468899
255	0x3daec6fe	0.085340485

encoder.attn_layers.0.attention.out_projection.bias f4 [16]
0	0xbe9435b0	-0.2894721
1	0xbd9e9f3d	-0.07745216
2	0xbe59d636	-0.21273121
3	0x3e836907	0.25666067
4	0x3e331890	0.17489839
5	0x3eae86a4	0.34087098
6	0x3df21584	0.1182051
7	0xbd28ccfa	-0.041211106
8	0xbea7b39a	-0.32754213
9	0xbe9de772	-0.3084064
10	0x3da8c360	0.0824039
11	0x3d817648	0.063213885
12	0x3e7f8f56	0.24957022
13	0xbbe8e8f1	-0.007107847
14	0xbe865d61	-0.26243117
15	0x3d76d820	0.060264707

encoder.attn_layers.0.conv1.weight f4 [64, 16, 1]
0	0xbcaed1d6	-0.021340292
1	0xbe599cb9	-0.21251191
2	0x3e893062	0.26794726
3	0x3e6e0d90	0.23247361
4	0xbe16b69c	-0.14718097
5	0xbe38e535	-0.18056186
6	0x3e2c6129	0.16833939
7	0x3f086179	0.5327373
8	0xbdb5df96	-0.08880536
9	0x3c498703	0.012300256
10	0x3f0c72d3	0.5486271
11	0xbe4b88db	-0.19876425
12	0xbe365c14	-0.17808563
13	0xbf16fbfc	-0.5897825
14	0x3f559b70	0.83440304
15	0xbf96d1c6	-1.1782768
16	0x3c79a0cf	0.015236094
17	0xbe4bc694	-0.1989997
18	0xbe776cdc	-0.2416262
19	0x3e001ad8	0.1251024
20	0x3cc96c55	0.02458779
21	0xbdbf326e	-0.093357906
22	0x3e065c27	0.13121091
23	0xbe180788	-0.14846623
24	0x3c9f1ff6	0.01942442
25	0x3d22ed46	0.039777063
26	0xbde77ccf	-0.11303102
27	0xbdace88e	-0.08442794
28	0x3ef9e35f	0.48806283
29	0x3e78493a	0.24246684
30	0xbf1669ba	-0.58755076
31	0xbe063bd1	-0.13108756
32	0xbd0758a6	-0.033043526
33	0x3e07e4e1	0.13270904
34	0xbdce0a6d	-0.10060582
35	0x3e168542	0.14699271
36	0xbdfa788a	-0.12230022
37	0x3e5b0e82	0.21392253
38	0xbd092a93	-0.033487868
39	0x3f00e74e	0.5035294
40	0x3d758954	0.05994542
41	0xbe5cdddb	-0.21569006
42	0xbf50cc61	-0.8156186
43	0xbf83adff	-1.0287474
44	0x3ef2e003	0.47436532
45	0x3d45dd31	0.048306648
46	0xbebf9835	-0.37420812
47	0xbe4cae60	-0.19988394
48	0x3e48b4b0	0.19600177
49	0x3f2f01cb	0.6836211
50	0x3e766861	0.24063255
51	0x3d4b9f57	0.049712505
52	0x3e2f405e	0.17114398
53	0xbea17bb9	-0.31539705
54	0xbdcfb3e3	-0.101417325
55	0x3f259c1b	0.64691323
56	0xbe207ed8	-0.15673387
57	0x3e92bfb7	0.28661892
58	0x3e2cddef	0.16881536
59	0xbea50ba4	-0.32235444
60	0x3f02e42b	0.51129407
61	0xbe5dfa5d	-0.21677537
62	0x3f002f33	0.5007202
63	0xbf7ec673	-0.9952156
64	0x3ea35cf2	0.3190685
65	0x3e9ee120	0.31031132
66	0xbea150ca	-0.3150695
67	0x3cb49886	0.022045385
68	0xbe0e448f	-0.1389334
69	0x3c90697a	0.01762842
70	0x3eb6d32c	0.35707986
71	0xbe8bb979	-0.27289942
72	0xbe45a2cf	-0.19300388
73	0xbee03005	-0.43786636
74	0x3d60d25f	0.054888126
75	0x3bf2271d	0.0073899166
76	0x3eec90c6	0.46204203
77	0xbe82cbf6	-0.25546235
78	0x3ee4c2fb	0.44680008
79	0x3e959503	0.2921525
80	0x3b765eff	0.0037593243
81	0xbe78a244	-0.2428065
82	0xbcf54c89	-0.029943721
83	0xbd9d73c3	-0.076880954
84	0x3d9e7b8a	0.07738407
85	0xbe9039dd	-0.28169146
86	0xbe47c1ef	-0.19507574
87	0xbed7e32f	-0.42165515
88	0xbf071ca3	-0.5277807
89	0x3d394f79	0.045241807
90	0xbe10b5fe	-0.14131925
91	0x3e201fda	0.1563715
92	0x3f02c15f	0.5107631
93	0xbd4b181f	-0.04958355
94	0x3f45a68c	0.77207255
95	0x3d379f4e	0.04482966
96	0x3d24db88	0.040248424
97	0xbc0f3950	-0.008741692
98	0xbda8089b	-0.08204766
99	0xbde0a50f	-0.109689824
100	0xbe4ddf8e	-0.2010481
101	0xbed0af20	-0.4075861
102	0xbe235a19	-0.15952338
103	0xbe98499c	-0.2974366
104	0xbf2ab3fb	-0.6668088
105	0x3eabd78e	0.33562893
106	0xbdaf12d4	-0.08548513
107	0x3dedcc49	0.1161123
108	0x3e8f83dc	0.28030288
109	0x3edf27d0	0.43585062
110	0x3f431296	0.76200235
111	0x3dcbaad1	0.0994469
112	0xbd13eca5	-0.036114354
113	0xbe0a5e50	-0.1351254
114	0xba3b29ee	-0.0007139732
115	0xbcf515fc	-0.02991771
116	0x3e50c477	0.20387445
117	0xbea304a1	-0.3183947
118	0x3d93188c	0.07182416
119	0x3e5f0263	0.21778254
120	0x3ebc291f	0.36750123
121	0x3e9a47a3	0.3013278
122	0xbe8666cd	-0.26250306
123	0xbd1a77b7	-0.037711825
124	0xbe9b97ec	-0.30389345
125	0x3ebd7aac	0.37007654
126	0x3eb632a0	0.355855
127	0xbe1d3b8a	-0.15354744
128	0x3e065df0	0.13121772
129	0xbe56a201	-0.20960237
130	0xbe7a62d7	-0.24451767
131	0x3e2dc456	0.16969427
132	0x3e14b72d	0.14523001
133	0x3e9f89ee	0.3115992
134	0xbe45d1ac	-0.19318265
135	0xbdd55d87	-0.104182296
136	0xbe85362c	-0.26017892
137	0xbd798c03	-0.06092454
138	0xbdf39b96	-0.1189491
139	0xbcf60bf4	-0.030034997
140	0xbcec89fa	-0.028874386
141	0xbec8832d	-0.3916258
142	0xbec25169	-0.37952736
143	0xbe3f23b5	-0.18665965
144	0x3e8dd887	0.2770426
145	0x3e0f1566	0.13973007
146	0x3e235f31	0.15954281
147	0xbcff8fa8	-0.03119643
148	0xb928a52d	-0.00016083261
149	0xbe86f34a	-0.2635749
150	0xbe734e09	-0.23760237
151	0x3ee0284c	0.43780744
152	0xbf1d1eb2	-0.6137496
153	0x3f0722c0	0.527874
154	0xbf64d4a9	-0.89386994
155	0x3cc406d1	0.023929032
156	0x3ee06d9d	0.43833628
157	0x3e936393	0.28786907
158	0xbead0008	-0.33789086
159	0xbe13b35d	-0.1442389
160	0x3cf00201	0.02929783
161	0xbeb19e76	-0.3469121
162	0x3e44eece	0.19231722
163	0xbe7efc97	-0.24901043
164	0xbdabaa9d	-0.08382151
165	0xbe1f05d4	-0.15529567
166	0xbe8ce9e1	-0.27522185
167	0xbe3afeb5	-0.18261226
168	0x3e1603bc	0.14649862
169	0x3d1cd896	0.03829249
170	0xbeab57fa	-0.33465558
171	0xbdb5e81d	-0.08882163
172	0x3eb2ce31	0.34922937
173	0xbda6df65	-0.08148078
174	0x3f9c222a	1.2197926
175	0x3e2ae773	0.16689853
176	0x3e25d843	0.16195779
177	0x3e9b26cb	0.30303034
178	0x3edfc67e	0.43706125
179	0x3d8dab4f	0.0691744
180	0xbf6495f4	-0.8929131
181	0xbe92f74c	-0.28704298
182	0x3e07e711	0.13271739
183	0x3f25f6ea	0.64829886
184	0x3ed4ba8c	0.41548574
185	0x3d1b59cc	0.037927434
186	0xbe8f9ec4	-0.28050816
187	0xbf788dee	-0.9709157
188	0x3dd63acb	0.104604326
189	0xbd2e36e5	-0.04253282
190	0x3ec2f26b	0.38075575
191	0xbf507d23	-0.81440943
192	0xbd6991a0	-0.057023644
193	0x3e24e4a4	0.16102844
194	0xbdf19a34	-0.1179699
195	0xbde4e367	-0.11176186
196	0xbebf69f3	-0.3738552
197	0x3f060fc2	0.52367795
198	0x3e0244b3	0.12721519
199	0x3ddbfe89	0.10741908
200	0xbddf0a85	-0.10890678
201	0x3dfec868	0.12440568
202	0x3e14e4d3	0.14540415
203	0x3e0030a6	0.12518558
204	0xbef7030e	-0.48244518
205	0x3e0e7d5a	0.13915005
206	0xbe207745	-0.15670498
207	0x3e88ae7a	0.26695615
208	0x3ebf3f60	0.3735304
209	0x3ed5ca39	0.41755846
210	0x3d0f3e64	0.03497161
211	0xbd40a75d	-0.04703461
212	0xbd2d3703	-0.04228879
213	0x3dbd1a17	0.09233492
214	0xbec347db	-0.3814076
215	0xbe436ba2	-0.19084027
216	0x3ea849ba	0.3286875
217	0x3ea2d5af	0.31803653
218	0xbf62589d	-0.88416463
219	0xbecc6408	-0.39920068
220	0x3ede9016	0.43469304
221	0xbe763a82	-0.24045756
222	0x3ea83b6d	0.32857838
223	0xbdc06b1f	-0.09395432
224	0xbe1192d7	-0.14216171
225	0x3e040415	0.12892182
226	0x3e4bd1a8	0.19904196
227	0xbdc8545b	-0.097817145
228	0xbc7b2b3d	-0.015330133
229	0xbebaaa55	-0.36458078
230	0xbde46185	-0.11151413
231	0xbee23192	-0.44178444
232	0xbef8d236	-0.48597878
233	0xbe7c45d5	-0.24636014
234	0xbcda56f2	-0.026652787
235	0xbe3bc28d	-0.18335934
236	0x3ec31ee8	0.38109517
237	0x3e27758a	0.16353431
238	0x3e82d440	0.2555256
239	0x3c39ac1c	0.011332538
240	0x3ce62eb5	0.028098444
241	0x3d79735f	0.060901042
242	0x3e2badfa	0.16765586
243	0x3dc2c7a8	0.09510738
244	0xbdf31d80	-0.11870861
245	0x3e847489	0.2587016
246	0xbc2ad32e	-0.010426326
247	0x3d78e18a	0.060761966
248	0x3e14efd6	0.14544615
249	0xbd6bfc4a	-0.05761365
250	0xbf20ce3e	-0.628147
251	0xbd772b31	-0.060343925
252	0x3e7b13c6	0.24519262
253	0x3e9b8ae4	0.30379403
254	0xbf60eb0d	-0.8785866
255	0x3d10ccf2	0.0353517

encoder.attn_layers.0.conv1.bias f4 [64]
0	0xbe95f7d6	-0.29290646
1	0xbe2936d1	-0.16524817
2	0xbf33b803	-0.70202655
3	0x3e18d09d	0.1492333
4	0x3cfda1aa	0.030960876
5	0xbe9a4612	-0.30131584
6	0xbce68925	-0.028141567
7	0x3d11c3ab	0.035586994
8	0x3dd3652d	0.10322032
9	0x3e7cf54f	0.24702953
10	0xbdd3a5a0	-0.10334325
11	0x3e5051cf	0.20343708
12	0x3d3c8b28	0.046031147
13	0xbdcdf83c	-0.100571126
14	0xbe937b42	-0.28804976
15	0xbe58e6ed	-0.21181841
16	0xbe7ab576	-0.24483284
17	0xbe21cd0b	-0.15800874
18	0xbf068ccf	-0.52558607
19	0xbf11b9ef	-0.5692434
20	0xbe32e4dd	-0.17470117
21	0xbe895d21	-0.26828864
22	0xbec80ea3	-0.39073667
23	0xbd7e9337	-0.062152114
24	0x3e381cac	0.17979687
25	0xbe29e7ec	-0.16592377
26	0xbe25de6d	-0.1619813
27	0xbafb8491	-0.0019189288
28	0x3d8a0186	0.06738572
29	0xbec0d579	-0.37662867
30	0xbee2e93e	-0.44318575
31	0xbee4ddcd	-0.4470047
32	0xbe38e898	-0.18057477
33	0x3e4d1f50	0.20031476
34	0xbb6e1280	-0.0036326945
35	0xbe7d2da3	-0.2472444
36	0xbe842fa7	-0.25817606
37	0xbde0ca16	-0.10976045
38	0x3e449cb9	0.1920041
39	0xbaed4194	-0.0018101209
40	0xbe8e268f	-0.27763793
41	0x3d068bd5	0.032848198
42	0xbe9f67a9	-0.31133774
43	0xbd1d64b5	-0.03842612
44	0xbe953357	-0.29140732
45	0xbe964d55	-0.29355875
46	0x3e54f84c	0.20797843
47	0xbe4484dd	-0.19191308
48	0xbf2b4750	-0.6690569
49	0x3e3071a1	0.17230846
50	0xbe440fca	-0.19146648
51	0xbeb4a620	-0.35282993
52	0xbeb292d0	-0.34877634
53	0xbe039271	-0.12848832
54	0xbe498e3a	-0.19683161
55	0xbc921c0e	-0.017835643
56	0x3e874d50	0.26426172
57	0xbdf9617e	-0.12176798
58	0xbe70e523	-0.23524909
59	0x3db62696	0.088940784
60	0xbe1bb15a	-0.15204373
61	0xbea3f633	-0.32023773
62	0x3da3db9a	0.0800087
63	0xbe026cc4	-0.12736803
