SimMTM-main/SimMTM-main/SimMTM_Forecasting/outputs/pretrain_checkpoints/ETTh1/ckpt20.pth (torch, 356303 bytes, 37 tensors)

enc_embedding.value_embedding.tokenConv.weight f4 [16, 1, 3]
000000 0e 62 8d 3f 98 e8 f0 bf 94 55 9e 3f df 37 75 40
       1.1045549 -1.8820982 1.2369866 3.831535
000010 e0 26 17 bf 4b 61 66 c0 20 51 0f c0 35 28 1f c0
       -0.59043694 -3.5996883 -2.2393265 -2.486829
000020 be 5c 0d bf 22 1c 11 c0 ca 2a 36 40 2c 44 be bf
       -0.5521964 -2.267342 2.8463616 -1.4864554
000030 5c a1 f7 bf 43 e2 92 bf 86 b6 de 3f 3b 92 83 40
       -1.9346118 -1.14753 1.7399452 4.1116004
000040 cb db 20 c0 71 60 48 40 82 31 3f 40 60 b0 a6 3f
       -2.513415 3.1308863 2.9873967 1.3022575
000050 45 dc 11 40 f4 3c b0 3f a2 df 53 bf 8b 44 3c 3f
       2.2790692 1.3768601 -0.8276311 0.7354209
000060 73 30 f8 3e 95 75 6a 3f 2e 6e 07 40 61 b4 9d c0
       0.48474464 0.91585666 2.1160998 -4.928269
000070 97 22 38 c0 5a 1a 74 3d 6c f1 a2 bb c1 1f 00 41
       -2.8771112 0.059595443 -0.0049726274 8.007752
000080 3d 23 e1 3d 43 17 5c bf 6b 66 46 40 c0 42 16 c0
       0.10993049 -0.85972995 3.100001 -2.347824
000090 76 47 d8 bb 73 c5 05 c1 ff db 87 bd 46 88 be bf
       -0.0066003157 -8.360705 -0.06633758 -1.4885337
0000a0 8c ac f7 3f 9f 6d 1d 3f a2 a8 99 bf ad bf d3 bd
       1.9349532 0.61495394 -1.2004588 -0.10339294
0000b0 a5 ed 1c 40 89 b6 e1 3f 81 22 ae bf 9f bd c1 be
       2.4520047 1.763383 -1.360428 -0.37839982

enc_embedding.position_embedding.pe f4 [1, 5000, 16]
000000 00 00 00 00 00 00 80 3f 00 00 00 00 00 00 80 3f
       0.0 1.0 0.0 1.0
000010 00 00 00 00 00 00 80 3f 00 00 00 00 00 00 80 3f
       0.0 1.0 0.0 1.0
000020 00 00 00 00 00 00 80 3f 00 00 00 00 00 00 80 3f
       0.0 1.0 0.0 1.0
000030 00 00 00 00 00 00 80 3f 00 00 00 00 00 00 80 3f
       0.0 1.0 0.0 1.0
000040 a4 6a 57 3f 41 51 0a 3f 3e 39 9f 3e 6b 4e 73 3f
       0.84147096 0.54030234 0.3109836 0.9504153
000050 76 75 cc 3d 98 b8 7e 3f 5b 81 01 3d 3c df 7f 3f
       0.099833414 0.9950042 0.031617504 0.99950004
000060 57 d6 23 3c b9 fc 7f 3f 1c 3e 4f 3b ac ff 7f 3f
       0.009999833 0.99995 0.0031622713 0.999995
000070 6d 12 83 3a f8 ff 7f 3f 61 cb a5 39 ff ff 7f 3f
       0.0009999998 0.9999995 0.00031622782 0.99999994
000080 b7 c7 68 3f 33 11 d5 be 1b 54 17 3f ec 7b 4e 3f
       0.9092974 -0.41614684 0.5911271 0.8065784
000090 f8 6f 4b 3e a5 e5 7a 3f c8 70 81 3d f9 7c 7f 3f
       0.19866931 0.9800666 0.063203394 0.9980007
0000a0 3e d4 a3 3c e5 f2 7f 3f d8 3d cf 3b b1 fe 7f 3f
       0.019998666 0.9998 0.006324511 0.99998003
0000b0 68 12 03 3b df ff 7f 3f 60 cb 25 3a fd ff 7f 3f
       0.0019999985 0.99999803 0.0006324556 0.9999998
0000c0 c3 81 10 3e 26 70 7d bf c2 09 50 3f 58 2f 15 3f
       0.14112 -0.9899925 0.8126489 0.58275366
0000d0 6c 4e 97 3e ef 90 74 3f c0 ff c1 3d 4f d9 7e 3f
       0.2955202 0.9553365 0.094726086 0.99550337
0000e0 1f b9 f5 3c 83 e2 7f 3f 0d 6e 1b 3c 0d fd 7f 3f
       0.0299955 0.99955004 0.009486687 0.999955
0000f0 92 9b 44 3b b5 ff 7f 3f 10 b1 78 3a f9 ff 7f 3f
       0.0029999954 0.9999955 0.00094868336 0.9999996
000100 cf bd 41 bf 30 55 27 bf de 1d 74 3f b1 2e 9a 3e
       -0.7568025 -0.6536436 0.95358074 0.30113748
000110 d7 61 c7 3e a7 ca 6b 3f 88 2e 01 3e 69 f4 7d 3f
       0.38941833 0.921061 0.12615407 0.99201065
000120 db cb 23 3d 94 cb 7f 3f c9 3c 4f 3c c2 fa 7f 3f
       0.039989334 0.9992001 0.01264877 0.99992
000130 57 12 83 3b 7a ff 7f 3f 5e cb a5 3a f3 ff 7f 3f
       0.003999989 0.999992 0.0012649109 0.9999992
000140 10 7c 75 bf 2c 3c 91 3e 7f fc 7f 3f e9 72 29 bc
       -0.9589243 0.2836622 0.99994653 -0.010342338
000150 43 77 f5 3e 40 a9 60 3f 1d 3c 21 3e 81 ce 7c 3f
       0.47942552 0.87758255 0.15745588 0.987526
000160 f4 b6 4c 3d 19 ae 7f 3f 7e 85 81 3c cf f7 7f 3f
       0.049979165 0.99875027 0.015810724 0.999875
000170 dd d6 a3 3b 2e ff 7f 3f 33 3e cf 3a eb ff 7f 3f
       0.004999979 0.9999875 0.0015811383 0.99999875
000180 8c 0f 8f be b8 cd 75 3f 4e 78 72 3f 6d 3f a4 be
       -0.2794155 0.96017027 0.9471482 -0.3207964
000190 68 8c 10 3f 32 49 53 3f 6e 20 41 3e e3 67 7b 3f
       0.5646424 0.8253356 0.18860027 0.98205394
0001a0 d1 9c 75 3d 12 8a 7f 3f 43 6c 9b 3c 34 f4 7f 3f
       0.059964005 0.99820054 0.018972522 0.99982
0001b0 58 9b c4 3b d2 fe 7f 3f 08 b1 f8 3a e2 ff 7f 3f
       0.0059999637 0.999982 0.0018973658 0.9999982
0001c0 46 30 28 3f bd ff 40 3f 6e e8 4c 3f bc 74 19 bf
       0.6569866 0.75390226 0.8004216 -0.5994375
0001d0 72 eb 24 3f b3 cc 43 3f 50 d3 60 3e ea c0 79 3f
       0.6442176 0.7648422 0.2195561 0.9755999
0001e0 32 3e 8f 3d 81 5f 7f 3f a2 52 b5 3c f2 ef 7f 3f
       0.06994285 0.997551 0.022134129 0.999755
0001f0 c5 5f e5 3b 65 fe 7f 3f ed 11 11 3b d7 ff 7f 3f
       0.006999942 0.9999755 0.0022135929 0.99999756
000200 95 46 7d 3f f6 fd 14 be 7e 06 13 3f e5 91 51 bf
       0.98935825 -0.14550003 0.5743178 -0.8186324
000210 a5 a4 37 3f 5f 5b 32 3f 51 26 80 3e 02 da 77 3f
       0.717356 0.6967067 0.25029233 0.9681703
000220 50 aa a3 3d 65 2e 7f 3f 8a 38 cf 3c 08 eb 7f 3f
       0.07991469 0.9968017 0.025295515 0.99968004
000230 12 12 03 3c e7 fd 7f 3f 55 cb 25 3b ca ff 7f 3f
       0.007999914 0.999968 0.0025298197 0.9999968
000240 32 01 d3 3e d5 3f 69 bf ee 1f 95 3e a2 e6 74 bf
       0.4121185 -0.91113025 0.29125923 -0.9566442
000250 1c 88 48 3f d5 21 1f 3f 2d c2 8f 3e a9 b3 75 3f
       0.78332686 0.62161 0.28077832 0.95977265
000260 3e 12 b8 3d c2 f6 7e 3f ea 1d e9 3c 76 e5 7f 3f
       0.089878544 0.9959527 0.028456647 0.99959505
000270 3a 74 13 3c 59 fd 7f 3f bc 84 3a 3b bc ff 7f 3f
       0.008999879 0.9999595 0.0028460464 0.99999595
000280 f8 44 0b bf 64 cd 56 bf 97 70 a9 bc fb f1 7f bf
       -0.5440211 -0.8390715 -0.02068357 -0.9997861
000290 a4 6a 57 3f 41 51 0a 3f 3d 39 9f 3e 6b 4e 73 3f
       0.84147096 0.54030234 0.31098357 0.9504153
0002a0 76 75 cc 3d 98 b8 7e 3f 59 81 01 3d 3c df 7f 3f
       0.099833414 0.9950042 0.031617496 0.99950004
0002b0 57 d6 23 3c b9 fc 7f 3f 22 3e 4f 3b ac ff 7f 3f
       0.009999833 0.99995 0.0031622727 0.999995
0002c0 5c ff 7f bf 72 05 91 3b 1f 41 a9 be 8d 9b 71 bf
       -0.9999902 0.004425698 -0.33057496 -0.94377977
0002d0 2a 26 64 3f c3 3d e8 3e 8b 87 ae 3e e4 aa 70 3f
       0.89120734 0.4535962 0.34087786 0.9401076
0002e0 72 d3 e0 3d e8 73 7e 3f 68 73 0e 3d 5b d8 7f 3f
       0.1097783 0.9939561 0.03477803 0.9993951
0002f0 69 38 34 3c 09 fc 7f 3f 87 f7 63 3b 9b ff 7f 3f
       0.010999777 0.9999395 0.003478499 0.999994
000300 d8 5c 09 bf d0 06 58 3f 24 91 1b bf 56 4f 4b bf
       -0.53657293 0.84385395 -0.6076834 -0.7941793
000310 1d 9a 6e 3f f7 86 b9 3e 2c a9 bd 3e c3 c9 6d 3f
       0.9320391 0.36235783 0.3704313 0.9288599
000320 ac 2b f5 3d b5 28 7e 3f 19 65 1b 3d d2 d0 7f 3f
       0.119712204 0.99280864 0.03793821 0.9992801
000330 70 9a 44 3c 48 fb 7f 3f eb b0 78 3b 87 ff 7f 3f
       0.011999711 0.999928 0.0037947248 0.9999928
000340 22 20 d7 3e 6f 4e 68 3f 4c 14 53 bf 9d d9 10 bf
       0.42016703 0.9074468 -0.82452846 -0.5658205
000350 c0 ab 76 3f 9d f5 88 3e 3f 9a cc 3e c3 ab 6a 3f
       0.9635582 0.26749888 0.3996143 0.9166834
000360 d0 be 04 3e 00 d7 7d 3f 65 56 28 3d a1 c8 7f 3f
       0.12963414 0.9915619 0.041098017 0.9991551
000370 6a fc 54 3c 76 fa 7f 3f 26 b5 86 3b 72 ff 7f 3f
       0.012999633 0.9999155 0.00411095 0.99999154
000380 72 98 7d 3f d7 04 0c 3e b3 a8 75 bf 0a 0d 90 be
       0.9906074 0.13673721 -0.9596054 -0.28134948
000390 6f 46 7c 3f e7 0b 2e 3e f4 56 db 3e b1 51 67 3f
       0.98544973 0.16996728 0.42839777 0.90359026
0003a0 64 e4 0e 3e cc 7e 7d 3f 43 47 35 3d c9 bf 7f 3f
       0.13954312 0.990216 0.044257414 0.99902016
0003b0 55 5e 65 3c 94 f9 7f 3f d6 11 91 3b 5c ff 7f 3f
       0.013999541 0.999902 0.004427175 0.9999902
0003c0 44 79 26 3f e8 7a 42 bf 75 e0 7f bf 96 22 fe 3c
       0.65028787 -0.7596879 -0.9995187 0.031022351
0003d0 d5 5b 7f 3f ba de 90 3d 83 db e9 3e 68 bc 63 3f
       0.997495 0.07073732 0.45675287 0.8895936
0003e0 4f 06 19 3e 1a 20 7d 3f aa 37 42 3d 49 b6 7f 3f
       0.14943813 0.9887711 0.047416367 0.9988752
0003f0 32 c0 75 3c a1 f8 7f 3f 85 6e 9b 3b 43 ff 7f 3f
       0.014999436 0.9998875 0.0047433996 0.99998873

enc_embedding.temporal_embedding.embed.weight f4 [16, 4]
000000 a6 6a 9a 3e 92 69 cc be fa 38 bb 3e de 3d f5 3e
       0.3015949 -0.39924294 0.36566907 0.47898763
000010 0c 14 d5 3e 24 3e 77 be f2 9f a5 3e 3a e2 af be
       0.41616857 -0.24144799 0.3234859 -0.34352285
000020 c8 cd fb be a0 81 a5 bc 48 db 60 be 9c 90 dd 3e
       -0.49180436 -0.020203412 -0.21958649 0.4327439
000030 06 c6 a7 be 18 c7 1c 3e 94 d0 32 3e e0 a7 bd 3c
       -0.32768267 0.15310323 0.17462379 0.023151338
000040 38 0b da bd 48 c4 b2 3e a0 8e 5f 3e 58 d9 8f bd
       -0.10646671 0.34915376 0.21831751 -0.07023877
000050 a4 39 fa 3e 28 a4 c7 3d 46 15 f9 be 62 1a ea be
       0.488721 0.09748107 -0.48649043 -0.45723253
000060 cc 82 e5 be c2 59 e6 3e 7c e7 ae be 74 30 e8 3e
       -0.44826353 0.44990355 -0.34160984 0.45349467
000070 00 2e 4a bc 08 9c ee be 78 4b b1 3e 68 0e 3f 3e
       -0.012340069 -0.46603417 0.3462789 0.1865784
000080 ac 98 f9 3e 12 38 e4 be 94 1b 80 be 70 32 41 be
       0.48749292 -0.44574028 -0.2502104 -0.18866897
000090 30 3b 9b 3e 68 cc e2 3e b2 84 cb 3e 9e ed f0 3e
       0.30318594 0.44296575 0.39749676 0.47056288
0000a0 0c d1 03 3e c8 5b 85 3e 8e 18 be 3e 9c d5 c3 3e
       0.12872714 0.26046586 0.3712811 0.3824891
0000b0 a0 7e 19 3e 8e 9a 90 3e 00 89 3c 3c fc b2 94 3e
       0.1498971 0.28242916 0.011507273 0.29042804
0000c0 30 cd a2 bd 40 34 ed bc 20 fa fb bc e8 de b9 3e
       -0.07949293 -0.028955579 -0.030758917 0.36302876
0000d0 70 5f d8 3e 9a 71 c9 3e 14 5a 87 be 1e 75 d0 3e
       0.42260313 0.39344484 -0.26435912 0.40714353
0000e0 3c fb 47 3e 00 a0 ee bd c0 22 84 bc 30 ba c8 be
       0.19529432 -0.11651611 -0.016129851 -0.3920455
0000f0 be fa f6 3e b2 f1 ed be 62 0a f1 be f8 f7 96 3d
       0.48238176 -0.4647346 -0.47078234 0.07371515

encoder.attn_layers.0.attention.query_projection.weight f4 [16, 16]
000000 ac 3b 8b 3d 3d c9 21 3d ac 9f 43 bc 21 11 bb bb
       0.06798491 0.039498556 -0.011939924 -0.005708829
000010 4b b0 65 3d c4 f2 75 bd 92 b1 33 3e 98 88 1a 3b
       0.05607633 -0.060045972 0.17548206 0.0023579951
000020 fa 04 04 bd f2 97 45 3c 9f 34 c0 3c 59 cf 01 3d
       -0.03223131 0.012060152 0.023462592 0.031691883
000030 22 11 11 bd 48 53 fb bc 13 a2 5d 3d 16 f1 d9 bd
       -0.03541673 -0.03067936 0.054109644 -0.106416866
000040 63 93 ab 3d aa da 2b be b4 89 cb 3d 6b ea d6 bd
       0.08377721 -0.16782632 0.09938374 -0.104939304
000050 ff 9b c5 3d b6 ce 75 bd b6 f4 3d bd 04 cf fa bd
       0.096488945 -0.060011588 -0.046375953 -0.12246516
000060 4d 13 eb 3d 7f 3c 1f bd d9 97 6c bc af 79 c0 3d
       0.11478291 -0.038876053 -0.0144405 0.09398209
000070 af 52 28 be c3 aa 69 bd 61 79 a0 be 26 7d 6a 3e
       -0.16437791 -0.057047617 -0.31342605 0.22899303
000080 85 c4 25 bc 6d 90 ca 3a 9a 70 c2 39 f5 1b 22 bc
       -0.010117655 0.0015454419 0.00037086458 -0.009894361
000090 0d fb 51 bc 21 f7 74 3a 0b ed c3 bc ac 90 3b bd
       -0.012816203 0.00093446864 -0.023916742 -0.045792267
0000a0 ce 90 9b bc 5b 4e 8d be 68 e2 85 be 83 3b ca b8
       -0.018989947 -0.27598843 -0.26149297 -9.6431955e-05
0000b0 9e cb b5 bf 5f b7 28 bd 84 ec 8d bb 32 e7 3b 3d
       -1.4202764 -0.0411905 -0.0043311734 0.045874782
0000c0 27 b5 32 be 46 a1 f3 3c 99 30 ca 3c 06 56 82 3e
       -0.17451917 0.029739987 0.024681376 0.25456256
0000d0 09 ba cb 3b 4c 1d 94 3e 15 df 31 bd d8 ac 6f be
       0.0062172455 0.28928602 -0.04342564 -0.23405778
0000e0 8e 5b 39 be c4 fc ca bb a5 b1 1b 3d d4 48 df bd
       -0.18101332 -0.006194683 0.038011212 -0.10902563
0000f0 52 55 15 bd e0 7c c3 3d 00 d6 b9 ba 23 7e 40 3d
       -0.03645832 0.095453024 -0.0014178157 0.046995293
000100 66 82 d7 bd ba dc 43 3c ae 75 0f be c4 8b 6d bd
       -0.105229184 0.011954481 -0.14009735 -0.05799462
000110 59 6a e4 bd 69 49 c1 3c 9d 21 b2 bd 02 ef 02 3d
       -0.11153097 0.023594575 -0.086978175 0.031966217
000120 42 3f a5 3d 5a df b2 3d 05 8f 9a 3d e7 38 3b 3d
       0.08068706 0.08734007 0.0754681 0.045708563
000130 d2 25 20 3c ac a1 3e 3d 8c 2e 1f 3e 48 bd c7 3d
       0.009774642 0.0465409 0.155451 0.097528994
000140 1a 0e 4d 3e 94 33 56 3d a4 3e 95 3b ba 51 9e 3c
       0.2002491 0.052295282 0.0045545865 0.01932608
000150 7d 30 e9 3d f3 f7 94 3c 0c df dd bb 0f e4 1b 3d
       0.113862015 0.018184638 -0.006770974 0.03805929
000160 c9 5b c2 3d c5 86 51 3d 5f 81 64 3d 4f 9c 44 3e
       0.09490163 0.051153917 0.05578744 0.19200252
000170 e8 39 9c bc e3 ab eb bd a8 64 12 3e aa 77 0e bd
       -0.01907058 -0.11507394 0.1429621 -0.03478209
000180 69 7e 0b bd 07 82 ee 3c f5 70 93 bc 3d 65 9c bc
       -0.0340561 0.029114736 -0.017998198 -0.019091243
000190 57 16 00 be 7c ba b7 3b 04 29 03 3d f9 1d d7 3c
       -0.12508522 0.0056069475 0.032021537 0.02625941
0001a0 61 3c 12 bd 3e d9 75 3c 28 39 b8 3c af de 5a 3d
       -0.035702113 0.015005408 0.022488192 0.053435024
0001b0 eb db b6 bc 38 38 30 be 51 77 69 3e 44 fa 4d be
       -0.022321662 -0.17208946 0.22799422 -0.20115
0001c0 0a 5d d9 bc d6 da 28 3b 74 2b 1a bd e2 9f cf ba
       -0.026533622 0.0025765202 -0.037639096 -0.0015840495
0001d0 f0 02 1c 3d 88 2a 28 bd 7f d8 2a 3d b5 26 d1 3b
       0.03808874 -0.041056186 0.041710373 0.006382788
0001e0 21 b5 ea 3c 9f 51 0a bd 97 75 21 bf 65 4a a7 ba
       0.028650822 -0.033769246 -0.6307005 -0.001276326
0001f0 7f 04 2b bd e6 ce a2 bd 42 92 84 3d ca 64 8e 3d
       -0.041752335 -0.07949619 0.06473209 0.06952818
000200 05 79 7c bc c3 60 81 b8 65 8f 10 3d fc 28 29 3c
       -0.015409713 -6.1692226e-05 0.035293 0.010324713
000210 bd 68 44 3a 9d ad c4 bc 89 10 05 bd 51 d9 98 3c
       0.0007492414 -0.024008567 -0.032486472 0.018658312
000220 76 ba 5d bd c7 6c 32 3d d8 55 f3 be 1b 01 86 bb
       -0.0541329 0.04356077 -0.4752643 -0.0040894873
000230 2c 6d d8 3f c9 88 0a bd 48 d2 e9 bc 86 7b 4d bc
       1.6908317 -0.033821855 -0.028542653 -0.012541657
000240 48 a1 78 bd eb 2f c4 bc 37 a1 ed bb 83 bc cf bc
       -0.060700685 -0.02394863 -0.0072518843 -0.025358444
000250 05 bb ca 3c ec 8c af bb 3a a8 9a bc d4 a2 8c 3d
       0.024747381 -0.0053573754 -0.018879045 0.068669945
000260 84 0d f6 3c 6a 8b c7 bb 15 ef 0a bb f0 37 8e 3c
       0.030035742 -0.0060896175 -0.0021199633 0.017360657
000270 17 73 98 bd 9b ed aa bc ad 1a 6c bc 13 29 1d 3e
       -0.07443827 -0.020865252 -0.014410657 0.153477
000280 54 ec de 3b 3c 2b 7e ba 4c 6f 52 bc 43 94 2a 3c
       0.006803075 -0.00096957735 -0.012843918 0.010411325
000290 cc 34 4c 3c 64 fd ee bb d9 d7 05 3c cb 4c ba bb
       0.01246376 -0.00729339 0.008169138 -0.005685424
0002a0 d3 98 90 bc 11 43 15 bb 91 9b cc be 31 46 11 3b
       -0.017650997 -0.002277557 -0.39962438 0.0022167081
0002b0 0b d5 cf 3f 06 39 37 bd 62 94 a8 3c 89 cc 24 bc
       1.623689 -0.044732116 0.020578567 -0.010058531
0002c0 f8 0d 9d 3d 73 c6 21 3d aa a0 bd bc 6d c8 4b bc
       0.0766868 0.039495897 -0.0231479 -0.012437922
0002d0 ff 19 94 bd ab b6 97 3c cc 06 43 3c 9e c9 a2 3d
       -0.07231521 0.01851972 0.011903476 0.07948612
0002e0 77 d7 05 3b c1 22 d7 3d 16 4e 21 3a 94 43 5b bd
       0.0020422617 0.10504676 0.00061532983 -0.053531244
0002f0 6c 29 33 3c 2f f4 ad 3c 36 fb 79 bd c1 02 28 bd
       0.010935169 0.0212346 -0.06103059 -0.04101825
000300 82 32 20 bd c9 69 7a 3c 11 52 2c 3d 5e a3 2e b9
       -0.039110668 0.01528401 0.042070452 -0.00016654792
000310 55 c1 20 bd 6f 5d de bc 69 fa 9b bd aa 89 d4 3c
       -0.039246876 -0.027144162 -0.07616121 0.02594455
000320 86 41 db be 40 49 47 bb ce 37 d6 bd 9c 04 59 3e
       -0.42823428 -0.003040865 -0.10459863 0.21193165
000330 8d 7c c7 3d 8d 8f 3a be 0f 7c a5 be 72 bd 09 3d
       0.09740553 -0.18218823 -0.32321212 0.033627935
000340 7e 87 bb 3d b8 20 da 3d 4f 5a a4 bb 1f ed 0f 3e
       0.091567025 0.10650772 -0.0050156484 0.14055298
000350 20 88 a7 bc 9e 9a 57 3d e8 90 d1 bc 8b e9 01 3e
       -0.020450652 0.05263769 -0.025581792 0.12686746
000360 75 bf e5 bd fd c9 a4 3a 88 95 92 3c 94 40 c2 bd
       -0.11218158 0.0012572404 0.017893568 -0.094849735
000370 ad 1e f7 3c 9d 66 b5 bd 64 75 db 3d 2b 67 a6 be
       0.030165995 -0.088574626 0.1071575 -0.32500586
000380 a9 11 8b bc 91 5b 13 3c f3 b0 11 3c 61 b3 8e 3c
       -0.016976194 0.008993999 0.008892286 0.017419519
000390 4b ed 13 3d 80 4c e7 3c 66 16 c1 bd 42 3b 38 3d
       0.036114972 0.02823472 -0.094281 0.044978388
0003a0 d6 9a d0 bc a5 dd d7 bc ee b7 71 bc 20 a6 2e bd
       -0.025464457 -0.026350806 -0.014753325 -0.042638898
0003b0 f0 d5 af 3b c8 99 3f 3d c3 52 20 bd 96 bb 93 be
       0.0053660795 0.046777517 -0.039141428 -0.28854054
0003c0 ef d4 12 3a 31 76 b9 bd c4 42 ab 3c ad e5 51 3c
       0.00056011876 -0.09055746 0.02090586 0.012811107
0003d0 5b ca e8 3d 4f ce 62 bd de 95 08 bd 5a 6b 8f bd
       0.11366721 -0.055372532 -0.03334605 -0.070028976
0003e0 19 7c 2e 3d f9 79 35 3d 91 7c 09 bc 74 b5 c3 bc
       0.042598817 0.044305775 -0.008391515 -0.023890235
0003f0 00 15 99 ba 7a 6f 23 3d 02 29 b6 bf 36 a2 88 bd
       -0.0011679232 0.039901234 -1.4231265 -0.06671564

encoder.attn_layers.0.attention.query_projection.bias f4 [16]
000000 1b 94 8e 3e c6 af 80 bf 41 41 de 3e b7 70 d1 bd
       0.2784737 -1.0053642 0.4340916 -0.10226577
000010 ec 9b 33 be d4 c4 09 be ce 24 9a 3e 7b 89 8b 3e
       -0.17539948 -0.1345399 0.30106205 0.27253327
000020 43 22 d3 bc 05 59 85 bf c8 01 85 3d ba 88 f4 3e
       -0.025773173 -1.0417792 0.0649448 0.47760564
000030 75 50 18 3e f5 ef 6f 3f 97 7b 18 3f 9f eb c3 3d
       0.14874442 0.9372552 0.59563583 0.095664255

encoder.attn_layers.0.attention.key_projection.weight f4 [16, 16]
000000 e1 11 b5 3c 20 eb a5 3c a9 6c 92 3c ba 1d 4d bd
       0.022103252 0.020253718 0.017874079 -0.050077178
000010 93 00 c5 3c 85 32 9b 3c 50 77 3e 3c 4f 9c 43 3c
       0.024048125 0.018944988 0.011625126 0.011939122
000020 12 7a 5e bd 87 98 c9 3d 5e 8f 98 ba a2 ee 78 bd
       -0.054315634 0.098435454 -0.0011639406 -0.060774453
000030 c5 af 28 3c 94 b7 8f bd 06 b2 be bc 26 c7 ae 3d
       0.010295813 -0.070174366 -0.023278248 0.08534078
000040 ae d1 89 3d ae 8e c9 bd aa 10 59 3c b4 8a d8 3b
       0.06729446 -0.09841667 0.013248602 0.0066083316
000050 c0 01 98 3d 56 46 ba be 35 66 4d bc ad 74 f7 3c
       0.07422209 -0.36381787 -0.012536575 0.030207003
000060 45 f6 07 3c f6 52 15 3d 9b 59 0a bd 3f 84 95 bd
       0.008298461 0.03645607 -0.03377686 -0.073006146
000070 9c 8b f9 3c 65 a2 24 bc 90 6c f3 3d 09 14 1d 3c
       0.030462079 -0.0100484835 0.11885941 0.009587296
000080 75 22 27 3e 18 33 8b 3d 89 2b 89 3e 3b b9 8c be
       0.16321738 0.06796855 0.26791027 -0.2748507
000090 9f 4f bf bc 5b a8 21 3a ca df 37 be 93 3b b1 bc
       -0.023353396 0.00061667495 -0.17956463 -0.021634853
0000a0 ef 92 a1 be 71 51 4e 3e 9a df 86 bf 6e 3b c3 bc
       -0.31557414 0.20148255 -1.0536988 -0.02383205
0000b0 97 de 06 3e 6c e1 f3 bd 61 cd 22 be bc b5 44 3e
       0.13170849 -0.1190823 -0.15898658 0.19209951
0000c0 0e d7 0a 3d ae a6 52 bc c9 47 8f 3c f6 4f 5c bb
       0.0338965 -0.012857122 0.017490285 -0.0033616996
0000d0 8a ac ad 3c e0 a1 22 ba 4b 8b 1c bc 93 a1 3d bd
       0.021200437 -0.0006203931 -0.009554694 -0.046296667
0000e0 dd 08 90 bc 34 8c 13 39 df 45 36 bd a7 18 1b bc
       -0.017582351 0.00014071242 -0.044500228 -0.009466327
0000f0 76 d8 8d 3b 4f cf 4f 3b f4 79 b7 bc 61 d0 4f bb
       0.0043287827 0.003170926 -0.022397019 -0.0031709897
000100 30 53 4a bd cb 69 bb 3c 15 9b c7 3c 96 0a 01 3d
       -0.04939574 0.022877594 0.024365941 0.031504236
000110 62 58 a4 bd 04 d9 4b bd 2a 4b ad bc 62 62 d0 bc
       -0.0802467 -0.04976751 -0.021154005 -0.025437538
000120 f6 59 d1 bc 9d de 1c bc bf ff 45 bc c7 ea ec 3c
       -0.025555592 -0.0095745595 -0.0120849 0.028920544
000130 b4 8b 6a 3b 7a 45 b9 bc c9 29 01 bd 04 ae a1 3d
       0.0035788836 -0.022616137 -0.03153399 0.07894519
000140 c4 a5 95 3d 62 4c 0f bd 1b bf 4b bc e1 14 90 bb
       0.07307008 -0.034984954 -0.0124357 -0.00439702
000150 2d 32 1a 3e d8 84 b7 bb bf 9c 0a 3a 4a 9d b6 3b
       0.15058203 -0.005600553 0.0005287639 0.0055729495
000160 d9 b6 22 3a a8 cc 80 bc f9 dc 22 3c a8 f4 3d 3c
       0.0006207056 -0.015722588 0.009940379 0.011593975
000170 71 d3 56 bc c8 a6 9f 3c ce 4a 04 bd 5d 43 75 bb
       -0.013111935 0.019488707 -0.0322979 -0.0037424185
000180 bd c1 48 bd c1 d9 20 3b 7d ca 98 bb 77 79 20 3c
       -0.04901289 0.0024543854 -0.0046628104 0.0097945845
000190 e7 55 85 bc b7 ec 01 3c b3 5a 8a 3c 7b 41 02 bb
       -0.016276313 0.007929972 0.016888952 -0.0019875455
0001a0 17 65 e6 bb ca 8e 3b bc 99 f2 f2 3c 63 d4 bd bb
       -0.007031094 -0.011447618 0.029656695 -0.0057931407
0001b0 e3 57 5c bb 72 f5 71 bc 64 86 e2 3c 0e 0c 44 bd
       -0.003362172 -0.014767991 0.027651973 -0.04786306
0001c0 b1 34 f6 3b 3a cc 74 3d 08 61 64 3c c6 be 6c bc
       0.0075136055 0.059765078 0.01393915 -0.014449781
0001d0 a7 01 d7 3a 6f b8 88 bb e9 1a fd 3c b5 2f dd 3c
       0.0016403691 -0.004172377 0.03089662 0.027000288
0001e0 7c 29 86 3a cc de 11 bd ce 73 af bb 15 57 bb bc
       0.0010235752 -0.035612866 -0.005354381 -0.022868672
0001f0 0b 2b 68 be af 8f 68 bc e1 dc 8c 3d 99 23 6b 3b
       -0.2267267 -0.014194413 0.06878067 0.0035879372
000200 21 eb c0 bd a5 6b 1a 3e 4d f4 35 be 95 6b f1 3d
       -0.09419847 0.15080126 -0.17768975 0.11788098
000210 41 e8 2e be d6 59 8c 3d 6b 5e ef 3d 35 23 d4 3c
       -0.17080785 0.06853072 0.11687931 0.025895694
000220 35 82 d4 3e 41 b1 6f be 86 85 c5 3e 2d 77 f8 3e
       0.4150559 -0.23407461 0.38578433 0.48528424
000230 55 52 6f bd 8a 75 3e 3d d9 67 58 3d a8 cd b3 bc
       -0.058428127 0.046498813 0.05283341 -0.02194865
000240 29 5b 1c bd f5 16 21 bc f3 c7 c2 bd aa 1c 11 3d
       -0.038172875 -0.009832134 -0.095107935 0.035427727
000250 52 c8 31 bc 2b 16 0c 3c b1 d9 2a bc fb 6b 9f bb
       -0.010850983 0.008550207 -0.010427878 -0.004865167
000260 2d 99 00 3d 75 a4 d8 bb 52 04 19 3c 84 07 1e 3d
       0.03139608 -0.0066114017 0.009339409 0.038581386
000270 40 93 0e 3c 76 04 dd 3d d7 da 55 3b 1d 09 45 3d
       0.008702099 0.107918665 0.003263166 0.048104394
000280 82 8e b1 3b 03 d4 ab 3b 46 85 d4 3c 81 ba 96 bd
       0.0054185996 0.0052437796 0.025942456 -0.073597915
000290 48 a1 d8 3b 63 e0 21 3a f3 4d 6b bd e4 a2 a0 3d
       0.006611023 0.0006175099 -0.057447385 0.07843569
0002a0 4f e6 5e 3c 78 d6 92 3d da f5 07 bc f5 bf 0d bd
       0.013604715 0.07169813 -0.008298362 -0.034606893
0002b0 6e 77 18 3e f6 9d 3f bc a0 40 ce bd e1 7d cd 3d
       0.14889309 -0.011695376 -0.1007092 0.10033775
0002c0 4e c2 50 bd 94 a8 e6 bc 3a 5a 99 3c 43 c2 85 3b
       -0.050966553 -0.028156556 0.018719781 0.0040819957
0002d0 07 60 99 3c 8b 35 0f bb 2c 72 8c bc cc 9b ae bc
       0.018722547 -0.0021851982 -0.017144285 -0.021314524
0002e0 f9 92 41 b9 64 aa a2 3b 40 2e 2b 3b f6 2e 05 3b
       -0.00018460666 0.00496416 0.0026120096 0.002032218
0002f0 19 93 21 3c 3d 9d 94 3c 70 b2 2e 3d 10 be 15 bd
       0.009861731 0.018141383 0.04265064 -0.03655821
000300 8a 42 63 3d e5 1e a6 3c c2 9d 23 3d b2 b9 21 bc
       0.05548338 0.020278404 0.03994537 -0.009870933
000310 8c 20 3f 3c b5 7b bf bc a5 05 77 bd 05 63 0e 3c
       0.011665475 -0.023374418 -0.060308117 0.0086906
000320 4b 2a 19 bd 99 80 be 3c 9d 27 d2 3e 6d 4c b3 bd
       -0.03739385 0.02325468 0.41045848 -0.087548114
000330 02 6b c6 3c 08 74 31 bd ca 62 7e bd 66 5e 84 bc
       0.024220947 -0.043323547 -0.06210593 -0.016158294
000340 06 fb 04 3c 02 90 b4 bc 70 8c 7d 3c 1b 44 91 bc
       0.008116489 -0.022041325 0.015475377 -0.01773267
000350 33 03 8b be 6a 61 84 bc ae 64 56 bc a2 e3 1d bd
       -0.27150878 -0.016159732 -0.013085527 -0.038547166
000360 4a 23 1d 3b 0d 06 93 3c 6a 6e 88 bc 80 43 59 bc
       0.0023977333 0.017947221 -0.016654212 -0.013260722
000370 b3 09 25 3c 4a c0 80 3c 17 5f 87 3c 4b b0 a9 3c
       0.010073113 0.01571669 0.016524835 0.020713946
000380 ab 2d 1e bd fb 28 74 bc 8f 8a 9b bc 85 2c 26 3c
       -0.03861777 -0.014902349 -0.018986968 0.01014245
000390 9a 03 09 bc 3d 9a 1f bc f2 af 55 3c ea 2a 0d bb
       -0.008362675 -0.009741363 0.013042437 -0.0021540471
0003a0 1b 9c 21 3d 9d c9 f0 bc 02 f3 b7 3c a9 66 9e ba
       0.039455514 -0.029393012 0.022454742 -0.0012085038
0003b0 ad bd 56 ba 9e 9b 08 bc a0 93 16 3d 3e 2b e7 bc
       -0.0008191716 -0.008337883 0.03676188 -0.028218862
0003c0 57 14 6a be 31 a3 1c be 39 b3 dd 3d 81 3b 29 3e
       -0.22859322 -0.15296628 0.108252 0.16526605
0003d0 1b 6b 30 3d c5 20 1e be e1 e8 18 be 13 c6 fb be
       0.043070894 -0.15442188 -0.14932586 -0.49174556
0003e0 5b b7 5a be a4 0a e0 3e a4 ec be 3b 21 35 40 3e
       -0.21359007 0.43758118 0.0058265496 0.18770267
0003f0 9e 25 50 bd 57 a1 2d 3e 23 81 52 3e 8d 88 ae bd
       -0.050817125 0.16956078 0.20557074 -0.08522139

encoder.attn_layers.0.attention.key_projection.bias f4 [16]
000000 27 5b 72 be 5e fc 32 3e f1 58 78 bd c9 7b 95 3d
       -0.23667584 0.17479083 -0.060631696 0.07299001
000010 96 dc 6b 3d 97 8a 03 be 18 bf 91 3b 14 b8 00 be
       0.057583414 -0.12845837 0.004447829 -0.1257022
000020 d8 fa d7 3d 24 db 80 be 71 11 0c 3e 62 0c 4f be
       0.105458915 -0.2516719 0.13678528 -0.20219567
000030 6f 9d d4 3d 65 92 ff 3d 1b cf 20 3e 37 0a 80 3e
       0.103815906 0.124790944 0.15704004 0.25007793

encoder.attn_layers.0.attention.value_projection.weight f4 [16, 16]
000000 15 ef 27 be 52 aa 25 bc 93 80 82 bc c4 07 c9 3c
       -0.16399796 -0.010111408 -0.01593045 0.024539836
000010 5d ae 89 be eb 1d 4a 3d c2 dd b1 3d a2 e1 9b bc
       -0.2689084 0.04934494 0.08684875 -0.019028489
000020 7f 2a 01 3e a7 ed 22 be f1 2e 9b 3d 82 b9 3c 3e
       0.12613867 -0.1591097 0.07577313 0.1843014
000030 6d 66 e5 bd a8 f2 bf 3d c2 f9 ed 3d 64 e7 3e be
       -0.11201177 0.09372455 0.11619903 -0.18642956
000040 81 bc e8 3d 7c 3d 67 bc 01 7b 27 3c 08 58 d7 bb
       0.11364079 -0.01411378 0.0102221975 -0.0065717734
000050 d5 e2 0e bc db 08 5a be 8f da f1 bb d2 6b a3 bb
       -0.008721073 -0.2129244 -0.0073807905 -0.0049872184
000060 f3 d5 9c bc d2 6d ac 3b 0e 5b e1 bc ce 2f 2c bd
       -0.019144988 0.005262115 -0.027509239 -0.042037778
000070 98 c6 f4 3c f2 40 0c 3d ba ad 9f 3d cd f0 5d 3d
       0.029879853 0.034241624 0.077968076 0.054184724
000080 80 58 bf 3b d1 2a 22 bb 81 9f 78 3a d0 05 15 bd
       0.0058394074 -0.002474476 0.0009484217 -0.036382496
000090 c8 f0 96 3c 79 48 6f 3b 73 fe 2a bc b8 6c 96 bc
       0.01842536 0.0036511703 -0.010436642 -0.018362388
0000a0 23 fe d4 bb b2 4b c0 3c db 99 3e 3e 99 36 5e bc
       -0.006500022 0.023473594 0.18613379 -0.013562822
0000b0 67 50 8f 3c a9 52 5f bc 00 74 19 3c 06 ed 6c 3c
       0.017494394 -0.013630548 0.009366035 0.014460808
0000c0 6e f5 b8 3e e0 7b 26 be ab 1f eb 3d c1 d0 e5 bd
       0.36124748 -0.16258192 0.114806496 -0.11221457
0000d0 31 cf 53 3e ac 13 6b 3d c6 21 08 be 88 47 a8 be
       0.20684506 0.057391807 -0.13294134 -0.32867074
0000e0 b4 0b 6f be 01 52 f9 3c 8a c3 84 bd 67 9c 15 be
       -0.23344308 0.03043461 -0.064826086 -0.14610444
0000f0 30 63 af 3d 1b 97 7c be 74 fd 2b be 68 7f 2c 3e
       0.085638404 -0.24667017 -0.16795903 0.16845477
000100 bb fd 7e 3e 38 e3 c3 be b3 9c a3 bc 1f d6 3e be
       0.24901478 -0.38259292 -0.019972181 -0.18636368
000110 11 9e 02 3f 2c 05 5a 3e 8e 56 65 3d ac 41 d1 3d
       0.5102244 0.21291035 0.055990748 0.10217604
000120 f4 fe 0f 3e 49 28 e1 3c ae 77 bf 3d 57 23 2a 3d
       0.140621 0.02748503 0.09348999 0.04153761
000130 b5 8b 0a be 0b e5 b5 3e 71 27 96 3e a0 b1 06 bd
       -0.13529857 0.35526308 0.29326966 -0.03288424
000140 e3 89 1e bf 09 91 e3 3e a0 eb a5 3d 04 15 ad 3d
       -0.6192915 0.4444659 0.081015825 0.08451274
000150 e4 45 44 bf 4c 3d 69 3d d9 bc f5 3d af 24 ce 3c
       -0.76669145 0.056943223 0.119989105 0.025163976
000160 05 94 d5 bd 45 7a 38 3e f0 b6 0e be 80 cd 01 3e
       -0.10428623 0.18015392 -0.13936973 0.12676048
000170 a7 96 e5 bd 59 e3 b3 be 81 38 a6 be a4 6d 05 3e
       -0.11210375 -0.3513439 -0.32464984 0.13030106
000180 63 d6 ed 3e 0d f4 39 3d 82 e0 c5 3d d9 70 64 be
       0.46452627 0.04539876 0.09661962 -0.22308673
000190 44 f3 f9 3d 3d a6 d4 bb b1 46 73 be 45 fd 2a be
       0.12204602 -0.0064895437 -0.23757435 -0.16698177
0001a0 0c c9 35 be b8 21 3e 3d b3 67 4e be 26 87 ae be
       -0.17752475 0.046418875 -0.20156746 -0.34087485
0001b0 d1 56 27 3e 50 a9 ba be 44 ca af be 4a 14 14 bd
       0.16341712 -0.364573 -0.34334004 -0.03615216
0001c0 1b c9 8f 3d 44 f8 04 3d 10 2c 0f 3c 59 99 19 bd
       0.0702078 0.032463327 0.008738533 -0.03749976
0001d0 9a 8c ad 3c fa 58 6b bb 0c d2 b8 bc 92 d5 0a bd
       0.021185208 -0.0035911188 -0.022561096 -0.033895083
0001e0 53 58 9a bc 5f ae 31 3d 12 1e 16 3d de db 30 bd
       -0.018840944 0.043379184 0.03664977 -0.04317843
0001f0 61 d1 25 3e 80 6b e4 bc 0e fb b0 bc 9c 51 c4 3d
       0.16193153 -0.027883291 -0.021604087 0.09585878
000200 ee 4e 6f ba e9 f9 a2 3c b6 f6 e2 bc c9 dc 9b bb
       -0.0009128888 0.019894557 -0.027705532 -0.0047565443
000210 3d 63 9f bc 0a a1 95 3c 34 37 ac 3c b1 25 65 3c
       -0.0194565 0.018265266 0.021022417 0.013986037
000220 8b 61 c2 3d 10 7b 39 bd 8c 2d bf 3d 96 d0 04 3e
       0.09491261 -0.045283377 0.09334859 0.12970194
000230 32 04 cf bb 88 8a 90 3d ee e3 b9 3c 1a b9 82 3d
       -0.006317639 0.07057673 0.022691693 0.063829616
000240 94 7e 67 3e 13 d9 71 3c 61 f5 6c 3e 98 a3 65 be
       0.2260688 0.014761227 0.2314048 -0.22425687
000250 d9 f3 45 3e 66 60 2c bd 25 16 33 be 36 dd 2a be
       0.19331302 -0.04208412 -0.17488916 -0.16685948
000260 60 ea 9f 3d be cf 51 3d 60 8d 25 3d 69 78 cc bc
       0.07808375 0.05122351 0.04041803 -0.02495976
000270 d1 79 b3 3d d6 05 b4 bd f4 81 c1 bd 40 cb f9 3e
       0.08763469 -0.087901756 -0.09448615 0.4878788
000280 bc 0d ad 3c 58 84 22 3b 92 a6 19 bc f3 e3 b9 bc
       0.021124713 0.0024798121 -0.009378092 -0.022691702
000290 27 c9 05 3d 89 9b 4a 3c 77 86 10 bd fc 1b c5 3c
       0.032662537 0.012366184 -0.035284486 0.024061196
0002a0 3a 81 27 ba 14 83 c2 3d c0 a6 f1 ba 68 93 8a bd
       -0.00063898007 0.094976574 -0.0018436536 -0.06766397
0002b0 1a f3 38 3e 84 14 21 bc 52 c9 4d bd 9c a5 e0 3d
       0.18061486 -0.009831551 -0.050240822 0.109690875
0002c0 7a 7f 87 bd 56 95 1c bf 97 95 b5 3d fc f7 5b 3e
       -0.06616111 -0.6116537 0.088664226 0.21481317
0002d0 91 e2 16 3f 8e 51 86 be 3b 7d fa bd 9a f2 08 be
       0.5893946 -0.26234096 -0.12230917 -0.13373795
0002e0 80 2e 1f bd e7 f8 5d 3e 3c 34 84 3e 2c 92 5b bd
       -0.038862705 0.2167698 0.25821102 -0.053606197
0002f0 4b ce 15 3e 64 28 93 3e 24 75 df 3e 91 58 c2 bd
       0.14629476 0.28741753 0.4364406 -0.09489549
000300 35 ac bd 3b 15 d4 c9 3b e0 7c 03 3d 9b d5 d5 3c
       0.005788351 0.0061593154 0.032101512 0.026102832
000310 a2 22 04 bd e3 2f 5e bc 6b b1 f9 bc c4 23 17 bc
       -0.03225959 -0.013561222 -0.030480107 -0.009224836
000320 74 08 7b bc 22 1b 81 3b fa 81 61 3e 69 40 db bb
       -0.01532184 0.003940002 0.22022238 -0.006691028
000330 36 f4 cd 3b 09 aa 32 3b ff 3a a9 bc 52 05 ce 3c
       0.0062852157 0.0027261993 -0.020658014 0.025149021
000340 92 8e 74 3c 68 c5 c0 be 0e f5 d9 3c fb 18 07 ba
       0.01492657 -0.3765061 0.026606109 -0.00051535637
000350 4d db a1 3f 0c 06 f4 3c f4 75 6b 3d e7 6d a8 3e
       1.264505 0.02978804 0.057485536 0.3289635
000360 d9 91 2c be 5e 4f 2d bd fe 85 0b 3e 79 74 50 be
       -0.16852511 -0.04231202 0.13625333 -0.20356931
000370 7e ab b1 bd 97 42 48 be 9e f9 c8 3e d4 47 de be
       -0.08675288 -0.19556652 0.39252943 -0.43414176
000380 1b 28 da 3e ee 2e 83 3e fa d2 50 b9 cc f0 94 be
       0.42608723 0.25621742 -0.0001991502 -0.29089963
000390 10 90 29 be 7f 15 4e 3e 63 52 2f be d1 b1 a4 3d
       -0.16558862 0.20125388 -0.17121272 0.08041728
0003a0 dc 13 8d bd 42 45 12 3e 13 c7 23 be ae 57 19 bf
       -0.068885535 0.14284232 -0.1599391 -0.59899414
0003b0 99 fa 3f 3e 44 c9 8f be f9 25 56 be 35 e7 73 be
       0.18747939 -0.2808324 -0.20912923 -0.23818667
0003c0 2e 80 54 bc 55 86 15 bd f2 0a aa 3c c2 89 ae 3c
       -0.012970014 -0.036505062 0.020757172 0.021305922
0003d0 7d 96 db 3c 07 95 3a bc 13 a3 11 bc f7 19 9a bd
       0.026805157 -0.01138807 -0.008888978 -0.07524484
0003e0 f9 03 42 bd 01 10 d1 3d c1 a3 0f 3b 54 1b c9 3c
       -0.04736707 0.10208131 0.0021917673 0.024549164
0003f0 21 8e 7a bc 9c bf 6b 3d b5 74 89 3d 0e 2b e0 bc
       -0.015292675 0.05755578 0.06711713 -0.02736428

encoder.attn_layers.0.attention.value_projection.bias f4 [16]
000000 5e 49 ad bc 06 13 91 3e 16 d5 df 3e dd 35 d8 3d
       -0.021153148 0.28334826 0.4371726 0.105571486
000010 eb 9a aa bd ff f0 73 bd 0c 68 98 3c 0d fd 24 be
       -0.083303295 -0.059556004 0.0186043 -0.16112156
000020 97 79 7d 3b a8 15 1e 3f ed a0 82 3e cf b9 32 bd
       0.003867721 0.61751795 0.25513402 -0.043634232
000030 60 fb 1d 3e e7 da b6 bd e5 88 a5 be 92 44 38 3d
       0.15427923 -0.08928471 -0.32331005 0.04498727

encoder.attn_layers.0.attention.out_projection.weight f4 [16, 16]
000000 52 90 e4 3d b8 81 0f bd 46 99 bb 3d a0 0e 5c 3e
       0.111603394 -0.03503582 0.09160094 0.21489954
000010 6e cd 38 be 8c aa 10 3e 56 4e db bd c2 c0 b3 bd
       -0.18047115 0.14127558 -0.10708301 -0.08777
000020 3d 0f bb bc 1c 9e 37 bf 99 1a c5 bd b6 08 08 bf
       -0.022834415 -0.7172563 -0.09624214 -0.5313829
000030 1e b3 e7 3d 43 ce 50 3f 66 c7 fe 3e d8 5b 8b 3c
       0.11313461 0.8156473 0.49761504 0.017011568
000040 e8 f8 bb 3d 74 05 89 3d 6a 76 f2 bd 6c cb 53 bd
       0.091783345 0.06690493 -0.11838992 -0.05170767
000050 a1 e2 ef 3d 7d 00 83 3e f4 7c 21 be db 95 9a 3d
       0.11713148 0.2558631 -0.15770322 0.07548114
000060 19 2d 2e 3c 1c 1c d0 bd 74 52 8e bc d6 0c 19 3e
       0.010630869 -0.101616114 -0.017373301 0.14946303
000070 5b c6 ab 3d ef 9a ed 3d 22 89 52 3d b7 5e a5 bd
       0.08387443 0.11601817 0.05140031 -0.08074706
000080 fd 13 44 bf 41 e5 f3 bd 42 af d2 be 04 9e 92 3e
       -0.76593 -0.11908961 -0.41149336 0.2863618
000090 64 07 77 bf 5f 2f 41 be fd 89 0e bd fa fb 79 3d
       -0.9649565 -0.18865727 -0.034799565 0.06103132
0000a0 7d f9 e3 3e 9b c8 33 3e b6 c2 29 3f b5 3b ef 3d
       0.44526282 0.17556994 0.6631273 0.1168131
0000b0 8e 6b 36 be db 0d a0 bd 40 77 c5 be f2 17 95 3e
       -0.17814466 -0.07815143 -0.38567543 0.2911983
0000c0 f6 27 1f be 03 14 1c 3e 4b 59 eb bd 84 21 6b bb
       -0.15542588 0.15242009 -0.11491641 -0.0035878131
0000d0 ac bf 80 be 7f 64 de 3d 02 43 8e bd 67 19 c8 bc
       -0.25146234 0.10859012 -0.069463745 -0.024426175
0000e0 4c 69 7f 3e 75 0c 06 be ab 46 03 3d 66 3d 81 be
       0.24942511 -0.1309069 0.032049816 -0.25242156
0000f0 4d 5b 0d 3d 8a 4e 44 3f 47 c0 21 bd 49 be ab bc
       0.0345109 0.7668234 -0.03949001 -0.020964758
000100 06 5a 52 3e 83 43 80 be 8b f2 53 be 1b a0 8d be
       0.20542154 -0.25051507 -0.20697992 -0.27661213
000110 57 a7 83 3d 96 ab 99 3e b3 96 4a be c8 c4 9e 3e
       0.06428402 0.30013722 -0.1978405 0.31009507
000120 c0 17 36 3e eb 11 40 3f be a1 c6 be 12 ae 0c 3f
       0.17782497 0.7502734 -0.38795274 0.5495311
000130 dc 5d 9f bc 6f 0f 08 bf eb a8 da be 61 4e a9 be
       -0.019453935 -0.5314855 -0.42707 -0.3306761
000140 d6 dd 36 be 82 c9 66 3d 0d b9 23 3d b5 0f 23 bf
       -0.17858061 0.056344517 0.0399714 -0.6369584
000150 e3 e1 7a 3c 69 56 e0 3d 11 cf 0f 3d 73 51 15 bd
       0.015312645 0.109539814 0.035109583 -0.03645463
000160 31 73 db 3d 6f 1d 48 3c db 07 aa 3d 28 f0 92 3d
       0.107153304 0.012214049 0.083022796 0.071747124
000170 36 5f 0a be d5 52 36 3d b2 7c c3 3e 2a 11 f5 3d
       -0.13512883 0.04451259 0.38181072 0.119661644
000180 48 a5 09 3f 3b 4b 91 bd 0d a3 df be 1f c9 b2 bd
       0.53767824 -0.07094427 -0.43679085 -0.08729767
000190 a7 ce a2 be 3f d6 44 be f5 a3 9a 3e ac a1 68 3e
       -0.31798288 -0.19222353 0.30203214 0.22717923
0001a0 4a a9 10 bf 63 49 90 be 8a c1 38 be ed 45 1a 3e
       -0.56508315 -0.2818099 -0.1804258 0.15065737
0001b0 56 28 0d bf 3a 96 be be 90 27 c3 be a8 19 10 3e
       -0.5513967 -0.3722399 -0.3811612 0.14072287
0001c0 7b 03 17 bc 44 b0 72 3e fe c6 e2 3d 32 2b 9e 3e
       -0.009217138 0.23700052 0.11073111 0.3089233
0001d0 a2 27 07 be 4a cf 01 be 2c e4 d8 bd 92 86 65 bd
       -0.13198712 -0.12676731 -0.10590395 -0.05603654
0001e0 e6 d7 1e be f2 47 34 be e9 06 9d 3d 58 39 c3 be
       -0.15512046 -0.1760557 0.07667334 -0.38129687
0001f0 39 bc ba bd 7f 90 0a 3f 52 a0 0d 3f be 76 da 3d
       -0.09117932 0.54126734 0.55322754 0.106671795
000200 92 2c ca bc 18 0f 8a be 68 d3 f3 3c cd dd 2d 3d
       -0.024679456 -0.2696464 0.029763892 0.042447854
000210 dc 57 c9 3d 88 60 2d 3e 08 df cd 3c f1 54 d0 bd
       0.09831211 0.16931355 0.025130764 -0.10172451
000220 4d 30 39 be ba b5 53 3e d0 9f 9d bc ef 8f 97 3d
       -0.18084832 0.20674792 -0.019241244 0.074005
000230 9a fc 70 bd 32 73 e2 be 14 ea ff 3c d6 b4 b4 3d
       -0.05883465 -0.44228512 0.031239547 0.08823554
000240 98 1d 72 3e db 5f 23 3e 3a c9 d3 bc f4 55 92 bc
       0.23644102 0.15954535 -0.025852788 -0.017863251
000250 a7 14 0b 3f 0c 42 b8 3e 00 10 e4 3e 9f 75 dc 3d
       0.5432839 0.3598789 0.44543457 0.10764622
000260 56 98 32 3c 6d 02 94 bd 13 5b b4 bd a3 bb cb be
       0.0109005775 -0.07227025 -0.088064335 -0.39791593
000270 84 61 07 3d 6f b4 b5 bd 38 44 a9 be 5e 27 75 bd
       0.033051983 -0.088723056 -0.3305986 -0.059851997
000280 4d db 42 bc 3b 41 a9 bc 2f cc 00 bb d6 62 ad 3c
       -0.011893106 -0.020660987 -0.0019652953 0.021165293
000290 29 5c df bc 62 c3 9f bd 9d a2 c9 3d 12 1b 82 bd
       -0.027265625 -0.07800938 0.09845469 -0.063528195
0002a0 81 c2 4a bc 30 25 52 3c 02 af d3 bd 5e c2 7f b9
       -0.012375475 0.012826249 -0.103361145 -0.00024391102
0002b0 d9 96 4d 3d 30 0f 83 3c 74 d0 dc b8 d9 df 70 3c
       0.050192688 0.015998453 -0.00010529245 0.014701807
0002c0 16 b5 e3 bc 8b af 07 3d d5 b7 04 bd f0 63 56 3d
       -0.02779631 0.033126395 -0.03240188 0.0523414
0002d0 2d 9c 0d bd 89 73 af 3e 04 5f 23 3e d1 b8 d8 3d
       -0.03457277 0.34267834 0.15954214 0.10582126
0002e0 39 c4 d9 bc 24 4f e9 3d 3f 1d 17 bd 22 26 fe 3d
       -0.026582824 0.11392048 -0.036893126 0.12409617
0002f0 9d dc 10 bd 6e 72 54 be 38 5c f8 3b fd f8 57 bd
       -0.035366643 -0.20746776 0.0075793527 -0.052727688
000300 1a d3 9f 3c 5c 4c 26 bc 55 7c bc bc e9 61 32 bc
       0.01950984 -0.010150041 -0.023008505 -0.010887601
000310 cb c5 34 3d a6 79 e0 bd 4e ad de bc 57 6f 67 3c
       0.044133943 -0.109607026 -0.027182247 0.014125667
000320 e0 fb 08 bd a1 88 a7 bd 62 02 13 3e 99 c6 9a bc
       -0.03344333 -0.08180357 0.14356378 -0.018893527
000330 1e db 84 3c 65 4d e0 ba 9b a1 5d bd 19 8f 00 ba
       0.016217764 -0.0017112909 -0.054109197 -0.0004904136
000340 8d 9a 90 bd 9e d5 91 bc d9 82 2e 3e 9a 87 f7 3d
       -0.07060728 -0.017802056 0.17042102 0.12086411
000350 60 3b 0d be 2d 9d 0b bf 03 ac 16 bf 1c 92 85 be
       -0.13792181 -0.54536706 -0.5885622 -0.26088035
000360 8b b7 3b bd ea d4 0b bd 25 26 49 3e fe 09 03 bf
       -0.045829337 -0.034138598 0.19643457 -0.5118712
000370 93 e7 f8 3d 2b e0 4e bd 2b ed b3 3d 6e ba 3e 3e
       0.12153544 -0.050506752 0.087854706 0.18625805
000380 a3 f3 31 3c e5 90 07 bd d0 07 1d bc f3 1c 25 bd
       0.01086131 -0.033097167 -0.009584382 -0.04031081
000390 98 2e 91 3d 0c 33 8b bc 2c 38 98 3e 74 5e 48 3d
       0.07088965 -0.016992114 0.29730356 0.048918203
0003a0 b6 e9 4f bc f3 d5 65 bd 42 9d 48 bd 3d a0 d0 3d
       -0.012689998 -0.05611224 -0.048978098 0.10186813
0003b0 42 f7 d9 bd ce e7 70 3d e7 76 e8 bd d8 1a 1e 3c
       -0.10642864 0.058814816 -0.11350804 0.009649955
0003c0 c3 6d 64 3c 71 f5 87 bc 19 a4 7e bc 99 7f 31 bc
       0.013942185 -0.016596528 -0.015542054 -0.010833644
0003d0 a1 20 38 3c 51 cb 23 3b df db a4 3c 1e 21 c9 38
       0.011238248 0.0024993012 0.020124374 9.5905954e-05
0003e0 60 9c a4 3c 7d 33 90 bd a1 15 00 bc 98 0f 60 3d
       0.020094097 -0.070410706 -0.007817657 0.05470237
0003f0 fb f6 f0 bb 65 6c 35 be 7b a5 ac 3d 61 aa e6 bb
       -0.007353661 -0.1771713 0.084300004 -0.0070393537

encoder.attn_layers.0.attention.out_projection.bias f4 [16]
000000 92 5f 0f bf b1 6e 07 bf ff 57 d7 3e b5 26 ee be
       -0.56005204 -0.52903277 0.42059323 -0.46513906
000010 5a f1 50 3f d0 14 a6 be f6 1f ba 3a bf 38 72 bf
       0.81618273 -0.32437754 0.0014200199 -0.9461784
000020 e6 17 20 3f fe 23 87 ba 7a dc 29 be 24 18 02 be
       0.62536466 -0.0010310409 -0.16588011 -0.12704521
000030 52 59 6c bd d7 4c 62 3e 86 3c a6 bc f0 43 e5 3e
       -0.05770237 0.22099625 -0.020292532 0.44778395

encoder.attn_layers.0.conv1.weight f4 [64, 16, 1]
000000 78 f7 40 be 47 b5 79 3e fa 21 fb be 4d 92 05 3f
       -0.18844402 0.24385558 -0.4904936 0.5217636
000010 d1 70 a0 be bb b0 c0 bc 5b 3d 19 3e 9b 96 64 3e
       -0.31336072 -0.023521772 0.14964812 0.22323076
000020 37 ac bc 3d 15 ee a7 be 59 c4 98 bf a2 16 0f 3f
       0.09212535 -0.3279883 -1.193492 0.5589391
000030 6b 77 8c be ab 82 df 3e ea 1e 8d 3e b8 33 32 bf
       -0.2743486 0.4365438 0.27562648 -0.69610167
000040 bb 74 b1 bb eb db a9 3e 13 62 2b bc e3 2e c1 3e
       -0.0054155267 0.33175597 -0.010460394 0.37731084
000050 ee 77 c8 bd 75 39 49 be cc 38 10 3e 95 38 9a 3e
       -0.097885 -0.19650824 0.14084166 0.30121294
000060 a9 f8 0b be 1f f7 3e be a7 6c 5a 3e 12 23 c5 3d
       -0.13669075 -0.18648957 0.2133051 0.0962583
000070 99 9e 04 be be ff b1 bc bf af 28 3e c8 0a 20 bf
       -0.12951125 -0.021728393 0.16473292 -0.6251645
000080 94 dc be be b7 4c 6c bd 8c eb 27 bc 8c bc 38 3e
       -0.37277663 -0.05769035 -0.01024903 0.18040675
000090 16 4c f7 bb 4f 7d 44 3e 42 75 04 bf 0f e4 e3 3e
       -0.007546912 0.19188426 -0.5174142 0.44509932
0000a0 ac b9 0e 3f 3a 9a 89 bd 98 16 35 3e 89 aa c6 3d
       0.5575206 -0.067188695 0.176844 0.09700496
0000b0 19 ab 54 be b3 5e 58 bf d3 89 af 3e c7 cf 86 3d
       -0.20768394 -0.845195 0.3428484 0.06582599
0000c0 57 b5 07 be ed 47 f8 3d 29 e3 e9 3d e1 ce c4 b9
       -0.1325277 0.12123094 0.114202805 -0.0003753817
0000d0 1f e6 ef bd 9f fa 91 bd ac fb 5e 3d 2d 48 3f 3e
       -0.11713814 -0.0712788 0.05443923 0.18679877
0000e0 c9 fe c6 be 2e 68 04 be 9d b5 66 3f 2e 35 98 bd
       -0.3886626 -0.12930366 0.9012087 -0.07432018
0000f0 91 3c 11 3e 7f 71 2d bf 58 1c 1d 3e 65 6d 1c bf
       0.1418326 -0.67751306 0.15342844 -0.6110442
000100 06 82 06 3e 48 1e 00 3e 15 16 c7 3d d5 9f 99 bd
       0.13135538 0.12511551 0.09721009 -0.07501189
000110 9e a6 23 be db 84 ec bd 1b 84 8e 3d b8 3c 9f bd
       -0.15981528 -0.11548778 0.06958791 -0.07775253
000120 26 93 6a be 24 2b 9f be 9c 35 26 bf fe fc 01 3f
       -0.22907695 -0.310876 -0.6492555 0.5077666
000130 b5 5b 08 be 3b 5f 8a 3e fa e9 cd 3d 5b dd f1 3d
       -0.13316233 0.2702578 0.10054393 0.11809798
000140 cc fd d8 bd 14 c1 9f bd 51 28 c1 3d 52 ae 87 be
       -0.10595283 -0.078004986 0.09431518 -0.26500183
000150 fe 8c 1c 3f e3 94 ea bd 74 ef 5f bd bd c2 84 3e
       0.61152637 -0.11454179 -0.05467172 0.25929824
000160 87 48 e8 3c d5 83 06 be c6 86 fa bd f3 6e 07 bd
       0.028354896 -0.13136227 -0.12232737 -0.033064794
000170 82 d0 8d be 48 58 94 3e 13 63 26 be 25 ce 1e 3e
       -0.2769814 0.28973603 -0.16248731 0.15508325
000180 6e 90 bd 3d 42 07 e2 3e 69 fb 60 be 04 87 2b 3d
       0.092560634 0.44146162 -0.21970905 0.041876808
000190 fb 84 c5 bd 22 2b 02 3e fd ea b7 3d e7 48 b6 3e
       -0.09644505 0.12711766 0.08980367 0.35602495
0001a0 70 0d 96 be 4a 16 09 3e d8 5e f3 bd 98 ec 77 be
       -0.29307127 0.13387409 -0.118833244 -0.24211347
0001b0 47 55 30 bf b9 96 8f be ea 66 b6 3e f5 50 8c bd
       -0.6888012 -0.2804468 0.35625392 -0.06851379
0001c0 60 4c 8b bd 55 de fc 3e 8f 06 5d 3e b0 cb 90 3c
       -0.06801677 0.49388376 0.21584533 0.01767525
0001d0 55 8d 38 3e ff 39 1e bf 2e ba fc bc 5c e0 3c bd
       0.18022664 -0.61807245 -0.030850496 -0.046112403
0001e0 af b0 69 3d ec 8b 05 bf 8c 89 0c be f9 9e b3 be
       0.057053264 -0.5216663 -0.13724345 -0.35082224
0001f0 f1 4b 7b 3e 8a 46 ba 3e b6 b1 64 3f d7 61 74 3d
       0.24540688 0.36381942 0.89333665 0.05966362
000200 14 50 bf 3d 11 0c 15 3e 78 50 38 3e 08 73 9d 3e
       0.093414456 0.14555384 0.17999446 0.30751824
000210 15 a9 10 bf 78 fa 80 3e f3 7d 5b 3e e1 44 5d bf
       -0.56508 0.25191092 0.21434765 -0.86433226
000220 98 9e 44 3c aa 7f f9 3d 71 48 3c 3e f2 b2 e7 3d
       0.012000702 0.12182553 0.18387009 0.11313428
000230 cf ad d7 3d 22 1b 21 3e ab e1 bb 3e 8f ec 56 3e
       0.10531198 0.15733007 0.36695608 0.20988677
000240 77 ed 4b 3e 82 4b ee bd 1c 2e 2b 3e 70 e7 70 bd
       0.19914804 -0.11635496 0.16716808 -0.058814466
000250 47 69 79 be 62 f2 94 bd 0f 30 d1 be bf c5 26 bd
       -0.24356566 -0.07272793 -0.40856978 -0.04071593
000260 54 c2 08 3f 26 28 85 be 68 8f 8e bd ef 7c 32 be
       0.5342152 -0.26007193 -0.06960946 -0.17430471
000270 85 be 31 be 73 8d 28 bd e8 fb 47 be a2 c2 3c be
       -0.17357834 -0.04115052 -0.19529688 -0.18433622
000280 16 4e a6 be bc 55 18 3c 80 e9 82 3e cf c2 4b be
       -0.3248145 0.009297784 0.2556877 -0.19898532
000290 fc 4d 02 be 98 9f 06 be 36 09 67 be cc dc 82 3d
       -0.12725061 -0.13146818 -0.22562107 0.0638977
0002a0 09 78 05 bf 61 70 6e 3d 48 1a 6f 3f 7e 09 f6 3d
       -0.52136284 0.05821264 0.93399477 0.12013529
0002b0 e3 b7 3e 3e 71 52 fa be 9f f5 c9 be 91 34 a0 be
       0.18624835 -0.48891023 -0.39445207 -0.31290105
0002c0 ca 2a c3 be 7a 8a 6f be 0e 4a c6 3e 84 df 7c be
       -0.38118583 -0.23392668 0.38728374 -0.2469464
0002d0 3f dc bf bd ea 4c c5 bd 5a ce 0a 3e 5b 73 9a be
       -0.093681805 -0.09633811 0.1355528 -0.30166134
0002e0 79 36 90 bd ee 37 7c bd ee 63 c0 be c4 08 9e 3e
       -0.0704164 -0.061576776 -0.3757624 0.30866063
0002f0 9f 0f 0a 3e 5a 37 77 bf 39 a8 74 3f 38 27 85 be
       0.13482521 -0.96568835 0.9556919 -0.26006484
000300 3c 26 4e 3e 97 62 f0 3e fb d8 cb 3c 82 e0 e7 3e
       0.20131773 0.46950218 0.024883738 0.45288473
000310 ea 69 a6 be 2d 95 4c 3d 04 fc ef bd 2d b6 3c 3e
       -0.3250268 0.049946953 -0.1171799 0.1842887
000320 8e 63 b2 be f6 ea 80 be 9c 8c 56 3d 37 ef 91 3b
       -0.3484158 -0.2517926 0.05238019 0.0044535655
000330 3d 8d b8 bd 0f 03 a9 3d 57 c2 06 bf 06 b6 78 be
       -0.09011314 0.082525365 -0.5264029 -0.24288186
000340 95 fa 9a bd c5 af 96 3d b5 70 c6 3d 60 3c e3 be
       -0.07567326 0.07357744 0.09689466 -0.44382
000350 65 72 d4 bd 6c c1 1d 3e b3 3b b1 be 84 2f 0a 3e
       -0.103733815 0.15405816 -0.3461586 0.13494688
000360 f6 f9 bc be ba 81 20 bc e4 bf 66 3e 22 66 c0 bc
       -0.36909455 -0.009796554 0.22534138 -0.0234862
000370 b7 c3 86 be f2 26 87 3d 7b f8 9a 3e 31 1b 9b 3e
       -0.26321194 0.06599225 0.302677 0.30294183
000380 e4 6b 21 3d ff 83 a7 3c 68 36 92 3e 3d 5b 8a 3e
       0.039409533 0.020448683 0.28557134 0.27022734
000390 a8 13 33 be bc 44 82 be 01 04 bd 3d a6 cb 95 3d
       -0.17487967 -0.25443065 0.09229279 0.073142335
0003a0 24 f5 48 be 5e 1e 29 3c d0 42 33 3e 56 c9 11 3f
       -0.19624764 0.0103221815 0.17505956 0.5694784
0003b0 ff d6 ca 3e df 42 31 bd 0e ef 93 3e 8a b9 16 bf
       0.39617154 -0.043276664 0.28893322 -0.5887686
0003c0 1c f3 63 bd dc b6 a2 3e 22 8a 6e 3e f9 8f d1 3e
       -0.05565177 0.31780136 0.23294881 0.40930155
0003d0 cc 21 85 be b4 5e f4 3d 05 38 a0 be b5 ad 0e 3e
       -0.26002347 0.11932126 -0.3129274 0.13933451
0003e0 58 a2 09 bf e9 4d 8f 3d b1 c5 62 be 2d ab b5 be
       -0.5376334 0.06997282 -0.22145726 -0.3548216
0003f0 c0 c8 60 3e f9 b1 6f 3d cf b0 84 3d 24 6a 57 be
       0.2195158 0.058519337 0.06479036 -0.21036583

encoder.attn_layers.0.conv1.bias f4 [64]
000000 12 d6 90 bf 60 81 41 bf fb ad 50 be a2 98 0c bf
       -1.1315329 -0.75588036 -0.20378868 -0.549204
000010 d5 7c 1c be 6a 5a 18 bf d7 c4 53 be c2 5d 90 bd
       -0.15281995 -0.5951296 -0.20680557 -0.07049133
000020 28 8e 46 bf 7b 8d 31 bf ef c1 f0 be c1 56 f5 be
       -0.77560663 -0.6935651 -0.4702296 -0.4791775
000030 ae 78 eb be 8d 7f f8 bc c3 ef 05 3d 3a 78 bf be
       -0.4599051 -0.030334258 0.032699358 -0.37396413
000040 c3 4c 7d bf 6f 18 c0 3d 00 65 3d bf 47 a7 02 bf
       -0.98945254 0.0937966 -0.7398224 -0.51036495
000050 76 ef a8 bf ab 7d 4b be c1 94 91 be 9e ac 0b bf
       -1.3198078 -0.19872157 -0.28433803 -0.5456027
000060 25 07 78 be 54 45 0f bf 7a e8 bd be 1d 91 d6 bd
       -0.24221475 -0.5596516 -0.37091428 -0.10476897
000070 0a 41 cc 3d 7f a7 ec be 3b 86 87 be 88 b1 34 be
       0.09973343 -0.4622154 -0.26469597 -0.17645848
000080 d3 52 58 bf 0b 98 cb 3d 67 44 ac be 9d 41 a7 bf
       -0.8450138 0.09941109 -0.33645937 -1.3066899
000090 17 95 1c 3e 91 0e 02 bc b9 9d 27 bf c1 72 74 bd
       0.15291248 -0.007938043 -0.6547504 -0.05967975
0000a0 1e 3a 0d bf 49 8a 66 be 11 63 1b be f3 24 a4 be
       -0.55166805 -0.22513689 -0.1517451 -0.3205944
0000b0 b0 56 9f bf e0 38 1c bf b3 ba dc be 8d 74 ad 3e
       -1.244833 -0.61024284 -0.4311119 0.33877984
0000c0 7e d4 27 3d a1 ed 6f be b0 7f 29 bf b0 7e 47 bf
       0.040974133 -0.23430492 -0.6621046 -0.77927685
0000d0 14 9f 8d bf 46 6e 0d be 73 ac 3a be 9b fc 57 bf
       -1.1064172 -0.13811597 -0.18229847 -0.8436982
0000e0 95 8a b3 be 23 f2 f2 bd 72 b0 44 be 6c 32 8c 3e
       -0.35066667 -0.1186259 -0.19207934 0.2738222
0000f0 44 49 d9 be ce 5b 7c bf 0a e0 38 bf 11 04 e3 be
       -0.4243871 -0.9857758 -0.72216856 -0.4433904
