SimMTM-main/SimMTM-main/SimMTM_Forecasting/outputs/pretrain_checkpoints/ETTh1/ckpt30.pth (torch, 356303 bytes, 37 tensors)

enc_embedding.value_embedding.tokenConv.weight f4 [16, 1, 3]
1.1746849 -1.7985336 1.2149975 4.121726 -0.63946015 -3.7331789 -2.6541443 -2.5745158
-0.5727617 -2.5402853 2.979578 -1.6037977 -1.8930877 -1.1856256 1.7100701 4.4881935
-2.5992548 3.2444258 3.1850212 1.3340421 2.4906538 1.4357824 -0.8606755 0.45730415
0.3470499 1.0137593 2.494448 -5.2425523 -3.1890569 -0.17487541 -0.009043313 9.056756
0.08270486 -0.823267 3.3836868 -2.7138188 -0.011894728 -9.518979 -0.06556628 -1.6560605
1.8684635 0.774608 -1.0019252 -0.19206037 2.7813838 1.9524299 -1.4362029 -0.40275007
00000000: 135c 963f 5936 e6bf 0a85 9b3f 2ee5 8340
00000010: a9b3 23bf 67ec 6ec0 80dd 29c0 dec4 24c0
00000020: 83a0 12bf 0994 22c0 68b1 3e40 3e49 cdbf
00000030: b350 f2bf 94c2 97bf 94e3 da3f 489f 8f40
00000040: 315a 26c0 aca4 4f40 63d7 4b40 e4c1 aa3f
00000050: df66 1f40 b8c7 b73f 3b55 5cbf c523 ea3e
00000060: 86b0 b13e ddc2 813f 09a5 1f40 fdc2 a7c0
00000070: 8219 4cc0 8a12 33be 672a 14bc 79e8 1041
00000080: 2a61 a93d a0c1 52bf 538e 5840 35af 2dc0
00000090: 1be2 42bc bd4d 18c1 9d47 86bd caf9 d3bf
000000a0: d029 ef3f b64c 463f 163f 80bf 79ab 44be
000000b0: 3102 3240 39e9 f93f 7fd5 b7bf 4235 cebe

enc_embedding.position_embedding.pe f4 [1, 5000, 16]
0.0 1.0 0.0 1.0 0.0 1.0 0.0 1.0
0.0 1.0 0.0 1.0 0.0 1.0 0.0 1.0
0.84147096 0.54030234 0.3109836 0.9504153 0.099833414 0.9950042 0.031617504 0.99950004
0.009999833 0.99995 0.0031622713 0.999995 0.0009999998 0.9999995 0.00031622782 0.99999994
0.9092974 -0.41614684 0.5911271 0.8065784 0.19866931 0.9800666 0.063203394 0.9980007
0.019998666 0.9998 0.006324511 0.99998003 0.0019999985 0.99999803 0.0006324556 0.9999998
0.14112 -0.9899925 0.8126489 0.58275366 0.2955202 0.9553365 0.094726086 0.99550337
0.0299955 0.99955004 0.009486687 0.999955 0.0029999954 0.9999955 0.00094868336 0.9999996
-0.7568025 -0.6536436 0.95358074 0.30113748 0.38941833 0.921061 0.12615407 0.99201065
0.039989334 0.9992001 0.01264877 0.99992 0.003999989 0.999992 0.0012649109 0.9999992
-0.9589243 0.2836622 0.99994653 -0.010342338 0.47942552 0.87758255 0.15745588 0.987526
0.049979165 0.99875027 0.015810724 0.999875 0.004999979 0.9999875 0.0015811383 0.99999875
-0.2794155 0.96017027 0.9471482 -0.3207964 0.5646424 0.8253356 0.18860027 0.98205394
0.059964005 0.99820054 0.018972522 0.99982 0.0059999637 0.999982 0.0018973658 0.9999982
0.6569866 0.75390226 0.8004216 -0.5994375 0.6442176 0.7648422 0.2195561 0.9755999
0.06994285 0.997551 0.022134129 0.999755 0.006999942 0.9999755 0.0022135929 0.99999756
0.98935825 -0.14550003 0.5743178 -0.8186324 0.717356 0.6967067 0.25029233 0.9681703
0.07991469 0.9968017 0.025295515 0.99968004 0.007999914 0.999968 0.0025298197 0.9999968
0.4121185 -0.91113025 0.29125923 -0.9566442 0.78332686 0.62161 0.28077832 0.95977265
0.089878544 0.9959527 0.028456647 0.99959505 0.008999879 0.9999595 0.0028460464 0.99999595
-0.5440211 -0.8390715 -0.02068357 -0.9997861 0.84147096 0.54030234 0.31098357 0.9504153
0.099833414 0.9950042 0.031617496 0.99950004 0.009999833 0.99995 0.0031622727 0.999995
-0.9999902 0.004425698 -0.33057496 -0.94377977 0.89120734 0.4535962 0.34087786 0.9401076
0.1097783 0.9939561 0.03477803 0.9993951 0.010999777 0.9999395 0.003478499 0.999994
-0.53657293 0.84385395 -0.6076834 -0.7941793 0.9320391 0.36235783 0.3704313 0.9288599
0.119712204 0.99280864 0.03793821 0.9992801 0.011999711 0.999928 0.0037947248 0.9999928
0.42016703 0.9074468 -0.82452846 -0.5658205 0.9635582 0.26749888 0.3996143 0.9166834
0.12963414 0.9915619 0.041098017 0.9991551 0.012999633 0.9999155 0.00411095 0.99999154
0.9906074 0.13673721 -0.9596054 -0.28134948 0.98544973 0.16996728 0.42839777 0.90359026
0.13954312 0.990216 0.044257414 0.99902016 0.013999541 0.999902 0.004427175 0.9999902
0.65028787 -0.7596879 -0.9995187 0.031022351 0.997495 0.07073732 0.45675287 0.8895936
0.14943813 0.9887711 0.047416367 0.9988752 0.014999436 0.9998875 0.0047433996 0.99998873
00000000: 0000 0000 0000 803f 0000 0000 0000 803f
00000010: 0000 0000 0000 803f 0000 0000 0000 803f
00000020: 0000 0000 0000 803f 0000 0000 0000 803f
00000030: 0000 0000 0000 803f 0000 0000 0000 803f
00000040: a46a 573f 4151 0a3f 3e39 9f3e 6b4e 733f
00000050: 7675 cc3d 98b8 7e3f 5b81 013d 3cdf 7f3f
00000060: 57d6 233c b9fc 7f3f 1c3e 4f3b acff 7f3f
00000070: 6d12 833a f8ff 7f3f 61cb a539 ffff 7f3f
00000080: b7c7 683f 3311 d5be 1b54 173f ec7b 4e3f
00000090: f86f 4b3e a5e5 7a3f c870 813d f97c 7f3f
000000a0: 3ed4 a33c e5f2 7f3f d83d cf3b b1fe 7f3f
000000b0: 6812 033b dfff 7f3f 60cb 253a fdff 7f3f
000000c0: c381 103e 2670 7dbf c209 503f 582f 153f
000000d0: 6c4e 973e ef90 743f c0ff c13d 4fd9 7e3f
000000e0: 1fb9 f53c 83e2 7f3f 0d6e 1b3c 0dfd 7f3f
000000f0: 929b 443b b5ff 7f3f 10b1 783a f9ff 7f3f
00000100: cfbd 41bf 3055 27bf de1d 743f b12e 9a3e
00000110: d761 c73e a7ca 6b3f 882e 013e 69f4 7d3f
00000120: dbcb 233d 94cb 7f3f c93c 4f3c c2fa 7f3f
00000130: 5712 833b 7aff 7f3f 5ecb a53a f3ff 7f3f
00000140: 107c 75bf 2c3c 913e 7ffc 7f3f e972 29bc
00000150: 4377 f53e 40a9 603f 1d3c 213e 81ce 7c3f
00000160: f4b6 4c3d 19ae 7f3f 7e85 813c cff7 7f3f
00000170: ddd6 a33b 2eff 7f3f 333e cf3a ebff 7f3f
00000180: 8c0f 8fbe b8cd 753f 4e78 723f 6d3f a4be
00000190: 688c 103f 3249 533f 6e20 413e e367 7b3f
000001a0: d19c 753d 128a 7f3f 436c 9b3c 34f4 7f3f
000001b0: 589b c43b d2fe 7f3f 08b1 f83a e2ff 7f3f
000001c0: 4630 283f bdff 403f 6ee8 4c3f bc74 19bf
000001d0: 72eb 243f b3cc 433f 50d3 603e eac0 793f
000001e0: 323e 8f3d 815f 7f3f a252 b53c f2ef 7f3f
000001f0: c55f e53b 65fe 7f3f ed11 113b d7ff 7f3f
00000200: 9546 7d3f f6fd 14be 7e06 133f e591 51bf
00000210: a5a4 373f 5f5b 323f 5126 803e 02da 773f
00000220: 50aa a33d 652e 7f3f 8a38 cf3c 08eb 7f3f
00000230: 1212 033c e7fd 7f3f 55cb 253b caff 7f3f
00000240: 3201 d33e d53f 69bf ee1f 953e a2e6 74bf
00000250: 1c88 483f d521 1f3f 2dc2 8f3e a9b3 753f
00000260: 3e12 b83d c2f6 7e3f ea1d e93c 76e5 7f3f
00000270: 3a74 133c 59fd 7f3f bc84 3a3b bcff 7f3f
00000280: f844 0bbf 64cd 56bf 9770 a9bc fbf1 7fbf
00000290: a46a 573f 4151 0a3f 3d39 9f3e 6b4e 733f
000002a0: 7675 cc3d 98b8 7e3f 5981 013d 3cdf 7f3f
000002b0: 57d6 233c b9fc 7f3f 223e 4f3b acff 7f3f
000002c0: 5cff 7fbf 7205 913b 1f41 a9be 8d9b 71bf
000002d0: 2a26 643f c33d e83e 8b87 ae3e e4aa 703f
000002e0: 72d3 e03d e873 7e3f 6873 0e3d 5bd8 7f3f
000002f0: 6938 343c 09fc 7f3f 87f7 633b 9bff 7f3f
00000300: d85c 09bf d006 583f 2491 1bbf 564f 4bbf
00000310: 1d9a 6e3f f786 b93e 2ca9 bd3e c3c9 6d3f
00000320: ac2b f53d b528 7e3f 1965 1b3d d2d0 7f3f
00000330: 709a 443c 48fb 7f3f ebb0 783b 87ff 7f3f
00000340: 2220 d73e 6f4e 683f 4c14 53bf 9dd9 10bf
00000350: c0ab 763f 9df5 883e 3f9a cc3e c3ab 6a3f
00000360: d0be 043e 00d7 7d3f 6556 283d a1c8 7f3f
00000370: 6afc 543c 76fa 7f3f 26b5 863b 72ff 7f3f
00000380: 7298 7d3f d704 0c3e b3a8 75bf 0a0d 90be
00000390: 6f46 7c3f e70b 2e3e f456 db3e b151 673f
000003a0: 64e4 0e3e cc7e 7d3f 4347 353d c9bf 7f3f
000003b0: 555e 653c 94f9 7f3f d611 913b 5cff 7f3f
000003c0: 4479 263f e87a 42bf 75e0 7fbf 9622 fe3c
000003d0: d55b 7f3f bade 903d 83db e93e 68bc 633f
000003e0: 4f06 193e 1a20 7d3f aa37 423d 49b6 7f3f
000003f0: 32c0 753c a1f8 7f3f 856e 9b3b 43ff 7f3f

enc_embedding.temporal_embedding.embed.weight f4 [16, 4]
0.3015949 -0.39924294 0.36566907 0.47898763 0.41616857 -0.24144799 0.3234859 -0.34352285
-0.49180436 -0.020203412 -0.21958649 0.4327439 -0.32768267 0.15310323 0.17462379 0.023151338
-0.10646671 0.34915376 0.21831751 -0.07023877 0.488721 0.09748107 -0.48649043 -0.45723253
-0.44826353 0.44990355 -0.34160984 0.45349467 -0.012340069 -0.46603417 0.3462789 0.1865784
0.48749292 -0.44574028 -0.2502104 -0.18866897 0.30318594 0.44296575 0.39749676 0.47056288
0.12872714 0.26046586 0.3712811 0.3824891 0.1498971 0.28242916 0.011507273 0.29042804
-0.07949293 -0.028955579 -0.030758917 0.36302876 0.42260313 0.39344484 -0.26435912 0.40714353
0.19529432 -0.11651611 -0.016129851 -0.3920455 0.48238176 -0.4647346 -0.47078234 0.07371515
00000000: a66a 9a3e 9269 ccbe fa38 bb3e de3d f53e
00000010: 0c14 d53e 243e 77be f29f a53e 3ae2 afbe
00000020: c8cd fbbe a081 a5bc 48db 60be 9c90 dd3e
00000030: 06c6 a7be 18c7 1c3e 94d0 323e e0a7 bd3c
00000040: 380b dabd 48c4 b23e a08e 5f3e 58d9 8fbd
00000050: a439 fa3e 28a4 c73d 4615 f9be 621a eabe
00000060: cc82 e5be c259 e63e 7ce7 aebe 7430 e83e
00000070: 002e 4abc 089c eebe 784b b13e 680e 3f3e
00000080: ac98 f93e 1238 e4be 941b 80be 7032 41be
00000090: 303b 9b3e 68cc e23e b284 cb3e 9eed f03e
000000a0: 0cd1 033e c85b 853e 8e18 be3e 9cd5 c33e
000000b0: a07e 193e 8e9a 903e 0089 3c3c fcb2 943e
000000c0: 30cd a2bd 4034 edbc 20fa fbbc e8de b93e
000000d0: 705f d83e 9a71 c93e 145a 87be 1e75 d03e
000000e0: 3cfb 473e 00a0 eebd c022 84bc 30ba c8be
000000f0: befa f63e b2f1 edbe 620a f1be f8f7 963d

encoder.attn_layers.0.attention.query_projection.weight f4 [16, 16]
0.0643798 0.027540635 -0.013270547 -0.012096875 0.06499092 -0.06439775 0.15613395 0.00068787136
-0.046184674 0.008780322 0.025485603 0.04103771 -0.018681062 -0.043234635 0.039511506 -0.11567878
0.10583473 -0.16370705 0.06840163 -0.10409537 0.096767835 -0.038231008 -0.05665979 -0.1466257
0.06558959 -0.012599542 -0.010493255 0.013775738 -0.20526011 -0.050545953 -0.33276165 0.18545619
-0.016316716 0.0043869223 0.00808803 0.00834795 -0.012342119 -0.010172904 -0.03166822 -0.039190926
-0.02471311 -0.3061654 -0.3370091 0.019689096 -1.4849576 -0.013776087 -0.010398 -0.01058036
-0.24471429 0.026072055 0.018365081 0.25280347 -0.010113064 0.2651906 -0.04023541 -0.16333193
-0.16492909 0.005729339 0.035884734 -0.09960976 -0.017302668 0.07509711 0.032565895 -0.0069633783
-0.10451398 0.013108451 -0.16367851 -0.05051727 -0.10466321 0.02228924 -0.072566435 0.034577716
0.07242868 0.11040747 0.0531164 0.045664646 -0.005280185 0.05711966 0.15898284 0.09906834
0.26529562 0.050025005 0.028814651 0.0044114776 0.15895854 -0.0071052336 0.015079799 -0.010993861
0.06290861 0.027732428 0.041782763 0.22074072 -0.027403671 -0.11176881 0.16857648 -0.022774303
-0.042825885 0.023248604 -0.0070103104 -0.033131886 -0.15785728 -0.0034071049 0.028258797 0.027857961
-0.013878956 0.020215046 0.02264516 0.059821244 -0.01888649 -0.17303847 0.2222686 -0.19652005
-0.015248359 -0.0041274587 -0.023053864 0.023695279 0.030744024 -0.027903091 0.031589925 0.01973308
0.009546168 -0.043372817 -0.5117653 -0.062076975 -0.026577948 -0.04746951 -0.00040627935 -0.026203346
-0.015822506 -0.00416145 0.030623531 0.0074981824 0.0037855527 -0.023918986 -0.03171192 0.029595815
-0.03810013 0.05257641 -0.4886268 -0.002555991 1.759075 -0.01891927 -0.022257444 -0.015899
-0.08356862 -0.020734962 -0.010087421 -0.006617229 0.0484441 -0.004423119 -0.009291989 0.11413249
0.02501149 -0.0052414457 0.003617148 0.014159387 -0.05977258 -0.031568095 0.0051653227 0.14521761
0.0019718409 -0.007306499 -0.012652999 -0.006610088 0.023974169 8.863202e-05 -0.0012722103 0.0035855253
-0.019925311 -0.0001754828 -0.38357416 -0.0066065295 1.666079 -0.047716826 0.016270809 -0.0019784924
0.073973194 0.036964454 -0.0164563 -0.005586247 -0.068143316 0.02141029 0.016812926 0.08925248
-0.016274486 0.10162968 0.00068687927 -0.020751407 0.0076872236 0.0074244314 0.004321881 -0.04813605
-0.020166535 -0.011030796 0.043737914 -0.0053753406 -0.007306826 -0.030681558 -0.05820504 0.022230402
-0.38173464 0.0009268979 -0.083644055 0.1435512 0.08078451 -0.10519947 -0.4214915 -0.002341363
0.08092531 0.101610616 -0.01382249 0.13768779 -0.020697376 0.046110414 -0.017803457 0.15176138
-0.123503834 0.00010809449 0.014426369 -0.100917995 0.02578812 -0.099215366 0.106308505 -0.33835775
-0.0014621057 0.008028541 0.02430658 0.019616317 0.03843841 0.02719832 -0.08189714 0.010540197
-0.006321724 -0.03911948 -0.014609567 -0.060361892 0.005392116 0.050049357 -0.057348616 -0.2712946
-0.017900046 -0.06289725 0.027135428 0.020290846 0.08695426 -0.028863717 -0.008554745 -0.07971455
0.054436833 0.04291652 -0.0084282495 -0.034633204 0.0070976857 0.06974706 -1.52993 -0.097069204
00000000: 8ed9 833d e69c e13c b56c 59bc f931 46bc
00000010: f619 853d f8e2 83bd 94e1 1f3e 4452 343a
00000020: 242c 3dbd 57db 0f3c 2fc7 d03c 2817 283d
00000030: 0709 99bc cd16 31bd d1d6 213d ffe8 ecbd
00000040: e1bf d83d d2a2 27be 2716 8c3d f42f d5bd
00000050: 372e c63d 1e98 1cbd 1914 68bd 0c25 16be
00000060: d653 863d 4f6e 4ebc e7eb 2bbc a2b3 613c
00000070: b52f 52be 4609 4fbd bc5f aabe 3ae8 3d3e
00000080: a2aa 85bc 2cc0 8f3b a883 043c d7c5 083c
00000090: 9936 4abc 40ac 26bc 89b6 01bd aa86 20bd
000000a0: 2673 cabc b6c1 9cbe 758c acbe 074b a13c
000000b0: 1713 bebf 19b5 61bc 5f5c 2abc 3f59 2dbc
000000c0: 6296 7abe 1095 d53c 5e72 963c 756f 813e
000000d0: 44b1 25bc 10c7 873e e3cd 24bd 7c40 27be
000000e0: 2ce3 28be 2ebd bb3b dffb 123d 3400 ccbd
000000f0: 53be 8dbc 83cc 993d d163 053d 0d2d e4bb
00000100: 6d0b d6bd d4c4 563c 579b 27be 32eb 4ebd
00000110: aa59 d6bd ed97 b63c b69d 94bd 5da1 0d3d
00000120: 7d55 943d 501d e23d 9590 593d da0a 3b3d
00000130: 6705 adbb 4ef6 693d 66cc 223e 58e4 ca3d
00000140: d4d4 873e 05e7 4c3d b40c ec3c 288e 903b
00000150: 07c6 223e 05d3 e8bb 4311 773c 981f 34bc
00000160: 3bd6 803d 1e2f e33c 6724 2b3d db09 623e
00000170: aa7d e0bc 0ce7 e4bd 509f 2c3e 2d91 babc
00000180: 326a 2fbd db73 be3c bfb6 e5bb 4db5 07bd
00000190: 57a5 21be bc49 5fbb fe7e e73c 6136 e43c
000001a0: 9064 63bc 069a a53c 5882 b93c 1f07 753d
000001b0: d7b7 9abc ff30 31be 619a 633e 8d3c 49be
000001c0: 41d4 79bc a23f 87bb 75db bcbc 9a1c c23c
000001d0: e4da fb3c 0695 e4bc 7064 013d 45a7 a13c
000001e0: 8867 1c3c b2a7 31bd 0d03 03bf 6d44 7ebd
000001f0: ffb9 d9bc 646f 42bd e401 d5b9 66a8 d6bc
00000200: 339e 81bc c65c 88bb 33de fa3c 50b3 f53b
00000210: 0917 783b c0f1 c3bc 5ce4 01bd ec72 f23c
00000220: e20e 1cbd 5d5a 573d 4b2d fabe 6a82 27bb
00000230: 5f29 e13f 96fc 9abc 3e55 b6bc 9f3e 82bc
00000240: 0626 abbd 5edc a9bc b645 25bc 57d5 d8bb
00000250: 526d 463d d0ef 90bb 6d3d 18bc 4bbe e93d
00000260: e5e4 cc3c 6fc0 abbb ac0d 6d3b c6fc 673c
00000270: 18d4 74bd 8c4d 01bd de41 a93b edb3 143e
00000280: 003a 013b 5b6b efbb 864e 4fbc 7099 d8bb
00000290: 7a65 c43c f4df b938 4bc0 a6ba 22fb 6a3b
000002a0: 683a a3bc ce01 38b9 d563 c4be 967b d8bb
000002b0: 1442 d53f b872 43bd 5c4a 853c 98a9 01bb
000002c0: 427f 973d 0a68 173d 5dcf 86bc d60c b7bb
000002d0: b98e 8bbd a264 af3c 43bb 893c 01ca b63d
000002e0: 1252 85bc 3923 d03d b00f 343a dbfe a9bc
000002f0: 1be5 fb3b a548 f33b 919e 8d3b 4f2a 45bd
00000300: 4a34 a5bc 83ba 34bc 8726 333d a023 b0bb
00000310: 196e efbb e457 fbbc 6868 6ebd 881c b63c
00000320: b972 c3be 11fb 723a 934d abbd 16ff 123e
00000330: 5972 a53d d272 d7bd bccd d7be 8e71 19bb
00000340: 2bbc a53d 3a19 d03d ba77 62bc 07fe 0c3e
00000350: 8b8d a9bc 46de 3c3d 8ed8 91bc 5667 1b3e
00000360: 94ef fcbd cab0 e238 945c 6c3c 18ae cebd
00000370: 9c41 d33c 6d31 cbbd 46b8 d93d 3a3d adbe
00000380: 20a4 bfba 248a 033c 981e c73c 66b2 a03c
00000390: 9871 1d3d 03cf de3c b0b9 a7bd cab0 2c3c
000003a0: 7726 cfbb bf3b 20bd f75c 6fbc 083e 77bd
000003b0: 59b0 b03b 8e00 4d3d 62e6 6abd 20e7 8abe
000003c0: 1ea3 92bc 46d0 80bd 1e4b de3c fd38 a63c
000003d0: 1315 b23d 9a73 ecbc 3429 0cbc 6241 a3bd
000003e0: 28f9 5e3d 3cc9 2f3d a416 0abc 8cdb 0dbd
000003f0: b493 e83b 8cd7 8e3d bfd4 c3bf 38cc c6bd

encoder.attn_layers.0.attention.query_projection.bias f4 [16]
0.29586536 -1.0395355 0.46615767 -0.12976545 -0.17151938 -0.11653332 0.23020665 0.352621
-0.030397195 -1.0454159 0.053166844 0.51768506 0.15389578 1.0224501 0.61087203 0.121438354
00000000: aa7b 973e 800f 85bf 38ac ee3e 3ce1 04be
00000010: c7a2 2fbe 05a9 eebd 4bbb 6b3e bd8a b43e
00000020: 8a03 f9bc 30d0 85bf 7ac5 593d 0287 043f
00000030: db96 1d3e a5df 823f 1c62 1c3f acb4 f83d

encoder.attn_layers.0.attention.key_projection.weight f4 [16, 16]
0.022889959 0.01809409 0.008183185 -0.030824594 -0.0038598515 0.017534077 0.008099518 0.0092468755
-0.027112028 0.09092245 -0.007532465 -0.022398999 0.008321879 -0.04799963 -0.023137227 0.020026293
0.043077014 -0.082516946 0.008114416 -0.01007861 0.07717639 -0.29190892 -0.022097036 0.0025989558
-0.028665883 0.016293317 -0.016313726 -0.09241134 -0.0009560409 -0.059765052 0.10003278 -0.06581452
0.19647288 0.08803125 0.2933603 -0.27612528 -0.0068448395 0.016808124 -0.1764826 -0.050896935
-0.21348193 0.17342879 -1.307138 -0.049180813 0.0822261 -0.13343348 -0.15617469 0.2238528
-0.002937836 0.0030695796 0.013817339 -0.007484179 0.006821325 -0.009412524 -0.008253989 -0.030755721
-0.00773407 -0.004692524 -0.05305343 -0.0014430323 -0.0081307115 -0.004691925 0.0011397899 0.00887315
-0.031907182 0.04291944 0.012379709 0.028103624 -0.077202715 -0.026813854 -0.019529201 -0.021958923
-0.014069819 -0.0036580819 0.00061330845 0.025694532 0.011316303 -0.023365764 -0.025989953 0.060793534
0.04930386 -0.028299069 -0.015580634 -0.0035147695 0.18809874 -0.0021492823 -0.0029162983 0.03406629
-0.002777204 -0.02158996 0.0154965725 0.011134549 -0.011502197 0.0007705608 -0.019583045 -0.002251541
-0.05667393 4.3762575e-06 -0.0056604524 0.024509758 -0.04426445 0.003057257 0.03215849 -0.0024999587
0.004860168 4.2944084e-05 0.012022097 0.0003655356 0.00019607214 -0.0044566467 0.031772174 -0.032081682
-0.0086587705 0.010499176 -0.027146727 -0.001824386 -0.022319593 0.005476624 0.007262675 0.013483524
0.016284505 -0.006427237 0.005972808 0.0064797625 -0.21110712 -0.0029741258 0.033740606 0.001640304
0.016325893 0.14993408 -0.14691502 -0.038292583 -0.10190617 0.12925081 0.15229127 0.016128998
0.488263 -0.33992258 0.3689246 0.37888002 0.0061953706 0.053631753 0.10381243 0.0824765
-0.029463211 -0.0032219726 -0.10607102 0.038610008 -0.010100753 -0.0004420939 -0.0092307525 -0.022541832
0.0267867 0.004401486 0.00613769 0.03974267 0.0058432617 0.104075015 0.005174595 0.05047724
0.009855758 0.011147737 -0.032115463 -0.02120066 0.00499861 -0.023008652 -0.0066774483 0.06337387
-0.017042544 0.04099502 0.007212216 0.019365724 0.18491502 0.020289963 -0.08197678 0.03807907
-0.033585772 -0.01660166 0.0097510945 0.009147518 0.019971758 -0.007170766 -0.020024497 -0.0339395
0.0056732926 0.0069202515 0.0035893088 0.004415855 0.005229291 0.015382556 0.038779892 -0.033223655
0.015918909 0.008793357 0.028432798 -0.01737575 0.011941159 -0.0035611016 -0.0037886486 -0.012236389
-0.0023870806 0.02131621 0.32892153 -0.04342537 -0.0032246467 -0.032075018 -0.038689315 0.029292675
0.016492102 -0.02100649 0.021394273 -0.028873257 -0.29618493 -0.011027606 -0.015184095 -0.073029816
0.0026965025 0.010616638 -0.012210342 -0.018259337 0.007334993 0.010369544 0.019236 0.00583145
-0.03167052 -0.02475058 -0.011104132 0.0075912783 -0.009835708 -0.011177737 0.00694129 -0.03154766
0.023064729 -0.028074961 0.011693345 0.010113323 -0.0016057376 0.0032967352 0.02488023 -0.030989252
-0.22451848 -0.103364035 0.08978334 0.09018973 0.033905 -0.13593377 -0.1089938 -0.57472473
-0.24223527 0.5507332 0.00097295735 0.20096906 -0.024136445 0.18508802 0.1721918 -0.048079945
00000000: b983 bb3c 0f3a 943c c412 063c dc83 fcbc
00000010: 90f5 7cbb a0a3 8f3c d7b3 043c 3580 173c
00000020: 0b1a debc 8d35 ba3d e5d2 f6bb 1b7e b7bc
00000030: 7e58 083c 439b 44bd 488a bdbc 2e0e a43c
00000040: 8671 303d a5fe a8bd 54f2 043c c120 25bc
00000050: a80e 9e3d 1675 95be d804 b5bc 3e53 2a3b
00000060: b7d4 eabc 9079 853c 5da4 85bc 2842 bdbd
00000070: d29e 7aba 33cc 74bd fcdd cc3d c3c9 86bd
00000080: 3030 493e ba49 b43d 5233 963e 4b60 8dbe
00000090: ad4a e0bb 31b1 893c dbb7 34be 4e79 50bd
000000a0: 029b 5abe 5197 313e 4c50 a7bf d271 49bd
000000b0: 2866 a83d c9a2 08be 42ec 1fbe ab39 653e
000000c0: b688 40bb 002b 493b 1f62 623c d83d f5bb
000000d0: 6c85 df3b fd36 1abc bd3b 07bc 6cf3 fbbc
000000e0: 156e fdbb bfc3 99bb 8e4e 59bd 2124 bdba
000000f0: ad36 05bc b8be 99bb 0165 953a b060 113c
00000100: 1bb1 02bd 4bcc 2f3d 43d4 4a3c 9239 e63c
00000110: 751c 9ebd baa8 dbbc b4fb 9fbc 33e3 b3bc
00000120: 1985 66bc 6ebc 6fbb 6fc6 203a 577d d23c
00000130: 0468 393c 8f69 bfbc e2e8 d4bc a402 793d
00000140: d8f2 493d 73d3 e7bc ea45 7fbc 0c58 66bb
00000150: f59c 403e f9da 0cbb 5e1f 3fbb 1889 0b3d
00000160: c001 36bb 6edd b0bc 56e5 7d3c af6d 363c
00000170: b673 3cbc 76ff 493a 9f6c a0bc 978e 13bb
00000180: ec22 68bd c4d7 9236 517b b9bb b0c8 c83c
00000190: a44e 35bd 435c 483b 9fb8 033d 59d6 23bb
000001a0: 0b42 9f3b dc1e 3438 54f8 443c 5ca5 bf39
000001b0: b798 4d39 1009 92bb 8a23 023d 1568 03bd
000001c0: 84dd 0dbc bc04 2c3c d062 debc 3c20 efba
000001d0: 94d7 b6bc 4075 b33b bcfb ed3b 00ea 5c3c
000001e0: 1567 853c 929b d2bb 8cb7 c33b 3054 d43b
000001f0: 772c 58be 8de9 42bb 9733 0a3d 78ff d63a
00000200: e1bd 853c 5288 193e e470 16be afd8 1cbd
00000210: 2fb4 d0bd 535a 043e 3ef2 1b3e f620 843c
00000220: 9cfd f93e 550a aebe afe3 bc3e 90fc c13e
00000230: 8902 cb3b f8ac 5b3d 9c9b d43d 70e9 a83d
00000240: d55c f1bc bb27 53bb c33b d9bd 8725 1e3d
00000250: a17d 25bc d7c8 e7b9 953c 17bc a6a9 b8bc
00000260: c86f db3c 573a 903b ad1e c93b 36c9 223d
00000270: d578 bf3b 4825 d53d a68f a93b 39c1 4e3d
00000280: 0c7a 213c ffa4 363c 818b 03bd 02ad adbc
00000290: 61cb a33b a47c bcbc 7fce dabb 29ca 813d
000002a0: ce9c 8bbc 65ea 273d 7454 ec3b dea4 9e3c
000002b0: 5d5a 3d3e 2337 a63c 71e3 a7bd cdf8 1b3d
000002c0: 3c91 09bd 3400 88bc 0ec3 1f3c 79df 153c
000002d0: d09b a33c bff8 eabb 6a0a a4bc 2504 0bbd
000002e0: 07e7 b93b 47c3 e23b 9c3a 6b3b e0b2 903b
000002f0: 795a ab3b 1e07 7c3c aad7 1e3d 8715 08bd
00000300: 5f68 823c 0312 103c e6eb e83c 9757 8ebc
00000310: daa4 433c 5f61 69bb fa4a 78bb 237b 48bc
00000320: 9170 1cbb 559f ae3c 6768 a83e cdde 31bd
00000330: 9854 53bb 1861 03bd b078 1ebd 31f7 ef3c
00000340: 721a 873c cd15 acbc 0b43 af3c 9c87 ecbc
00000350: 8da5 97be 22ad 34bc b6c6 78bc a890 95bd
00000360: ceb7 303b 68f1 2d3c e30d 48bc 9b94 95bc
00000370: 625a f03b 05e5 293c d194 9d3c c015 bf3b
00000380: f2b8 01bd bac1 cabc 1bee 35bc 42c0 f83b
00000390: f325 21bc d422 37bc c373 e33b 1e38 01bd
000003a0: 3ef2 bc3c 76fd e5bc 7295 3f3c 5ab2 253c
000003b0: 9d77 d2ba 0a0e 583b a0d1 cb3c 2cdd fdbc
000003c0: 2ce8 65be 86b0 d3bd 54e0 b73d 65b5 b83d
000003d0: f8df 0a3d 3932 0bbe 2438 dfbd 2921 13bf
000003e0: 860c 78be dafc 0c3f 100e 7f3a d5ca 4d3e
000003f0: cbb9 c5bc b787 3d3e 0c53 303e 7aef 44bd

encoder.attn_layers.0.attention.key_projection.bias f4 [16]
-0.23457623 0.16763957 -0.06452335 0.073677905 0.057239436 -0.12773085 0.004390103 -0.1290265
0.10677662 -0.24985242 0.13614747 -0.20273662 0.102748185 0.12594844 0.15499191 0.24957396
00000000: c034 70be b5a9 2b3e d124 84bd 71e4 963d
00000010: e673 6a3d e0cb 02be dada 8f3b 861f 04be
00000020: b3ad da3d 50d9 7fbe 3e6a 0b3e 309a 4fbe
00000030: a46d d23d a1f8 003e 33b6 1e3e 5190 7f3e

encoder.attn_layers.0.attention.value_projection.weight f4 [16, 16]
-0.16271454 0.012071629 -0.02902898 0.05474335 -0.24150531 0.026606224 0.09175298 -0.0075354697
0.1356367 -0.1910963 0.084561534 0.16276108 -0.10504871 0.08086742 0.061408553 -0.2083933
0.051414505 -0.011746976 0.008571818 -0.005814975 -0.01724668 -0.16233194 -0.0059775035 -0.04375551
-0.010690993 0.01972375 -0.029533008 -0.008117898 0.027955834 0.05717389 0.04937466 0.08079085
0.006335939 -0.007960606 0.015627125 -0.019774297 0.017605683 -0.016161881 -0.008938297 -0.01232365
-0.016624667 0.006976865 0.16877362 -0.025227712 0.011283016 -0.017557604 0.0070793037 0.011383497
0.26673096 -0.10970229 0.07830168 -0.08201483 0.15583462 0.0327136 -0.13943085 -0.34439653
-0.2526117 0.034973487 -0.07279976 -0.15928018 0.072634086 -0.2692001 -0.1336375 0.12739922
0.2884536 -0.41466182 0.0129671 -0.17622179 0.54558563 0.16417356 0.07369073 0.084382005
0.1556584 0.050166916 0.07801748 0.06143855 -0.15398929 0.3663316 0.27018112 -0.049605325
-0.58001477 0.41754168 0.11556564 0.08911441 -0.97044784 0.029516177 0.10835482 -0.013775238
-0.075086735 0.16723432 -0.12804458 0.096352555 -0.046162434 -0.3576567 -0.25990513 0.098905884
0.5904523 0.07249713 0.05737266 -0.21303093 0.2857986 -0.007289436 -0.27156177 -0.08230591
-0.20382287 0.01344299 -0.18458052 -0.39127305 0.14696495 -0.3941501 -0.38419762 -0.06385925
0.023241762 0.025822647 -0.0012691944 -0.0067346697 0.034447014 0.00032809572 0.004367223 -0.009143363
-0.018193793 0.012414826 0.030484041 -0.0025735723 0.18457155 -0.014911931 -0.025835073 0.09422126
-0.00053400965 0.02676104 -0.01946182 0.0018189796 0.0066937683 0.020911893 0.015044992 0.024116594
0.06783153 -0.06629145 0.08000956 0.07828034 -0.005337164 0.07627446 0.014793546 0.13532498
0.22111802 0.06904659 0.24215204 -0.2339831 0.23902 -0.012139799 -0.1423166 -0.12729965
0.09074885 0.02615474 0.01597374 0.039395604 0.068719774 0.009484709 -0.08088513 0.5915488
-0.004662966 0.006685626 -0.011105733 -0.008094586 0.015177631 -0.0070608268 -0.005610895 0.008545675
-0.014791424 0.048336137 -0.0013827884 -0.019042103 0.24602962 0.014987074 -0.041366808 0.060944967
-0.15231349 -0.5769233 0.08867471 0.24632785 0.7576192 -0.22517739 -0.15375127 -0.19367218
-0.039825473 0.21169029 0.20812711 -0.027637815 0.15262341 0.33431953 0.48009273 -0.049651846
-0.00075088267 0.0093105715 0.012837993 0.015747782 0.008857846 -0.013037833 -0.010628124 -0.029301012
-0.025136394 0.012287669 0.21963197 0.0005839007 0.0036856604 -0.021771748 -0.03231367 0.028319739
-0.11985654 -0.25089902 -0.010965256 0.07331319 1.4409672 0.023297325 0.051002093 0.50492185
-0.16654505 -0.050056066 0.0889692 -0.2151573 -0.07640593 -0.25093028 0.29220596 -0.46417144
0.3680708 0.2797727 0.023531124 -0.24259251 -0.40162963 0.13690776 -0.15181252 0.1098619
-0.114568435 0.15483505 -0.17999232 -0.6556717 0.15091786 -0.36456016 -0.28144544 -0.31339934
-0.046565488 -0.039290197 -0.004600037 0.008635631 -0.003290617 -0.015251367 0.0051152464 -0.10523199
-0.013564327 0.13338913 0.006710743 0.024619505 -0.0037916584 0.08456179 0.029928861 -0.022724317
00000000: a49e 26be 15c8 453c 2fce edbc 903a 603d
00000010: 2b4d 77be 4cf5 d93c fde8 bb3d 1aec f6bb
00000020: 59e4 0a3e c0ae 43be 992e ad3d d7aa 263e
00000030: c723 d7bd d19d a53d 8987 7b3d 0e65 55be
00000040: 0498 523d 6376 40bc cf70 0c3c 8c8b bebb
00000050: e948 8dbc 583a 26be efde c3bb fa38 33bd
00000060: 4629 2fbc b493 a13c 35ef f1bc ef00 05bc
00000070: a203 e53c 2b2f 6a3d 153d 4a3d ac75 a53d
00000080: b59d cf3b 346d 02bc 7504 803c b5fd a1bc
00000090: cb39 903c ec65 84bc ef71 12bc 22e9 49bc
000000a0: 7430 88bc 309e e43b fed2 2c3e 59aa cebc
000000b0: 66dc 383c f7d4 8fbc 81f9 e73b d981 3a3c
000000c0: f690 883e 98ab e0bd a25c a03d 64f7 a7bd
000000d0: 1c93 1f3e b2fe 053d f6c6 0ebe be54 b0be
000000e0: 5256 81be 5c40 0f3d 0a18 95bd 581a 23be
000000f0: 2ec1 943d 98d4 89be 45d8 08be f174 023e
00000100: 31b0 933e 8e4e d4be f673 543c 7c73 34be
00000110: 80ab 0b3f 1d1d 283e 2aeb 963d 79d0 ac3d
00000120: ea64 1f3e d37b 4d3d a1c7 9f3d fda6 7b3d
00000130: 5eaf 1dbe d18f bb3e 2e55 8a3e f42e 4bbd
00000140: d97b 14bf 06c8 d53e aead ec3d 9e81 b63d
00000150: 456f 78bf e9cb f13c 22e9 dd3d 89b1 61bc
00000160: 13c7 99bd 793f 2b3e 1e1e 03be 7d54 c53d
00000170: d214 3dbd c71e b7be 4912 85be 2b8f ca3d
00000180: e227 173f 6079 943d 98ff 6a3d c824 5abe
00000190: 3254 923e 39dc eebb 250a 8bbe 0090 a8bd
000001a0: f1b6 50be fd3f 5c3c ad02 3dbe f154 c8be
000001b0: fb7d 163e 0bce c9be 8db5 c4be a3c8 82bd
000001c0: 8265 be3c 048a d33c 195b a6ba 81ae dcbb
000001d0: 5018 0d3d 4304 ac39 ec1a 8f3b 0bce 15bc
000001e0: 260b 95bc 8e67 4b3c abb9 f93c 61a9 28bb
000001f0: 5300 3d3e 2c51 74bc 13a4 d3bc 13f7 c03d
00000200: c8fc 0bba f839 db3c 656e 9fbc d46a ee3a
00000210: 6657 db3b 6b4f ab3c 457f 763c 2a90 c53c
00000220: 42eb 8a3d d0c3 87bd 0ddc a33d 7151 a03d
00000230: 60e3 aebb c935 9c3d a160 723c a292 0a3e
00000240: c36c 623e 4c68 8d3d b4f6 773e 4499 6fbe
00000250: a9c1 743e 02e6 46bc 71bb 11be d75a 02be
00000260: 88da b93d 7742 d63c 5cdb 823c 495d 213d
00000270: f4bc 8c3d c165 1b3c 1aa7 a5bd be6f 173f
00000280: cbcb 98bb 1913 db3b d2f4 35bc 289f 04bc
00000290: 99ab 783c 825e e7bb 99db b7bb 2903 0c3c
000002a0: bb57 72bc 1dfc 453d ae3e b5ba 2ffe 9bbc
000002b0: 30ef 7b3e 588c 753c 3e70 29bd 6ea1 793d
000002c0: 11f8 1bbe 3fb1 13bf 169b b53d 5e3d 7c3e
000002d0: 55f3 413f e794 66be f970 1dbe 0052 46be
000002e0: 0920 23bd 57c5 583e 461f 553e b368 e2bc
000002f0: 5049 1c3e ee2b ab3e b7ce f53e bc5f 4bbd
00000300: e2d6 44ba 5e8b 183c 7256 523c 7e01 813c
00000310: 8020 113c a39c 55bc 9521 2ebc ad08 f0bc
00000320: d7ea cdbc 3852 493c 34e7 603e ea10 193a
00000330: 1f8b 713b aa5a b2bc 575b 04bd ccfe e73c
00000340: 5877 f5bd d675 80be 9ea7 33bc 3a25 963d
00000350: 9d71 b83f 08da be3c 92e7 503d 8f42 013f
00000360: c98a 2abe 9707 4dbd 7c35 b63d 3252 5cbe
00000370: b67a 9cbd ef79 80be 059c 953e e1a7 edbe
00000380: c773 bc3e 5e3e 8f3e 58c4 c03c 2c6a 78be
00000390: 66a2 cdbe 8c31 0c3e be74 1bbe 47ff e03d
000003a0: dba2 eabd 148d 1e3e e84f 38be 1ada 27bf
000003b0: 368a 1a3e a1a7 babe 9e19 90be e175 a0be
000003c0: 74bb 3ebd c2ee 20bd e8bb 96bb 767c 0d3c
000003d0: 64a7 57bb dfe0 79bc cc9d a73b df83 d7bd
000003e0: e93c 5ebc 2997 083e cbe5 db3b d8ae c93c
000003f0: 797d 78bb bb2e ad3d 5f2d f53c 5928 babc

encoder.attn_layers.0.attention.value_projection.bias f4 [16]
-0.053090192 0.5418062 0.48048738 0.08370034 -0.07106828 -0.08412053 -0.018729141 -0.09480967
0.18076089 0.79984456 0.25953835 0.006917786 0.20165378 -0.16581927 -0.45111445 0.023730434
00000000: 1a75 59bd d0b3 0a3f 7102 f63e 156b ab3d
00000010: 3f8c 91bd 6247 acbd db6d 99bc 922b c2bd
00000020: 6219 393e 9dc2 4c3f 36e2 843e 98ae e23b
00000030: 547e 4e3e 87cc 29be 79f8 e6be 5466 c23c

encoder.attn_layers.0.attention.out_projection.weight f4 [16, 16]
0.15052679 -0.045272104 0.068939 0.24131693 -0.12578318 0.28881654 -0.0908149 -0.10931365
-0.027113277 -0.8624663 -0.089889884 -0.51542455 0.051144253 0.8493809 0.65594333 0.004193918
0.05786946 0.1322234 -0.09017663 -0.09618295 0.12551324 0.3863303 -0.21116704 0.077858984
0.0026209333 -0.04374447 -0.03656921 0.19553427 0.07378612 0.040958155 0.09738001 -0.12010163
-0.8409412 -0.07567559 -0.37641782 0.31517297 -1.0327115 -0.10889488 0.044146348 0.06289952
0.49543652 0.17644489 0.7517722 0.09493872 -0.13027406 -0.0846308 -0.31309333 0.22074609
-0.15273887 0.22266535 -0.0561385 -0.02444466 -0.21329494 0.0963133 -0.12305694 -0.009201613
0.24343434 -0.074250445 0.058746673 -0.3085506 0.068203986 0.88674 -0.08403859 -0.061451938
0.15171878 -0.23663335 -0.2504458 -0.23360579 0.01587821 0.38172784 -0.34426978 0.31822425
0.12484276 0.7488107 -0.4589713 0.6174262 -0.14281997 -0.4889872 -0.42085516 -0.3243719
-0.16559078 0.015368443 0.016099034 -0.6744734 -0.04639682 -0.0018069395 0.0042853663 -0.07658958
0.11588595 0.028193243 0.07324193 0.026284147 -0.111981444 0.049590953 0.38464394 0.13075557
0.56968284 -0.057163823 -0.33854574 -0.13784161 -0.29858992 -0.048905574 0.29412678 0.27535573
-0.56837475 -0.2525834 -0.12746672 0.105110765 -0.5887116 -0.369743 -0.43477252 0.2013656
-0.015955878 0.25932866 0.11743175 0.26912737 -0.13164823 -0.2279923 -0.10941412 -0.02642926
-0.1635403 -0.12734666 0.05304469 -0.44792637 -0.1152127 0.6492716 0.54445255 0.11175024
-0.047661174 -0.19590494 0.08495107 0.088439375 0.068655424 0.21949826 0.073944785 -0.12695724
-0.19522303 0.20072506 -0.0074289436 0.11225525 -0.089455344 -0.56056255 0.0818821 0.14357246
0.20775256 0.13268815 -0.06045833 -0.062038917 0.5978879 0.35646915 0.47700047 0.11330249
0.014811122 -0.08337807 -0.0793396 -0.43951854 0.02655683 -0.11208686 -0.3633159 -0.07382493
0.0045785196 -0.029746806 -0.011805685 0.019369386 -0.051008493 -0.07451448 0.07351921 -0.059086416
-0.000103035185 0.028381418 -0.10118466 0.013608694 0.036828578 -0.008817458 0.022281377 0.0056759925
-0.037800483 0.014985655 -0.037750896 0.048468426 -0.035587706 0.27447292 0.16803329 0.084498614
-0.03341694 0.13201857 -0.025857117 0.06974697 -0.007940037 -0.15502211 0.012294712 -0.06123587
0.0026236987 -0.0017801069 -0.030306028 -0.0036888495 0.012566769 -0.100292385 -0.021404801 0.025757013
-0.027171548 -0.0655293 0.1364511 0.035320576 0.01074036 -0.0013030649 -0.03708271 -0.0052592135
-0.08243938 -0.03477993 0.20348498 0.11662539 -0.12930845 -0.54153734 -0.60501283 -0.26706427
-0.059972826 -0.06395705 0.19421104 -0.5062165 0.113122575 -0.06734714 0.08728263 0.16529815
0.017724976 -0.03684535 -0.023009598 -0.028691314 0.039033435 0.0037144881 0.29539198 0.037920754
-0.0011005654 -0.05181546 -0.065184794 0.1001393 -0.10077233 0.10824848 -0.1327245 0.028712502
0.008329533 -0.0038969247 -0.011374206 0.0036150266 0.01376347 0.007999567 0.01700109 -0.0028709446
0.021275543 -0.07938427 -0.005926894 0.03817537 0.004338055 -0.16410409 0.096904054 -0.004693198
00000000: b223 1a3e 3e6f 39bd e42f 8d3d c91b 773e
00000010: 4ecd 00be c3df 933e 2afd b9bd d6df dfbd
00000020: aa1c debc 97ca 5cbf 3018 b8bd ddf2 03bf
00000030: a37c 513d 0771 593f e7eb 273f 226d 893b
00000040: 8708 6d3d 9265 073e 86ae b8bd 91fb c4bd
00000050: 8b86 003e 16cd c53e 2c3c 58be 8874 9f3d
00000060: f7c3 2b3b 672d 33bd 99c9 15bd 233a 483e
00000070: 2d1d 973d bdc3 273d 2c6f c73d d8f7 f5bd
00000080: ec47 57bf cefb 9abd d6b9 c0be 5a5e a13e
00000090: e42f 84bf 4704 dfbd cdd2 343d 77d1 803d
000000a0: dba9 fd3e f8ad 343e 2574 403f 3b6f c23d
000000b0: 9066 05be ea52 adbd c54d a0be 430b 623e
000000c0: 9467 1cbe 6302 643e 7cf1 65bd 2b40 c8bc
000000d0: fd69 5abe e83f c53d 4705 fcbd 5dc2 16bc
000000e0: da46 793e 9e10 98bd 5aa0 703d 58fa 9dbe
000000f0: 88ae 8b3d 6501 633f 6d1c acbd 07b5 7bbd
00000100: 2b5c 1b3e 0350 72be 6f3a 80be 5b36 6fbe
00000110: 0513 823c d571 c33e 2144 b0be 4aee a23e
00000120: 90ad ff3d 0fb2 3f3f 49fe eabe a50f 1e3f
00000130: 663f 12be 885c fabe 547a d7be 1314 a6be
00000140: a190 29be eccb 7b3c 1fe2 833c 4aaa 2cbf
00000150: 980a 3ebd d4d6 ecba 426c 8c3b ffda 9cbd
00000160: 9d55 ed3d 84f5 e63c ddff 953d da51 d73c
00000170: 8756 e5bd e21f 4b3d 0df0 c43e cae4 053e
00000180: bcd6 113f 9d24 6abd de55 adbe 5a26 0dbe
00000190: c7e0 98be 3651 48bd c997 963e 6dfb 8c3e
000001a0: 0281 11bf 9d52 81be a386 02be 5044 d73d
000001b0: ceb5 16bf f44e bdbe 819a debe c932 4e3e
000001c0: e7b5 82bc bac6 843e 0f80 f03d 10cb 893e
000001d0: cbce 06be d076 69be 8314 e0bd 2d82 d8bc
000001e0: 1c77 27be 2a67 02be 6445 593d 9b56 e5be
000001f0: a3f4 ebbd aa36 263f 3e61 0b3f 4fdd e43d
00000200: 5d38 43bd 4e9b 48be d4fa ad3d b41f b53d
00000210: 379b 8c3d 27c4 603e 5d70 973d 1401 02be
00000220: 8ce8 47be df8a 4d3e 7f6e f3bb 15e6 e53d
00000230: 5d34 b7bd 0781 0fbf cdb1 a73d a904 133e
00000240: 16bd 543e 67df 073e 27a3 77bd 851c 7ebd
00000250: 2e0f 193f 2083 b63e 6839 f43e 230b e83d
00000260: 59aa 723c 1fc2 aabd cd7c a2bd 9308 e1be
00000270: b68d d93c cc8d e5bd 8b04 babe 8631 97bd
00000280: 6807 963b 93af f3bc a26c 41bc 8cac 9e3c
00000290: 48ee 50bd 0c9b 98bd 3d91 963d 9904 72bd
000002a0: 9814 d8b8 2680 e83c e739 cfbd 00f7 5e3c
000002b0: 90d9 163d 1977 10bc 6f87 b63c adfd b93b
000002c0: aed4 1abd 6586 753c afa0 1abd d486 463d
000002d0: 6ac4 11bd b787 8c3e eb10 2c3e 9c0d ad3d
000002e0: 34e0 08bd e02f 073e 4ed2 d3bc 80d7 8e3d
000002f0: ee16 02bc 1ebe 1ebe c26f 493c 77d2 7abd
00000300: 5cf2 2b3b 7a52 e9ba 5944 f8bc a0c0 71bb
00000310: d9e4 4d3c 1866 cdbd 1f59 afbc 5f00 d33c
00000320: de96 debc 3a34 86bd d6b9 0b3e 4fac 103d
00000330: 56f8 2f3c 9acb aaba 0ae4 17bd 7b55 acbb
00000340: fad5 a8bd 6675 0ebd 5e5e 503e 4bd9 ee3d
00000350: 6f69 04be 31a2 0abf 1fe2 1abf a6bc 88be
00000360: 11a6 75bd eafb 82bd 42df 463e 6897 01bf
00000370: cfac e73d 4ced 89bd 3cc1 b23d eb43 293e
00000380: f833 913c 26eb 16bd a07e bcbc 0c0a ebbc
00000390: 86e1 1f3d c56e 733b 9e3d 973e cb52 1b3d
000003a0: d940 90ba 733c 54bd 9b7f 85bd d515 cd3d
000003b0: b961 cebd 61b1 dd3d eee8 07be 7b36 eb3c
000003c0: 9878 083c 8c63 7fbb e15a 3abc 15ea 6c3b
000003d0: 2d80 613c 9e10 033c df45 8b3c 7526 3cbb
000003e0: 0c4a ae3c 3894 a2bd 6436 c2bb c75d 1c3d
000003f0: 3e26 8e3b e70a 28be a275 c63d 66c9 99bb

encoder.attn_layers.0.attention.out_projection.bias f4 [16]
-0.8286983 -0.6232099 0.42542806 -0.37781268 1.0181079 -0.3610618 -0.03738972 -1.028595
0.58832544 0.0037451654 -0.14142397 -0.13333113 -0.09952667 0.30301386 -0.056107473 0.5115087
00000000: 9225 54bf af8a 1fbf b5d1 d93e aa70 c1be
00000010: 5c51 823f 18dd b8be f725 19bd 00a9 83bf
00000020: 7f9c 163f 7371 753b 72d1 10be f587 08be
00000030: a4d4 cbbd a224 9b3e f3d0 65bd 3cf2 023f

encoder.attn_layers.0.conv1.weight f4 [64, 16, 1]
-0.194376 0.21109273 -0.5106109 0.3814358 -0.21739897 -0.05383741 0.1926855 0.13779847
0.09491425 -0.36061725 -1.1414601 0.73756146 -0.19923648 0.41549766 0.21344778 -0.6919962
-0.02540715 0.29885414 -0.047397096 0.347505 -0.003977857 -0.13717216 0.12869926 0.39609623
-0.11929562 -0.19319196 0.20770703 0.10540805 -0.14529097 -0.051761508 0.15936416 -0.5907693
-0.2611529 -0.07573542 -0.05993537 0.023040483 0.11985544 0.10159623 -0.5369734 0.42417762
0.6675638 -0.02628954 0.14082778 0.09929058 -0.18003947 -0.9722024 0.30777904 0.05601467
-0.16648997 0.11822199 0.03521354 -0.052366503 -0.012315748 -0.08096516 0.06653261 0.17077748
-0.40688068 -0.08953478 0.9407939 -0.0835768 0.1582251 -0.6950627 0.10124921 -0.5465226
0.05672936 0.1120592 -0.00023176897 -0.043924965 -0.082267515 -0.05219631 0.060952064 -0.048784774
-0.21187097 -0.27759868 -0.73459405 0.6167098 -0.14164044 0.21403578 0.18272094 0.08306619
-0.049730897 -0.1241484 0.06473431 -0.31738642 0.6971977 -0.12969525 -0.088703595 0.22199777
0.020088343 -0.13887185 -0.08836919 -0.06026386 -0.21114595 0.31258044 -0.24976657 0.13082616
-0.015120386 0.44571996 -0.09032946 0.047117654 0.03466622 0.12795882 0.09079883 0.3948499
-0.36942342 0.17222878 -0.1767968 -0.16388652 -0.8254993 -0.2008206 0.34481126 -0.10302311
-0.08632151 0.55261946 0.22172987 0.0098670535 0.25100082 -0.70718473 -0.047819402 -0.08333765
0.04097253 -0.5335618 -0.0706087 -0.35369697 0.2617233 0.33925653 0.9218821 0.037145056
0.26725462 0.1654817 0.19855085 0.24799463 -0.578047 0.2216803 0.25891522 -0.98801893
0.0084292535 0.13053101 0.25479618 0.17716253 0.073561 0.10039027 0.35632175 0.16781504
0.0627642 -0.14096685 0.30761054 -0.08897418 -0.3808541 0.029263992 -0.44780046 -0.081904836
0.5497842 -0.2505345 -0.010338746 -0.1538576 -0.13992639 -0.0015386259 -0.14018592 -0.13224778
-0.35639548 -0.021171616 0.38217553 -0.1799484 -0.05335392 -0.12464452 -0.23390539 -0.072770394
-0.5872609 -0.02753594 1.0425503 0.08602357 0.32495072 -0.48287433 -0.3917115 -0.24409842
-0.25952697 -0.16854782 0.4288626 -0.31105748 -0.04674614 -0.17946413 0.14313857 -0.35242164
-0.06424903 -0.117784314 -0.41848752 0.4279842 0.096709535 -1.0447495 1.1133971 -0.39138648
0.025680756 0.5855233 0.13441241 0.43601525 -0.3181239 0.05071786 -0.1439751 0.16099061
-0.36449486 -0.2496163 0.12618878 -0.029723624 -0.10292901 -0.06388672 -0.5184929 -0.17509477
-0.08715062 0.048658457 0.11547214 -0.4523361 -0.08732563 0.11744029 -0.35530427 0.097129665
-0.32628685 0.012184269 0.21536405 -0.0018834096 -0.2568687 0.094422385 0.33269858 0.2990715
0.03149376 0.050496276 0.30091813 0.32343933 -0.09037393 -0.2529739 0.052317563 0.071447484
-0.31681475 -0.01115309 0.19371328 0.6829195 0.30930805 -0.07904639 0.39111766 -0.5098116
-0.112941675 0.26776624 0.28878474 0.45460808 -0.33678737 0.12636906 -0.2838538 0.08325043
-0.5529097 0.045199737 -0.14772293 -0.25909662 0.21777287 0.04674098 0.07108389 -0.1709601
00000000: 810a 47be b128 583e 65b7 02bf 8e4b c33e
00000010: d69d 5ebe 9e84 5cbd 594f 453e 0b1b 0d3e
00000020: 6762 c23d d3a2 b8be 5d1b 92bf d4d0 3c3f
00000030: a604 4cbe 1cbc d43e 0e92 5a3e aa26 31bf
00000040: a822 d0bc 6903 993e 7523 42bd 2dec b13e
00000050: af58 82bb dc76 0cbe bdc9 033e 20cd ca3e
00000060: 4351 f4bd 1dd4 45be 27b1 543e 2de0 d73d
00000070: 28c7 14be e003 54bd 5c30 233e a83c 17bf
00000080: d5b5 85be 2c1b 9bbd ca7e 75bd 65bf bc3c
00000090: c576 f53d af11 d03d 1777 09bf cf2d d93e
000000a0: 76e5 2a3f 295d d7bc 2835 103e dc58 cb3d
000000b0: 445c 38be 42e2 78bf 3795 9d3e a36f 653d
000000c0: 597c 2abe 5f1e f23d 133c 103d 427e 56bd
000000d0: fec7 49bc 10d1 a5bd 4042 883d 4be0 2e3e
000000e0: aa52 d0be 035e b7bd ded7 703f 502a abbd
000000f0: c305 223e a1ef 31bf bf5b cf3d e8e8 0bbf
00000100: 0c5d 683d 4b7f e53d 0207 73b9 aaea 33bd
00000110: df7b a8bd cccb 55bd dfa8 793d 8bd2 47bd
00000120: b4f4 58be 6a21 8ebe 5b0e 3cbf b2e0 1d3f
00000130: 310a 11be 322c 5b3e 331b 3b3e 9b1e aa3d
00000140: a0b2 4bbd 8441 febd 6c93 843d 7980 a2be
00000150: 8c7b 323f d5ce 04be 3baa b5bd 6253 633e
00000160: 4f90 a43c 6c34 0ebe e8fa b4bd 3dd7 76bd
00000170: a536 58be 8b0a a03e cfc2 7fbe 4bf7 053e
00000180: 7fbb 77bc 6835 e43e a7fe b8bd 71fe 403d
00000190: 2bfe 0d3d a307 033e bdf4 b93d c429 ca3e
000001a0: 1125 bdbe be5c 303e 380a 35be ded1 27be
000001b0: ec53 53bf eaa3 4dbe 1a8b b03e c8fd d2bd
000001c0: 55c9 b0bd 7878 0d3f 280d 633e 6ca9 213c
000001d0: 2e83 803e 0f0a 35bf 47de 43bd eeac aabd
000001e0: d0d2 273d 8297 08bf 4b9b 90bd c517 b5be
000001f0: 9900 863e 08b3 ad3e 7700 6c3f 6a25 183d
00000200: 99d5 883e 0974 293e ea50 4b3e 4ef2 7d3e
00000210: e3fa 13bf 2900 633e 8990 843e cfee 7cbf
00000220: da1a 0a3c eca9 053e a574 823e 186a 353e
00000230: 26a7 963d 6a99 cd3d ce6f b63e b5d7 2b3e
00000240: 848a 803d 9d59 10be 217f 9d3e 1838 b6bd
00000250: 4fff c2be 0abb ef3c 1a46 e5be b9bd a7bd
00000260: a8be 0c3f 0f46 80be d863 29bc d98c 1dbe
00000270: dd48 0fbe b8ab c9ba e68c 0fbe f66b 07be
00000280: 7879 b6be 1970 adbc 83ac c33e 6544 38be
00000290: a489 5abd a045 ffbd e584 6fbe a508 95bd
000002a0: bb56 16bf 0d93 e1bc 4a72 853f 202d b03d
000002b0: f15f a63e 4e3b f7be 698e c8be f0f4 79be
000002c0: b8e0 84be cd97 2cbe e193 db3e ed42 9fbe
000002d0: e178 3fbd 72c5 37be eb92 123e 9c70 b4be
000002e0: ff94 83bd e738 f1bd ff43 d6be bf20 db3e
000002f0: a60f c63d 5aba 85bf cc83 8e3f cf63 c8be
00000300: 7360 d23c dbe4 153f 68a3 093e 643d df3e
00000310: 23e1 a2be 88bd 4f3d 356e 13be b9da 243e
00000320: 129f babe 6a9b 7fbe a237 013e f57e f3bc
00000330: 72cc d2bd 0ad7 82bd f3bb 04bf 0b4c 33be
00000340: 067c b2bd 174e 473d a87c ec3d 9998 e7be
00000350: c8d7 b2bd 8984 f03d 71ea b5be ebeb c63d
00000360: 120f a7be 87a0 473c 6588 5c3e bddc f6ba
00000370: 4b84 83be 8660 c13d 7857 aa3e e61f 993e
00000380: 9aff 003d 2fd5 4e3d f111 9a3e d799 a53e
00000390: f815 b9bd cc85 81be f14a 563d 0f53 923d
000003a0: 8b35 a2be 73bb 36bc c65c 463e d0d3 2e3f
000003b0: a05d 9e3e 13e3 a1bd 9340 c83e 0383 02bf
000003c0: f74d e7bd a818 893e 98db 933e 64c2 e83e
000003d0: 656f acbe e466 013e 4955 91be 347f aa3d
000003e0: 7d8b 0dbf 5c23 393d ae44 17be 50a8 84be
000003f0: daff 5e3e 7873 3f3d 6e94 913d 2a10 2fbe

encoder.attn_layers.0.conv1.bias f4 [64]
-1.3886728 -0.7960839 -0.27146277 -0.6159074 -0.17304881 -0.689494 -0.32677835 -0.07819041
-0.88443184 -0.8117021 -0.6680627 -0.40001187 -0.5104407 -0.06287987 -0.10073844 -0.3932001
-1.050632 0.02539784 -0.891688 -0.63284135 -1.4337475 -0.26092246 -0.36291772 -0.5100061
-0.3486641 -0.58166194 -0.52757937 -0.0153308185 0.1382002 -0.56051326 -0.32041633 -0.2198729
-1.0491449 0.052403152 -0.427214 -1.5011145 0.20614143 -0.0954313 -0.8200324 -0.07694728
-0.6402344 -0.24523234 -0.17502615 -0.38272497 -1.4407878 -0.6508605 -0.48290312 0.38850975
0.113817595 -0.48124886 -0.76616126 -0.893741 -1.2550043 -0.19238098 -0.18299888 -0.9168076
-0.3000635 -0.14107409 -0.23421952 0.2055074 -0.56342614 -1.1530774 -0.7429499 -0.59320146
00000000: 08c0 b1bf 28cc 4bbf 2bfd 8abe 1bac 1dbf
00000010: b533 31be ae82 30bf 7e4f a7be 4b22 a0bd
00000020: 206a 62bf b5cb 4fbf 2806 2bbf 5bce ccbe
00000030: 3eac 02bf 29c7 80bd f54f cebd 8651 c9be
00000040: 1c7b 86bf 220f d03c aa45 64bf e401 22bf
00000050: 0a85 b7bf a197 85be 5ad0 b9be c38f 02bf
00000060: 1a84 b2be cce7 14bf 710f 07bf 1d2e 7bbc
00000070: 5a84 0d3e cc7d 0fbf 9c0d a4be 5d26 61be
00000080: 614a 86bf b0a4 563d cbbb dabe 8524 c0bf
00000090: bd16 533e 7c71 c3bd a5ed 51bf 8996 9dbd
000000a0: 67e6 23bf 301e 7bbe 0e3a 33be 87f4 c3be
000000b0: bc6b b8bf cb9e 26bf 143f f7be c0ea c63e
000000c0: 3319 e93d 4066 f6be 2523 44bf 36cc 64bf
000000d0: fba3 a0bf 85ff 44be 0f64 3bbe e7b3 6abf
000000e0: eca1 99be ba75 10be 3ed7 6fbe 8870 523e
000000f0: b23c 10bf 0a98 93bf f731 3ebf 0ddc 17bf

encoder.attn_layers.0.conv2.weight f4 [16, 64, 1]
0.05192868 0.38100561 -0.018785855 0.12451587 -0.030900113 0.07450195 0.12456987 0.118606605
-0.12916395 -0.16636838 0.0835727 -0.121049926 0.24754937 0.03054806 -0.010553783 0.09288649
-0.06627776 -0.05531854 0.15545365 0.19214916 -0.049923986 -0.0013601414 0.39661002 0.42246458
0.31948873 -0.33306637 0.16799922 -0.073659696 0.21018468 0.32844174 -0.5144711 0.012957013
-0.14303106 -0.012240387 0.14400893 -0.16250077 0.10729604 0.12924287 -0.16537061 0.1723414
0.16745865 -0.06526492 -0.040724102 0.16373849 -0.025865255 -0.043160696 -0.04518158 0.39617768
-0.104533374 -0.584378 -0.10997074 0.451124 -0.050936777 0.16014868 0.0748494 0.3027088
-0.023451246 0.07978982 0.3855584 0.56341326 -0.0003931312 0.008934394 0.16678171 -0.22627343
-0.15196143 -0.85183376 -0.044955302 -0.66532964 0.009972175 -0.08046173 -0.06683602 -0.18897788
-0.21240662 -0.12964693 0.08751689 -0.32381475 0.009261674 -0.07317647 0.37166306 0.060665373
0.4856623 0.07106915 0.23970997 -0.08992238 0.011295711 0.06491554 -0.13972946 -0.6679051
-0.4201666 0.4047845 0.12175953 -0.15749632 0.07044673 0.04282064 -0.11314344 0.23046264
0.1272 0.21236137 -0.027861372 -0.188632 0.23295699 0.45269224 0.082245044 0.18564613
0.33197767 -0.29663667 -0.18914376 -0.023572143 -0.46877614 0.16453546 -0.07030932 0.022882551
-0.022925597 -0.03003127 -0.19853249 -0.13680033 -0.15285905 0.47254026 -0.044691365 0.024022907
0.024457462 0.3403925 -0.52785003 -0.06300444 -0.03348446 0.19683911 0.124608904 0.09050206
-0.1314249 -0.59230953 0.11015284 -0.65270406 0.02615307 -0.048732743 0.2269931 -0.022876998
-0.051601637 0.10168184 -0.14249326 -0.04739983 0.044892866 0.074176654 0.0009222604 -0.7044471
-0.10336281 0.088634156 0.19178382 0.12045957 0.012399785 -0.2146387 0.47940096 0.16282566
0.028766127 0.47606257 0.5476117 0.03149389 0.03455112 -0.23336063 0.14219832 0.026991958
-0.2560963 0.049204174 -0.043760102 -0.56846386 -0.12294963 0.33589652 0.10101438 0.007961731
0.3322979 -0.1457398 -0.15406409 0.23605974 -0.7602032 0.3075335 -0.17937566 -0.14094862
-0.12051254 0.04438218 0.5558474 0.06607771 -0.5732209 0.2801716 -0.2700806 0.10576634
0.07661792 0.05619459 -1.0205765 -0.014569596 -0.2501425 -0.14469317 0.6956007 -0.15713562
-0.008950402 0.14552166 -0.015924629 0.43546268 0.16204697 0.10140262 0.12418929 0.00078430417
-0.13000967 -0.05103944 -0.012934351 0.34460777 0.12563597 0.15643628 0.24655844 -0.31529355
0.036140047 -0.15971953 -0.2369699 0.050512433 0.48408428 0.020455802 -0.21941215 -0.3481716
-0.035908535 0.3689438 0.04545006 -0.13687392 0.013086149 0.33039233 0.121168196 -0.31340134
0.1746273 0.11733912 0.14797774 0.05585071 0.22721739 -0.2513924 0.17502315 -0.09924686
0.32366425 0.34882048 -0.54963565 0.05765268 -0.21070877 0.24124943 -0.16257718 0.0845076
0.25349808 -0.1380584 0.5805492 0.00069632794 0.26578295 -0.29869646 -0.1449493 0.2986578
0.10356425 0.09147549 -0.15859675 -0.5962928 0.24918842 -0.26442668 0.14402564 -0.24922174
00000000: 2bb3 543d 2b13 c33e cbe4 99bc 2d02 ff3d
00000010: 3c22 fdbc 7a94 983d 7d1e ff3d 05e8 f23d
00000020: 8e43 04be 795c 2abe 2a28 ab3d 06e9 f7bd
00000030: 957d 7d3e ed3f fa3c c6e9 2cbc 463b be3d
00000040: a2bc 87bd b295 62bd 3e2f 1f3e c0c2 443e
00000050: 187d 4cbd c646 b2ba 7810 cb3e 474d d83e
00000060: 0794 a33e ad87 aabe fd07 2c3e e5da 96bd
00000070: a73a 573e 8429 a83e 61b4 03bf a749 543c
00000080: bc76 12be e78b 48bc 1477 133e 9a66 26be
00000090: 07be db3d 3e58 043e ea56 29be 447a 303e
000000a0: 487a 2b3e 9da9 85bd 51ce 26bd 10ab 273e
000000b0: 5fe3 d3bc 45c9 30bd 5210 39bd cdd7 ca3e
000000c0: 9815 d6bd cc99 15bf 5738 e1bd baf9 e63e
000000d0: 15a3 50bd 04fe 233e a44a 993d a6fc 9a3e
000000e0: d41c c0bc d868 a33d e967 c53e da3b 103f
000000f0: 2d1d ceb9 9161 123c d3c8 2a3e 39b4 67be
00000100: c79b 1bbe c711 5abf 0d23 38bd 0b53 2abf
00000110: 5562 233c 1fc9 a4bd 53e1 88bd 6b83 41be
00000120: 1f81 59be 2ac2 04be 0e3c b33d 0ccb a5be
00000130: 47be 173c 8cdd 95bd 9f4a be3e 417c 783d
00000140: bba8 f83e b48c 913d 8876 753e 3a29 b8bd
00000150: a511 393c 70f2 843d 3d15 0fbe d4fb 2abf
00000160: 1420 d7be ea3f cf3e 0f5d f93d b746 21be
00000170: 6046 903d b264 2f3d bfb7 e7bd 66fe 6b3e
00000180: b840 023e 4275 593e 883d e4bc bf28 41be
00000190: 478c 6e3e 47c7 e73e 1770 a83d 051a 3e3e
000001a0: faf8 a93e c3e0 97be e7ae 41be 5e1a c1bc
000001b0: 6d03 f0be fc7b 283e 55fe 8fbd 3074 bb3c
000001c0: 76ce bbbc 2304 f6bc 1a4c 4bbe 6315 0cbe
000001d0: 1587 1cbe ccf0 f13e 4b0e 37bd b0cb c43c
000001e0: 045b c83c ed47 ae3e 2e21 07bf 7908 81bd
000001f0: 0027 09bd 3190 493e f432 ff3d 2559 b93d
00000200: 4094 06be 99a1 17bf d097 e13d 9d17 27bf
00000210: f73e d63c fc9b 47bd e170 683e 8b68 bbbc
00000220: 3d5c 53bd 923e d03d c1e9 11be 5326 42bd
00000230: 95e1 373d eee9 973d d9c3 713a a556 34bf
00000240: e2af d3bd d385 b53d fa62 443e 82b3 f63d
00000250: 7828 4b3c 3fca 5bbe 0b74 f53e c5bb 263e
00000260: f1a6 eb3c 79be f33e 4830 0c3f bdff 003d
00000270: 7a85 0d3d 17f6 6ebe 709c 113e 3d1e dd3c
00000280: 0e1f 83be 518a 493d cb3d 33bd d986 11bf
00000290: 04cd fbbd a1fa ab3e a1e0 ce3d ec71 023c
000002a0: f322 aa3e d03c 15be fac2 1dbe a5b9 713e
000002b0: ad9c 42bf 0875 9d3e 41ae 37be d654 10be
000002c0: 47cf f6bd 17ca 353d 044c 0e3f c053 873d
000002d0: 9bbe 12bf a772 8f3e 0148 8abe 069c d83d
000002e0: dbe9 9c3d 4c2c 663d 40a2 82bf 51b5 6ebc
000002f0: ae12 80be 722a 14be e312 323f 29e8 20be
00000300: b5a4 12bc a103 153e 5e74 82bc f7f4 de3e
00000310: a4ef 253e 2dac cf3d f456 fe3d c399 4d3a
00000320: 4121 05be bb0e 51bd 9aea 53bc 6e70 b03e
00000330: b7a6 003e d530 203e d179 7c3e 286e a1be
00000340: 9607 143d 848d 23be 3da8 72be 20e6 4e3d
00000350: e5d9 f73e ed92 a73c 94ad 60be 8c43 b2be
00000360: d414 13bd 34e6 bc3e d829 3a3d ad28 0cbe
00000370: 4967 563c 2f29 a93e 0827 f83d 2476 a0be
00000380: 80d1 323e 7e4f f03d 7a87 173e b7c3 643d
00000390: adab 683e 81b6 80be 4539 333e f041 cbbd
000003a0: 52b7 a53e 9998 b23e ecb4 0cbf 3725 6c3d
000003b0: 0ac4 57be 170a 773e a27a 26be 5212 ad3d
000003c0: 80ca 813e 2e5f 0dbe df9e 143f c789 363a
000003d0: b414 883e beee 98be 976d 14be ade9 983e
000003e0: 7e19 d43d 8057 bb3d 3067 22be a5a6 18bf
000003f0: 402b 7f3e ef62 87be 757b 133e fc33 7fbe

encoder.attn_layers.0.conv2.bias f4 [16]
0.031877093 -0.005121968 -0.010563832 0.019332884 0.031591713 0.0058478876 0.052708324 -0.08200021
0.030845763 0.02416496 0.035419494 0.018190436 0.026535844 0.03220131 -0.031339705 -0.04705055
00000000: 8e91 023d 2fd6 a7bb ec13 2dbc ff5f 9e3c
00000010: 5066 013d a39f bf3b afe4 573d baef a7bd
00000020: 41b0 fc3c 98f5 c53c 0814 113d 1c04 953c
00000030: b361 d93c 85e5 033d 105e 00bd 14b8 40bd

encoder.attn_layers.0.norm1.weight f4 [16]
0.78182584 0.9698303 0.60225356 1.0684459 0.5605241 1.3267481 1.4334791 0.7950868
0.9240176 1.6183968 1.3166473 1.7469528 1.2979993 1.2178361 2.0035658 1.9889333
00000000: bd25 483f cc46 783f 4a2d 1a3f d6c2 883f
00000010: 827e 0f3f e2d2 a93f 3e7c b73f cf8a 4b3f
00000020: 6b8c 6c3f a027 cf3f e687 a83f 269c df3f
00000030: d724 a63f 0ee2 9b3f 6c3a 0040 5e95 fe3f
