SimMTM-main/SimMTM-main/SimMTM_Forecasting/outputs/pretrain_checkpoints/ETTh1/ckpt_best.pth (torch, 341001 bytes, 21 tensors)

enc_embedding.value_embedding.tokenConv.weight f4 [16, 1, 3]
0	0x3ddf2dfc	0.10897443
1	0xbfb5fbc2	-1.4217455
2	0xbf576990	-0.8414545
3	0xbfd69ad8	-1.6766005
4	0x3f2af444	0.6677897
5	0xbf51f287	-0.8201069
6	0x3f6f9872	0.9359199
7	0xbf3c4a5c	-0.73550963
8	0x3f948a9d	1.1604801
9	0x3f425e52	0.7592517
10	0x3fe13a7a	1.7595971
11	0x3f9128f4	1.1340623
12	0xbf8954ce	-1.0729005
13	0xbfd42096	-1.6572444
14	0x3e247f90	0.16064286
15	0x3f2957d9	0.6614967
16	0x3f9fd37b	1.2486414
17	0xbf9e1e54	-1.2353005
18	0x3dcd412b	0.100221954
19	0x3fa28eae	1.2699792
20	0x3f75311a	0.9577805
21	0xbf6894b1	-0.90851885
22	0x3f901566	1.125653
23	0x3f9dc0b7	1.2324437
24	0x40099da4	2.1502466
25	0x3fc5288f	1.5403003
26	0xbea9d27f	-0.33168408
27	0xbf16b414	-0.5886853
28	0xbfca427a	-1.5801537
29	0xbe92cc40	-0.28671455
30	0x3f47331c	0.7781236
31	0xbfef7d09	-1.8710033
32	0x3fd203c2	1.6407397
33	0x3f32364a	0.6961409
34	0xbfb39e47	-1.4032677
35	0xbea2d31b	-0.31801686
36	0xbf5d0fb6	-0.863521
37	0xbf039853	-0.51404303
38	0xbfb95384	-1.4478612
39	0x3d49ab49	0.049235616
40	0x3f91d858	1.1394148
41	0xbede291c	-0.4339074
42	0x3e119e6c	0.1422059
43	0xbf830fd5	-1.0239207
44	0x3e73097b	0.23734085
45	0x3f85dc7a	1.0457909
46	0xbf93a721	-1.1535379
47	0xbf4b8f8c	-0.7951591

enc_embedding.position_embedding.pe f4 [1, 5000, 16]
0	0x00000000	0.0
1	0x3f800000	1.0
2	0x00000000	0.0
3	0x3f800000	1.0
4	0x00000000	0.0
5	0x3f800000	1.0
6	0x00000000	0.0
7	0x3f800000	1.0
8	0x00000000	0.0
9	0x3f800000	1.0
10	0x00000000	0.0
11	0x3f800000	1.0
12	0x00000000	0.0
13	0x3f800000	1.0
14	0x00000000	0.0
15	0x3f800000	1.0
16	0x3f576aa4	0.84147096
17	0x3f0a5141	0.54030234
18	0x3e9f393e	0.3109836
19	0x3f734e6b	0.9504153
20	0x3dcc7576	0.099833414
21	0x3f7eb898	0.9950042
22	0x3d01815b	0.031617504
23	0x3f7fdf3c	0.99950004
24	0x3c23d657	0.009999833
25	0x3f7ffcb9	0.99995
26	0x3b4f3e1c	0.0031622713
27	0x3f7fffac	0.999995
28	0x3a83126d	0.0009999998
29	0x3f7ffff8	0.9999995
30	0x39a5cb61	0.00031622782
31	0x3f7fffff	0.99999994
32	0x3f68c7b7	0.9092974
33	0xbed51133	-0.41614684
34	0x3f17541b	0.5911271
35	0x3f4e7bec	0.8065784
36	0x3e4b6ff8	0.19866931
37	0x3f7ae5a5	0.9800666
38	0x3d8170c8	0.063203394
39	0x3f7f7cf9	0.9980007
40	0x3ca3d43e	0.019998666
41	0x3f7ff2e5	0.9998
42	0x3bcf3dd8	0.006324511
43	0x3f7ffeb1	0.99998003
44	0x3b031268	0.0019999985
45	0x3f7fffdf	0.99999803
46	0x3a25cb60	0.0006324556
47	0x3f7ffffd	0.9999998
48	0x3e1081c3	0.14112
49	0xbf7d7026	-0.9899925
50	0x3f5009c2	0.8126489
51	0x3f152f58	0.58275366
52	0x3e974e6c	0.2955202
53	0x3f7490ef	0.9553365
54	0x3dc1ffc0	0.094726086
55	0x3f7ed94f	0.99550337
56	0x3cf5b91f	0.0299955
57	0x3f7fe283	0.99955004
58	0x3c1b6e0d	0.009486687
59	0x3f7ffd0d	0.999955
60	0x3b449b92	0.0029999954
61	0x3f7fffb5	0.9999955
62	0x3a78b110	0.00094868336
63	0x3f7ffff9	0.9999996
64	0xbf41bdcf	-0.7568025
65	0xbf275530	-0.6536436
66	0x3f741dde	0.95358074
67	0x3e9a2eb1	0.30113748
68	0x3ec761d7	0.38941833
69	0x3f6bcaa7	0.921061
70	0x3e012e88	0.12615407
71	0x3f7df469	0.99201065
72	0x3d23cbdb	0.039989334
73	0x3f7fcb94	0.9992001
74	0x3c4f3cc9	0.01264877
75	0x3f7ffac2	0.99992
76	0x3b831257	0.003999989
77	0x3f7fff7a	0.999992
78	0x3aa5cb5e	0.0012649109
79	0x3f7ffff3	0.9999992
80	0xbf757c10	-0.9589243
81	0x3e913c2c	0.2836622
82	0x3f7ffc7f	0.99994653
83	0xbc2972e9	-0.010342338
84	0x3ef57743	0.47942552
85	0x3f60a940	0.87758255
86	0x3e213c1d	0.15745588
87	0x3f7cce81	0.987526
88	0x3d4cb6f4	0.049979165
89	0x3f7fae19	0.99875027
90	0x3c81857e	0.015810724
91	0x3f7ff7cf	0.999875
92	0x3ba3d6dd	0.004999979
93	0x3f7fff2e	0.9999875
94	0x3acf3e33	0.0015811383
95	0x3f7fffeb	0.99999875
96	0xbe8f0f8c	-0.2794155
97	0x3f75cdb8	0.96017027
98	0x3f72784e	0.9471482
99	0xbea43f6d	-0.3207964
100	0x3f108c68	0.5646424
101	0x3f534932	0.8253356
102	0x3e41206e	0.18860027
103	0x3f7b67e3	0.98205394
104	0x3d759cd1	0.059964005
105	0x3f7f8a12	0.99820054
106	0x3c9b6c43	0.018972522
107	0x3f7ff434	0.99982
108	0x3bc49b58	0.0059999637
109	0x3f7ffed2	0.999982
110	0x3af8b108	0.0018973658
111	0x3f7fffe2	0.9999982
112	0x3f283046	0.6569866
113	0x3f40ffbd	0.75390226
114	0x3f4ce86e	0.8004216
115	0xbf1974bc	-0.5994375
116	0x3f24eb72	0.6442176
117	0x3f43ccb3	0.7648422
118	0x3e60d350	0.2195561
119	0x3f79c0ea	0.9755999
120	0x3d8f3e32	0.06994285
121	0x3f7f5f81	0.997551
122	0x3cb552a2	0.022134129
123	0x3f7feff2	0.999755
124	0x3be55fc5	0.006999942
125	0x3f7ffe65	0.9999755
126	0x3b1111ed	0.0022135929
127	0x3f7fffd7	0.99999756
128	0x3f7d4695	0.98935825
129	0xbe14fdf6	-0.14550003
130	0x3f13067e	0.5743178
131	0xbf5191e5	-0.8186324
132	0x3f37a4a5	0.717356
133	0x3f325b5f	0.6967067
134	0x3e802651	0.25029233
135	0x3f77da02	0.9681703
136	0x3da3aa50	0.07991469
137	0x3f7f2e65	0.9968017
138	0x3ccf388a	0.025295515
139	0x3f7feb08	0.99968004
140	0x3c031212	0.007999914
141	0x3f7ffde7	0.999968
142	0x3b25cb55	0.0025298197
143	0x3f7fffca	0.9999968
144	0x3ed30132	0.4121185
145	0xbf693fd5	-0.91113025
146	0x3e951fee	0.29125923
147	0xbf74e6a2	-0.9566442
148	0x3f48881c	0.78332686
149	0x3f1f21d5	0.62161
150	0x3e8fc22d	0.28077832
151	0x3f75b3a9	0.95977265
152	0x3db8123e	0.089878544
153	0x3f7ef6c2	0.9959527
154	0x3ce91dea	0.028456647
155	0x3f7fe576	0.99959505
156	0x3c13743a	0.008999879
157	0x3f7ffd59	0.9999595
158	0x3b3a84bc	0.0028460464
159	0x3f7fffbc	0.99999595
160	0xbf0b44f8	-0.5440211
161	0xbf56cd64	-0.8390715
162	0xbca97097	-0.02068357
163	0xbf7ff1fb	-0.9997861
164	0x3f576aa4	0.84147096
165	0x3f0a5141	0.54030234
166	0x3e9f393d	0.31098357
167	0x3f734e6b	0.9504153
168	0x3dcc7576	0.099833414
169	0x3f7eb898	0.9950042
170	0x3d018159	0.031617496
171	0x3f7fdf3c	0.99950004
172	0x3c23d657	0.009999833
173	0x3f7ffcb9	0.99995
174	0x3b4f3e22	0.0031622727
175	0x3f7fffac	0.999995
176	0xbf7fff5c	-0.9999902
177	0x3b910572	0.004425698
178	0xbea9411f	-0.33057496
179	0xbf719b8d	-0.94377977
180	0x3f64262a	0.89120734
181	0x3ee83dc3	0.4535962
182	0x3eae878b	0.34087786
183	0x3f70aae4	0.9401076
184	0x3de0d372	0.1097783
185	0x3f7e73e8	0.9939561
186	0x3d0e7368	0.03477803
187	0x3f7fd85b	0.9993951
188	0x3c343869	0.010999777
189	0x3f7ffc09	0.9999395
190	0x3b63f787	0.003478499
191	0x3f7fff9b	0.999994
192	0xbf095cd8	-0.53657293
193	0x3f5806d0	0.84385395
194	0xbf1b9124	-0.6076834
195	0xbf4b4f56	-0.7941793
196	0x3f6e9a1d	0.9320391
197	0x3eb986f7	0.36235783
198	0x3ebda92c	0.3704313
199	0x3f6dc9c3	0.9288599
200	0x3df52bac	0.119712204
201	0x3f7e28b5	0.99280864
202	0x3d1b6519	0.03793821
203	0x3f7fd0d2	0.9992801
204	0x3c449a70	0.011999711
205	0x3f7ffb48	0.999928
206	0x3b78b0eb	0.0037947248
207	0x3f7fff87	0.9999928
208	0x3ed72022	0.42016703
209	0x3f684e6f	0.9074468
210	0xbf53144c	-0.82452846
211	0xbf10d99d	-0.5658205
212	0x3f76abc0	0.9635582
213	0x3e88f59d	0.26749888
214	0x3ecc9a3f	0.3996143
215	0x3f6aabc3	0.9166834
216	0x3e04bed0	0.12963414
217	0x3f7dd700	0.9915619
218	0x3d285665	0.041098017
219	0x3f7fc8a1	0.9991551
220	0x3c54fc6a	0.012999633
221	0x3f7ffa76	0.9999155
222	0x3b86b526	0.00411095
223	0x3f7fff72	0.99999154
224	0x3f7d9872	0.9906074
225	0x3e0c04d7	0.13673721
226	0xbf75a8b3	-0.9596054
227	0xbe900d0a	-0.28134948
228	0x3f7c466f	0.98544973
229	0x3e2e0be7	0.16996728
230	0x3edb56f4	0.42839777
231	0x3f6751b1	0.90359026
232	0x3e0ee464	0.13954312
233	0x3f7d7ecc	0.990216
234	0x3d354743	0.044257414
235	0x3f7fbfc9	0.99902016
236	0x3c655e55	0.013999541
237	0x3f7ff994	0.999902
238	0x3b9111d6	0.004427175
239	0x3f7fff5c	0.9999902
240	0x3f267944	0.65028787
241	0xbf427ae8	-0.7596879
242	0xbf7fe075	-0.9995187
243	0x3cfe2296	0.031022351
244	0x3f7f5bd5	0.997495
245	0x3d90deba	0.07073732
246	0x3ee9db83	0.45675287
247	0x3f63bc68	0.8895936
248	0x3e19064f	0.14943813
249	0x3f7d201a	0.9887711
250	0x3d4237aa	0.047416367
251	0x3f7fb649	0.9988752
252	0x3c75c032	0.014999436
253	0x3f7ff8a1	0.9998875
254	0x3b9b6e85	0.0047433996
255	0x3f7fff43	0.99998873

enc_embedding.temporal_embedding.embed.weight f4 [16, 4]
0	0x3da13c80	0.078728676
1	0x3ecef388	0.40420175
2	0x3d9e5ec8	0.07732922
3	0x3e129a20	0.14316607
4	0xbde9d4c8	-0.11417538
5	0x3dfed5d0	0.12443125
6	0xbe8b03c4	-0.2715131
7	0x3ed55f9a	0.416745
8	0x3dde4f20	0.10854936
9	0xbecc486e	-0.3989901
10	0x3eb52446	0.35379237
11	0x3edfccda	0.43710977
12	0xbe2dc648	-0.1697017
13	0x3eb7a380	0.35866928
14	0xbd791c50	-0.060818017
15	0xbecbe452	-0.39822632
16	0x3ee8e2a4	0.45485413
17	0x3e1d8460	0.15382528
18	0x3db3b2b0	0.08774316
19	0x3e4666f0	0.19375205
20	0x3c94ac60	0.018148601
21	0xbe188bdc	-0.14897102
22	0xbd44c450	-0.04803878
23	0x3ec33298	0.38124537
24	0x3e401bd0	0.1876061
25	0xbdaf8480	-0.08570194
26	0x3e115ae8	0.14194834
27	0xbef7ee7e	-0.48424143
28	0xbe4ade40	-0.19811344
29	0x3e02a214	0.1275714
30	0x3e6f9804	0.23397833
31	0x3ef1ada8	0.47202802
32	0xbe9a8c5e	-0.30185217
33	0x3efc4284	0.49269497
34	0xbeb7a084	-0.3586465
35	0xbefc3564	-0.49259484
36	0xbac9be00	-0.0015391707
37	0x3c9569c0	0.018238902
38	0x3dc99ca8	0.09844333
39	0x3eed30ec	0.46326387
40	0x3e67040c	0.22560138
41	0x3ee2ab7a	0.4427145
42	0x3e8febf4	0.28109705
43	0xbeaaec98	-0.33383632
44	0x3e947d88	0.29002023
45	0xbdc8dca8	-0.09807712
46	0x3eccd626	0.40007132
47	0xbea85128	-0.32874417
48	0x3ed7f624	0.42179978
49	0xbe7c9008	-0.24664319
50	0xbd91aca0	-0.07113004
51	0xbefcf50c	-0.49405706
52	0xbed41444	-0.4142171
53	0xbe9b2c10	-0.30307055
54	0xbea76f4a	-0.32702094
55	0xbdfeec48	-0.12447411
56	0x3e9a86b6	0.301809
57	0xbe2ca9e0	-0.16861677
58	0xbe5626bc	-0.20913213
59	0xbed6b9c4	-0.41938603
60	0xbdbbec68	-0.0917595
61	0x3eff1604	0.49821484
62	0x3e9cd5f2	0.30631977
63	0x3b659400	0.0035030842

encoder.attn_layers.0.attention.query_projection.weight f4 [16, 16]
0	0x3da96a4c	0.08272228
1	0x3d6ba90d	0.057534266
2	0x3d2ea16a	0.042634405
3	0xbc78ba21	-0.015181095
4	0xbd96a0ef	-0.073549144
5	0xbbf83b69	-0.0075754416
6	0x3d29343e	0.041309588
7	0x3d8e79d3	0.0695683
8	0xbc84f3e8	-0.016229585
9	0x3d83ec27	0.06441527
10	0x3c60538c	0.013691794
11	0x3da1d8fb	0.07902714
12	0x3d6128d9	0.054970596
13	0x3d8b27e8	0.06794721
14	0x3f01d960	0.5072231
15	0x3d60fe25	0.05492987
16	0x3d0119f7	0.031518903
17	0xbd84c56c	-0.06482968
18	0x3e2de29f	0.1698098
19	0x3cb8c5f5	0.02255533
20	0xbd8f64d0	-0.0700165
21	0xbd8b5767	-0.0680378
22	0x3d235768	0.03987828
23	0x3d0cd278	0.034380406
24	0x3d81d3fe	0.063392624
25	0x3e08a8d3	0.13345651
26	0x3f06adf7	0.526092
27	0x3d556a4a	0.05210332
28	0xbd33ab05	-0.04386427
29	0xbd9a1c26	-0.075249
30	0x3f0bc4fb	0.54597443
31	0x3d1d0e23	0.03834356
32	0xbd7f6a99	-0.06235752
33	0x3e234a3b	0.15946285
34	0x3df15656	0.117840454
35	0x3c05085e	0.008119671
36	0x3d7fa06e	0.062408857
37	0x3d355876	0.044273816
38	0x3db3726a	0.08762057
39	0x3d5eefe9	0.054428015
40	0x3dafd718	0.08585948
41	0x3d8e8c1e	0.06960319
42	0xbb29f06d	-0.0025930658
43	0xbc608cd4	-0.013705451
44	0xbe338d48	-0.17534363
45	0x3e29c6a0	0.16579676
46	0x3cec409c	0.028839402
47	0x3dfdaf60	0.12386966
48	0xbd832af9	-0.06404681
49	0xbe7aa61a	-0.24477425
50	0xbc6b8723	-0.014375481
51	0x3d45ccb1	0.048290912
52	0x3a6dded9	0.00090740394
53	0xbd0dc229	-0.034608994
54	0x3e570a3a	0.20999995
55	0x3e11f60f	0.1425402
56	0x3e23c4de	0.15993068
57	0xbdeef067	-0.11666947
58	0x3e119506	0.14217004
59	0x3df422cf	0.11920702
60	0xbf0909ed	-0.5353077
61	0x3e5efa5c	0.21775192
62	0xbe3f959b	-0.18709414
63	0xbe146193	-0.14490347
64	0xbe514f10	-0.20440316
65	0xbda15d63	-0.0787914
66	0x3e055dab	0.13024013
67	0x3e7ab013	0.2448123
68	0xbe8e8205	-0.27833572
69	0xbdc6b903	-0.09703257
70	0x3e715c38	0.23570335
71	0xbd08f868	-0.033440024
72	0x3dcd2857	0.1001746
73	0xbe1a09be	-0.15042779
74	0x3da9c559	0.08289594
75	0xbdc20a71	-0.09474648
76	0xbe63ba71	-0.2223909
77	0xbd404d5a	-0.04694877
78	0xbf3b6c2c	-0.7321193
79	0x3d1ff06b	0.03904764
80	0x3d85f904	0.065416366
81	0x3d70cd5f	0.058789607
82	0x3db81dc6	0.08990054
83	0x3d6acc6f	0.05732387
84	0x3e192144	0.14954096
85	0xbd256636	-0.04038068
86	0xbe27c914	-0.16385299
87	0x3dd299d3	0.10283246
88	0x3d954e94	0.07290378
89	0x3e1ab40f	0.1510775
90	0xbbbc8b3c	-0.0057539027
91	0x3dd7ee4c	0.105434984
92	0x3d8120ee	0.06305109
93	0xbeb1c0c7	-0.3471739
94	0x3f06a56b	0.5259616
95	0x3d06433b	0.03277896
96	0x3d94ea26	0.07271223
97	0x3d5352a9	0.051592503
98	0x3d79d582	0.060994633
99	0x3bfe783f	0.0077657993
100	0xbc4794c3	-0.012181464
101	0x3c2d3ead	0.010574025
102	0xbd81918e	-0.063265905
103	0x3da3132c	0.07962641
104	0x3d8beb1d	0.06831954
105	0x3cb9d45f	0.022684274
106	0x3cb335a9	0.021876173
107	0x3d6108e4	0.05494012
108	0xbd81b464	-0.06333235
109	0x3e1f85f0	0.15578437
110	0xbe79c9d2	-0.24393395
111	0xbe1c089a	-0.15237656
112	0xbe222e9b	-0.15838091
113	0x3e1e5434	0.15461808
114	0xbcfc7dd6	-0.030821722
115	0xbd08a1da	-0.03335748
116	0xbe33c954	-0.1755727
117	0x3db4fd78	0.08837408
118	0xbc52b550	-0.012860611
119	0x3bdcce78	0.00673848
120	0x3e100915	0.14065965
121	0xbd8df662	-0.069317594
122	0x3df678f9	0.120347925
123	0xbc51a36d	-0.012795311
124	0x3e0e429b	0.13892595
125	0xbc9864ca	-0.018602747
126	0xbdb8cef7	-0.090238504
127	0x3d82f0df	0.06393599
128	0xbc80df1b	-0.015731385
129	0xbc4697a2	-0.012121113
130	0x3cbf7aaf	0.02337393
131	0x3cfc8e78	0.030829653
132	0x3d369257	0.044573154
133	0x3e061587	0.1309415
134	0x3d9b6428	0.07587463
135	0xbc9a61d3	-0.018845474
136	0x3dd98743	0.10621502
137	0xbe936c2c	-0.28793466
138	0x3e0e9ef2	0.1392782
139	0x3e7719c2	0.2413092
140	0x3d9bbe85	0.07604698
141	0xbd588d44	-0.052869096
142	0x3db8d622	0.090252176
143	0xbc890192	-0.016724382
144	0xbdacfb81	-0.08446408
145	0xbd1666d5	-0.036719162
146	0xbcff5cab	-0.031172117
147	0xbe465289	-0.19367422
148	0x3c0543b7	0.00813382
149	0x3d6be71c	0.05759345
150	0x3ded1f80	0.11578274
151	0x3cc296a1	0.023753466
152	0xbd273b69	-0.040828142
153	0xbdad27d9	-0.08454866
154	0x3ddc0eb1	0.1074499
155	0x3e99dc41	0.30050853
156	0x3de0a361	0.10968662
157	0x3e800da4	0.25010407
158	0xbead479c	-0.33843696
159	0xbc9bb5c5	-0.019007573
160	0x3d3fd0ff	0.046830174
161	0x3c607f3b	0.013702209
162	0xbc3cfcb6	-0.01153486
163	0x3bd09ef7	0.0063666063
164	0xbc88f126	-0.016716551
165	0x3d0a6d8b	0.033795875
166	0x3c621ae7	0.013800359
167	0xbbfd0f22	-0.0077227512
168	0xbd64be8e	-0.05584579
169	0x3ca3bdef	0.019988028
170	0xbcddf26a	-0.027093131
171	0x3df0085e	0.11720346
172	0x3e8ca904	0.274727
173	0xbde4794b	-0.11155947
174	0xbc7dd8b8	-0.015493564
175	0xbd83c931	-0.064348586
176	0xbcd378df	-0.025814472
177	0x3d5ad168	0.05342236
178	0xbd46c6d9	-0.04852948
179	0x3d56ed88	0.05247262
180	0x3c77dc10	0.015128151
181	0x3d5f9e55	0.054594357
182	0x3e012fda	0.1261591
183	0xbd18e1fc	-0.03732489
184	0xbc9e173c	-0.019298188
185	0xbce4f75a	-0.027949978
186	0x3c8cec5b	0.017202547
187	0x3ca3bb3e	0.019986745
188	0xbd5e9b5c	-0.05434738
189	0x3d8ced74	0.06881228
190	0xbe46c991	-0.19412829
191	0x3d389a42	0.045068987
192	0x3b1defd3	0.0024099245
193	0x3d00e15c	0.03146492
194	0x3c375d7d	0.011191723
195	0xbb6a4ea5	-0.0035752442
196	0x3c2e2195	0.010628124
197	0x3ca28391	0.019838126
198	0xbc219881	-0.00986302
199	0x3aedc872	0.0018141402
200	0x3c7eb3ee	0.015545828
201	0x3a43ee0f	0.0007474133
202	0x3c64a311	0.013954894
203	0xbb09bf34	-0.0021018507
204	0xbd2ede59	-0.042692516
205	0x3ca03cc7	0.01956023
206	0x3c933beb	0.017972907
207	0x3bc58851	0.006028213
208	0x3d1b652a	0.037938274
209	0xbc362a7f	-0.01111853
210	0x3c7b4c5a	0.015338028
211	0xbd15e65a	-0.036596633
212	0xbc2a842a	-0.010407487
213	0xbd1139d9	-0.03545556
214	0x3c237be2	0.009978266
215	0x3c599bb1	0.013281749
216	0x3d3f8547	0.046757963
217	0x3c4b573f	0.012410938
218	0xbc548226	-0.012970483
219	0xbd5b9732	-0.053610988
220	0xbe594bb7	-0.21220289
221	0x3cc7b1ef	0.024376838
222	0xbe0a8dfe	-0.13530728
223	0x3b759298	0.003747141
224	0x3d5455aa	0.051839508
225	0x3ddd7a9d	0.10814402
226	0xbbc6fcc1	-0.006072611
227	0x3c0420d2	0.008064466
228	0x3c3ca7d3	0.011514622
229	0x3cdc2333	0.026872253
230	0x3c35e336	0.011101535
231	0xbc702afb	-0.014658685
232	0x3d0a77b8	0.03380558
233	0x3d826b6a	0.06368144
234	0x3d8dd84f	0.06926023
235	0x3e8b4df3	0.27207908
236	0x3d67061c	0.05640231
237	0x3d538871	0.051643793
238	0x3f546567	0.8296723
239	0xbd340bf6	-0.04395672
240	0xbc1a88dd	-0.009432045
241	0xbdc9e232	-0.098575965
242	0x3d483638	0.048879832
243	0x3cc966d1	0.02458516
244	0xbc3d7f38	-0.011565976
245	0x3c731357	0.014836154
246	0x3cb67cf7	0.022276385
247	0x3d4b405e	0.049621932
248	0x3add66ca	0.0016891595
249	0xbd1e019e	-0.03857576
250	0xbd8dafcf	-0.069182985
251	0xbe1c469d	-0.15261312
252	0xbb24817c	-0.0025101593
253	0x3e16b427	0.1471716
254	0xbe863d20	-0.2621851
255	0xbcea4e27	-0.028601719

encoder.attn_layers.0.attention.query_projection.bias f4 [16]
0	0x3ee859d1	0.45381024
1	0x3f09234e	0.53569496
2	0x3e3db8e8	0.18527567
3	0xbdb53ae6	-0.088491246
4	0x3e6db129	0.23212112
5	0x3cd3196f	0.025768964
6	0x3ef6d261	0.4820738
7	0xbc59621e	-0.013268022
8	0xbe7a99ab	-0.24472682
9	0xbeff3301	-0.498436
10	0x3d362dca	0.04447726
11	0xbeb4b6ea	-0.35295802
12	0xbef73f17	-0.4829032
13	0x3e0306c5	0.12795551
14	0x3e05bc82	0.13060191
15	0x3f0c68a4	0.5484717

encoder.attn_layers.0.attention.key_projection.weight f4 [16, 16]
0	0x3db56dbd	0.088588215
1	0xbd1b7df3	-0.03796191
2	0x3e0dcfe1	0.13848831
3	0xbaf632e7	-0.0018783481
4	0x3d47cd22	0.048779614
5	0xbe51b7a4	-0.2048021
6	0x3d730c20	0.059337735
7	0x3df58de8	0.11989957
8	0xbe0cde26	-0.13756618
9	0xbcefd909	-0.029278295
10	0x3c95985a	0.018261123
11	0x3e030b1c	0.12797207
12	0x3dfe3986	0.124133155
13	0xbdef1031	-0.1167301
14	0x3e013c59	0.12620677
15	0x3d8e0186	0.06933884
16	0x3d9a7fc9	0.07543904
17	0x3e1e03db	0.15431158
18	0xbe9d8ca5	-0.30771366
19	0xbe61fc0c	-0.22068805
20	0x3ca24f8e	0.019813325
21	0x3eead07a	0.4586218
22	0xbe51ab03	-0.20475392
23	0xbf09db35	-0.5385011
24	0x3e1ef2f4	0.15522367
25	0xbd46ef05	-0.04856779
26	0xbee72091	-0.45142034
27	0x3ebfe0f6	0.3747632
28	0x3f254274	0.64554524
29	0x3ee7762d	0.45207348
30	0xbe84cb9d	-0.25936595
31	0x3f2c2bac	0.6725414
32	0xbb4c122d	-0.0031138763
33	0xbdb42069	-0.08795244
34	0x3ca28267	0.019837571
35	0xbdec799b	-0.11546632
36	0xbe2e24ed	-0.17006274
37	0x3e87ca73	0.26521644
38	0xbd8eded0	-0.06976092
39	0xbe3edf33	-0.18639831
40	0xbdd2fae5	-0.103017606
41	0xbe2c98ba	-0.16855136
42	0xbe12e9ef	-0.14347051
43	0x3dfe3da8	0.12414104
44	0x3e8369d9	0.25666693
45	0x3e216688	0.15761769
46	0xbe898f00	-0.26866913
47	0x3e32ded2	0.17467812
48	0x3dfba89c	0.12288019
49	0xbd842380	-0.064520836
50	0xbd4bb3a9	-0.049731884
51	0xbd90a566	-0.07062797
52	0x3de23dbc	0.11046931
53	0xbe06df0d	-0.13171025
54	0xbdf419de	-0.11918996
55	0xbe53a4d2	-0.20668343
56	0xbd8b999e	-0.068164095
57	0x3e242e8d	0.16033383
58	0x3ea83cd1	0.328589
59	0x3e606458	0.21913278
60	0xbd7b690c	-0.061379477
61	0xbe5b84f5	-0.21437438
62	0x3e4a3f7d	0.19750781
63	0x3e8fb0c7	0.28064558
64	0x3d450657	0.04810175
65	0x3d05346a	0.03252069
66	0x3e891d5b	0.2678021
67	0xbd6a852f	-0.05725592
68	0x3e528fda	0.20562688
69	0xbe3a09de	-0.18167827
70	0x3c2324a7	0.009957469
71	0xbcb7b9ae	-0.022427406
72	0xbe85d34b	-0.26137766
73	0x3e375d1b	0.1790661
74	0x3de45c95	0.11150471
75	0x3da432fa	0.080175355
76	0xbcf70d50	-0.030157715
77	0xbce27d8a	-0.027647752
78	0x3e7064d2	0.2347596
79	0xbe2dcc71	-0.1697252
80	0xbce63b75	-0.028104523
81	0xbbebc4b0	-0.007195078
82	0x3e4d4de6	0.20049247
83	0x3ded767b	0.11594864
84	0xbdaf5dbc	-0.085628
85	0xbe991560	-0.2989912
86	0x3e1e9a9c	0.15488666
87	0x3e838bf1	0.25692704
88	0xbd51d43d	-0.051227797
89	0xbd1ac442	-0.037784822
90	0x3e29ff5e	0.16601321
91	0xbe2b96d3	-0.16756754
92	0xbe19f933	-0.15036468
93	0xbc345d6a	-0.0110086
94	0x3d448746	0.04798057
95	0xbdbc546f	-0.09195792
96	0xbdf69f0f	-0.12042057
97	0x3d89e4e5	0.06733111
98	0xbe6fb216	-0.23407778
99	0xb98a2d76	-0.00026355282
100	0xbd87451e	-0.0660498
101	0x3da33c3d	0.07970474
102	0x3ce2e98d	0.027699256
103	0x3da654d8	0.081216514
104	0x3ddccde2	0.107814565
105	0x3cd2c43b	0.025728336
106	0xbe636e46	-0.22210035
107	0xbe4cb290	-0.19989991
108	0xbda6f244	-0.08151677
109	0xbe0ee1ab	-0.13953273
110	0x3de81cdb	0.11333629
111	0xbdd94b66	-0.10610084
112	0x3da0640c	0.078315824
113	0xbe075221	-0.13214923
114	0x38285fb3	4.0143448e-05
115	0xbd5e1a21	-0.054224137
116	0x3cfe6034	0.031051733
117	0xbd0a1026	-0.033706807
118	0xbce9f46a	-0.028558929
119	0xbdd7e60d	-0.105419256
120	0x3d6f1938	0.05837366
121	0x3d54bde9	0.051938925
122	0x3e2f245e	0.17103717
123	0x3ccfb911	0.025356801
124	0x3bb8d288	0.0056403317
125	0xbca62305	-0.02028037
126	0x3de55cab	0.11199316
127	0x3e084081	0.13305856
128	0x3d9eb4c4	0.07749322
129	0x3e2a89a7	0.16654073
130	0x3d398786	0.04529526
131	0xbc938dd1	-0.01801196
132	0x3d9e0a4b	0.07716807
133	0x3e142b14	0.14469558
134	0xbc2476d2	-0.010038095
135	0xbd2044a3	-0.039127957
136	0x3db0567d	0.08610246
137	0x3e08887c	0.13333315
138	0xbe193df9	-0.14965047
139	0xbd38b7e5	-0.04509725
140	0x3e0ec192	0.13941029
141	0xbda5dc2a	-0.080986336
142	0x3daec553	0.0853373
143	0xbba361e5	-0.004986035
144	0x3e5c2d0e	0.21501562
145	0xbe45e7e3	-0.19326739
146	0xbcc8e933	-0.02452526
147	0xbe38e3c9	-0.18055643
148	0x3dae67e0	0.08515906
149	0xbe6ee5e5	-0.23329885
150	0x3e05addf	0.13054608
151	0x3e941349	0.28920963
152	0xbda97974	-0.082751185
153	0x3ced5eae	0.02897581
154	0xbd86dd7c	-0.065852135
155	0xbdd0dc41	-0.1019826
156	0xbd382fc3	-0.044967424
157	0x3e08f644	0.13375193
158	0xbde97120	-0.1139853
159	0xbaf4aadd	-0.0018666644
160	0x3e3f75db	0.18697302
161	0xbe1bf8e8	-0.15231669
162	0xbc0562f2	-0.008141266
163	0xbd87872d	-0.066175796
164	0x3cc4801e	0.023986872
165	0x3d6f4ef6	0.058424912
166	0xbd8e9d44	-0.0696359
167	0x3d68b708	0.056815177
168	0xbdf63f47	-0.12023788
169	0x3a4946f6	0.00076781155
170	0x3cdfb43f	0.027307628
171	0x3d85a7d4	0.06526151
172	0xbcc3ce58	-0.023902103
173	0x3e1b73dc	0.15180916
174	0x3bdb33b2	0.006689512
175	0xbdab9def	-0.08379733
176	0x3e1360af	0.1439235
177	0x3e2de8eb	0.16983382
178	0xbc1844eb	-0.009293775
179	0xbdd183a2	-0.10230185
180	0x3e208899	0.15677108
181	0x3d3b1c30	0.04568118
182	0xbd0851b3	-0.03328104
183	0xbddd9abc	-0.10820529
184	0x3da0385c	0.0782325
185	0x3de749da	0.11293383
186	0x3d089cfb	0.033352833
187	0xbd998353	-0.07495751
188	0x3d4a9aaf	0.049463924
189	0x3d942045	0.072327174
190	0xbe1965dd	-0.14980264
191	0xbe4bcf76	-0.19903359
192	0xbd9bcf00	-0.076078415
193	0x3c991ec9	0.018691437
194	0xbe119218	-0.14215887
195	0xbe30a9b1	-0.17252232
196	0x3cc9894d	0.024601603
197	0x3d1648b2	0.03669042
198	0xbda3b867	-0.07994156
199	0x3e125dc4	0.14293581
200	0xbae62084	-0.0017557298
201	0xb8db95b7	-0.0001047062
202	0xbdc55aac	-0.09636435
203	0x3e1f53bd	0.15559287
204	0x3c29d6c5	0.010366146
205	0xbdbe4f21	-0.092924364
206	0x3df92f04	0.12167171
207	0xbdae613f	-0.08514642
208	0x3d269102	0.040665634
209	0x3d0004f0	0.03125471
210	0xbc842e14	-0.016135253
211	0x3d87d852	0.06633057
212	0x3d052e24	0.032514706
213	0x3db9ba32	0.09068717
214	0x3bb9cf27	0.0056704464
215	0xbde808d5	-0.113298096
216	0xbdddd864	-0.10832289
217	0x3dc84d34	0.0978035
218	0xbdb6d809	-0.08927924
219	0xbd9e35b9	-0.077250905
220	0x3c9f9457	0.019479914
221	0xbe21b1f9	-0.15790547
222	0xbe35091b	-0.17679255
223	0xbd23816a	-0.03991834
224	0x3d05bcba	0.032650687
225	0xbd5c9660	-0.053854346
226	0x3d6512cc	0.05592613
227	0xbc1c17bb	-0.009527142
228	0x3c17e1db	0.009270157
229	0x3b61da3b	0.003446235
230	0x3c34f10c	0.011043798
231	0xbd1e401a	-0.03863535
232	0x3e6dfec3	0.23241715
233	0xbd6ba26c	-0.057527944
234	0x3db50d45	0.088404216
235	0x3e27d0ed	0.16388293
236	0xbce5404c	-0.02798476
237	0x3dfec56e	0.124400005
238	0xbb8602ca	-0.004089688
239	0x3e350c08	0.17680371
240	0x3e086462	0.13319543
241	0x3bb35ae3	0.005473481
242	0x3d6bc627	0.05756202
243	0x3c27c2bd	0.0102393
244	0x3da14589	0.07874591
245	0xbdb010c5	-0.085969485
246	0xbdb3ba8b	-0.087758146
247	0xbd64f723	-0.05589975
248	0xbe5858a8	-0.2112757
249	0x3d44202c	0.047882244
250	0x3c085489	0.008320936
251	0xbd892027	-0.06695586
252	0xbd42e50b	-0.047581714
253	0xbe0aef32	-0.13567808
254	0x3a1ce231	0.0005984633
255	0xbc110c8a	-0.008853087

encoder.attn_layers.0.attention.key_projection.bias f4 [16]
0	0x3cb0605d	0.021530325
1	0xbdf44b75	-0.11928455
2	0x3e7f8ee6	0.24956855
3	0xbe1bfd64	-0.1523338
4	0x3d9659a1	0.07341314
5	0x3c8df91b	0.017330697
6	0xbdfda94c	-0.123858064
7	0xbe387b76	-0.18015847
8	0xbe59365d	-0.21212144
9	0x3e7157e7	0.23568688
10	0x3dbf6dd7	0.09347122
11	0xbe5fbead	-0.21850081
12	0x3e74143d	0.23835845
13	0xbe0fcd6d	-0.14043207
14	0xbdeeb8e3	-0.11656358
15	0x3d226bcd	0.039653588

encoder.attn_layers.0.attention.value_projection.weight f4 [16, 16]
0	0xbe7acb85	-0.24491699
1	0xbd25c743	-0.040473234
2	0xbe88c603	-0.2671357
3	0x3e56df3b	0.20983593
4	0xbe27c51c	-0.16383785
5	0x3e2ea8f9	0.17056645
6	0x3c3e9e5d	0.011634436
7	0x3e090cd7	0.13383804
8	0x3e4a1c85	0.19737442
9	0xbe233ff0	-0.15942359
10	0xbeab6c55	-0.33481088
11	0xbde48285	-0.11157707
12	0xbe3bc0c2	-0.1833525
13	0xbd92a276	-0.07159893
14	0xbe43e8b6	-0.19131741
15	0x3e0839f6	0.1330336
16	0xbc6637ce	-0.014051391
17	0xbd6f3acb	-0.05840568
18	0xbd4c1b27	-0.049830582
19	0xbdae03af	-0.08496796
20	0x3d322fd1	0.043502633
21	0x3e1348ca	0.14383236
22	0xbc1c1256	-0.009525856
23	0xbceaf336	-0.028680425
24	0xbd21128a	-0.03932432
25	0x3b50e905	0.0031877172
26	0xbe0d99c1	-0.13828184
27	0xbd95b15d	-0.0730922
28	0x3e9d6b6c	0.3074602
29	0xbda2f060	-0.07956004
30	0xbe82eb2a	-0.2557004
31	0x3e1ed687	0.15511523
32	0xbe684afd	-0.22684856
33	0xbe685adb	-0.22690909
34	0x3e8fca60	0.28084087
35	0x3e29a73a	0.16567698
36	0x3d9aaf03	0.07552912
37	0xbe08b35c	-0.1334967
38	0x3e2dea47	0.16983901
39	0x3ea6cc22	0.32577616
40	0xbe501df9	-0.20323934
41	0xbdb54f81	-0.08853055
42	0x3cbb054e	0.022829678
43	0xbe4db95d	-0.20090242
44	0xbe82b02d	-0.25525036
45	0xbe3bbbf4	-0.18333417
46	0x3e6310f7	0.2217444
47	0x3e3ea2e2	0.18616822
48	0x3d55cc27	0.052196648
49	0xbd05997a	-0.03261707
50	0xbc6e1569	-0.014531472
51	0xbd2d7f78	-0.04235789
52	0x3d8a60ef	0.0675677
53	0xbdd2433e	-0.10266732
54	0xbd15905f	-0.036514636
55	0xbd215956	-0.039391838
56	0xbd2751d4	-0.04084952
57	0x3d5b0b76	0.053477727
58	0x3e561ad9	0.20908679
59	0x3de323f2	0.110908404
60	0xbd006679	-0.031347726
61	0xbe046dcc	-0.12932509
62	0x3d81a5cd	0.06330452
63	0x3dd4ff81	0.10400296
64	0x3dc449b0	0.09584367
65	0xbda962cb	-0.082707964
66	0xbdd5ce6a	-0.10439761
67	0xba215b0e	-0.0006155231
68	0xbddb06fd	-0.10694692
69	0x3d441550	0.047871888
70	0x3b8ec3a1	0.004356817
71	0xbde2ff39	-0.11083836
72	0x3dc7e174	0.09759799
73	0x3c23c46b	0.00999556
74	0x3cd3b145	0.025841365
75	0xbdddb0e8	-0.10824758
76	0xbd69f7eb	-0.0571212
77	0x3e0b73a6	0.13618335
78	0xbdf9e25f	-0.1220138
79	0x3e22deab	0.15905254
80	0xbd69cb16	-0.057078443
81	0xbdd3bea2	-0.10339095
82	0x3e2f128f	0.17096923
83	0x3db4ea3e	0.08833741
84	0x3e35446b	0.1770188
85	0xbea29275	-0.31752363
86	0x3dc952ab	0.09830221
87	0x3ed4efa4	0.4158908
88	0xbb19898c	-0.0023427932
89	0xbdc2f84c	-0.09520015
90	0x3e880bda	0.26571542
91	0x3d908814	0.07057205
92	0xbdc45de0	-0.09588218
93	0x3e14765d	0.14498277
94	0x3dd6d742	0.10490276
95	0x3dfe2c05	0.1241074
96	0x3d1bd39e	0.03804361
97	0xbd790383	-0.060794365
98	0xbe1aecb1	-0.15129353
99	0xbe1fa9ed	-0.15592165
100	0x3de28ff5	0.11062614
101	0xbe07fdb1	-0.1328037
102	0xbdf4a659	-0.11945791
103	0xbccfd258	-0.025368854
104	0xbe706f64	-0.23479992
105	0xbd068804	-0.03284456
106	0x3d0360d3	0.03207476
107	0x3d3f75fd	0.04674338
108	0x3e512f43	0.20428185
109	0xbe50c0d6	-0.20386061
110	0x3ea49c7c	0.32150638
111	0x3e1ccc58	0.15312326
112	0xbce80058	-0.028320476
113	0xbea3a944	-0.31965077
114	0xbdea9e06	-0.11455922
115	0xbe259d7c	-0.16173357
116	0xbdd992ce	-0.10623704
117	0x3cf97460	0.030451
118	0xbd26bf9c	-0.040710077
119	0x3d8d1d9a	0.06890412
120	0x3d8116ae	0.06303154
121	0xbe0bda1b	-0.1365742
122	0x3e8a902d	0.27063122
123	0x3ebd1257	0.36928055
124	0x3bf0a212	0.007343539
125	0x3d8984bd	0.06714771
126	0x3d9efc24	0.07762936
127	0x3e7e09cb	0.24808423
128	0xbe60d68b	-0.21956842
129	0xbdfab59d	-0.12241671
130	0xbd5ac151	-0.053407017
131	0xbcf632cb	-0.030053517
132	0x3c754b3a	0.014971549
133	0xbeb52cda	-0.35385782
134	0x3e440ee0	0.191463
135	0xbd68ad75	-0.056806047
136	0x3e3f34a4	0.18672425
137	0xbcb34ac5	-0.021886239
138	0x3e870179	0.2636831
139	0x3e13126c	0.14362496
140	0xbe2b68dc	-0.1673922
141	0x3c31f149	0.0108607495
142	0x3e31e042	0.17370704
143	0x3c75d745	0.015004938
144	0xbdc4f506	-0.09617047
145	0x3e08a035	0.13342364
146	0xbda2696a	-0.079302624
147	0x3e95773d	0.29192534
148	0x3deb7b25	0.11498097
149	0x3e084e47	0.1331111
150	0xbca3a468	-0.019975856
151	0xbf05d6fa	-0.52281153
152	0x3ea166a8	0.31523633
153	0xbe62dfc6	-0.22155675
154	0xbc327301	-0.010891677
155	0x3daf6529	0.08564217
156	0x3dea959f	0.11454319
157	0x3e931fe3	0.28735265
158	0x3dd189a4	0.10231331
159	0x3e8f454e	0.27982563
160	0x3e0bf65d	0.13668199
161	0x3ed1ad4c	0.40952528
162	0xbd9b52e6	-0.07584171
163	0xbe90e352	-0.28298432
164	0x3df3bacd	0.11900864
165	0xbe3245f8	-0.17409503
166	0xbe4f1586	-0.20223054
167	0xbe8a56b6	-0.2701928
168	0xbe52abbe	-0.20573327
169	0xbd9ba1d8	-0.075992286
170	0xbe42f420	-0.19038439
171	0xbe2a4808	-0.1662904
172	0x3cafcefd	0.021461004
173	0xbe7ee6b7	-0.24892698
174	0xbd5ee421	-0.05441678
175	0xbd825802	-0.063644424
176	0x3e40168e	0.18758604
177	0x3e213e59	0.1574644
178	0xbd77627f	-0.060396668
179	0xbea7c454	-0.32766974
180	0xbd75b7f1	-0.059989873
181	0xbd8598c5	-0.06523279
182	0xbe384530	-0.17995143
183	0xbeaafc86	-0.33395785
184	0xbeaf8deb	-0.34287962
185	0xbdebd5a9	-0.11515362
186	0xbe862653	-0.26201114
187	0xbdb13aa8	-0.08653766
188	0x3c918e68	0.0177681
189	0xbd35cf60	-0.04438722
190	0xbe6d06e7	-0.23147164
191	0xbd8a3d8a	-0.06750019
192	0x3f2a5f83	0.6655199
193	0x3ed6122a	0.41810733
194	0xbd7b200a	-0.06130985
195	0xbeb729ab	-0.35773978
196	0x3e432052	0.19055298
197	0xbdff9612	-0.124797955
198	0xbf05d894	-0.52283597
199	0xbf4fadf4	-0.81124806
200	0xbeb39fd3	-0.35082874
201	0x3e7ea077	0.248659
202	0x3e0f1d77	0.13976084
203	0x3dfdf79f	0.124007456
204	0x3e93db00	0.2887802
205	0xbebe13b1	-0.37124398
206	0x3e72847b	0.2368335
207	0xbe3c3e9c	-0.18383259
208	0x3ec03f81	0.3754845
209	0xbc518b97	-0.0127896285
210	0x3d4e7745	0.050406713
211	0xbf1f57f4	-0.6224358
212	0x3e864d2e	0.26230758
213	0xbeedeb72	-0.46468693
214	0xbe48884b	-0.19583242
215	0xbef094e5	-0.46988598
216	0xbe14ec7a	-0.14543334
217	0x3eb09c50	0.34494257
218	0x3e103e92	0.14086369
219	0x3e9da3f7	0.30789158
220	0x3e0e98c5	0.13925464
221	0x3e49467e	0.19655797
222	0x3ee48a1f	0.44636628
223	0x3dc2d8b2	0.095139876
224	0x3daa216e	0.083071575
225	0xbe7373fc	-0.23774713
226	0xbd5eb62f	-0.054372963
227	0x3d90dafb	0.07073017
228	0xbe56ff1c	-0.20995754
229	0x3e82b6a7	0.25529978
230	0xbd16e8e3	-0.03684319
231	0xbed77bde	-0.4208669
232	0x3edfcf13	0.43712673
233	0xbe8f4876	-0.2798497
234	0x3dcbf732	0.09959258
235	0x3e034d5d	0.1282248
236	0x3d000dd3	0.031263184
237	0xbdde6e98	-0.10860938
238	0x3cd98cfc	0.026556484
239	0x3d416ea2	0.04722465
240	0xbdb94ba1	-0.09047628
241	0x3d5fc619	0.05463228
242	0xbcb0c1fa	-0.02157687
243	0x3e6b731e	0.22993132
244	0xbe10bab1	-0.14133717
245	0x3ded715e	0.11593889
246	0x3e0a9a1d	0.13535352
247	0xbe0b71e6	-0.13617668
248	0x3ddbc4ed	0.1073092
249	0xbedb17e8	-0.42791677
250	0xbe8c3c53	-0.27389774
251	0xbe665485	-0.22493179
252	0xbd976b2c	-0.07393488
253	0xbe8af8aa	-0.2714284
254	0xbe85c6b1	-0.26128152
255	0xbe9ee63f	-0.3103504

encoder.attn_layers.0.attention.value_projection.bias f4 [16]
0	0x3d81ad6f	0.06331908
1	0x3d0b6d1f	0.034039613
2	0x3e12ab4b	0.14323156
3	0xbd4862c0	-0.0489223
4	0xbe4cacab	-0.19987743
5	0xbe27ae01	-0.16374971
6	0xbdb9aee2	-0.090665594
7	0x3e937045	0.28796592
8	0x3d7fe9c9	0.062478814
9	0x3e6e86da	0.2329363
10	0x3e2dc88f	0.16971038
11	0xbe66ce1f	-0.22539566
12	0x3d3f4d18	0.04670438
13	0x3e11caa7	0.14237462
14	0x3e822a0b	0.254227
15	0x3d35a24b	0.044344228

encoder.attn_layers.0.attention.out_projection.weight f4 [16, 16]
0	0x3eb84d61	0.35996535
1	0xbe8d1da4	-0.27561677
2	0x3e10dcac	0.1414668
3	0xbe01ca6b	-0.12674873
4	0x3cd4a1ec	0.025956117
5	0xbb878838	-0.0041361116
6	0x3eada7d1	0.33917096
7	0x3e463ca5	0.19359072
8	0xbe02b329	-0.12763657
9	0xbeb5606b	-0.35425124
10	0x3d420969	0.047372255
11	0xbc288b20	-0.010287076
12	0x3ecd5651	0.40104917
13	0xbd2bc925	-0.041939873
14	0x3dafdd68	0.08587152
15	0x3e950fe7	0.29113695
16	0xbd532ef5	-0.051558454
17	0xbe0cfdda	-0.13768712
18	0x3e7a9f15	0.24474747
19	0x3e980e4d	0.2969841
20	0xbd967e04	-0.07348254
21	0xbe231d41	-0.15929128
22	0xbd751517	-0.059834566
23	0xbe91c78e	-0.2847256
24	0x3de6fcd0	0.11278689
25	0xbe407a69	-0.18796696
26	0x3e96f7b9	0.29485872
27	0xbed7a34d	-0.42116776
28	0xbeca7226	-0.39540213
29	0x3dda7780	0.10667324
30	0xbeeb7e31	-0.45994714
31	0xbe9daadf	-0.30794427
32	0x3e0f3d8d	0.13988324
33	0xbde809e0	-0.113300085
34	0x3e1cb637	0.15303884
35	0x3df08269	0.11743624
36	0xbe28c2ef	-0.16480611
37	0x3c433fc8	0.011917062
38	0x3e5f4637	0.21804129
39	0x3e4cb2e3	0.19990115
40	0xbdda757e	-0.10666941
41	0xbcdd357b	-0.02700304
42	0x3dc5bf31	0.096556075
43	0x3ea8af53	0.32946262
44	0xbdc52008	-0.0962525
45	0xbebb5e20	-0.3659525
46	0xbd6a3889	-0.057182822
47	0x3e52d307	0.20588313
48	0x3d58ca57	0.05292734
49	0xbe0b0e48	-0.13579667
50	0xbe008f6d	-0.12554713
51	0x3ea04e11	0.3130956
52	0xbe326f12	-0.17425182
53	0xbeb82be8	-0.35970998
54	0xbdc9993e	-0.09843682
55	0x3de920f5	0.11383239
56	0xbe15e2c9	-0.14637293
57	0xbe6e1612	-0.23250607
58	0xbe8ab205	-0.27088943
59	0x3e558c6c	0.20854348
60	0x3ea864d9	0.3288944
61	0x3eedcb8e	0.46444362
62	0xbee00d96	-0.43760365
63	0xbe05b671	-0.13057877
64	0xbf3237b9	-0.69616276
65	0x3e9aac05	0.30209365
66	0x3e33fe02	0.17577365
67	0xbe5c9867	-0.21542512
68	0xbd89a854	-0.06721559
69	0xbe0776a2	-0.13228849
70	0x3d86d188	0.06582934
71	0x3e315599	0.17317809
72	0x3eb0e610	0.34550524
73	0x3d780637	0.060552802
74	0xbd869b8e	-0.065726385
75	0xbea32daf	-0.3187079
76	0xbf309f4a	-0.68993056
77	0x3e9ac934	0.3023163
78	0x3c553b83	0.013014677
79	0x3d104fca	0.035232343
80	0x3b25c790	0.002529595
81	0x3e1f6c8e	0.15568754
82	0xbe1c03d0	-0.1523583
83	0xbce0b5bb	-0.027430406
84	0xbe41c5b6	-0.18923077
85	0xbe3cb89a	-0.18429795
86	0xbec8fcd4	-0.39255393
87	0x3c42165e	0.011846153
88	0x3d58b7ec	0.052909777
89	0xbe2f9f3c	-0.17150587
90	0x3da0b8fc	0.07847783
91	0xbe481027	-0.19537412
92	0xbeebd023	-0.46057233
93	0x3e2cd90a	0.16879669
94	0xbe2b193f	-0.1670885
95	0x3ae4a30f	0.0017443615
96	0x3e01abf8	0.12663257
97	0x3e0ecd20	0.13945436
98	0x3e32a872	0.1744707
99	0xbe97be13	-0.29637203
100	0x3e07fb80	0.13279533
101	0x3e6491c2	0.22321227
102	0xbeaef59e	-0.34171766
103	0x3e854f19	0.2603691
104	0xbcaa7dcd	-0.02081194
105	0x3e9e987c	0.3097571
106	0xbea83ef8	-0.3286054
107	0xbe5c9138	-0.21539772
108	0x3d2e58cf	0.042565163
109	0xbe71be53	-0.23607759
110	0xbe709031	-0.23492505
111	0xbe024955	-0.12723286
112	0x3ed365dd	0.41288653
113	0x3d2cbc1e	0.04217159
114	0xbcef90e3	-0.029243892
115	0xbe40871b	-0.18801539
116	0x3ceebbbf	0.029142259
117	0xbe8ed20a	-0.27894622
118	0x3dd6e93b	0.10493704
119	0xbc8fa27b	-0.017533531
120	0x3e017ca3	0.12645201
121	0x3d8cec92	0.0688106
122	0x3dac3358	0.084082305
123	0x3e1a46bb	0.15066044
124	0xbe04c6ef	-0.12966512
125	0xbe40612e	-0.18787071
126	0x3e500a15	0.20316346
127	0x3c8b29e5	0.01698775
128	0xbe4df6cf	-0.20113681
129	0x3dcc6194	0.09979549
130	0xbe024bce	-0.1272423
131	0x3ce1c499	0.027559565
132	0x3d8e7f88	0.069579184
133	0xbe413eb2	-0.18871573
134	0xbda3e5a5	-0.080027856
135	0x3dcd1333	0.100134276
136	0xbc39ad80	-0.0113328695
137	0xbe55bec7	-0.20873557
138	0x3e76e494	0.24110633
139	0x3ddfbf8e	0.10925208
140	0xbd9858a1	-0.074387796
141	0xbeb6a99a	-0.3567627
142	0xbe4f3987	-0.20236789
143	0xbdb1881f	-0.08668541
144	0x3e4266d9	0.18984546
145	0xbe96d0ae	-0.29456085
146	0x3ea5f907	0.32416555
147	0xbe8f3278	-0.27968192
148	0x3e956083	0.29175195
149	0x3dc38faa	0.09548886
150	0x3e1aafff	0.151062
151	0xbe4bba21	-0.19895221
152	0xbe4c3d75	-0.19945319
153	0xbe133059	-0.14373912
154	0x3dbe82dd	0.09302304
155	0xbe277224	-0.16352135
156	0x3e1dbaf5	0.1540335
157	0x3e037d19	0.1284069
158	0xbd2a4a6c	-0.04157488
159	0x3eb5c386	0.35500735
160	0xbe6902d4	-0.22754985
161	0xbd266325	-0.040621895
162	0xbe4eda01	-0.2020035
163	0x3e35103d	0.17681976
164	0xbc92775d	-0.017879182
165	0xbcddfd98	-0.027098462
166	0x3d4874ee	0.048939638
167	0xbe81bb85	-0.2533838
168	0x3e55472e	0.20827934
169	0x3e9c3be0	0.3051443
170	0x3e68d9bc	0.22739309
171	0xbe1b385b	-0.15158217
172	0x3da7be0c	0.081905454
173	0xbe6b24b6	-0.22963223
174	0x3cdc1337	0.026864631
175	0x3ca0b184	0.019615896
176	0xbd95d865	-0.073166646
177	0x3d94c5fe	0.072643265
178	0x3d3ff86a	0.046867765
179	0x3df9d8a7	0.12199526
180	0x3d8b8afd	0.06813619
181	0x3df3f1a1	0.119113214
182	0xbd4841c1	-0.048890833
183	0xbd348ac6	-0.044077657
184	0xbde9c4dd	-0.11414502
185	0x3e6b9084	0.23004347
186	0xbb71c1aa	-0.0036889114
187	0xbd4450e0	-0.04792869
188	0xbe04ef6f	-0.12981962
189	0xbd99b4dd	-0.075052
190	0x3ea0ed33	0.3143097
191	0xbd74d112	-0.059769697
192	0xbdde7f43	-0.10864117
193	0x3d48ef36	0.049056254
194	0xbd0fdd0b	-0.035122912
195	0xbd1c6a29	-0.03818718
196	0x3e6a913a	0.22906962
197	0xbbe996a4	-0.0071285535
198	0xbdeebf91	-0.11657632
199	0xbe214236	-0.15747914
200	0x3d9a349c	0.07529566
201	0xbd9dfc88	-0.07714182
202	0xbe970551	-0.29496244
203	0x3e3cf1e0	0.18451643
204	0x3e55bc51	0.20872618
205	0x3ed556fe	0.41667932
206	0xbd7c51ca	-0.061601438
207	0x3db7ca77	0.08974164
208	0xbcd71a7f	-0.026257752
209	0xbe03fc5a	-0.12889233
210	0x3db8cd37	0.090235166
211	0xbddac6c6	-0.10682444
212	0x3b86cd4d	0.004113829
213	0x3d889269	0.066685505
214	0xbe60750d	-0.21919651
215	0x3e77f4ff	0.24214552
216	0x3c098172	0.008392679
217	0x3e5e9376	0.2173594
218	0xbd90385d	-0.070420004
219	0x3e7af02c	0.24505681
220	0xbe2d1a3d	-0.1690454
221	0xbd93041d	-0.07178519
222	0xbc9ce084	-0.019150026
223	0xbda8738a	-0.08225162
224	0xbd88a1cd	-0.06671486
225	0x3d9815aa	0.07426007
226	0x3caf0a22	0.021367136
227	0xbc2ceef4	-0.010555018
228	0xbc32a83c	-0.010904368
229	0x3e0104d5	0.125995
230	0xbddf3d80	-0.10900402
231	0xbd6eca30	-0.05829829
232	0xbd78a74d	-0.060706425
233	0xbd0854dc	-0.033284053
234	0xbdcdd127	-0.10049658
235	0x3e31dd32	0.17369536
236	0x3d44d0a0	0.048050523
237	0xbcfdc312	-0.030976806
238	0xbcc4c903	-0.024021631
239	0xbc19eb16	-0.009394428
240	0xbd4a364e	-0.049368195
241	0xbc67ae7d	-0.014140722
242	0x3d52523b	0.051347952
243	0xbbfb4d94	-0.00766916
244	0xbd7b8084	-0.06140186
245	0xbd528193	-0.051393103
246	0xbdfd0c0e	-0.12355815
247	0x395cd62a	0.00021060617
248	0xbe2d214b	-0.16907232
249	0xbd6e55f0	-0.058187425
250	0x3de4d5e5	0.1117361
251	0x3da55776	0.080733225
252	0xbdb5c875	-0.08876125
253	0x3de402ca	0.111333445
254	0x3e45a0ba	0.19299594
255	0x3de24462	0.11048199

encoder.attn_layers.0.attention.out_projection.bias f4 [16]
0	0xbea3e215	-0.32008424
1	0xbd297f4e	-0.041381173
2	0xbe5a6f75	-0.2133158
3	0x3e2f2b8c	0.17106456
4	0x3e4c46f3	0.1994894
5	0x3e9e5549	0.30924442
6	0x3e490f2f	0.19634698
7	0x3baa0f25	0.0051897937
8	0xbe962cf8	-0.29331183
9	0xbe87d7b6	-0.26531762
10	0x3bf3abb1	0.0074362387
11	0xbced6a7e	-0.028981443
12	0x3e7c933f	0.24665545
13	0xbdae2dc8	-0.08504826
14	0xbe3a0189	-0.18164648
15	0x3d8dced7	0.06924217

encoder.attn_layers.0.conv1.weight f4 [64, 16, 1]
0	0x3c37a0cd	0.0112077715
1	0xbe380935	-0.17972262
2	0x3eb0bd91	0.34519628
3	0x3e86a917	0.2630088
4	0xbe6f93b9	-0.23396195
5	0xbe99d7b1	-0.30047372
6	0x3d73d584	0.059529796
7	0x3f02c37b	0.5107953
8	0xbd69f945	-0.057122488
9	0x3d92bf00	0.071653366
10	0x3f15164d	0.58237153
11	0xbe80053e	-0.25004
12	0xbe86c562	-0.26322466
13	0xbed4ff6b	-0.41601118
14	0x3f90f7e3	1.1325649
15	0xbf7ab458	-0.9793143
16	0xbd232d93	-0.039838385
17	0xbe29952b	-0.1656081
18	0xbe3c3b22	-0.18381932
19	0x3df5c726	0.12000875
20	0x3d073f3c	0.03301929
21	0xbd629e71	-0.055326883
22	0x3debf664	0.11521605
23	0xbe2658f0	-0.16244864
24	0x3d86a4be	0.06574391
25	0x3d2cbe3b	0.042173605
26	0xbe1f4e8b	-0.15557306
27	0xbe0075d8	-0.12544954
28	0x3ecd6ea0	0.40123463
29	0x3e4a5069	0.19757237
30	0xbeb11cb7	-0.3459222
31	0xbe14ef63	-0.14544444
32	0xbd3472db	-0.044054847
33	0x3e5da026	0.21643123
34	0xbd6dfb27	-0.058100846
35	0x3e4f9b3c	0.20274061
36	0xbe7878d5	-0.24264844
37	0x3e229125	0.1587568
38	0x3e36bb88	0.17844975
39	0x3ee6a28d	0.4504589
40	0x3d900a0a	0.07033165
41	0xbe491261	-0.19635917
42	0xbf5287c4	-0.8223841
43	0xbf3e36a4	-0.74302125
44	0x3e9b0b37	0.30281994
45	0x3e055585	0.13020904
46	0xbea75e56	-0.3268916
47	0xbeb00e7e	-0.34386057
48	0x3e5e806f	0.21728681
49	0x3f255b2e	0.64592254
50	0x3e9a3b20	0.30123234
51	0x3dc85503	0.0978184
52	0x3e155eb6	0.1458691
53	0xbebff982	-0.37495047
54	0xbd76effa	-0.060287453
55	0x3f0d45cf	0.55184644
56	0xbd9d7376	-0.07688038
57	0x3eb2bde4	0.349105
58	0x3e069301	0.13142015
59	0xbebb6ce5	-0.36606517
60	0x3ee2173c	0.4415835
61	0xbe9bdb8f	-0.30440947
62	0x3ed16f8f	0.40905425
63	0xbf7a68a2	-0.97815907
64	0x3e5c82dd	0.21534295
65	0x3ebf3626	0.37346
66	0xbe8d9c5c	-0.27658355
67	0xbd1df5fa	-0.03856466
68	0xbdedbeca	-0.11608656
69	0x3c7546f4	0.01497053
70	0x3eb66dab	0.35630545
71	0xbe64fda3	-0.2236238
72	0xbe523e10	-0.20531487
73	0xbe9c16b2	-0.30486065
74	0x3da9ce6c	0.08291325
75	0xbcc3a6e4	-0.02388329
76	0x3ec033c5	0.37539497
77	0xbe7a4b53	-0.24442796
78	0x3e5355ef	0.2063825
79	0x3e9143eb	0.2837213
80	0x3de14c10	0.11000836
81	0xbe3ae84c	-0.18252677
82	0xbae45808	-0.0017421255
83	0xbe08cf4c	-0.13360327
84	0x3db3cb12	0.08778967
85	0xbe7458e3	-0.23862033
86	0xbe10cf4b	-0.14141576
87	0xbe78f01c	-0.24310344
88	0xbf148038	-0.58008146
89	0x3cca07a2	0.024661843
90	0x3cce5a59	0.025189565
91	0x3e200f2b	0.15630786
92	0x3ed71a54	0.42012274
93	0xbddccd29	-0.10781319
94	0x3dd337eb	0.103134
95	0x3cc0e64c	0.023547314
96	0xbd768cd1	-0.060192887
97	0x3c35dabf	0.011099516
98	0xbdd13eb0	-0.10217035
99	0xbe1496a6	-0.14510593
100	0xbe487d3e	-0.19579026
101	0xbe8a3a1f	-0.26997468
102	0xbd679a17	-0.056543436
103	0xbe82a771	-0.25518373
104	0xbf204130	-0.6259947
105	0x3e97ad6f	0.29624507
106	0x3e07ae85	0.13250168
107	0x3e0ac022	0.13549855
108	0x3e823080	0.25427628
109	0x3edaa1fb	0.42701706
110	0x3ea35f0d	0.31908455
111	0x3dd289ca	0.102801874
112	0xbd4ea36f	-0.05044883
113	0xbd154efa	-0.03645227
114	0xbd60febc	-0.054930434
115	0x3ce1ee37	0.02757941
116	0x3e67c271	0.22632767
117	0xbe8eab6e	-0.27865165
118	0xbd1be72a	-0.038062252
119	0x3dea9da1	0.114558466
120	0x3e8ae991	0.27131322
121	0x3e74de24	0.23912865
122	0xbe296be7	-0.16545068
123	0xbcf45177	-0.029824002
124	0xbe4ceabe	-0.20011422
125	0x3eb365fb	0.35038742
126	0x3e843bee	0.25826973
127	0xbdfd09f0	-0.12355411
128	0x3d7d2672	0.061804242
129	0xbdb2ecfd	-0.08736608
130	0xbe2b6aac	-0.16739911
131	0x3d4b9e0d	0.049711276
132	0x3e0677df	0.13131665
133	0x3e8e8f21	0.27843574
134	0xbd826bcb	-0.06368216
135	0xbdcbb541	-0.09946681
136	0xbe397cf9	-0.1811408
137	0xbdb03811	-0.08604444
138	0x3d8555af	0.065104835
139	0x3c28831b	0.010285164
140	0xbde4d839	-0.11174054
141	0xbe9b0641	-0.3027821
142	0xbeab9217	-0.33509895
143	0xbe04f361	-0.12983467
144	0x3e5314a3	0.20613341
145	0x3e008eb4	0.12554437
146	0x3e74b11b	0.23895685
147	0xbd70c6de	-0.058783405
148	0xbd8fdb8f	-0.07024299
149	0xbeadeba2	-0.33968836
150	0xbd833213	-0.06406035
151	0x3e7a992f	0.24472497
152	0xbeb9750e	-0.36222118
153	0x3f183849	0.59460884
154	0xbf44c8e7	-0.7686905
155	0x3e0f4e4f	0.13994716
156	0x3eb349f9	0.35017374
157	0x3e8f6b7a	0.28011686
158	0xbe22bfbe	-0.15893456
159	0xbe36c1a5	-0.17847307
160	0x3d28dedf	0.04122817
161	0xbec2fdcf	-0.38084266
162	0x3e0f43aa	0.13990656
163	0xbe9d14fa	-0.30680066
164	0xbd89a7de	-0.06721471
165	0xbd697c40	-0.05700326
166	0xbea8bb0c	-0.32955205
167	0x3d6134c2	0.054981954
168	0x3d87716c	0.066134304
169	0x3d1c4bbe	0.03815817
170	0xbe5fd01c	-0.21856731
171	0xbd1cb417	-0.038257685
172	0x3ed8a1f6	0.42311066
173	0xbe52ef0f	-0.20599006
174	0x3f3231bd	0.69607145
175	0x3e8d97de	0.27654928
176	0x3e6473b8	0.22309768
177	0x3ea70659	0.3262203
178	0x3ed4eebe	0.41588396
179	0x3c1c3433	0.00953393
180	0xbf1d4e0e	-0.61447227
181	0xbe96410e	-0.29346508
182	0xbcbd5c5b	-0.023115328
183	0x3ed4e0c8	0.41577744
184	0x3ecb337e	0.39687723
185	0x3db81701	0.08988763
186	0xbe183cc5	-0.14866932
187	0xbf4c1580	-0.79720306
188	0x3d5b4375	0.05353113
189	0xbc94ccda	-0.018164087
190	0x3dfb9ebd	0.12286136
191	0xbf380151	-0.7187701
192	0xbd332f7e	-0.043746464
193	0x3e21bffc	0.15795892
194	0xbda61a43	-0.08110478
195	0xbdd0aca3	-0.10189178
196	0xbea67288	-0.32509255
197	0x3eefb334	0.4681641
198	0x3e29c7bd	0.165801
199	0x3e002f67	0.12518083
200	0xbdf71d2e	-0.120661125
201	0x3df69e8c	0.12041959
202	0x3daf008c	0.08545026
203	0x3db8d1a0	0.09024358
204	0xbec6f823	-0.38861188
205	0x3de9c492	0.11414446
206	0xbe607fa7	-0.21923696
207	0x3e853f5c	0.26024902
208	0x3eba5c8f	0.36398742
209	0x3e98abba	0.29818517
210	0x3d09b5f9	0.03362081
211	0xbd151cda	-0.036404468
212	0xbc9064e5	-0.017626235
213	0x3e0c6aa4	0.13712555
214	0xbea2a74b	-0.3176826
215	0xbe8fd570	-0.28092527
216	0x3e940b01	0.28914645
217	0x3ed1577d	0.4088706
218	0xbf32496b	-0.69643277
219	0xbeb5886f	-0.35455653
220	0x3ea70556	0.32621258
221	0xbe6528bd	-0.22378822
222	0x3e637353	0.22211961
223	0xbd882493	-0.06647601
224	0xbe2197ea	-0.15780607
225	0x3e4ca0d7	0.1998323
226	0x3e289a4e	0.16465113
227	0xbe239bef	-0.15977453
228	0x39cea186	0.00039411726
229	0xbe94b358	-0.29043078
230	0xbd2f63df	-0.042819854
231	0xbec570c5	-0.385626
232	0xbed5522c	-0.41664255
233	0xbe8020f2	-0.25025135
234	0xbe0d503d	-0.1380014
235	0xbe1de808	-0.15420544
236	0x3eb8fea0	0.36131763
237	0x3e58a1a7	0.21155415
238	0x3e88411a	0.2661217
239	0xbd04a685	-0.032385368
240	0x3b965e5e	0.004588886
241	0x3c94aee5	0.018149802
242	0x3da3eb48	0.08003861
243	0x3dfebbe4	0.12438181
244	0xbdfa34df	-0.122171156
245	0x3eb3beaa	0.35106403
246	0x3e1febf1	0.15617348
247	0x3ddf22d6	0.10895316
248	0x3e577a30	0.21042705
249	0xbde4f896	-0.111802265
250	0xbf31bb01	-0.6942597
251	0xbe0702dd	-0.13184686
252	0x3e8d4101	0.27588657
253	0x3e575301	0.21027757
254	0xbf23922c	-0.63894916
255	0xbd37f8e2	-0.044915088

encoder.attn_layers.0.conv1.bias f4 [64]
0	0xbe888dd9	-0.2667072
1	0xbdf3dd1d	-0.119074084
2	0xbf0a0409	-0.5391241
3	0x3e28bda1	0.16478588
4	0x3d531d88	0.051541835
5	0xbe4395a4	-0.19100052
6	0x3d912de8	0.07088834
7	0x3c75dbd8	0.015006028
8	0x3e0e7ca6	0.13914737
9	0x3e7916da	0.24325123
10	0x3d74fcf4	0.059811547
11	0x3e2aefda	0.16693059
12	0x3dc99a0d	0.09843836
13	0xbb62d0f1	-0.0034609402
14	0xbe81fd4b	-0.2538856
15	0xbe216031	-0.1575935
16	0xbe40e0ea	-0.18835798
17	0xbe056118	-0.1302532
18	0xbec5b6fe	-0.38616174
19	0xbec949e8	-0.39314198
20	0xbe07b6c9	-0.13253321
21	0xbe583e76	-0.21117577
22	0xbe8b3edd	-0.27196398
23	0xbcb3aece	-0.02193394
24	0x3e39ec4c	0.18156546
25	0xbe41ce55	-0.18926366
26	0xbdcf486e	-0.10121237
27	0x3a99dbb1	0.0011738447
28	0x3d99394e	0.07481633
29	0xbeac884b	-0.33697733
30	0xbed9de4d	-0.42552415
31	0xbe89d88e	-0.2692303
32	0x3c91d824	0.01780326
33	0x3e2b872b	0.16750781
34	0xbc893914	-0.01675085
35	0xbe5eec53	-0.21769838
36	0xbe5264ef	-0.20546316
37	0xbdc0f3bb	-0.09421488
38	0x3e686b8a	0.22697273
39	0x3cc591b6	0.024117332
40	0xbdce420e	-0.10071193
41	0x3dd27460	0.10276103
42	0xbe7332c8	-0.2374984
43	0x3c0306bf	0.007997214
44	0xbe4b8bc7	-0.1987754
45	0xbe145b41	-0.14487936
46	0x3e70cbd2	0.23515251
47	0xbe4248f6	-0.18973145
48	0xbf05b8bf	-0.52235025
49	0x3e40dac7	0.18833457
50	0xbe250619	-0.16115607
51	0xbe637395	-0.2221206
52	0xbe80e003	-0.25170907
53	0xbd4caa82	-0.049967296
54	0xbd5d6b84	-0.054057613
55	0x3daf2c17	0.08553331
56	0x3e90cfc9	0.28283527
57	0xbe187d52	-0.14891556
58	0xbe264bac	-0.16239804
59	0x3e08b046	0.13348493
60	0xbd09a68e	-0.033606105
61	0xbe377779	-0.17916669
62	0x3dcd38e7	0.10020619
63	0x3d3ba4fc	0.04581164
