SimMTM-main/SimMTM-main/SimMTM_Forecasting/outputs/pretrain_checkpoints/ETTh1/ckpt10.pth (torch, 339582 bytes, 21 tensors)

enc_embedding.value_embedding.tokenConv.weight f4 [16, 1, 3]
000000 bc 2a 47 3e 07 14 c9 bf 6e 22 7e bf 89 3f 08 c0
       0.19449896 -1.5709237 -0.99271286 -2.1288779
000010 2a 65 30 3f d1 3e 72 bf 4a fb b2 3f 10 7e 71 bf
       0.68904364 -0.946271 1.3982937 -0.9433298
000020 f5 e0 a4 3f cc 91 7c 3f 68 b6 01 40 b4 73 bc 3f
       1.2881151 0.9865997 2.0267582 1.472281
000030 e2 11 c8 bf bb 80 02 c0 55 67 be 3e 64 a6 51 3f
       -1.5630457 -2.039107 0.3718821 0.81894517
000040 e7 cc b3 3f 1b b7 df bf 37 af 8a 3d 6f 6a d4 3f
       1.4046906 -1.7477754 0.06771701 1.6594981
000050 06 68 b0 3f 48 80 87 bf d6 49 ae 3f 18 78 c1 3f
       1.3781745 -1.0586023 1.3616283 1.5114775
000060 f5 d3 09 40 99 af ea 3f d0 0d f9 be 34 87 82 be
       2.1535618 1.8334838 -0.4864335 -0.25493777
000070 be 85 1b c0 62 38 ce bd 32 59 3f 3f 4a 9c 12 c0
       -2.430038 -0.10069348 0.74745476 -2.2907891
000080 22 58 ef 3f 92 ff 34 3f aa 3f f1 bf d1 98 b3 3c
       1.8698771 0.7070247 -1.8847554 0.021923454
000090 d8 b0 52 bf 62 c6 80 bf d2 a7 ca bf c7 ac 73 be
       -0.8230109 -1.0060542 -1.5832465 -0.23796378
0000a0 65 8e c7 3f 1b 24 0d bf f6 e1 23 3c 57 8b b7 bf
       1.559033 -0.5513322 0.010002604 -1.4339398
0000b0 5b 27 66 3c fc 39 8d 3f 5c c0 a5 bf 18 07 83 bf
       0.014047469 1.103332 -1.2949328 -1.023654

enc_embedding.position_embedding.pe f4 [1, 5000, 16]
000000 00 00 00 00 00 00 80 3f 00 00 00 00 00 00 80 3f
       0.0 1.0 0.0 1.0
000010 00 00 00 00 00 00 80 3f 00 00 00 00 00 00 80 3f
       0.0 1.0 0.0 1.0
000020 00 00 00 00 00 00 80 3f 00 00 00 00 00 00 80 3f
       0.0 1.0 0.0 1.0
000030 00 00 00 00 00 00 80 3f 00 00 00 00 00 00 80 3f
       0.0 1.0 0.0 1.0
000040 a4 6a 57 3f 41 51 0a 3f 3e 39 9f 3e 6b 4e 73 3f
       0.84147096 0.54030234 0.3109836 0.9504153
000050 76 75 cc 3d 98 b8 7e 3f 5b 81 01 3d 3c df 7f 3f
       0.099833414 0.9950042 0.031617504 0.99950004
000060 57 d6 23 3c b9 fc 7f 3f 1c 3e 4f 3b ac ff 7f 3f
       0.009999833 0.99995 0.0031622713 0.999995
000070 6d 12 83 3a f8 ff 7f 3f 61 cb a5 39 ff ff 7f 3f
       0.0009999998 0.9999995 0.00031622782 0.99999994
000080 b7 c7 68 3f 33 11 d5 be 1b 54 17 3f ec 7b 4e 3f
       0.9092974 -0.41614684 0.5911271 0.8065784
000090 f8 6f 4b 3e a5 e5 7a 3f c8 70 81 3d f9 7c 7f 3f
       0.19866931 0.9800666 0.063203394 0.9980007
0000a0 3e d4 a3 3c e5 f2 7f 3f d8 3d cf 3b b1 fe 7f 3f
       0.019998666 0.9998 0.006324511 0.99998003
0000b0 68 12 03 3b df ff 7f 3f 60 cb 25 3a fd ff 7f 3f
       0.0019999985 0.99999803 0.0006324556 0.9999998
0000c0 c3 81 10 3e 26 70 7d bf c2 09 50 3f 58 2f 15 3f
       0.14112 -0.9899925 0.8126489 0.58275366
0000d0 6c 4e 97 3e ef 90 74 3f c0 ff c1 3d 4f d9 7e 3f
       0.2955202 0.9553365 0.094726086 0.99550337
0000e0 1f b9 f5 3c 83 e2 7f 3f 0d 6e 1b 3c 0d fd 7f 3f
       0.0299955 0.99955004 0.009486687 0.999955
0000f0 92 9b 44 3b b5 ff 7f 3f 10 b1 78 3a f9 ff 7f 3f
       0.0029999954 0.9999955 0.00094868336 0.9999996
000100 cf bd 41 bf 30 55 27 bf de 1d 74 3f b1 2e 9a 3e
       -0.7568025 -0.6536436 0.95358074 0.30113748
000110 d7 61 c7 3e a7 ca 6b 3f 88 2e 01 3e 69 f4 7d 3f
       0.38941833 0.921061 0.12615407 0.99201065
000120 db cb 23 3d 94 cb 7f 3f c9 3c 4f 3c c2 fa 7f 3f
       0.039989334 0.9992001 0.01264877 0.99992
000130 57 12 83 3b 7a ff 7f 3f 5e cb a5 3a f3 ff 7f 3f
       0.003999989 0.999992 0.0012649109 0.9999992
000140 10 7c 75 bf 2c 3c 91 3e 7f fc 7f 3f e9 72 29 bc
       -0.9589243 0.2836622 0.99994653 -0.010342338
000150 43 77 f5 3e 40 a9 60 3f 1d 3c 21 3e 81 ce 7c 3f
       0.47942552 0.87758255 0.15745588 0.987526
000160 f4 b6 4c 3d 19 ae 7f 3f 7e 85 81 3c cf f7 7f 3f
       0.049979165 0.99875027 0.015810724 0.999875
000170 dd d6 a3 3b 2e ff 7f 3f 33 3e cf 3a eb ff 7f 3f
       0.004999979 0.9999875 0.0015811383 0.99999875
000180 8c 0f 8f be b8 cd 75 3f 4e 78 72 3f 6d 3f a4 be
       -0.2794155 0.96017027 0.9471482 -0.3207964
000190 68 8c 10 3f 32 49 53 3f 6e 20 41 3e e3 67 7b 3f
       0.5646424 0.8253356 0.18860027 0.98205394
0001a0 d1 9c 75 3d 12 8a 7f 3f 43 6c 9b 3c 34 f4 7f 3f
       0.059964005 0.99820054 0.018972522 0.99982
0001b0 58 9b c4 3b d2 fe 7f 3f 08 b1 f8 3a e2 ff 7f 3f
       0.0059999637 0.999982 0.0018973658 0.9999982
0001c0 46 30 28 3f bd ff 40 3f 6e e8 4c 3f bc 74 19 bf
       0.6569866 0.75390226 0.8004216 -0.5994375
0001d0 72 eb 24 3f b3 cc 43 3f 50 d3 60 3e ea c0 79 3f
       0.6442176 0.7648422 0.2195561 0.9755999
0001e0 32 3e 8f 3d 81 5f 7f 3f a2 52 b5 3c f2 ef 7f 3f
       0.06994285 0.997551 0.022134129 0.999755
0001f0 c5 5f e5 3b 65 fe 7f 3f ed 11 11 3b d7 ff 7f 3f
       0.006999942 0.9999755 0.0022135929 0.99999756
000200 95 46 7d 3f f6 fd 14 be 7e 06 13 3f e5 91 51 bf
       0.98935825 -0.14550003 0.5743178 -0.8186324
000210 a5 a4 37 3f 5f 5b 32 3f 51 26 80 3e 02 da 77 3f
       0.717356 0.6967067 0.25029233 0.9681703
000220 50 aa a3 3d 65 2e 7f 3f 8a 38 cf 3c 08 eb 7f 3f
       0.07991469 0.9968017 0.025295515 0.99968004
000230 12 12 03 3c e7 fd 7f 3f 55 cb 25 3b ca ff 7f 3f
       0.007999914 0.999968 0.0025298197 0.9999968
000240 32 01 d3 3e d5 3f 69 bf ee 1f 95 3e a2 e6 74 bf
       0.4121185 -0.91113025 0.29125923 -0.9566442
000250 1c 88 48 3f d5 21 1f 3f 2d c2 8f 3e a9 b3 75 3f
       0.78332686 0.62161 0.28077832 0.95977265
000260 3e 12 b8 3d c2 f6 7e 3f ea 1d e9 3c 76 e5 7f 3f
       0.089878544 0.9959527 0.028456647 0.99959505
000270 3a 74 13 3c 59 fd 7f 3f bc 84 3a 3b bc ff 7f 3f
       0.008999879 0.9999595 0.0028460464 0.99999595
000280 f8 44 0b bf 64 cd 56 bf 97 70 a9 bc fb f1 7f bf
       -0.5440211 -0.8390715 -0.02068357 -0.9997861
000290 a4 6a 57 3f 41 51 0a 3f 3d 39 9f 3e 6b 4e 73 3f
       0.84147096 0.54030234 0.31098357 0.9504153
0002a0 76 75 cc 3d 98 b8 7e 3f 59 81 01 3d 3c df 7f 3f
       0.099833414 0.9950042 0.031617496 0.99950004
0002b0 57 d6 23 3c b9 fc 7f 3f 22 3e 4f 3b ac ff 7f 3f
       0.009999833 0.99995 0.0031622727 0.999995
0002c0 5c ff 7f bf 72 05 91 3b 1f 41 a9 be 8d 9b 71 bf
       -0.9999902 0.004425698 -0.33057496 -0.94377977
0002d0 2a 26 64 3f c3 3d e8 3e 8b 87 ae 3e e4 aa 70 3f
       0.89120734 0.4535962 0.34087786 0.9401076
0002e0 72 d3 e0 3d e8 73 7e 3f 68 73 0e 3d 5b d8 7f 3f
       0.1097783 0.9939561 0.03477803 0.9993951
0002f0 69 38 34 3c 09 fc 7f 3f 87 f7 63 3b 9b ff 7f 3f
       0.010999777 0.9999395 0.003478499 0.999994
000300 d8 5c 09 bf d0 06 58 3f 24 91 1b bf 56 4f 4b bf
       -0.53657293 0.84385395 -0.6076834 -0.7941793
000310 1d 9a 6e 3f f7 86 b9 3e 2c a9 bd 3e c3 c9 6d 3f
       0.9320391 0.36235783 0.3704313 0.9288599
000320 ac 2b f5 3d b5 28 7e 3f 19 65 1b 3d d2 d0 7f 3f
       0.119712204 0.99280864 0.03793821 0.9992801
000330 70 9a 44 3c 48 fb 7f 3f eb b0 78 3b 87 ff 7f 3f
       0.011999711 0.999928 0.0037947248 0.9999928
000340 22 20 d7 3e 6f 4e 68 3f 4c 14 53 bf 9d d9 10 bf
       0.42016703 0.9074468 -0.82452846 -0.5658205
000350 c0 ab 76 3f 9d f5 88 3e 3f 9a cc 3e c3 ab 6a 3f
       0.9635582 0.26749888 0.3996143 0.9166834
000360 d0 be 04 3e 00 d7 7d 3f 65 56 28 3d a1 c8 7f 3f
       0.12963414 0.9915619 0.041098017 0.9991551
000370 6a fc 54 3c 76 fa 7f 3f 26 b5 86 3b 72 ff 7f 3f
       0.012999633 0.9999155 0.00411095 0.99999154
000380 72 98 7d 3f d7 04 0c 3e b3 a8 75 bf 0a 0d 90 be
       0.9906074 0.13673721 -0.9596054 -0.28134948
000390 6f 46 7c 3f e7 0b 2e 3e f4 56 db 3e b1 51 67 3f
       0.98544973 0.16996728 0.42839777 0.90359026
0003a0 64 e4 0e 3e cc 7e 7d 3f 43 47 35 3d c9 bf 7f 3f
       0.13954312 0.990216 0.044257414 0.99902016
0003b0 55 5e 65 3c 94 f9 7f 3f d6 11 91 3b 5c ff 7f 3f
       0.013999541 0.999902 0.004427175 0.9999902
0003c0 44 79 26 3f e8 7a 42 bf 75 e0 7f bf 96 22 fe 3c
       0.65028787 -0.7596879 -0.9995187 0.031022351
0003d0 d5 5b 7f 3f ba de 90 3d 83 db e9 3e 68 bc 63 3f
       0.997495 0.07073732 0.45675287 0.8895936
0003e0 4f 06 19 3e 1a 20 7d 3f aa 37 42 3d 49 b6 7f 3f
       0.14943813 0.9887711 0.047416367 0.9988752
0003f0 32 c0 75 3c a1 f8 7f 3f 85 6e 9b 3b 43 ff 7f 3f
       0.014999436 0.9998875 0.0047433996 0.99998873

enc_embedding.temporal_embedding.embed.weight f4 [16, 4]
000000 80 3c a1 3d 88 f3 ce 3e c8 5e 9e 3d 20 9a 12 3e
       0.078728676 0.40420175 0.07732922 0.14316607
000010 c8 d4 e9 bd d0 d5 fe 3d c4 03 8b be 9a 5f d5 3e
       -0.11417538 0.12443125 -0.2715131 0.416745
000020 20 4f de 3d 6e 48 cc be 46 24 b5 3e da cc df 3e
       0.10854936 -0.3989901 0.35379237 0.43710977
000030 48 c6 2d be 80 a3 b7 3e 50 1c 79 bd 52 e4 cb be
       -0.1697017 0.35866928 -0.060818017 -0.39822632
000040 a4 e2 e8 3e 60 84 1d 3e b0 b2 b3 3d f0 66 46 3e
       0.45485413 0.15382528 0.08774316 0.19375205
000050 60 ac 94 3c dc 8b 18 be 50 c4 44 bd 98 32 c3 3e
       0.018148601 -0.14897102 -0.04803878 0.38124537
000060 d0 1b 40 3e 80 84 af bd e8 5a 11 3e 7e ee f7 be
       0.1876061 -0.08570194 0.14194834 -0.48424143
000070 40 de 4a be 14 a2 02 3e 04 98 6f 3e a8 ad f1 3e
       -0.19811344 0.1275714 0.23397833 0.47202802
000080 5e 8c 9a be 84 42 fc 3e 84 a0 b7 be 64 35 fc be
       -0.30185217 0.49269497 -0.3586465 -0.49259484
000090 00 be c9 ba c0 69 95 3c a8 9c c9 3d ec 30 ed 3e
       -0.0015391707 0.018238902 0.09844333 0.46326387
0000a0 0c 04 67 3e 7a ab e2 3e f4 eb 8f 3e 98 ec aa be
       0.22560138 0.4427145 0.28109705 -0.33383632
0000b0 88 7d 94 3e a8 dc c8 bd 26 d6 cc 3e 28 51 a8 be
       0.29002023 -0.09807712 0.40007132 -0.32874417
0000c0 24 f6 d7 3e 08 90 7c be a0 ac 91 bd 0c f5 fc be
       0.42179978 -0.24664319 -0.07113004 -0.49405706
0000d0 44 14 d4 be 10 2c 9b be 4a 6f a7 be 48 ec fe bd
       -0.4142171 -0.30307055 -0.32702094 -0.12447411
0000e0 b6 86 9a 3e e0 a9 2c be bc 26 56 be c4 b9 d6 be
       0.301809 -0.16861677 -0.20913213 -0.41938603
0000f0 68 ec bb bd 04 16 ff 3e f2 d5 9c 3e 00 94 65 3b
       -0.0917595 0.49821484 0.30631977 0.0035030842

encoder.attn_layers.0.attention.query_projection.weight f4 [16, 16]
000000 2e 8e d1 3c 1a 78 62 3c ee 92 fc 3c 34 da 32 bc
       0.025580492 0.01382258 0.03083178 -0.0109162815
000010 f0 4d 53 bd 8c 82 21 3c 4f e8 f8 3c ad cd 68 3d
       -0.051588 0.009857785 0.03038421 0.056836773
000020 dc 9e 83 3c 4a 79 bf 3c ce bd 5b 3b d8 b8 b6 3c
       0.016066961 0.023373265 0.003352988 0.022304937
000030 54 ae ce 3c 88 97 06 3d fc 3d eb 3e 40 75 18 3c
       0.02522961 0.032859355 0.45945728 0.009305298
000040 ca b5 f8 3c bd ed c4 bd 85 97 31 3e 10 16 ad 3d
       0.030360121 -0.096156575 0.17342956 0.08451474
000050 22 2f 8f bd a7 45 87 bd c3 bd ac 3c d8 bf 23 3d
       -0.06991412 -0.06605082 0.02108658 0.03997788
000060 e2 d2 76 3d 49 f0 e3 3d cc 86 30 3f 36 71 3c 3e
       0.060259707 0.11129815 0.68955684 0.18402562
000070 63 f8 0a be 12 78 c9 bd 38 ab e0 3e d3 25 6b 3d
       -0.13571315 -0.09837355 0.4388063 0.05740912
000080 50 88 8a 3c 89 08 99 3d a6 ab 6f 3d 58 b6 ea 3c
       0.016910702 0.07472331 0.058513306 0.028651401
000090 29 44 75 bc 89 dd 81 bc ae 16 a4 3d 7c 14 a8 3c
       -0.014969864 -0.015852707 0.08012138 0.02051758
0000a0 4d 55 98 bc f4 da 99 3d 42 dc 13 3d fe b7 0c 3e
       -0.018595362 0.07512465 0.036098726 0.13742062
0000b0 01 75 31 bd 4f ff ae 3d ec 5a 75 be d7 75 a4 3d
       -0.043324474 0.0854479 -0.23960465 0.08030289
0000c0 0c 1c b1 bc 61 ca ae bd c8 4a 9c 3c 42 1f 2d 3d
       -0.02161982 -0.085346945 0.019078627 0.042266138
0000d0 f0 dd bf 3c 38 c0 8e bc ab 22 cd 3d 3d 59 88 3d
       0.023421258 -0.017425641 0.10016378 0.06657646
0000e0 60 e7 51 3c ee 88 e8 bc 0c b2 b5 3e c0 cf 2e 3d
       0.012811512 -0.028385606 0.354874 0.042678595
0000f0 39 15 6b bf b2 63 d0 3d 1a 79 08 bf 5b c3 f3 bd
       -0.9182926 0.10175265 -0.53309786 -0.119024955
000100 93 f7 a3 bd eb fd e2 bd 5f 6e 6b 3d 3e 6a 05 3e
       -0.080062054 -0.11083587 0.057478305 0.1302881
000110 cf 51 f5 bd ae e4 28 bc 75 46 0b 3e a5 36 a3 3b
       -0.119784944 -0.010308428 0.13601096 0.0049808794
000120 19 1a 12 3e b2 05 1b be c5 a0 c6 3d 7e e8 90 bd
       0.14267768 -0.15138891 0.09698633 -0.07075594
000130 c3 d5 a9 be ae 09 b5 bd f7 e1 b0 bf 55 a4 8b 3c
       -0.331709 -0.08839737 -1.3818959 0.017046133
000140 e9 96 12 3c 67 aa 4a 3c d1 ef a3 38 e7 40 bc 3b
       0.008947113 0.012369729 7.817115e-05 0.0057450416
000150 a8 78 45 3c e4 9c df 3a 4d dc 68 bc c3 f0 dc 3b
       0.0120526925 0.0017060307 -0.01421268 0.006742568
000160 4f 7d 73 bb e1 a5 ad 3d 49 9a d2 3b ed 98 22 3d
       -0.0037153547 0.084789045 0.0064270836 0.039696623
000170 19 49 52 3c fb ed cc bc 70 ce fe 3f 17 ea a5 3b
       0.012834811 -0.025015822 1.990675 0.005063306
000180 dd 34 8b 3d 80 a2 ae 3c 68 85 f7 3c c7 07 97 3b
       0.06797192 0.02131772 0.03021498 0.0046090814
000190 03 e2 95 bb 59 77 8b 3a 01 a3 13 bd 2f 6f 82 3d
       -0.004574062 0.0010640427 -0.036044125 0.06368863
0001a0 02 d5 48 3d 31 d9 b3 3c eb 6c 78 bb 9e ec 4c bc
       0.049031265 0.02195415 -0.0037906717 -0.012507586
0001b0 d8 7f ac ba c7 e9 dc 3d e5 90 67 be 79 af c3 bd
       -0.0013160659 0.10786777 -0.22613867 -0.09554953
0001c0 77 75 ee bd ee 88 f1 3d 1f 19 93 3c 31 ff 8c bc
       -0.116434984 0.117936954 0.017956315 -0.017211528
0001d0 a3 5e 68 be dd be e7 3d 0c 88 f1 bc eb b0 e0 39
       -0.22692351 0.11315701 -0.029483818 0.00042856424
0001e0 58 3e 6d 3d 63 9d 3e bd 97 76 6a 3e a0 23 b1 3c
       0.057920784 -0.046536814 0.22896801 0.021623433
0001f0 47 3f fb 3d 0b 83 2b 3c b4 3e 74 3c c2 a0 56 3d
       0.122679286 0.010468255 0.014907528 0.052399404
000200 9b a3 89 3c 22 d5 d5 3c ae e7 a8 3d 55 7b f5 3c
       0.016801646 0.026102606 0.082473144 0.029966036
000210 3d dd 1c bd 94 1e e8 3d 72 3e 7a 3d 41 fd 0c 3d
       -0.038296927 0.11333957 0.06109471 0.03442121
000220 ea 6b d4 3d 44 21 2b be 21 ae 84 3d ca 7f 4d 3e
       0.103721455 -0.16711909 0.06478525 0.20068279
000230 4d 11 8f 3c e7 cf ec ba ed fb 0b 3e 1b 2b 95 3c
       0.017464304 -0.0018067331 0.13670321 0.01820903
000240 87 46 6b bd 2c c6 64 bd f3 c8 cc bd 55 82 eb bd
       -0.057440307 -0.055853054 -0.099992655 -0.11499468
000250 7d 6b 31 bd 62 f7 0a 3e 03 89 83 3d ca 54 6d bd
       -0.0433154 0.13570932 0.06422617 -0.05794219
000260 6f 8b ea bd 0a 8b aa bd 10 ef 35 3e 72 be 8f 3e
       -0.11452376 -0.08327301 0.17766976 0.28074986
000270 78 91 51 3d 53 bd 80 3e fc e8 a1 be 50 66 af 3c
       0.05116412 0.25144443 -0.31623065 0.021411091
000280 0e d8 38 3d 7f 1e 0f bd b4 31 18 bd ef 4d a4 bc
       0.04512792 -0.034941193 -0.037156776 -0.020056693
000290 46 8e bc 3b 91 ea bb 3b 1d f3 f2 3c a2 08 a9 bc
       0.005754265 0.0057347496 0.029656941 -0.020634
0002a0 47 1f 8b bd 1b 81 fd 3b ad ab a9 bd a8 2d 4f 3d
       -0.06793075 0.007736338 -0.08284698 0.05058065
0002b0 cf 36 20 3e 40 fd e5 bc 19 66 f0 bc 19 43 b2 bb
       0.15645908 -0.02807486 -0.029345559 -0.0054401276
0002c0 d4 b2 31 3a 05 40 4c 3d 4f ce 43 bd c8 f9 64 3d
       0.00067786616 0.04986574 -0.047804173 0.055902272
0002d0 ae 79 c4 3b e2 42 b6 3d 69 10 7c 3d 10 10 cd bc
       0.0059959507 0.08899476 0.061539087 -0.025032073
0002e0 82 b2 2b bb 99 f4 00 bd 90 f7 17 3c a3 36 2b 3c
       -0.0026198928 -0.031483267 0.009275332 0.010450038
0002f0 6a 0a a2 bd 75 fd e1 3d 3e c8 d0 bd 29 ac 59 ba
       -0.079121426 0.11034671 -0.10194443 -0.0008303547
000300 b5 38 40 bc b5 50 fc 3b f6 06 b1 3b f3 d1 8c 3b
       -0.01173227 0.0077000507 0.005402441 0.004297489
000310 13 f9 5d 3c 4a 57 26 3c 5e 69 15 bb ff 93 93 ba
       0.013548153 0.010152647 -0.00227984 -0.0011259316
000320 45 00 be 3b a2 ae aa bb e6 c2 bf 3b 37 18 ba 3c
       0.005798372 -0.005208806 0.005852091 0.022716625
000330 b6 49 a7 bc d7 ab 2d 3c 56 1c 02 bc c9 99 95 3c
       -0.02042089 0.010600052 -0.007941326 0.018261807
000340 82 e4 47 3d 64 13 96 3b 27 a8 13 3c 36 1c 1e bd
       0.048801906 0.0045799483 0.009012259 -0.038601123
000350 bb 3d 2e 3b ac d2 c4 bb 9a 59 26 3c e6 e6 9c 3c
       0.0026587087 -0.0060065594 0.010153199 0.01915307
000360 78 06 5e 3d f8 ed 8e 3c 95 a1 07 3d e7 5c 04 bd
       0.054205388 0.017447457 0.03311308 -0.03231516
000370 64 3f 0e be 46 99 54 bc a5 85 e2 bd eb d2 15 bd
       -0.13891369 -0.012975996 -0.11060647 -0.0365781
000380 93 fc 1c 3d 35 75 93 3d 76 0c b3 3c 05 69 e7 3b
       0.03832681 0.0720009 0.021856528 0.00706208
000390 cd b9 cf bc 5b a1 07 3d c7 75 e2 3c c9 51 79 bc
       -0.025357151 0.033112865 0.027644051 -0.015217253
0003a0 0b 22 9d 3d 93 49 54 3d 89 ae b1 3d 90 b2 23 3e
       0.07672509 0.05182798 0.08675868 0.15986085
0003b0 de 6b 33 3d 92 2e df 3d 3e 13 56 3f 05 2b a3 bd
       0.043804042 0.108975545 0.8362311 -0.0796719
0003c0 f0 66 d5 39 7e 09 64 bd c5 67 23 3d 4a 28 e5 3c
       0.0004070322 -0.055673115 0.039893884 0.027973313
0003d0 0c 33 2c bc ff 62 d7 3b c9 b4 89 3c e1 b5 47 3d
       -0.010510217 0.0065730806 0.016809838 0.048757438
0003e0 7d f0 bb 3a 2c 78 27 bd d8 fc 8d bd f3 99 e4 bd
       0.0014338639 -0.04088609 -0.06932992 -0.11162176
0003f0 7b 4e 40 bc 57 b1 9f 3d f9 21 90 be 75 9e f7 bc
       -0.011737461 0.07797497 -0.2815092 -0.030226925

encoder.attn_layers.0.attention.query_projection.bias f4 [16]
000000 19 5e 04 3f 56 2e fe 3e b8 79 2c 3e 9f 0f 33 bc
       0.5170608 0.49644727 0.16843307 -0.010929017
000010 51 c3 2b 3e 6e 93 c3 bd d2 2f 0c 3f 8c f8 8f bd
       0.16773726 -0.09549604 0.5476047 -0.070298284
000020 9d c3 b9 be 57 50 18 bf cd 68 d8 bc 32 9c a8 be
       -0.36282054 -0.5949759 -0.02641716 -0.32931668
000030 aa 9f fc be 6c b3 1c 3e 6e eb 60 3e 31 22 0f 3f
       -0.49340564 0.15302819 0.2196481 0.55911547

encoder.attn_layers.0.attention.key_projection.weight f4 [16, 16]
000000 15 72 a0 3d e2 74 83 bc 7a 17 b1 39 0f 54 1a 3c
       0.078342594 -0.016046945 0.00033777562 0.009419455
000010 e2 d5 1e 3c b3 bd 00 be e7 22 1f 3c 2b 38 3e 3d
       0.009694548 -0.12572365 0.009712911 0.046440285
000020 1b 34 97 bd 0f 44 bc bc 66 21 af ba 73 d0 f0 3d
       -0.07382985 -0.022981672 -0.0013361394 0.117585085
000030 04 01 fb 3d d2 08 da bd 94 5f dd 3d 34 6e ed 3d
       0.12256053 -0.106462136 0.10809246 0.11593285
000040 3a 0e fd 3c 4c 00 86 3d ab 81 24 be 9c d2 cf bd
       0.030890573 0.065430254 -0.1606509 -0.101475924
000050 45 19 f0 bc b8 29 01 3f dc 83 e4 bc 47 4f 97 be
       -0.029308924 0.5045428 -0.027894907 -0.2955267
000060 14 50 e4 3d 7c 52 c6 bc 46 8e 03 bf e2 4f c1 3e
       0.11148086 -0.024209253 -0.5138897 0.37756258
000070 55 69 60 3f 63 38 c3 3e e6 d6 a9 bd 5f 59 3f 3f
       0.87660724 0.38128957 -0.08292942 0.74745744
000080 30 29 b1 bc c1 d8 91 bc 76 55 d0 bc 0a 9f 8c bd
       -0.021626085 -0.017803552 -0.025431376 -0.06866272
000090 10 4d b5 bd fe 27 38 3e c8 1e 8a bc 13 12 36 be
       -0.08852589 0.17984006 -0.01686038 -0.17780332
0000a0 05 d5 2f bd 3b 07 0e be 8d 81 da bd 1d 61 9c 3d
       -0.04292776 -0.13869946 -0.10669241 0.076357104
0000b0 80 65 76 3e f2 5a 1d 3e 02 ab 06 be e6 36 0f 3e
       0.24062157 0.15366724 -0.13151172 0.13985786
0000c0 62 74 eb 3d 7b ec 9c bb 5c 53 93 bb 96 f2 18 be
       0.11496808 -0.004788933 -0.004496021 -0.14936289
0000d0 a5 92 01 3e 20 e0 43 be 5d b4 4d be 75 bb 9b be
       0.12653597 -0.19128466 -0.20088334 -0.30416456
0000e0 52 73 2b bd 79 87 14 3e ed 43 11 3f 63 82 26 3e
       -0.041858025 0.14504804 0.5674427 0.16260676
0000f0 2d 5f b0 3b 3b 91 86 be 9a 6c 50 3e 97 f1 a4 3e
       0.0053824396 -0.26282677 0.20353928 0.32215568
000100 74 7b 6e 3c 5e eb 83 3d 7a c6 46 3e 44 14 39 bc
       0.014555801 0.06441377 0.1941165 -0.011296336
000110 9f 29 5a 3e d3 fe 19 be db 4b a9 bb f4 b5 09 3d
       0.2130494 -0.15038614 -0.0051665134 0.03362079
000120 80 fa 93 be ea 43 04 3e 95 f2 ac 3d 08 9e 1c 3e
       -0.28902054 0.12916532 0.08444706 0.15294659
000130 74 b8 87 3b 5a de ab bd 1d c4 5b 3e a7 2f 4f be
       0.0041418616 -0.083920196 0.2146153 -0.20233022
000140 05 61 5e be 25 7f 7b be fa c4 fa 3e c2 d9 98 3e
       -0.21716698 -0.2456022 0.48978406 0.29853636
000150 1a 6e 19 bd 20 96 61 bf 28 f2 ad 3e fa 31 5d 3f
       -0.037458517 -0.881197 0.33973813 0.86404383
000160 47 5f 69 bd 4a 3d 52 be 02 67 2b 3f 58 a3 07 be
       -0.05697563 -0.20531192 0.6695405 -0.13245904
000170 19 6b e8 be 10 72 8d be 2b d6 a4 3d c6 bb ca be
       -0.4539421 -0.27626085 0.08048662 -0.39596385
000180 c9 91 bf bd 07 5b 3c 3d cb 4d 48 be 8b 02 21 bc
       -0.09353978 0.045985248 -0.19560926 -0.009827266
000190 c8 4a 1f bd 07 da 52 3d d8 c5 8e ba a0 57 1a 3d
       -0.038889676 0.05147746 -0.0010892702 0.037681222
0001a0 fe cb 9d 3d f7 29 dc ba 64 1e f9 bd b2 39 31 be
       0.07704924 -0.0016797174 -0.12164 -0.17307165
0001b0 bd 26 a1 bd 08 e8 8b bd 53 5a 38 3d 1b e4 db bd
       -0.07868717 -0.06831366 0.045008015 -0.10736867
0001c0 6a f0 a5 3d de 9b c4 bd f7 6b 84 3b b4 df 46 bd
       0.08102496 -0.09600042 0.0040411907 -0.048553184
0001d0 a3 15 f9 3c 9d fd 3c 3d 5d 83 1c bd a6 de ac bd
       0.030405825 0.046140302 -0.038211215 -0.08440904
0001e0 bc e0 0a 3d 23 7e 72 3c ad 59 fc 3d 35 18 1f 3d
       0.03390573 0.014800581 0.12321792 0.038841445
0001f0 aa 93 51 3d 0d 77 2d bc a4 98 87 3d 73 50 0e 3e
       0.051166214 -0.010587466 0.06620911 0.13897876
000200 49 03 26 3d 7a df b1 3d b1 6d 33 3c 10 7a 14 bd
       0.040530477 0.08685203 0.010951445 -0.03624922
000210 1e 79 32 3d 3c c1 8d bc 3b 55 76 bc 3f a6 4b bc
       0.043572538 -0.017304055 -0.015034969 -0.012429773
000220 51 5f a3 3c f9 4c ab 3d 47 2e 8e bd 51 7b d4 3a
       0.019942911 0.08364291 -0.069424205 0.0016211068
000230 54 09 d2 3d 81 b1 be bd 56 f2 be 3d 2d a1 22 bc
       0.102556854 -0.093112 0.09323566 -0.009926123
000240 08 a9 16 3e 2e c4 2c be f8 be 94 3c b4 cc 62 bd
       0.14712918 -0.16871712 0.018157467 -0.055371
000250 ae 69 7a 3d d2 df 2f be 70 23 d6 3d ba 31 b8 3e
       0.06113594 -0.17175224 0.10455978 0.35975438
000260 c2 7a 96 bd 8c 3a 41 3d 10 d1 7f bd e6 1c a1 bd
       -0.07347633 0.047174975 -0.062455237 -0.0786684
000270 73 f2 0b bd 03 c1 1b 3e 2c 1c c0 bd 64 ed 12 3e
       -0.034166764 0.15210347 -0.09380373 0.1434837
000280 a9 a9 15 3e 27 3a 75 bd 19 e3 8d 3c 10 57 5d bd
       0.14615501 -0.05986991 0.017320203 -0.054038107
000290 62 dc 39 ba 6b 43 02 3d c3 c5 d2 bc 7c c4 57 3d
       -0.00070900295 0.031802576 -0.025729066 0.052677616
0002a0 83 a9 d0 bd dd 1f a2 bb 29 60 f0 3c ad a5 3e 3d
       -0.10188582 -0.004947646 0.029342728 0.04654472
0002b0 0f 65 7f bc 00 ee 8b 3d 8b 32 31 3c bb d6 42 bc
       -0.015588059 0.06832504 0.010815273 -0.011892016
0002c0 04 54 ba 3d 15 c4 72 3d 32 c5 32 bc f7 45 58 bd
       0.09098056 0.05926903 -0.010911273 -0.0528011
0002d0 fd d2 cd 3c f1 48 05 3e a0 2d bc bc 58 59 00 be
       0.025125021 0.13016106 -0.022970974 -0.12534082
0002e0 46 36 81 3d ec 75 30 3d fd fa 6d bd 4f c0 c3 bb
       0.0630918 0.04308121 -0.05810069 -0.0059738527
0002f0 d7 50 52 3d a0 b8 45 3d d4 bb 98 bd 02 3e 0c bc
       0.051346626 0.048271775 -0.074577 -0.008559706
000300 88 4e 39 bd c9 ed d1 3b 30 d8 d4 bd d0 2e 06 be
       -0.04524091 0.00640652 -0.10392797 -0.13103795
000310 f7 d8 56 3c c9 20 2f 3d 26 ab 68 bd d9 08 cf 3d
       0.013113252 0.042755876 -0.056803845 0.101091094
000320 14 2e 79 ba 3f 63 28 bc 47 7c a7 bc 97 34 11 3e
       -0.00095054624 -0.010277568 -0.020445002 0.14180218
000330 4a 43 90 3c eb ac a5 bd f4 e6 ee 3d d9 27 0a bd
       0.01761021 -0.08089622 0.116651446 -0.033729408
000340 6e 37 11 3d a8 40 37 3d cf 10 e3 bc b2 39 16 3d
       0.035453252 0.044739395 -0.027717976 0.036676116
000350 80 0d c5 3c bc e7 9d 3d 03 77 a2 bb c3 3c 8b bd
       0.024054289 0.077102154 -0.004958035 -0.06798699
000360 2f 6a a5 bd b7 e5 83 3d d4 2a 16 bd 79 aa 67 bd
       -0.080768935 0.06440299 -0.036661938 -0.05655906
000370 46 f0 0b 3d 04 91 24 be 80 85 ff bd 21 b9 90 bc
       0.03416469 -0.16070944 -0.12476635 -0.017666401
000380 d8 09 0f 3c 52 a4 d3 bc 80 bf 37 3d 60 89 51 bc
       0.008730374 -0.02583519 0.044860363 -0.0127891
000390 ec ab f1 3b 37 12 e7 bb ba 0b 68 3c 8a db 2c bd
       0.007375231 -0.007051732 0.014162952 -0.042201556
0003a0 e5 f1 6f 3e df 6c 7f bc f0 e7 04 3d a9 ff d6 3d
       0.23432119 -0.015589922 0.032447755 0.10497982
0003b0 ca 40 9c bc 28 18 d3 3c ae 6a e3 3c cb 43 0e 3e
       -0.019073863 0.025768355 0.02776083 0.13893048
0003c0 b6 b1 72 3d b4 74 86 3b e2 39 ae 3b 04 8b 54 bc
       0.05925151 0.0041032676 0.0053169588 -0.012972597
0003d0 51 f0 83 3c ad 89 f7 bc 6e 4b 1e bd b4 56 3d bc
       0.016105803 -0.030217016 -0.038646154 -0.011556316
0003e0 fd 44 23 be e3 85 0d 3d a6 d2 bf 3c bb af 45 bb
       -0.15944286 0.034551512 0.023415875 -0.0030164558
0003f0 c6 9c 0c bc 57 3c 04 be 6c 95 3c 3d 61 43 c5 3c
       -0.0085823 -0.12913643 0.046040937 0.02407998

encoder.attn_layers.0.attention.key_projection.bias f4 [16]
000000 9a 35 cd 3c e7 ae ee bd 34 ce 7f 3e a2 fb 1b be
       0.025049973 -0.11654454 0.24981004 -0.15232709
000010 5d 96 98 3d 3d bd 6f 3c 0f 72 fc bd 1b f6 37 be
       0.074505545 0.01463252 -0.123264425 -0.17964976
000020 e0 7b 59 be f7 5c 71 3e 30 f7 bd 3d ec da 5f be
       -0.21238661 0.2357062 0.09275663 -0.21860856
000030 9e 54 73 3e bd f4 0f be 75 9f ed bd 11 07 24 3d
       0.23762748 -0.14058204 -0.1160268 0.0400458

encoder.attn_layers.0.attention.value_projection.weight f4 [16, 16]
000000 45 ce 85 be 83 8e cf 3d a0 2b 04 bf ef d4 51 3e
       -0.26133934 0.10134604 -0.51629066 0.20491384
000010 10 11 26 be 74 29 85 3e c2 88 6f 3d 97 be 40 3e
       -0.16217446 0.2600819 0.05848003 0.18822704
000020 0c f3 36 3e 73 bd 54 be 6c 31 f0 be 6f 04 15 be
       0.17866153 -0.20775394 -0.46912706 -0.14552473
000030 20 a2 14 be c5 93 81 3d be 57 83 be 07 3f d9 3d
       -0.14514971 0.06327013 -0.2565288 0.10607725
000040 b2 db 95 3b fb 3b 1c bd 44 d5 3a bc 7e 20 8a bc
       0.004573309 -0.03814314 -0.011403386 -0.016861197
000050 64 81 c9 bb 59 96 ac 3d 0c 0a 86 bc 47 f1 5c bc
       -0.006149458 0.08427114 -0.016362213 -0.013485259
000060 9e b0 95 3c b4 98 87 3c 00 fa 47 be 31 f8 dd bd
       0.018272694 0.016552307 -0.19528961 -0.108383544
000070 b8 ef 98 3e b3 41 11 be a9 61 f2 bc 16 9e ee 3d
       0.2987039 -0.14185219 -0.029587584 0.11651246
000080 e3 60 9b be 18 26 92 be 34 1e df 3e 40 74 6e 3e
       -0.30347356 -0.28544688 0.4357773 0.23286533
000090 77 3c 32 3d ad fc 8b be 1c b7 74 3e 1c 3a e5 3e
       0.043514695 -0.27341214 0.23897976 0.44770896
0000a0 35 72 53 be be d1 07 be a0 99 5c 3e 7b 22 64 be
       -0.20649035 -0.13263604 0.21542978 -0.22278778
0000b0 59 75 cb be ca f4 71 be 23 37 db 3d 2f 92 c6 3d
       -0.39737967 -0.23628536 0.10703876 0.09695851
0000c0 a5 69 08 3d 13 c2 54 3c b8 52 4d bc ca 50 3a bd
       0.033303875 0.012985724 -0.012531929 -0.045487203
0000d0 2a d4 c5 3c d6 e8 7f bd 8c cb 64 bd b3 91 bb bd
       0.02414902 -0.06247791 -0.05585818 -0.09158649
0000e0 1a 97 92 bb 61 f0 ff 3c 03 98 68 3e b6 82 4f 3d
       -0.004473579 0.031242551 0.22714238 0.050661765
0000f0 8c 21 6c 3c b3 8b 26 bd b4 cc 63 3d 71 0b da 3d
       0.014412295 -0.04066057 0.055615142 0.106467135
000100 36 9d 08 3d b3 6e 55 bd be 62 43 bd d4 da 91 3b
       0.033353053 -0.052107524 -0.04770159 0.004451135
000110 89 ad d9 bd a4 42 7f 3d 3e 3e 16 3c bc 8e 4c bd
       -0.10628802 0.062319413 0.009170113 -0.04994081
000120 56 d5 02 3e ee 65 f8 bc 6a 18 a9 bc a0 c0 ff bd
       0.12776694 -0.030322041 -0.020641524 -0.12487912
000130 73 60 10 bd 44 b0 a2 3d e1 18 e0 bd 05 38 fa 3d
       -0.03524823 0.07943776 -0.10942245 0.12217716
000140 ac 90 10 be 9b 2f 17 be dd 1d 6d 3e bf 91 0d 3e
       -0.14117688 -0.14764254 0.23155923 0.13825129
000150 7c 69 fd bb 90 bf 00 bf 9a 72 25 3e 80 b0 07 3f
       -0.007733522 -0.502923 0.16156998 0.5300369
000160 81 31 52 bc d1 81 17 be 38 fe ec 3e 42 50 6a bd
       -0.012829185 -0.14795615 0.46287704 -0.057205446
000170 cc 7c 4c be 95 a2 40 bc d5 32 2d bd 1f 3d 85 bd
       -0.19969481 -0.011757513 -0.042284805 -0.065057985
000180 f2 5e 9d 3c 59 37 03 be 58 e0 8e bd 34 7b d7 bd
       0.019210313 -0.12814082 -0.06976384 -0.10521546
000190 af d4 c8 3d 04 23 24 be 3d 2c 8a bd e8 61 c2 3b
       0.09806191 -0.16028982 -0.06746719 0.0059320815
0001a0 4b c6 52 be 83 22 3b bc 69 e8 7e 3d dc 57 8a 3d
       -0.20583455 -0.011421802 0.062233362 0.06755039
0001b0 fa 96 34 3e 46 e1 4e be 27 a4 c1 3e 3c f7 31 3e
       0.17635718 -0.20203122 0.3782055 0.17379469
0001c0 53 cd c0 bb b3 f6 ac be 54 2e 41 bd f7 3f 26 be
       -0.0058838516 -0.33781967 -0.047163323 -0.16235338
0001d0 ca 23 e2 bd 67 82 09 3e 5d d9 45 bd 0b c7 dc 3c
       -0.110419825 0.13428651 -0.048302997 0.02695038
0001e0 1b fe c3 3d 61 f0 06 be 8a d1 84 3e 72 75 d1 3e
       0.09569951 -0.13177635 0.25941116 0.40909916
0001f0 fc 24 c0 3c b4 2d de 3d 49 25 85 3d fb 6e a1 3e
       0.023455136 0.10848561 0.06501252 0.31529984
000200 a3 dd 6e be dc c2 f3 bd dc ea 05 bd 7a 3a 8c 3c
       -0.23326735 -0.11902401 -0.032694682 0.017117728
000210 59 f9 bb bc 46 6a 5c be 2f b3 62 3e ac ae bf 3c
       -0.022946047 -0.21524915 0.22138666 0.02339872
000220 37 b2 86 3e 00 ec be bd de 38 3f 3e 60 d7 74 3d
       0.26307842 -0.09322357 0.18674037 0.05977571
000230 70 e0 3d be 27 d0 6b bc 70 b4 e2 3d 60 cb 2e bd
       -0.18542647 -0.014392889 0.11069572 -0.042674422
000240 b5 88 0a be 72 ae 9b 3e 61 68 71 bd ed 44 29 3e
       -0.13528712 0.3040653 -0.058937434 0.165302
000250 c8 07 e9 3d 3c f5 15 3e fd 81 93 bd ea 53 1e bf
       0.11378437 0.1464433 -0.07202528 -0.6184679
000260 d5 83 a3 3e dc ad 79 be 24 7b 1e 3d b2 65 f8 3d
       0.31936517 -0.24382728 0.038691655 0.12128772
000270 6c 9f 0c 3e 6b f3 a8 3e 7e 26 d5 3d ae 01 9f 3e
       0.1373269 0.32998213 0.104077324 0.3105597
000280 09 d2 44 3e 7b 7e ed 3e 67 ed 48 be 71 cd b1 be
       0.19220747 0.4638556 -0.19621812 -0.34727052
000290 5f d8 21 3e 4f c1 5c be cc 08 74 be 42 2f c0 be
       0.15805195 -0.21558116 -0.2383148 -0.37536055
0002a0 9b cf 81 be ef 84 40 bc b2 04 5b be 7a 4a f7 bd
       -0.25353703 -0.011750444 -0.2138851 -0.12074752
0002b0 b8 f3 a7 3d 3a 4b 70 be 68 81 a0 3c a7 3f 25 3b
       0.082007825 -0.23466197 0.019592956 0.0025214942
0002c0 16 d3 4f 3e 13 ee 2f 3e 17 37 02 be 0b 1c a1 be
       0.20295367 0.17180662 -0.12716328 -0.31466708
0002d0 e7 83 c8 bd 03 52 a3 3e 37 ee 4a be 3e a4 d2 be
       -0.097907834 0.31898507 -0.19817434 -0.41140932
0002e0 ae 25 a3 be c5 dc cf bd 57 d6 ab be a1 49 88 bd
       -0.31864685 -0.1014953 -0.33561966 -0.066546686
0002f0 51 72 9c 3d e4 02 08 bd ce 0f 51 be e0 6e fd bc
       0.076389916 -0.03320588 -0.20416185 -0.030936658
000300 2d de 43 3f 47 cf 09 3f 66 49 1f be d4 21 dc be
       0.7651089 0.53831905 -0.15555343 -0.4299456
000310 77 d4 94 3e ca 7b 48 be d4 59 11 bf c3 7e 71 bf
       0.29068348 -0.19578472 -0.5677769 -0.9433405
000320 9d 35 c8 be 90 37 9f 3e 42 35 12 3e c9 8a 34 3e
       -0.39103404 0.31097078 0.14278129 0.17631067
000330 81 22 e4 3e d0 97 b7 be 49 13 b8 3e ff db 0e be
       0.44557574 -0.3585801 0.35952213 -0.1395111
000340 4c 13 d8 3e 15 a3 d6 3d 60 7b c6 bc 00 f6 33 bf
       0.42202222 0.10480324 -0.024228752 -0.7029724
000350 65 00 a3 3e c5 3f 24 bf 3f db 9b be bb f3 db be
       0.31836239 -0.64159805 -0.3044071 -0.4295939
000360 19 38 69 be 1a 66 bc 3e ad 33 e1 3d c1 83 9e 3e
       -0.22775306 0.36796647 0.109961845 0.30959895
000370 c2 5d 64 3e 7b 80 23 3e 36 2b 0e 3f 7b 37 b7 3d
       0.22301391 0.1596698 0.55534685 0.08946129
000380 03 d1 24 3d 35 7d 43 be 89 2d ae bc 0e 5d 6f 3d
       0.04023839 -0.19090731 -0.021261947 0.058438353
000390 81 06 55 be 61 a8 93 3e 58 5a ec bc 54 de a6 be
       -0.20803262 0.288394 -0.028851673 -0.32591498
0003a0 eb a3 f5 3e 2a e1 71 be 0c 82 c5 3d 5a 84 02 3e
       0.47976622 -0.2362105 0.09643945 0.127458
0003b0 ea 2f 68 3c 26 8c bc bd a8 68 c0 3c 9b 1b 30 3d
       0.01417158 -0.09206419 0.023487404 0.042995077
0003c0 59 cc ed bd 06 50 9a bc 33 bb 81 3d 65 22 7d 3e
       -0.11611242 -0.018836986 0.063345335 0.24720152
0003d0 cf bd 30 be 8c 8f 3a 3e 1d 8c 21 3e 96 c3 06 be
       -0.17259906 0.18218821 0.15776105 -0.13160548
0003e0 ee 9d 24 3e f5 03 d9 be 10 bb 84 be 7b 06 75 be
       0.1607587 -0.4238583 -0.25923967 -0.23928253
0003f0 13 f2 f2 bd bd c2 62 be 8f d3 ac be 22 b8 9c be
       -0.11862578 -0.221446 -0.33755156 -0.30609232

encoder.attn_layers.0.attention.value_projection.bias f4 [16]
000000 2a 58 9a 3d 0a 01 00 be ec f3 fb 3d 1e 48 46 3d
       0.07536347 -0.12500396 0.12302384 0.04840862
000010 33 4f 93 be 07 c5 64 be c3 96 9d bd 04 cd b9 3e
       -0.28771362 -0.22340785 -0.07694771 0.36289227
000020 98 d5 92 3c 33 6f 8f 3e ea 8c 39 3e 08 79 62 be
       0.017924115 0.28014526 0.1812016 -0.22116482
000030 07 df 8c 3d cc 75 05 3e bb 6c 8e 3e da 78 7f 3d
       0.068784766 0.13033217 0.2781733 0.062371112

encoder.attn_layers.0.attention.out_projection.weight f4 [16, 16]
000000 53 00 99 3e 50 80 91 be eb 89 2e 3e 06 34 30 be
       0.2988306 -0.28418207 0.17044799 -0.17207345
000010 3c af 7d 3c 14 55 bb bd f4 a8 ba 3e d7 67 a9 3e
       0.015483674 -0.09147087 0.36457026 0.33087036
000020 be e6 dc bc 22 b4 9b be 0a 34 9b 3d c6 ea ff bd
       -0.026965495 -0.30410868 0.07578285 -0.12495951
000030 3e ee 06 3f 2a b4 78 be 28 3f 49 3e f9 7f ac 3e
       0.5270728 -0.24287477 0.19652998 0.33691385
000040 53 cb 2e be e0 db 9a bd 29 03 a0 3e 00 37 bc 3e
       -0.1706975 -0.07561469 0.3125241 0.36760712
000050 36 d0 3f be 15 05 16 be 2e 07 2e bd 92 71 cd be
       -0.1873177 -0.14650376 -0.042487316 -0.4012571
000060 c3 37 73 3e 8b 73 4e be f2 e7 ef 3e ef 61 01 bf
       0.2375174 -0.20161264 0.46856648 -0.5054006
000070 49 49 c8 be 29 1e 11 be ce b5 94 be ff 51 39 be
       -0.39118412 -0.14171661 -0.29044956 -0.18097685
000080 e9 10 14 3e 69 ab fc bd 11 32 28 3e 26 db e5 3d
       0.14459576 -0.123373814 0.16425349 0.1122344
000090 51 48 3b be 55 f3 08 bd cf 96 45 3e 87 9f 7f 3e
       -0.18289305 -0.033435185 0.1929581 0.24963199
0000a0 cd 11 3d bd 10 f7 23 bd 0b 31 a4 3d ed 6e 8e 3e
       -0.046159554 -0.04003054 0.08017167 0.27819005
0000b0 55 74 dd bd ce 05 b5 be e2 4f b7 3c 9a 87 76 3e
       -0.10813204 -0.3535599 0.022376958 0.24075165
0000c0 64 42 49 3d a5 96 06 be 63 93 96 bd c0 5a 93 3e
       0.04913558 -0.13143404 -0.073523305 0.28780174
0000d0 45 b8 5f be f3 ba 44 bf 69 14 13 3d 03 8a 7c 3e
       -0.21847637 -0.7684776 0.035908137 0.24662022
0000e0 d2 82 31 be 3e ae 5a be f5 da b7 be 32 bc 0a 3e
       -0.1733506 -0.2135553 -0.35909238 0.13548353
0000f0 ab 62 a4 3e 4a 60 4b 3f e3 db d3 be a3 aa 1e be
       0.32106528 0.794438 -0.41378698 -0.1549478
000100 37 ae 43 bf 5d 40 48 3e dd 2f 83 3d f0 ea a3 be
       -0.76437706 0.19555803 0.064056136 -0.3201518
000110 f3 a3 22 ba ed da 9a bc 96 01 fe 3d 3d 9e 11 3e
       -0.000620424 -0.01890322 0.12402646 0.1422052
000120 fc 04 cb 3e 7e 16 84 bd 9b 6e ed bc fa 54 a4 be
       0.3965224 -0.064496025 -0.028983405 -0.32096082
000130 4b 34 4d bf 3c a5 81 3e 48 65 6e 3d 8c 24 b4 3c
       -0.8015792 0.25321376 0.058202058 0.021990083
000140 3d aa 17 bd 13 37 6c 3e 69 39 87 be 00 15 18 be
       -0.037027586 0.23067884 -0.26410988 -0.14851761
000150 8b e5 e8 bd 1e 4b c2 be b6 1f df be 28 99 95 bc
       -0.11371907 -0.37947935 -0.4357888 -0.018261507
000160 2f 81 3d 3d 8a 9d 1c be 6f 94 2a 3d 76 ac 65 be
       0.046265777 -0.15294471 0.041645464 -0.2242907
000170 f3 13 0e bf ad 08 df 3d 5c b7 ea bd 74 6f 5b bd
       -0.5549919 0.10890327 -0.11460754 -0.053573087
000180 4a a7 8c 3e 39 a2 23 3e b1 23 80 3e 85 5f 5e be
       0.2747138 0.15979852 0.2502723 -0.21716125
000190 c4 d6 e9 3d db 58 3f 3e dd 8a bf be 41 d8 da 3d
       0.114179164 0.1868624 -0.37410632 0.106857784
0001a0 4f 27 b6 bd 74 e2 8c 3e 11 75 bf be 09 3c 70 be
       -0.08894216 0.2751652 -0.37394002 -0.23460402
0001b0 9b c4 74 3d 47 e4 7a be ce 0b 93 be d8 7b b9 bd
       0.05975781 -0.24501143 -0.28719944 -0.090568244
0001c0 ef 85 1c 3f 16 be 9d 3c c5 47 10 bc 5d e1 2e be
       0.61141866 0.01925568 -0.008806174 -0.17078157
0001d0 3b e1 01 3d 83 2a 31 be 22 57 1b 3e 39 ee 9b bd
       0.031708937 -0.17301373 0.15169957 -0.07613797
0001e0 be 2b c8 3d 1b 5e 89 3d 2b 35 0c 3d 6b cd cf bc
       0.09773968 0.06707402 0.034230392 -0.025366506
0001f0 bb 15 da bd a7 2e 42 be 39 5a b3 3e 32 04 86 3d
       -0.10648676 -0.18963109 0.35029772 0.06543769
000200 b5 08 26 be ab fe 05 3e 38 4a 1c be 61 aa 93 3d
       -0.16214259 0.1308543 -0.15262687 0.072102316
000210 4e 4c 55 3d da 29 2f bc c9 4f c3 3c 3a 6a 0f 3e
       0.052074723 -0.0106911305 0.023841755 0.14005366
000220 14 1a 12 3c ea ff 98 be 05 91 69 3e 29 9c 70 3e
       0.00891735 -0.29882747 0.22809227 0.2349707
000230 8f 66 47 bd c4 6a d2 be 9f e0 36 be cf ab 1e be
       -0.048681792 -0.4109708 -0.17859124 -0.15495227
000240 5a 50 3a 3e 54 ea a0 be 41 ac fb 3e 9f 02 6f be
       0.18194714 -0.31428778 0.49154857 -0.23340844
000250 0a 40 8c 3e ee 0f e0 3d a4 3a 72 3e 3c f2 f8 bd
       0.27392608 0.10940538 0.23655182 -0.121555775
000260 9d f6 96 be 0c e2 30 be 28 2b ca 3d cd 3d 11 be
       -0.29485026 -0.1727373 0.09871513 -0.14183731
000270 11 17 a4 3e bc 15 a4 3d 79 04 98 3c 9f 9b e7 3e
       0.32048848 0.08011958 0.01855682 0.45235917
000280 86 44 48 be 28 44 8e bd e0 f9 3b be 69 a8 11 3e
       -0.1955739 -0.069465935 -0.18357038 0.142244
000290 dd 14 47 bd 9d 7e 17 bd 94 69 cd 3b 7c 3e 78 be
       -0.04860388 -0.036985982 0.0062686894 -0.24242586
0002a0 7c 4c 18 3e e6 b3 c0 3e 27 7b 28 3e 93 a0 49 be
       0.14872926 0.37637252 0.16453229 -0.1969016
0002b0 05 1c 27 3e 61 a6 65 be 2a 98 95 3c 8e ee 88 3d
       0.16319282 -0.2242675 0.018261034 0.06686126
0002c0 c7 0d a9 bc c0 36 84 3d 96 64 08 3d 00 26 15 3e
       -0.020636452 0.06455755 0.03329905 0.14565277
0002d0 58 da d4 bc 10 24 13 3e 94 ca 41 bd d0 1d e3 3b
       -0.02598302 0.14369226 -0.047312334 0.006931044
0002e0 d5 36 05 be 56 c7 8c 3e 83 97 71 3d fb 85 00 be
       -0.13009198 0.2749583 0.058982383 -0.1255111
0002f0 85 73 f3 bd f3 ec 9b bd cb 85 94 3e 03 25 4c bd
       -0.11887268 -0.07613554 0.29008326 -0.049839985
000300 76 80 ee bd e5 b9 8e 3d df 56 71 bd a8 68 68 bd
       -0.11645596 0.0696905 -0.058920737 -0.056740433
000310 af e6 70 3e 00 12 45 bd b8 e1 62 bd 38 a3 09 be
       0.23525499 -0.04811287 -0.055391043 -0.1344117
000320 1c c0 bd 3d 08 a6 1c bd 6e 88 a8 be f9 da 3c 3e
       0.092651576 -0.038244277 -0.32916588 0.18442906
000330 04 61 1b 3e b0 55 ec 3e c0 64 2a bd 7e 4a b5 3d
       0.15173727 0.46159124 -0.04159999 0.08852099
000340 87 a2 06 bd a6 88 1b be c1 1e b9 3d 38 9c 52 bd
       -0.032869842 -0.15188846 0.09039069 -0.051418513
000350 3e 8f 80 3c 02 23 6d ba d6 31 4b be ef 9d 46 3e
       0.015693303 -0.0009046049 -0.1984323 0.19396184
000360 63 42 41 bd d5 6a 7c 3e 6f bd a4 bd 87 ec 57 3e
       -0.047182452 0.24650128 -0.08043944 0.21086322
000370 da 17 db bd 54 11 bf bd f0 da 19 bd 31 3b 56 3c
       -0.10697909 -0.09329477 -0.03756231 0.013075636
000380 10 1b 6e bd 83 eb 5c 3d 26 7b ae bc 7a f0 df 3c
       -0.058131278 0.05393554 -0.021298956 0.027336348
000390 fe 07 df bc b1 67 c9 3d 81 8d 85 bd fc 9a be bd
       -0.02722549 0.09834231 -0.0652113 -0.09306905
0003a0 b3 08 b4 bc d1 36 41 bd 2f 75 03 bc a9 08 51 3e
       -0.021976804 -0.047171418 -0.008023544 0.2041346
0003b0 e2 53 29 bd 21 13 c7 3c dd d2 de bd de 3a 95 bd
       -0.041339763 0.024301114 -0.10880063 -0.07286619
0003c0 48 c2 10 bd 33 52 0b bc fd ac 97 3d 58 64 e8 bc
       -0.03534153 -0.008503485 0.07406042 -0.02836816
0003d0 06 0a 21 bd 29 45 2c bc c2 96 ef bd 51 b8 69 3c
       -0.0393162 -0.010514536 -0.11698677 0.014265136
0003e0 c5 2e 10 be c6 38 cd bd 22 fd 10 3e 8d 1f 99 3d
       -0.14080341 -0.10020594 0.14159063 0.07476721
0003f0 4e 85 ea bd b6 49 95 3d be bd 5c 3e 6c e8 a0 3d
       -0.11451207 0.0728945 0.21556756 0.07856831

encoder.attn_layers.0.attention.out_projection.bias f4 [16]
000000 81 f6 8f be 21 ce 9e bd 4a 87 57 be 42 08 94 3e
       -0.28117755 -0.0775416 -0.21047702 0.2891255
000010 bd 57 2e 3e a5 66 b5 3e 16 28 b9 3d 60 3f 66 bd
       0.17025657 0.35429874 0.09040849 -0.056212783
000020 b8 14 a9 be be 5d a1 be 01 bf cf 3d 9f 36 a2 3d
       -0.3302362 -0.31516832 0.10143853 0.079205744
000030 2d bc 77 3e 5e 43 45 3c c5 c3 8c be b6 81 66 3d
       0.24192877 0.012039987 -0.2749311 0.056276046

encoder.attn_layers.0.conv1.weight f4 [64, 16, 1]
000000 cb 9e f0 bc a2 20 38 be fd 44 84 3e 29 cf 7d 3e
       -0.029372593 -0.17981198 0.25833884 0.24786057
000010 96 91 0d be 8f 48 24 be da 54 2d 3e cb b7 03 3f
       -0.13825068 -0.16043304 0.169269 0.5145232
000020 19 4b f1 bd 06 7c 7e bb fe e7 0b 3f 30 90 4c be
       -0.11781902 -0.0038831248 0.54650867 -0.19976878
000030 8d 3d 1b be ff fa 1c bf 7c 52 47 3f 3d 2f 9f bf
       -0.15160199 -0.6132049 0.77860236 -1.2436291
000040 c7 c7 d3 3c 88 aa 3d be a0 9d 7b be 1a e8 fb 3d
       0.025852097 -0.18522084 -0.24571848 0.12300129
000050 b9 59 c7 3c 52 71 e9 bd 6b ea fd 3d 51 fc 22 be
       0.024334775 -0.11398567 0.12398227 -0.15916564
000060 db dc 85 3b 3c 14 0e 3d 90 70 d4 bd 19 22 69 bd
       0.004085166 0.034687266 -0.10373032 -0.056917284
000070 86 b4 fe 3e a8 71 82 3e 22 5f 1a bf d9 8e e5 bd
       0.49747103 0.25477338 -0.6030141 -0.11208887
000080 ef 62 09 bd f8 01 d4 3d 39 a9 d0 bd 1c 0e 12 3e
       -0.033541616 0.10351938 -0.10188527 0.14263195
000090 f0 06 e5 bd 06 d3 62 3e 62 af c4 bd ab 29 03 3f
       -0.11182964 0.22150812 -0.09603764 0.51235455
0000a0 91 a3 5a 3d 4a de 5c be ab 7b 44 bf 40 e7 86 bf
       0.053378645 -0.21569172 -0.767512 -1.0539322
0000b0 42 85 fa 3e 7b 16 0e 3d 5e 8a cb be 2f e6 47 be
       0.48929793 0.034689408 -0.39754003 -0.19521402
0000c0 65 bf 41 3e 9f f8 2f 3f 5f 1e 6a 3e 10 56 3c 3d
       0.18920667 0.6873874 0.22863148 0.045980513
0000d0 bd dd 35 3e e6 ba 9d be a3 96 c9 bd 1b b2 28 3f
       0.17760368 -0.30806655 -0.09843185 0.6589677
0000e0 87 79 44 be 45 7d 89 3e 79 f3 30 3e 9e a9 9d be
       -0.19186984 0.26853386 0.17280377 -0.3079347
0000f0 8c d6 08 3f 16 0e 5c be 81 dd 06 3f 04 cc 7d bf
       0.5345237 -0.21489748 0.5268174 -0.9913943
000100 02 a5 b1 3e 07 fe 91 3e 62 d8 a0 be 48 7f 16 3d
       0.34696203 0.2851412 -0.31415087 0.03674248
000110 1b 67 11 be 04 89 62 3c f5 3f ae 3e 1a b3 8e be
       -0.14199488 0.013826612 0.3403317 -0.2787102
000120 7d 9a 3e be 11 c8 f1 be 0d ff 74 3d 05 a7 4e 3c
       -0.1861362 -0.4722295 0.059813548 0.012613063
000130 90 67 f4 3e b8 16 88 be 3a eb 06 3f 85 d0 93 3e
       0.47735262 -0.26579833 0.5270268 0.28870025
000140 54 cb b4 bc f3 8e 82 be 65 c7 42 bd 77 1b 80 bd
       -0.02206961 -0.25499687 -0.04755344 -0.062552385
000150 0f 10 af 3d 3f 06 99 be e9 77 6e be cc b3 e9 be
       0.08547985 -0.29887578 -0.2328793 -0.45644987
000160 d7 d6 04 bf a0 1f eb 3c 61 d6 3c be f4 80 1d 3e
       -0.5189032 0.028701603 -0.18441154 0.15381223
000170 92 10 10 3f 14 44 6c bd ac 92 5b 3f 5e 5a 36 3d
       0.56275284 -0.05768211 0.8577068 0.044519775
000180 44 f6 a6 3d 86 92 1a 3d c0 c2 88 bd 43 b7 d9 bd
       0.0815244 0.037737392 -0.066777706 -0.106306575
000190 af 52 50 be 1a b9 ff be c9 b9 60 be 48 9d a9 be
       -0.20344041 -0.4994591 -0.21945871 -0.3312781
0001a0 02 48 28 bf 7e 73 bc 3e 59 ce ef bd 63 93 e9 3d
       -0.65734875 0.36806864 -0.117092796 0.11405065
0001b0 6a b7 95 3e 58 8b e4 3e f6 60 7d 3f 11 41 bf 3d
       0.29241496 0.4463756 0.98976076 0.09338582
0001c0 98 bb 0a bd 2b 79 07 be 1e cb c9 3c c0 8a 0a bd
       -0.03387031 -0.13229816 0.024632987 -0.03382373
0001d0 31 44 50 3e 29 7c a8 be 5b 92 87 3d 66 42 73 3e
       0.20338513 -0.32907227 0.06619712 0.23755798
0001e0 4a ce c3 3e 99 36 9f 3e 03 fc 8c be 16 43 40 bd
       0.38243324 0.31096342 -0.2753602 -0.046938978
0001f0 d1 4c a7 be fc 2b b4 3e b2 2f bc 3e 51 1b 1e be
       -0.32675794 0.35189807 0.3675514 -0.15440108
000200 2b ba 16 3e 66 76 58 be 0e f3 82 be 0f c3 3e 3e
       0.14719455 -0.21138915 -0.2557606 0.18629096
000210 1d 1e 15 3e 40 2f a4 3e 83 67 8b be d8 af c9 bd
       0.14562269 0.320673 -0.2722741 -0.09847993
000220 a9 24 90 be 2c e9 59 bd d5 58 2f be 8c 87 4b bd
       -0.2815297 -0.053200886 -0.1712373 -0.049689814
000230 52 d9 62 bc de 10 cd be 54 dc cc be 2c a4 46 be
       -0.0138457585 -0.4005193 -0.40011847 -0.19398564
000240 c9 b5 92 3e ad c2 05 3e 73 a2 1f 3e 2a 6a d7 bc
       0.28654316 0.13062544 0.15589313 -0.02629574
000250 d2 08 38 3b 46 31 7e be 6e 30 83 be ae dd eb 3e
       0.002808143 -0.24823484 -0.25622886 0.46067566
000260 c0 b6 2d bf 68 36 fd 3e 65 d0 61 bf c4 06 23 3c
       -0.6785698 0.4945557 -0.8820861 0.0099503435
000270 88 55 ea 3e db a8 8a 3e bd 97 aa be 28 2f 05 be
       0.4576838 0.27081951 -0.33318892 -0.1300627
000280 29 ed eb 3c 56 a9 c0 be fe 17 5a 3e 4e b2 6e be
       0.02879961 -0.37629193 0.21298215 -0.23310205
000290 94 a9 b0 bd 43 1c 5d be 15 59 92 be 3a c7 82 be
       -0.086260945 -0.21592812 -0.2858359 -0.25542623
0002a0 ce 61 6e 3e 60 09 f9 3c 88 06 a5 be 40 34 ac bd
       0.23279497 0.030399978 -0.32231545 -0.084084034
0002b0 d0 91 b4 3e a2 d5 d0 bd 1a 0c a6 3f 01 6e 1d 3e
       0.35267496 -0.10196997 1.2972443 0.15373994
0002c0 3d ae 0e 3e 87 a8 8f 3e e4 67 df 3e 9c 10 b9 3d
       0.13933654 0.28058264 0.4363395 0.09036371
0002d0 08 3c 7c bf 12 25 92 be 0e b8 38 3e 8b 5b 35 3f
       -0.985291 -0.28543907 0.18038961 0.7084281
0002e0 78 bb dd 3e 1c 4e a1 3c be bb 9b be d2 ff 7f bf
       0.4330709 0.019690566 -0.30416673 -0.99999726
0002f0 df 73 be 3d 27 df 5a bd b8 88 ef 3e 82 a4 57 bf
       0.092994444 -0.05343547 0.46783996 -0.84235394
000300 54 55 82 bd 81 0c 13 3e 26 0a 07 be a7 c2 df bd
       -0.06363931 0.14360239 -0.13187465 -0.10925799
000310 e3 e5 c1 be 08 47 08 3f 31 d9 ca 3d 27 79 c8 3d
       -0.37870702 0.53233385 0.09904707 0.09788733
000320 4b 88 e1 bd 19 28 04 3e b8 31 1f 3e 63 bb 06 3e
       -0.11012324 0.12905921 0.1554631 0.1315742
000330 7d ee f7 be 85 d6 15 3e 9b 51 1a be 1e 5b 8d 3e
       -0.4842414 0.14632614 -0.15070193 0.2760858
000340 58 f0 c1 3e 40 af d8 3e b6 d6 11 3d a2 92 5c bd
       0.3787868 0.42321205 0.035605155 -0.053850777
000350 a9 f0 37 bd 88 31 a7 3d 0c c6 c8 be 2a 9e 39 be
       -0.044907246 0.08163744 -0.39213598 -0.18126741
000360 72 80 a4 3e f7 fa 9d 3e cb d0 65 bf dd ba cc be
       0.32129246 0.30855533 -0.8977172 -0.39986315
000370 2c ec e9 3e c6 23 6f be b8 d9 ab 3e 3d d0 aa bd
       0.45687997 -0.2335349 0.33564544 -0.083404996
000380 54 3b 0d be 67 0c cf 3d f4 84 50 3e da 76 b7 bd
       -0.13792163 0.101097874 0.20363218 -0.08958216
000390 4d bc 80 bc 46 3a bf be 67 8b 05 be ee 95 ea be
       -0.015714789 -0.37349147 -0.13041459 -0.45817512
0003a0 3b 94 ff be a7 e5 72 be 2f d3 84 bb ff 97 3e be
       -0.49917778 -0.23720418 -0.0040534954 -0.1861267
0003b0 f4 a9 c9 3e 05 bf 0e 3e 72 d7 8b 3e 45 b2 b9 3c
       0.39387476 0.13940056 0.2731281 0.022668013
0003c0 63 aa cc 3c ad 46 a0 3d 1f 4c 48 3e 67 d2 c2 3d
       0.02498359 0.0782598 0.19560288 0.09512787
0003d0 bf a4 01 be dc 50 7d 3e f6 83 64 bd ce 5e 49 3d
       -0.12660502 0.24737877 -0.05578991 0.04916268
0003e0 45 46 06 3e d4 fb 5e bd 15 5d 23 bf 95 6b 53 bd
       0.13112743 -0.05443938 -0.63813907 -0.05161627
0003f0 22 8f 6e 3e 45 29 ab 3e 09 d5 60 bf c6 09 6b 3d
       0.23296788 0.33429924 -0.87825066 0.057382368

encoder.attn_layers.0.conv1.bias f4 [64]
000000 7c 6a 97 be 04 6c 35 be 3c 4d 39 bf bb 5e 16 3e
       -0.2957343 -0.17716986 -0.72383475 0.14684574
000010 a5 b7 b7 3c e1 b4 a8 be a1 34 69 bd d0 f4 19 3d
       0.022426436 -0.329505 -0.056934956 0.037586987
000020 ab 94 bd 3d 21 2f 74 3e 7a ba 09 be 91 a4 57 3e
       0.09256872 0.23846103 -0.13450041 0.21058871
000030 7c a0 f4 3c b5 ac f7 bd a8 2f 96 be 50 3e 69 be
       0.029861681 -0.12093488 -0.29333234 -0.22777677
000040 5d 0d 81 be 0b a6 27 be 37 9d 0b bf 9f c4 18 bf
       -0.25205508 -0.16371934 -0.54536766 -0.5967502
000050 b8 c6 2e be df b8 97 be 59 3d da be dd fa 9b bd
       -0.17067993 -0.29633233 -0.4262493 -0.07616208
000060 56 44 33 3e 5a 20 23 be 49 1e 42 be 23 08 ac bb
       0.17506537 -0.1593031 -0.18956865 -0.0052499934
000070 96 29 7a 3d bc 76 c4 be 6f ea e5 be 69 3c f2 be
       0.061074816 -0.38371837 -0.4490542 -0.47311714
000080 66 0e 60 be c1 0f 66 3e 79 f7 8e bb d1 2a 81 be
       -0.21880493 0.22466947 -0.004362997 -0.2522798
000090 a9 31 85 be 21 d0 e3 bd 14 5b 32 3e 1f a8 3c bc
       -0.2601445 -0.11123682 0.17417556 -0.011514693
0000a0 1b 9e 9b be 64 a5 6c 3c bd fc a5 be 07 6c 63 bd
       -0.30394062 0.014443729 -0.32419387 -0.055522945
0000b0 07 89 9e be c7 9a a6 be 3e 08 52 3e ee aa 49 be
       -0.3096392 -0.3253996 0.20510957 -0.19694111
0000c0 05 56 34 bf 4a 91 25 3e 7f b3 56 be 94 58 cd be
       -0.70443755 0.16168705 -0.2096691 -0.40106642
0000d0 2e 61 bd be 12 af 1c be 6d 36 6d be be b9 07 bd
       -0.36988205 -0.15301159 -0.23165293 -0.033136122
0000e0 66 43 85 3e 20 12 f7 bd e0 e1 82 be 3b d3 a6 3d
       0.26027983 -0.12064004 -0.25562954 0.08145758
0000f0 69 4b 3c be f5 5b b4 be 64 e3 9b 3d e5 ee 2c be
       -0.18388142 -0.35226408 0.07611731 -0.16888006
