SimMTM-main/SimMTM-main/SimMTM_Forecasting/outputs/pretrain_checkpoints/ETTh1/ckpt_best.pth (torch, 517153 bytes, 61 tensors)

enc_embedding_s.value_embedding.tokenConv.weight f4 [8, 1, 3]
-0.59058213 0.73538 -1.5364691 -0.72761804 0.5187035 0.7473749 -1.0555627 1.2721905
0.228423 -0.19730157 -0.7490259 0.083128355 -0.58018404 1.3908739 0.16296218 0.58868337
-0.35283494 1.0231726 0.4045792 0.06296656 -0.83013135 0.22586416 -0.884057 -0.75084513
00000000: 6430 17bf dd41 3c3f 05ab c4bf 2d45 3abf
00000010: c1c9 043f f653 3f3f ae1c 87bf 23d7 a23f
00000020: b8e7 693e 6c09 4abe 29c0 3fbf 333f aa3d
00000030: f186 14bf 2808 b23f 8fdf 263e f4b3 163f
00000040: c8a6 b4be 52f7 823f 0125 cf3e 9df4 803d
00000050: 7d83 54bf ef48 673e 8f51 62bf 6337 40bf

enc_embedding_s.position_embedding.pe f4 [1, 5000, 8]
0.0 1.0 0.0 1.0 0.0 1.0 0.0 1.0
0.84147096 0.54030234 0.099833414 0.9950042 0.009999833 0.99995 0.0009999998 0.9999995
0.9092974 -0.41614684 0.19866931 0.9800666 0.019998666 0.9998 0.0019999985 0.99999803
0.14112 -0.9899925 0.2955202 0.9553365 0.0299955 0.99955004 0.0029999954 0.9999955
-0.7568025 -0.6536436 0.38941833 0.921061 0.039989334 0.9992001 0.003999989 0.999992
-0.9589243 0.2836622 0.47942552 0.87758255 0.049979165 0.99875027 0.004999979 0.9999875
-0.2794155 0.96017027 0.5646424 0.8253356 0.059964005 0.99820054 0.0059999637 0.999982
0.6569866 0.75390226 0.6442176 0.7648422 0.06994285 0.997551 0.006999942 0.9999755
0.98935825 -0.14550003 0.717356 0.6967067 0.07991469 0.9968017 0.007999914 0.999968
0.4121185 -0.91113025 0.78332686 0.62161 0.089878544 0.9959527 0.008999879 0.9999595
-0.5440211 -0.8390715 0.84147096 0.54030234 0.099833414 0.9950042 0.009999833 0.99995
-0.9999902 0.004425698 0.89120734 0.4535962 0.1097783 0.9939561 0.010999777 0.9999395
-0.53657293 0.84385395 0.9320391 0.36235783 0.119712204 0.99280864 0.011999711 0.999928
0.42016703 0.9074468 0.9635582 0.26749888 0.12963414 0.9915619 0.012999633 0.9999155
0.9906074 0.13673721 0.98544973 0.16996728 0.13954312 0.990216 0.013999541 0.999902
0.65028787 -0.7596879 0.997495 0.07073732 0.14943813 0.9887711 0.014999436 0.9998875
-0.2879033 -0.9576595 0.9995736 -0.029199427 0.15931821 0.98722726 0.015999317 0.999872
-0.96139747 -0.27516335 0.9916648 -0.12884443 0.16918235 0.9855848 0.01699918 0.9998555
-0.75098723 0.6603167 0.9738476 -0.22720204 0.17902957 0.9838437 0.017999027 0.999838
0.1498772 0.9887046 0.94630015 -0.32328942 0.1888589 0.9820042 0.018998856 0.9998195
0.9129453 0.40808207 0.90929747 -0.41614673 0.19866931 0.9800666 0.019998666 0.9998
0.8366556 -0.54772925 0.8632094 -0.50484604 0.2084599 0.9780309 0.020998454 0.9997795
-0.008851309 -0.99996084 0.80849653 -0.588501 0.21822962 0.97589743 0.021998223 0.999758
-0.8462204 -0.53283304 0.74570525 -0.666276 0.22797751 0.9736664 0.02299797 0.99973553
-0.9055784 0.42417902 0.67546326 -0.7373936 0.23770262 0.971338 0.023997694 0.999712
-0.13235176 0.99120283 0.59847236 -0.80114347 0.24740396 0.9689124 0.024997395 0.9996875
0.76255846 0.6469193 0.51550144 -0.8568887 0.25708055 0.96639 0.025997069 0.99966204
0.95637596 -0.29213881 0.42738006 -0.90407205 0.2667314 0.9637709 0.026996719 0.9996355
0.2709058 -0.9626059 0.33498842 -0.94222224 0.27635565 0.96105546 0.027996339 0.99960804
-0.6636339 -0.74805754 0.23924947 -0.9709581 0.2859522 0.9582439 0.028995933 0.99957955
-0.9880316 0.15425146 0.14112024 -0.98999244 0.2955202 0.9553365 0.029995497 0.99955004
-0.40403765 0.91474235 0.04158076 -0.99913514 0.30505863 0.95233357 0.030995032 0.9995195
00000000: 0000 0000 0000 803f 0000 0000 0000 803f
00000010: 0000 0000 0000 803f 0000 0000 0000 803f
00000020: a46a 573f 4151 0a3f 7675 cc3d 98b8 7e3f
00000030: 57d6 233c b9fc 7f3f 6d12 833a f8ff 7f3f
00000040: b7c7 683f 3311 d5be f86f 4b3e a5e5 7a3f
00000050: 3ed4 a33c e5f2 7f3f 6812 033b dfff 7f3f
00000060: c381 103e 2670 7dbf 6c4e 973e ef90 743f
00000070: 1fb9 f53c 83e2 7f3f 929b 443b b5ff 7f3f
00000080: cfbd 41bf 3055 27bf d761 c73e a7ca 6b3f
00000090: dbcb 233d 94cb 7f3f 5712 833b 7aff 7f3f
000000a0: 107c 75bf 2c3c 913e 4377 f53e 40a9 603f
000000b0: f4b6 4c3d 19ae 7f3f ddd6 a33b 2eff 7f3f
000000c0: 8c0f 8fbe b8cd 753f 688c 103f 3249 533f
000000d0: d19c 753d 128a 7f3f 589b c43b d2fe 7f3f
000000e0: 4630 283f bdff 403f 72eb 243f b3cc 433f
000000f0: 323e 8f3d 815f 7f3f c55f e53b 65fe 7f3f
00000100: 9546 7d3f f6fd 14be a5a4 373f 5f5b 323f
00000110: 50aa a33d 652e 7f3f 1212 033c e7fd 7f3f
00000120: 3201 d33e d53f 69bf 1c88 483f d521 1f3f
00000130: 3e12 b83d c2f6 7e3f 3a74 133c 59fd 7f3f
00000140: f844 0bbf 64cd 56bf a46a 573f 4151 0a3f
00000150: 7675 cc3d 98b8 7e3f 57d6 233c b9fc 7f3f
00000160: 5cff 7fbf 7205 913b 2a26 643f c33d e83e
00000170: 72d3 e03d e873 7e3f 6938 343c 09fc 7f3f
00000180: d85c 09bf d006 583f 1d9a 6e3f f786 b93e
00000190: ac2b f53d b528 7e3f 709a 443c 48fb 7f3f
000001a0: 2220 d73e 6f4e 683f c0ab 763f 9df5 883e
000001b0: d0be 043e 00d7 7d3f 6afc 543c 76fa 7f3f
000001c0: 7298 7d3f d704 0c3e 6f46 7c3f e70b 2e3e
000001d0: 64e4 0e3e cc7e 7d3f 555e 653c 94f9 7f3f
000001e0: 4479 263f e87a 42bf d55b 7f3f bade 903d
000001f0: 4f06 193e 1a20 7d3f 32c0 753c a1f8 7f3f
00000200: 1068 93be 2c29 75bf 0ee4 7f3f a333 efbc
00000210: 5024 233e edba 7c3f 0011 833c 9df7 7f3f
00000220: 251e 76bf 36e2 8cbe bfdd 7d3f cbef 03be
00000230: 233e 2d3e 494f 7c3f dd41 8b3c 88f6 7f3f
00000240: b340 40bf 840a 293f 144e 793f a7a7 68be
00000250: 8753 373e 2edd 7b3f b272 933c 62f5 7f3f
00000260: 6979 193e bf1b 7d3f ba40 723f 3186 a5be
00000270: 3a64 413e a164 7b3f 7da3 9b3c 2cf4 7f3f
00000280: c8b6 693f 22f0 d03e b8c7 683f 2f11 d5be
00000290: f86f 4b3e a5e5 7a3f 3ed4 a33c e5f2 7f3f
000002a0: 102f 563f fc37 0cbf 4bfb 5c3f 973d 01bf
000002b0: 8376 553e 3c60 7a3f f304 ac3c 8df1 7f3f
000002c0: 1505 11bc 6ffd 7fbf a1f9 4e3f 00a8 16bf
000002d0: 9677 5f3e 6ad4 793f 9e35 b43c 24f0 7f3f
000002e0: e6a1 58bf bf67 08bf 8ae6 3e3f 1091 2abf
000002f0: f072 693e 3442 793f 3d66 bc3c abee 7f3f
00000300: fcd3 67bf fe2d d93e 29eb 2c3f d4c5 3cbf
00000310: 5168 733e 9ba9 783f d096 c43c 20ed 7f3f
00000320: 3887 07be 78bf 7d3f 7c35 193f bd17 4dbf
00000330: 7757 7d3e a50a 783f 56c7 cc3c 85eb 7f3f
00000340: 0837 433f 819c 253f e7f7 033f 0f5d 5bbf
00000350: 10a0 833e 5665 773f cef7 d43c dae9 7f3f
00000360: 0ed5 743f 3893 95be 8fd1 da3e 4471 67bf
00000370: 0591 883e b1b9 763f 3928 dd3c 1de8 7f3f
00000380: 2ab4 8a3e 576d 76bf 9a83 ab3e 7a35 71bf
00000390: 7d7e 8d3e bb07 763f 9458 e53c 50e6 7f3f
000003a0: e9e3 29bf b380 3fbf d0fd 743e b690 78bf
000003b0: 5468 923e 794f 753f e188 ed3c 72e4 7f3f
000003c0: a4ef 7cbf 18f4 1d3e d381 103e 2570 7dbf
000003d0: 6c4e 973e ef90 743f 1eb9 f53c 83e2 7f3f
000003e0: 06de cebe 8e2c 6a3f 9650 2a3d 52c7 7fbf
000003f0: a530 9c3e 22cc 733f 4be9 fd3c 83e0 7f3f

enc_embedding_s.temporal_embedding.embed.weight f4 [8, 4]
0.3646816 0.26732063 -0.39066827 0.18292159 -0.15777594 -0.3496238 -0.08128804 -0.11250514
0.08125454 -0.07970768 -0.45150387 0.4558531 0.06400812 -0.4891106 -0.36910856 0.04099244
-0.23481607 -0.34058374 0.31490612 0.06998634 -0.17429137 -0.27148062 -0.47870934 -0.45034343
-0.4349048 -0.13972789 0.3601712 -0.37035197 0.452693 -0.33072466 0.3783207 0.10285056
00000000: 8cb7 ba3e 40de 883e ac05 c8be cc4f 3b3e
00000010: 0490 21be e401 b3be 587a a6bd 1869 e6bd
00000020: c868 a63d c83d a3bd 842b e7be 9465 e93e
00000030: b016 833d b46c fabe ccfb bcbe b0e7 273d
00000040: a073 70be fe60 aebe 603b a13e 0055 8f3d
00000050: 7079 32be 82ff 8abe 6419 f5be 6a93 e6be
00000060: d8ab debe d414 0fbe 5c68 b83e c69e bdbe
00000070: 60c7 e73e be54 a9be 40b3 c13e 50a3 d23d

enc_embedding_t.value_embedding.tokenConv.weight f4 [8, 1, 3]
-1.5826988 -0.6831564 0.9018287 -0.47011992 -0.30090398 -0.016930308 -1.6611309 -0.19765423
-0.7162418 0.6914341 0.47829068 0.5079652 -0.36435673 0.8008228 0.61584336 1.096813
0.84186894 0.041911803 -1.2452414 -0.25672472 -0.015336318 -0.028624203 0.009994869 0.28018302
00000000: e095 cabf 56e3 2ebf 3fde 663f 8fb3 f0be
00000010: 1610 9abe 6eb1 8abc f09f d4bf df65 4abe
00000020: 9f5b 37bf d301 313f 84e2 f43e 020a 023f
00000030: f78c babe b902 4d3f e9a7 1d3f 5e64 8c3f
00000040: b984 573f b6ab 2b3d 1264 9fbf 6c71 83be
00000050: 2e45 7bbc 4e7d eabc 85c1 233c 2674 8f3e

enc_embedding_t.position_embedding.pe f4 [1, 5000, 8]
0.0 1.0 0.0 1.0 0.0 1.0 0.0 1.0
0.84147096 0.54030234 0.099833414 0.9950042 0.009999833 0.99995 0.0009999998 0.9999995
0.9092974 -0.41614684 0.19866931 0.9800666 0.019998666 0.9998 0.0019999985 0.99999803
0.14112 -0.9899925 0.2955202 0.9553365 0.0299955 0.99955004 0.0029999954 0.9999955
-0.7568025 -0.6536436 0.38941833 0.921061 0.039989334 0.9992001 0.003999989 0.999992
-0.9589243 0.2836622 0.47942552 0.87758255 0.049979165 0.99875027 0.004999979 0.9999875
-0.2794155 0.96017027 0.5646424 0.8253356 0.059964005 0.99820054 0.0059999637 0.999982
0.6569866 0.75390226 0.6442176 0.7648422 0.06994285 0.997551 0.006999942 0.9999755
0.98935825 -0.14550003 0.717356 0.6967067 0.07991469 0.9968017 0.007999914 0.999968
0.4121185 -0.91113025 0.78332686 0.62161 0.089878544 0.9959527 0.008999879 0.9999595
-0.5440211 -0.8390715 0.84147096 0.54030234 0.099833414 0.9950042 0.009999833 0.99995
-0.9999902 0.004425698 0.89120734 0.4535962 0.1097783 0.9939561 0.010999777 0.9999395
-0.53657293 0.84385395 0.9320391 0.36235783 0.119712204 0.99280864 0.011999711 0.999928
0.42016703 0.9074468 0.9635582 0.26749888 0.12963414 0.9915619 0.012999633 0.9999155
0.9906074 0.13673721 0.98544973 0.16996728 0.13954312 0.990216 0.013999541 0.999902
0.65028787 -0.7596879 0.997495 0.07073732 0.14943813 0.9887711 0.014999436 0.9998875
-0.2879033 -0.9576595 0.9995736 -0.029199427 0.15931821 0.98722726 0.015999317 0.999872
-0.96139747 -0.27516335 0.9916648 -0.12884443 0.16918235 0.9855848 0.01699918 0.9998555
-0.75098723 0.6603167 0.9738476 -0.22720204 0.17902957 0.9838437 0.017999027 0.999838
0.1498772 0.9887046 0.94630015 -0.32328942 0.1888589 0.9820042 0.018998856 0.9998195
0.9129453 0.40808207 0.90929747 -0.41614673 0.19866931 0.9800666 0.019998666 0.9998
0.8366556 -0.54772925 0.8632094 -0.50484604 0.2084599 0.9780309 0.020998454 0.9997795
-0.008851309 -0.99996084 0.80849653 -0.588501 0.21822962 0.97589743 0.021998223 0.999758
-0.8462204 -0.53283304 0.74570525 -0.666276 0.22797751 0.9736664 0.02299797 0.99973553
-0.9055784 0.42417902 0.67546326 -0.7373936 0.23770262 0.971338 0.023997694 0.999712
-0.13235176 0.99120283 0.59847236 -0.80114347 0.24740396 0.9689124 0.024997395 0.9996875
0.76255846 0.6469193 0.51550144 -0.8568887 0.25708055 0.96639 0.025997069 0.99966204
0.95637596 -0.29213881 0.42738006 -0.90407205 0.2667314 0.9637709 0.026996719 0.9996355
0.2709058 -0.9626059 0.33498842 -0.94222224 0.27635565 0.96105546 0.027996339 0.99960804
-0.6636339 -0.74805754 0.23924947 -0.9709581 0.2859522 0.9582439 0.028995933 0.99957955
-0.9880316 0.15425146 0.14112024 -0.98999244 0.2955202 0.9553365 0.029995497 0.99955004
-0.40403765 0.91474235 0.04158076 -0.99913514 0.30505863 0.95233357 0.030995032 0.9995195
00000000: 0000 0000 0000 803f 0000 0000 0000 803f
00000010: 0000 0000 0000 803f 0000 0000 0000 803f
00000020: a46a 573f 4151 0a3f 7675 cc3d 98b8 7e3f
00000030: 57d6 233c b9fc 7f3f 6d12 833a f8ff 7f3f
00000040: b7c7 683f 3311 d5be f86f 4b3e a5e5 7a3f
00000050: 3ed4 a33c e5f2 7f3f 6812 033b dfff 7f3f
00000060: c381 103e 2670 7dbf 6c4e 973e ef90 743f
00000070: 1fb9 f53c 83e2 7f3f 929b 443b b5ff 7f3f
00000080: cfbd 41bf 3055 27bf d761 c73e a7ca 6b3f
00000090: dbcb 233d 94cb 7f3f 5712 833b 7aff 7f3f
000000a0: 107c 75bf 2c3c 913e 4377 f53e 40a9 603f
000000b0: f4b6 4c3d 19ae 7f3f ddd6 a33b 2eff 7f3f
000000c0: 8c0f 8fbe b8cd 753f 688c 103f 3249 533f
000000d0: d19c 753d 128a 7f3f 589b c43b d2fe 7f3f
000000e0: 4630 283f bdff 403f 72eb 243f b3cc 433f
000000f0: 323e 8f3d 815f 7f3f c55f e53b 65fe 7f3f
00000100: 9546 7d3f f6fd 14be a5a4 373f 5f5b 323f
00000110: 50aa a33d 652e 7f3f 1212 033c e7fd 7f3f
00000120: 3201 d33e d53f 69bf 1c88 483f d521 1f3f
00000130: 3e12 b83d c2f6 7e3f 3a74 133c 59fd 7f3f
00000140: f844 0bbf 64cd 56bf a46a 573f 4151 0a3f
00000150: 7675 cc3d 98b8 7e3f 57d6 233c b9fc 7f3f
00000160: 5cff 7fbf 7205 913b 2a26 643f c33d e83e
00000170: 72d3 e03d e873 7e3f 6938 343c 09fc 7f3f
00000180: d85c 09bf d006 583f 1d9a 6e3f f786 b93e
00000190: ac2b f53d b528 7e3f 709a 443c 48fb 7f3f
000001a0: 2220 d73e 6f4e 683f c0ab 763f 9df5 883e
000001b0: d0be 043e 00d7 7d3f 6afc 543c 76fa 7f3f
000001c0: 7298 7d3f d704 0c3e 6f46 7c3f e70b 2e3e
000001d0: 64e4 0e3e cc7e 7d3f 555e 653c 94f9 7f3f
000001e0: 4479 263f e87a 42bf d55b 7f3f bade 903d
000001f0: 4f06 193e 1a20 7d3f 32c0 753c a1f8 7f3f
00000200: 1068 93be 2c29 75bf 0ee4 7f3f a333 efbc
00000210: 5024 233e edba 7c3f 0011 833c 9df7 7f3f
00000220: 251e 76bf 36e2 8cbe bfdd 7d3f cbef 03be
00000230: 233e 2d3e 494f 7c3f dd41 8b3c 88f6 7f3f
00000240: b340 40bf 840a 293f 144e 793f a7a7 68be
00000250: 8753 373e 2edd 7b3f b272 933c 62f5 7f3f
00000260: 6979 193e bf1b 7d3f ba40 723f 3186 a5be
00000270: 3a64 413e a164 7b3f 7da3 9b3c 2cf4 7f3f
00000280: c8b6 693f 22f0 d03e b8c7 683f 2f11 d5be
00000290: f86f 4b3e a5e5 7a3f 3ed4 a33c e5f2 7f3f
000002a0: 102f 563f fc37 0cbf 4bfb 5c3f 973d 01bf
000002b0: 8376 553e 3c60 7a3f f304 ac3c 8df1 7f3f
000002c0: 1505 11bc 6ffd 7fbf a1f9 4e3f 00a8 16bf
000002d0: 9677 5f3e 6ad4 793f 9e35 b43c 24f0 7f3f
000002e0: e6a1 58bf bf67 08bf 8ae6 3e3f 1091 2abf
000002f0: f072 693e 3442 793f 3d66 bc3c abee 7f3f
00000300: fcd3 67bf fe2d d93e 29eb 2c3f d4c5 3cbf
00000310: 5168 733e 9ba9 783f d096 c43c 20ed 7f3f
00000320: 3887 07be 78bf 7d3f 7c35 193f bd17 4dbf
00000330: 7757 7d3e a50a 783f 56c7 cc3c 85eb 7f3f
00000340: 0837 433f 819c 253f e7f7 033f 0f5d 5bbf
00000350: 10a0 833e 5665 773f cef7 d43c dae9 7f3f
00000360: 0ed5 743f 3893 95be 8fd1 da3e 4471 67bf
00000370: 0591 883e b1b9 763f 3928 dd3c 1de8 7f3f
00000380: 2ab4 8a3e 576d 76bf 9a83 ab3e 7a35 71bf
00000390: 7d7e 8d3e bb07 763f 9458 e53c 50e6 7f3f
000003a0: e9e3 29bf b380 3fbf d0fd 743e b690 78bf
000003b0: 5468 923e 794f 753f e188 ed3c 72e4 7f3f
000003c0: a4ef 7cbf 18f4 1d3e d381 103e 2570 7dbf
000003d0: 6c4e 973e ef90 743f 1eb9 f53c 83e2 7f3f
000003e0: 06de cebe 8e2c 6a3f 9650 2a3d 52c7 7fbf
000003f0: a530 9c3e 22cc 733f 4be9 fd3c 83e0 7f3f

enc_embedding_t.temporal_embedding.embed.weight f4 [8, 4]
-0.29474306 -0.2966709 -0.37283462 -0.42395115 0.14008725 -0.18870026 -0.017789721 0.3309132
-0.083529115 -0.33396226 -0.40833813 0.4315439 -0.42569566 -0.42731023 0.36916202 -0.17450392
-0.35625923 0.30322206 0.43374097 -0.32817268 -0.4393037 -0.29333472 0.2878828 0.023507833
0.0905453 -0.3855958 0.26764107 -0.086410165 0.46979684 -0.33319294 0.31629813 0.118604004
00000000: 90e8 96be 40e5 97be 2ee4 bebe 2010 d9be
00000010: 0873 0f3e a43a 41be c0bb 91bc 746d a93e
00000020: 5011 abbd 1afd aabe b211 d1be 52f3 dc3e
00000030: c8f4 d9be 68c8 dabe ce02 bd3e 28b1 32be
00000040: 9c67 b6be ec3f 9b3e 4c13 de3e 4006 a8be
00000050: 6aec e0be f82f 96be 6065 933e 8093 c03c
00000060: d06f b93d d06c c5be 4008 893e d0f7 b0bd
00000070: 3689 f03e 4498 aabe d4f1 a13e a8e6 f23d

enc_embedding.value_embedding.tokenConv.weight f4 [8, 1, 3]
-1.4984411 0.59450823 0.22978668 0.038784415 0.38483068 0.17791188 1.1255366 -1.8473742
1.4363309 -2.5118284 -2.4825609 -3.0149658 -3.1887558 0.012604769 2.4736447 -0.84297574
-3.030418 -2.8405788 1.4717582 2.5312064 -1.5129579 1.3711714 -0.79446715 -0.30508906
00000000: ebcc bfbf b131 183f 334d 6b3e 68dc 1e3d
00000010: 8708 c53e 882e 363e 9511 903f c276 ecbf
00000020: b1d9 b73f ccc1 20c0 47e2 1ec0 33f5 40c0
00000030: 9314 4cc0 3c84 4e3c 3250 1e40 42cd 57bf
00000040: 5ef2 41c0 0bcc 35c0 9362 bc3f 49ff 2140
00000050: 9ba8 c1bf 8b82 af3f 3362 4bbf a234 9cbe

enc_embedding.position_embedding.pe f4 [1, 5000, 8]
0.0 1.0 0.0 1.0 0.0 1.0 0.0 1.0
0.84147096 0.54030234 0.099833414 0.9950042 0.009999833 0.99995 0.0009999998 0.9999995
0.9092974 -0.41614684 0.19866931 0.9800666 0.019998666 0.9998 0.0019999985 0.99999803
0.14112 -0.9899925 0.2955202 0.9553365 0.0299955 0.99955004 0.0029999954 0.9999955
-0.7568025 -0.6536436 0.38941833 0.921061 0.039989334 0.9992001 0.003999989 0.999992
-0.9589243 0.2836622 0.47942552 0.87758255 0.049979165 0.99875027 0.004999979 0.9999875
-0.2794155 0.96017027 0.5646424 0.8253356 0.059964005 0.99820054 0.0059999637 0.999982
0.6569866 0.75390226 0.6442176 0.7648422 0.06994285 0.997551 0.006999942 0.9999755
0.98935825 -0.14550003 0.717356 0.6967067 0.07991469 0.9968017 0.007999914 0.999968
0.4121185 -0.91113025 0.78332686 0.62161 0.089878544 0.9959527 0.008999879 0.9999595
-0.5440211 -0.8390715 0.84147096 0.54030234 0.099833414 0.9950042 0.009999833 0.99995
-0.9999902 0.004425698 0.89120734 0.4535962 0.1097783 0.9939561 0.010999777 0.9999395
-0.53657293 0.84385395 0.9320391 0.36235783 0.119712204 0.99280864 0.011999711 0.999928
0.42016703 0.9074468 0.9635582 0.26749888 0.12963414 0.9915619 0.012999633 0.9999155
0.9906074 0.13673721 0.98544973 0.16996728 0.13954312 0.990216 0.013999541 0.999902
0.65028787 -0.7596879 0.997495 0.07073732 0.14943813 0.9887711 0.014999436 0.9998875
-0.2879033 -0.9576595 0.9995736 -0.029199427 0.15931821 0.98722726 0.015999317 0.999872
-0.96139747 -0.27516335 0.9916648 -0.12884443 0.16918235 0.9855848 0.01699918 0.9998555
-0.75098723 0.6603167 0.9738476 -0.22720204 0.17902957 0.9838437 0.017999027 0.999838
0.1498772 0.9887046 0.94630015 -0.32328942 0.1888589 0.9820042 0.018998856 0.9998195
0.9129453 0.40808207 0.90929747 -0.41614673 0.19866931 0.9800666 0.019998666 0.9998
0.8366556 -0.54772925 0.8632094 -0.50484604 0.2084599 0.9780309 0.020998454 0.9997795
-0.008851309 -0.99996084 0.80849653 -0.588501 0.21822962 0.97589743 0.021998223 0.999758
-0.8462204 -0.53283304 0.74570525 -0.666276 0.22797751 0.9736664 0.02299797 0.99973553
-0.9055784 0.42417902 0.67546326 -0.7373936 0.23770262 0.971338 0.023997694 0.999712
-0.13235176 0.99120283 0.59847236 -0.80114347 0.24740396 0.9689124 0.024997395 0.9996875
0.76255846 0.6469193 0.51550144 -0.8568887 0.25708055 0.96639 0.025997069 0.99966204
0.95637596 -0.29213881 0.42738006 -0.90407205 0.2667314 0.9637709 0.026996719 0.9996355
0.2709058 -0.9626059 0.33498842 -0.94222224 0.27635565 0.96105546 0.027996339 0.99960804
-0.6636339 -0.74805754 0.23924947 -0.9709581 0.2859522 0.9582439 0.028995933 0.99957955
-0.9880316 0.15425146 0.14112024 -0.98999244 0.2955202 0.9553365 0.029995497 0.99955004
-0.40403765 0.91474235 0.04158076 -0.99913514 0.30505863 0.95233357 0.030995032 0.9995195
00000000: 0000 0000 0000 803f 0000 0000 0000 803f
00000010: 0000 0000 0000 803f 0000 0000 0000 803f
00000020: a46a 573f 4151 0a3f 7675 cc3d 98b8 7e3f
00000030: 57d6 233c b9fc 7f3f 6d12 833a f8ff 7f3f
00000040: b7c7 683f 3311 d5be f86f 4b3e a5e5 7a3f
00000050: 3ed4 a33c e5f2 7f3f 6812 033b dfff 7f3f
00000060: c381 103e 2670 7dbf 6c4e 973e ef90 743f
00000070: 1fb9 f53c 83e2 7f3f 929b 443b b5ff 7f3f
00000080: cfbd 41bf 3055 27bf d761 c73e a7ca 6b3f
00000090: dbcb 233d 94cb 7f3f 5712 833b 7aff 7f3f
000000a0: 107c 75bf 2c3c 913e 4377 f53e 40a9 603f
000000b0: f4b6 4c3d 19ae 7f3f ddd6 a33b 2eff 7f3f
000000c0: 8c0f 8fbe b8cd 753f 688c 103f 3249 533f
000000d0: d19c 753d 128a 7f3f 589b c43b d2fe 7f3f
000000e0: 4630 283f bdff 403f 72eb 243f b3cc 433f
000000f0: 323e 8f3d 815f 7f3f c55f e53b 65fe 7f3f
00000100: 9546 7d3f f6fd 14be a5a4 373f 5f5b 323f
00000110: 50aa a33d 652e 7f3f 1212 033c e7fd 7f3f
00000120: 3201 d33e d53f 69bf 1c88 483f d521 1f3f
00000130: 3e12 b83d c2f6 7e3f 3a74 133c 59fd 7f3f
00000140: f844 0bbf 64cd 56bf a46a 573f 4151 0a3f
00000150: 7675 cc3d 98b8 7e3f 57d6 233c b9fc 7f3f
00000160: 5cff 7fbf 7205 913b 2a26 643f c33d e83e
00000170: 72d3 e03d e873 7e3f 6938 343c 09fc 7f3f
00000180: d85c 09bf d006 583f 1d9a 6e3f f786 b93e
00000190: ac2b f53d b528 7e3f 709a 443c 48fb 7f3f
000001a0: 2220 d73e 6f4e 683f c0ab 763f 9df5 883e
000001b0: d0be 043e 00d7 7d3f 6afc 543c 76fa 7f3f
000001c0: 7298 7d3f d704 0c3e 6f46 7c3f e70b 2e3e
000001d0: 64e4 0e3e cc7e 7d3f 555e 653c 94f9 7f3f
000001e0: 4479 263f e87a 42bf d55b 7f3f bade 903d
000001f0: 4f06 193e 1a20 7d3f 32c0 753c a1f8 7f3f
00000200: 1068 93be 2c29 75bf 0ee4 7f3f a333 efbc
00000210: 5024 233e edba 7c3f 0011 833c 9df7 7f3f
00000220: 251e 76bf 36e2 8cbe bfdd 7d3f cbef 03be
00000230: 233e 2d3e 494f 7c3f dd41 8b3c 88f6 7f3f
00000240: b340 40bf 840a 293f 144e 793f a7a7 68be
00000250: 8753 373e 2edd 7b3f b272 933c 62f5 7f3f
00000260: 6979 193e bf1b 7d3f ba40 723f 3186 a5be
00000270: 3a64 413e a164 7b3f 7da3 9b3c 2cf4 7f3f
00000280: c8b6 693f 22f0 d03e b8c7 683f 2f11 d5be
00000290: f86f 4b3e a5e5 7a3f 3ed4 a33c e5f2 7f3f
000002a0: 102f 563f fc37 0cbf 4bfb 5c3f 973d 01bf
000002b0: 8376 553e 3c60 7a3f f304 ac3c 8df1 7f3f
000002c0: 1505 11bc 6ffd 7fbf a1f9 4e3f 00a8 16bf
000002d0: 9677 5f3e 6ad4 793f 9e35 b43c 24f0 7f3f
000002e0: e6a1 58bf bf67 08bf 8ae6 3e3f 1091 2abf
000002f0: f072 693e 3442 793f 3d66 bc3c abee 7f3f
00000300: fcd3 67bf fe2d d93e 29eb 2c3f d4c5 3cbf
00000310: 5168 733e 9ba9 783f d096 c43c 20ed 7f3f
00000320: 3887 07be 78bf 7d3f 7c35 193f bd17 4dbf
00000330: 7757 7d3e a50a 783f 56c7 cc3c 85eb 7f3f
00000340: 0837 433f 819c 253f e7f7 033f 0f5d 5bbf
00000350: 10a0 833e 5665 773f cef7 d43c dae9 7f3f
00000360: 0ed5 743f 3893 95be 8fd1 da3e 4471 67bf
00000370: 0591 883e b1b9 763f 3928 dd3c 1de8 7f3f
00000380: 2ab4 8a3e 576d 76bf 9a83 ab3e 7a35 71bf
00000390: 7d7e 8d3e bb07 763f 9458 e53c 50e6 7f3f
000003a0: e9e3 29bf b380 3fbf d0fd 743e b690 78bf
000003b0: 5468 923e 794f 753f e188 ed3c 72e4 7f3f
000003c0: a4ef 7cbf 18f4 1d3e d381 103e 2570 7dbf
000003d0: 6c4e 973e ef90 743f 1eb9 f53c 83e2 7f3f
000003e0: 06de cebe 8e2c 6a3f 9650 2a3d 52c7 7fbf
000003f0: a530 9c3e 22cc 733f 4be9 fd3c 83e0 7f3f

enc_embedding.temporal_embedding.embed.weight f4 [8, 4]
0.20361608 0.4958443 0.37514913 0.19188672 -0.005409479 -0.43743718 -0.12041694 -0.24876249
-0.16886103 -0.43688685 0.3025807 -0.023074806 -0.45744568 -0.3071617 -0.30196762 -0.3239066
-0.23265839 0.16039109 0.10630381 -0.44766515 -0.28030133 -0.1363771 0.45509487 0.24709648
-0.19514239 0.053004205 0.22309065 -0.19827384 -0.46003044 -0.28893363 0.35918677 0.37399358
00000000: bc80 503e 4edf fd3e 8c13 c03e f47d 443e
00000010: 0042 b1bb c4f7 dfbe 289d f6bd 98bb 7ebe
00000020: e8e9 2cbe a2af dfbe dceb 9a3e 6007 bdbc
00000030: 5236 eabe 4c44 9dbe 809b 9abe 16d7 a5be
00000040: 003e 6ebe 903d 243e d0b5 d93d 5e34 e5be
00000050: a883 8fbe 70a6 0bbe 3202 e93e dc06 7d3e
00000060: 68d3 47be f01a 593d e071 643e 4c08 4bbe
00000070: 1c89 ebbe 1cef 93be 54e7 b73e 167c bf3e

encoder_s.attn_layers.0.attention.query_projection.weight f4 [8, 8]
0.031899128 0.14105171 0.16781491 -0.00050466217 0.019810095 0.045952655 0.1224679 -0.17231557
0.17170139 0.5325291 0.44867012 0.09049341 0.0419173 0.16771784 0.49456877 -0.18601607
0.015420179 0.09474431 0.040421825 -0.03451942 -0.0066775596 -0.003351704 -0.012477498 0.18489832
-0.1435372 -0.0074348166 0.199232 0.0034398295 -0.09055286 -0.03549835 0.0053821225 -0.055777587
-0.039732777 -0.015988821 0.005147963 -0.042760182 0.02070458 0.011035438 0.03570967 -0.41936317
-0.036911953 -0.17264701 0.0018473399 -0.004079296 0.041168615 -0.0033507778 0.14572443 -0.06553732
-0.063632146 -0.16452001 -0.15542394 0.00801977 0.16800651 -0.045676954 0.008859893 0.41281945
-0.15032496 -0.14485443 -0.18628126 0.0274702 0.14863768 -0.062240966 -0.046247955 0.4412074
00000000: a9a8 023d dc6f 103e acd7 2b3e 4e4b 04ba
00000010: c848 a23c da38 3c3d 73d0 fa3d 7e73 30be
00000020: 7dd2 2f3e d453 083f 17b8 e53e 9c54 b93d
00000030: 7ab1 2b3d 3abe 2b3e 1e38 fd3e ff7a 3ebe
00000040: eba4 7c3c 4e09 c23d 5b91 253d 3c64 0dbd
00000050: 6ecf dabb 43a8 5bbb 6b6e 4cbc fc55 3d3e
00000060: 6afb 12be c39f f3bb 7903 4c3e c36e 613b
00000070: c773 b9bd b866 11bd 845c b03b 0a77 64bd
00000080: d6be 22bd fdfa 82bc 3eb0 a83b 4d25 2fbd
00000090: a79c a93c fbcd 343c 4e44 123d c5b6 d6be
000000a0: fd30 17bd 61ca 30be 7122 f23a 9dab 85bb
000000b0: 6ca0 283d b998 5bbb c938 153e 6e38 86bd
000000c0: 9251 82bd ef77 28be 7427 1fbe 5a65 033c
000000d0: e609 2c3e c217 3bbd 1629 113c 125d d33e
000000e0: c9ee 19be b854 14be 84c0 3ebe 2f09 e13c
000000f0: 7a34 183e 62f0 7ebd 7f6e 3dbd f0e5 e13e

encoder_s.attn_layers.0.attention.query_projection.bias f4 [8]
0.49854434 0.16598478 -0.2201198 0.2690466 0.19804864 -0.35082045 -0.28453192 -0.4051088
00000000: 3441 ff3e eaf7 293e 1667 61be 7ac0 893e
00000010: 43cd 4a3e bd9e b3be 2bae 91be 6c6a cfbe

encoder_s.attn_layers.0.attention.key_projection.weight f4 [8, 8]
-0.16370197 -0.064995185 -0.023301631 0.010263871 -0.036623415 -0.14527418 -0.06209687 0.08025895
0.36596608 0.25727227 -0.64519554 -0.26032662 0.09014927 -0.05342946 0.80812883 -0.51294005
-0.006657513 0.013457694 -0.028856942 -0.20040555 0.07230734 0.044786584 -0.11460046 0.35603064
-0.037906133 0.033579983 -0.14446633 -0.0078028683 -0.12151558 -0.07741307 -0.01853121 0.01733494
-0.12996009 -0.025545655 -0.015367985 -0.07751598 -0.2136402 0.020056853 0.05913547 -0.052981947
-0.16765913 0.096197166 0.00027608473 -0.018781617 -0.33205724 0.039779942 0.063324444 0.4021625
-0.15901077 0.6059351 -0.17850822 -0.017062005 0.116016485 -0.0064406767 -0.04048128 0.13494758
0.12041534 -0.97431237 0.20900518 -0.018992139 -0.061573096 -0.03159705 0.09325569 -0.30702332
00000000: 7da1 27be 321c 85bd 10e3 bebc cc29 283c
00000010: 6f02 16bd c1c2 14be 4a59 7ebd ce5e a43d
00000020: e85f bb3e 31b9 833e 892b 25bf 8849 85be
00000030: 2ea0 b83d d9d8 5abd 88e1 4e3f 0a50 03bf
00000040: 4427 dabb a97d 5c3c 6565 ecbc 1d37 4dbe
00000050: df15 943d 2372 373d a5b3 eabd a649 b63e
00000060: 7643 1bbd 2a8b 093d fbee 13be 34af ffbb
00000070: 29dd f8bd be8a 9ebd c4ce 97bc 0102 8e3c
00000080: 4214 05be 1f45 d1bc 00ca 7bbc b3c0 9ebd
00000090: 7fc4 5abe 454e a43c 0938 723d 9903 59bd
000000a0: d6ae 2bbe 0503 c53d 77bf 9039 e8db 99bc
000000b0: 6803 aabe 4bf0 223d 3fb0 813d 3ee8 cd3e
000000c0: b8d3 22be 901e 1b3f dcca 36be 9ec5 8bbc
000000d0: 0d9a ed3d 500c d3bb b3cf 25bd b32f 0a3e
000000e0: 519c f63d 896c 79bf 7405 563e 6795 9bbc
000000f0: 1234 7cbd e96b 01bd d7fc be3d 2932 9dbe

encoder_s.attn_layers.0.attention.key_projection.bias f4 [8]
-0.2326672 -0.29673973 0.30974197 -0.25021118 -0.24940462 -0.23681702 0.06807971 0.20368347
00000000: 4f40 6ebe 45ee 97be 8096 9e3e ae1b 80be
00000010: ed63 7fbe 2980 72be 606d 8b3d 6692 503e

encoder_s.attn_layers.0.attention.value_projection.weight f4 [8, 8]
0.54012734 0.23274845 -0.36201563 0.3215609 0.11639339 0.5294501 -0.5452583 -0.2639056
-0.061900895 -0.03059143 0.046535656 0.023227612 -0.024992527 -0.009237027 -0.13088322 0.12261204
0.35246104 -0.5057328 -0.3561712 -0.428175 -0.08246469 -0.21241032 0.21604908 0.047367875
-0.09015496 -0.12305828 1.5373176 -0.21086729 0.37003025 -0.16595247 -0.12666087 0.15628184
-0.12552704 -0.14519888 -0.39506978 0.26628646 -0.34688604 0.28147712 0.3499408 -0.03634419
-0.15076643 -0.16449079 0.6436291 -0.27245265 0.27023783 -0.15492399 0.12316445 0.22241977
-0.41325173 1.2171155 -0.40488443 -0.06089242 0.22638147 0.08829061 -0.0003097434 -0.27737713
-0.19031098 1.4298968 -0.5571054 -0.03792496 0.09862646 0.047733497 0.016334241 0.14116327
00000000: c945 0a3f 9c55 6e3e 1d5a b9be a1a3 a43e
00000010: a85f ee3d 0b8a 073f 0c96 0bbf a31e 87be
00000020: cb8b 7dbd e19a fabc 2c9c 3e3d d547 be3c
00000030: 21bd ccbc e656 17bc 4006 06be 051c fb3d
00000040: c675 b43e b477 01bf 125c b6be c139 dbbe
00000050: 3fe3 a8bd 1782 59be f83b 5d3e d104 423d
00000060: 2aa3 b8bd fb05 fcbd d3c6 c43f 98ed 57be
00000070: 9b74 bd3e 72ef 29be 63b3 01be 5908 203e
00000080: 298a 00be 04af 14be 9646 cabe b356 883e
00000090: 0c9b b1be c51d 903e 712b b33e a5dd 14bd
000000a0: 8462 1abe 4670 28be e0c4 243f ea7e 8bbe
000000b0: 9d5c 8a3e 65a4 1ebe a53d fc3d 02c2 633e
000000c0: bb95 d3be 71ca 9b3f 034d cfbe 556a 79bd
000000d0: 8bd0 673e b5d1 b43d 0e65 a2b9 6004 8ebe
000000e0: e2e0 42be dc06 b73f 769e 0ebf 3457 1bbd
000000f0: abfc c93d 3384 433d 63cf 853c 1b8d 103e

encoder_s.attn_layers.0.attention.value_projection.bias f4 [8]
0.21824288 0.09141894 0.14242238 0.1526901 -0.10565219 -0.12995197 -0.18307991 0.20054998
00000000: 107b 5f3e da39 bb3d 2cd7 113e cb5a 1c3e
00000010: 2d60 d8bd 2112 05be 4d79 3bbe f95c 4d3e

encoder_s.attn_layers.0.attention.out_projection.weight f4 [8, 8]
-0.033877537 0.20241009 -0.30688077 -0.25762585 0.23110893 -0.05422814 0.62013614 -0.8800951
-0.015449521 -0.073604904 0.16519888 0.0051105414 0.001224981 0.055281185 0.120944254 -0.5485692
-0.09856066 -0.017644804 0.073258564 -0.16405429 0.08524037 0.0067162425 0.32822177 -0.7592719
-0.0021889885 -0.014288291 0.5417518 0.61902547 0.45355177 0.206955 -0.2494163 0.14314741
0.13059166 0.21186341 -0.1636105 0.31895965 0.42730528 0.0013811713 -0.80352545 1.2620986
0.6053037 0.11881493 0.047852475 -0.6199799 -0.5986454 0.41558036 0.18672766 -0.20493376
0.49028462 0.25159195 0.12738854 0.33548185 0.049253434 -0.015558598 -0.32174212 -0.15236372
-0.04576182 -0.05615736 -0.003158349 -0.1467688 -0.14099944 -0.024259498 -0.35105157 0.0936274
00000000: 2cc3 0abd 9744 4f3e 7a1f 9dbe 89e7 83be
00000010: d2a7 6c3e 531e 5ebd 3ec1 1e3f ea4d 61bf
00000020: fd1f 7dbc 2bbe 96bd e529 293e 5476 a73b
00000030: 8b8f a03a 866e 623d 9fb1 f73d 086f 0cbf
00000040: 2cda c9bd d68b 90bc 9608 963d d9fd 27be
00000050: 8192 ae3d ed13 dc3b af0c a83e a55f 42bf
00000060: 2275 0fbb 7019 6abc 3fb0 0a3f 7478 1e3f
00000070: f037 e83e 03ec 533e fd66 7fbe 3c95 123e
00000080: d2b9 053e b9f2 583e 8389 27be ae4e a33e
00000090: c2c7 da3e 6b08 b53a d8b3 4dbf 728c a13f
000000a0: 2ff5 1a3f 3e55 f33d f500 443d 01b7 1ebf
000000b0: d340 19bf f3c6 d43e 8935 3f3e 28da 51be
000000c0: 9606 fb3e a9d0 803e 2472 023e 47c4 ab3e
000000d0: f8bd 493d 7de9 7ebc 62bb a4be 3c05 1cbe
000000e0: bf70 3bbd 4305 66bd 4efc 4ebb 8f4a 16be
000000f0: 2862 10be dbbb c6bc 08bd b3be b9bf bf3d

encoder_s.attn_layers.0.attention.out_projection.bias f4 [8]
-0.2497241 -0.1229606 -0.0707032 -0.32539248 0.15992783 0.0692713 0.059752505 0.14407256
00000000: adb7 7fbe c4d2 fbbd d7cc 90bd d899 a6be
00000010: 1fc4 233e 1dde 8d3d 0bbf 743d c287 133e

encoder_s.attn_layers.0.conv1.weight f4 [64, 8, 1]
-0.2182712 0.09819376 -0.07043206 -0.14185737 0.22578014 0.2855762 0.24062952 0.102594934
0.12503941 0.30705172 -0.38398054 0.22754744 0.284088 -0.20396864 1.0684985 -0.59679484
0.080706716 0.015595394 0.5776248 -0.25217202 -0.36767748 0.2970211 -0.30273414 -0.1264364
-0.38426125 0.11698388 -0.23683153 0.27545062 -0.7190153 0.84153986 0.8208969 -0.09186119
-0.35151345 0.40417644 -0.10981184 0.19953202 0.0629023 0.4010976 -0.12904346 -0.15317789
0.35810602 -0.0030595013 -0.25683513 -0.17143102 -0.93435925 0.41815978 0.23640203 -0.42858124
-0.08148882 -0.27236047 -0.19145705 -0.15118015 0.088363 -0.07810315 -0.15252067 -0.15455998
-0.012617597 0.059835944 -0.6641533 -0.12402573 0.009869914 0.26012617 0.6698682 0.1099087
-0.07803629 -0.03371179 -0.13208452 -0.20869003 -0.252789 -0.118334524 -0.11510425 0.055051666
-0.030536814 -0.112036265 0.36382404 -0.30908898 -0.8617705 0.33547798 0.23079513 0.06669201
0.14676207 -0.5207783 0.4901966 -0.4225174 0.09126287 -0.07988272 0.6178262 -0.5424371
0.31446335 0.14201029 -0.1977259 -0.4013419 -0.24676567 -0.26402402 -0.005386539 -0.61937976
-0.06486052 0.119520664 -0.26151443 0.6062617 -0.5637269 0.4931704 0.69047683 -0.1852584
-0.28092813 0.08280897 0.48160458 -0.30533692 -1.099509 -0.07804276 0.22818232 -0.122621454
0.037340593 -0.06981564 -0.033288233 0.15720275 0.38189438 -0.20920816 0.04255036 -0.28165436
0.32801574 0.08988703 -0.19623248 0.078538015 -0.045477852 -0.1761037 -0.33691898 0.30394617
-0.39388365 -0.30339077 0.09373291 0.13858874 0.42349163 -0.009188897 0.50392365 -0.14807501
0.5249884 -0.27930745 -0.19856864 -0.23988388 -0.34943375 -0.3821278 -0.30554602 0.30327222
0.1676193 -0.123989545 -0.15448555 -0.2691134 0.41532496 0.06711456 -0.24702854 -0.088154785
-0.051300365 -0.12113959 0.14267698 0.18911858 0.29654095 0.1551073 0.1607638 0.13181834
0.23681544 0.107509434 -0.21732748 -0.5283872 0.32059205 0.3597318 0.30548683 -0.4029378
-0.49448124 -0.025569655 0.17291705 -0.20932153 0.3669316 0.25020066 0.34728026 -0.238809
0.13169114 -0.21832491 -0.1990329 0.19644232 -0.60858285 -0.36480287 -0.050510667 -1.120668
-0.06417654 -0.19861905 0.06823279 -0.4147139 -0.61835575 0.63366884 -0.14772142 -0.112239905
-0.19189546 -0.2532638 0.22271982 0.072096854 -0.30171016 0.18384531 0.1022375 0.12778108
-0.028346494 -0.01034925 -0.14400604 0.2605325 -0.48443764 -0.21328379 0.11690804 0.20963125
0.059103314 -0.0010061369 -0.09306966 0.009247475 0.3176818 -0.21726018 -0.01409482 -1.2556299
0.28946534 0.019192003 0.25138867 -0.32576945 -0.0021783817 0.47491333 0.07756344 -0.12341728
0.00823686 0.097029805 0.20689648 -0.2305243 -0.34825277 -0.102407254 -0.28076383 -0.27271733
-0.41306815 0.19691066 -0.03570196 -0.621406 0.086872794 0.5585914 -0.16078238 -0.17822604
0.13802625 0.31760666 0.3157149 -0.33340478 -0.88179886 0.3961148 0.15889771 -0.10282776
-0.18765023 0.09049741 -0.07960927 0.4039964 -0.6157525 -0.033136696 0.7779282 0.05746306
00000000: 7c82 5fbe cf19 c93d af3e 90bd 0f43 11be
00000010: e932 673e 0b37 923e 9667 763e 4b1d d23d
00000020: 550a 003e e235 9d3e 1999 c4be 3202 693e
00000030: fb73 913e 28dd 50be 8fc4 883f 8cc7 18bf
00000040: 9049 a53d d383 7f3c 38df 133f b11c 81be
00000050: 3940 bcbe 2613 983e f8ff 9abe 8b78 01be
00000060: e4bd c4be 3f95 ef3d f783 72be dd07 8d3e
00000070: 6311 38bf 286f 573f 4d26 523f b821 bcbd
00000080: 92f9 b3be 37f0 ce3e 08e5 e0bd 1f52 4c3e
00000090: ecd2 803d aa5c cd3e f823 04be aada 1cbe
000000a0: ac59 b73e ea81 48bb e57f 83be 9d8b 2fbe
000000b0: 2b32 6fbf 0a19 d63e 6013 723e 006f dbbe
000000c0: 9ce3 a6bd d572 8bbe 510d 44be f8ce 1abe
000000d0: a9f7 b43d 8bf4 9fbd 612e 1cbe f944 1ebe
000000e0: 0aba 4ebc 8916 753d f305 2abf 3401 febd
000000f0: 6bb5 213c 422f 853e 7b7c 2b3f d017 e13d
00000100: 7ed1 9fbd 6015 0abd 2a41 07be d7b2 55be
00000110: 8f6d 81be 5f59 f2bd c7bb ebbd db7d 613d
00000120: 5728 fabc 4573 e5bd 2547 ba3e e940 9ebe
00000130: fe9c 5cbf c5c3 ab3e 8f55 6c3e d295 883d
00000140: cc48 163e ba51 05bf 0cfb fa3e 3354 d8be
00000150: 07e8 ba3d 8d99 a3bd dc29 1e3f 28dd 0abf
00000160: 5701 a13e 256b 113e a978 4abe af7c cdbe
00000170: 24b0 7cbe 282e 87be 9081 b0bb ac8f 1ebf
00000180: 98d5 84bd 40c7 f43d 38e5 85be f733 1b3f
00000190: 6850 10bf d580 fc3e 17c3 303f 61b4 3dbe
000001a0: d0d5 8fbe c097 a93d e094 f63e 1f55 9cbe
000001b0: b6bc 8cbf e2d4 9fbd a0a8 693e f520 fbbd
000001c0: 73f2 183d 81fb 8ebd 3e59 08bd c2f9 203e
000001d0: a987 c33e aa3a 56be 4949 2e3d 0035 90be
000001e0: aef1 a73e b116 b83d 2bf1 48be 8ad8 a03d
000001f0: fc46 3abd 8754 34be a580 acbe d59e 9b3e
00000200: 1eab c9be 0956 9bbe 0af7 bf3d 35ea 0d3e
00000210: e5d3 d83e 078d 16bc 2401 013f faa0 17be
00000220: a465 063f 6301 8fbe 9455 4bbe 1fa4 75be
00000230: fbe8 b2be 41a6 c3be 8770 9cbe 7f46 9b3e
00000240: 65a4 2b3e 3bee fdbd 7631 1ebe 3bc9 89be
00000250: 79a5 d43e 5c73 893d 0df5 7cbe 7f8a b4bd
00000260: 5520 52bd 0918 f8bd ea19 123e 4da8 413e
00000270: 37d4 973e 73d4 1e3e 449f 243e 63fb 063e
00000280: bf7f 723e e82d dc3d 188b 5ebe 6244 07bf
00000290: a424 a43e c42e b83e c568 9c3e dd4d cebe
000002a0: a52c fdbe 7477 d1bc 2b11 313e 6258 56be
000002b0: 75de bb3e 4d1a 803e b8ce b13e 598a 74be
000002c0: 0bda 063e 9190 5fbe 48cf 4bbe 2d28 493e
000002d0: 16cc 1bbf 71c7 babe 46e4 4ebd 0d72 8fbf
000002e0: fd6e 83bd cb62 4bbe a2bd 8b3d 6155 d4be
000002f0: 904c 1ebf 1f38 223f 4944 17be 09de e5bd
00000300: 3e80 44be cbab 81be aa10 643e 84a7 933d
00000310: c179 9abe f241 3c3e e561 d13d 0bd9 023e
00000320: e836 e8bc e78f 29bc 5276 13be 8464 853e
00000330: 3608 f8be 1167 5abe 7c6d ef3d 93a9 563e
00000340: 5116 723d 5ae0 83ba 4e9b bebd b982 173c
00000350: 30a7 a23e 7479 5ebe f6ed 66bc 7bb8 a0bf
00000360: cd34 943e 8c38 9d3c 04b6 803e 41cb a6be
00000370: 2ec3 0ebb d727 f33e 95d9 9e3d 33c2 fcbd
00000380: e5f3 063c 90b7 c63d acdc 533e 900e 6cbe
00000390: 304e b2be e5ba d1bd 47c0 8fbe 9ba1 8bbe
000003a0: ab7d d3be f3a2 493e 383c 12bd 7714 1fbf
000003b0: 5dea b13d d9ff 0e3f 23a4 24be e380 36be
000003c0: c156 0d3e 579d a23e 62a5 a13e 08b4 aabe
000003d0: 92bd 61bf 8fcf ca3e 15b6 223e 5c97 d2bd
000003e0: 6227 40be b556 b93d 2f0a a3bd 9ed8 ce3e
000003f0: f5a1 1dbf 58ba 07bd 4d26 473f 635e 6b3d

encoder_s.attn_layers.0.conv1.bias f4 [64]
0.00064024684 -0.8520243 0.15820162 -1.3530438 -0.3585329 0.08257619 -0.23969138 -0.83956206
-0.04470145 -0.76326793 -0.14413415 0.111900784 -0.47072738 -0.5003691 0.06983483 -0.5118994
-0.20085657 -0.307389 -0.2149931 -0.07811613 -0.05213093 -0.038462065 -0.21255879 -0.22484745
-0.14602026 -0.40275547 -0.08040176 0.28783318 0.1634197 -0.08661209 -0.2652089 -0.5692044
-0.29935154 0.1392702 -0.15100604 -0.32952413 -0.60500604 -0.080533385 -0.03935229 -0.11292579
-0.070706554 -0.07794682 -0.00082070177 -0.4738216 -0.21443607 -0.27389598 -0.28455216 -0.28301993
-0.46730712 -0.39540458 -0.2508913 0.16165581 -0.16606314 -0.31118694 -0.052785676 -0.03124282
0.023393285 -0.18634096 -0.38993764 -0.4062844 -0.27093863 0.018281344 -0.3914397 -0.38802764
00000000: 3dd6 273a 441e 5abf 9bff 213e 8a30 adbf
00000010: a091 b7be b51d a93d a871 75be 8aed 56bf
00000020: de18 37bd 8765 43bf e797 13be 3d2c e53d
00000030: 2e03 f1be 3018 00bf 9005 8f3d d70b 03bf
00000040: 58ad 4dbe 1762 9dbe 2727 5cbe 59fb 9fbd
00000050: 3e87 55bd 668a 1dbd 03a9 59be 693e 66be
00000060: 5686 15be f735 cebe aea9 a4bd df5e 933e
00000070: 7e57 273e ae61 b1bd 76c9 87be 61b7 11bf
00000080: 9b44 99be d99c 0e3e 54a1 1abe 63b7 a8be
00000090: ade1 1abf b0ee a4bd de2f 21bd a345 e7bd
000000a0: 99ce 90bd 95a2 9fbd 5d24 57ba bf98 f2be
000000b0: 2195 5bbe 183c 8cbe d2b0 91be fde7 90be
000000c0: e142 efbe 7872 cabe d374 80be 1a89 253e
000000d0: 750c 2abe e553 9fbe cb35 58bd f1f0 ffbc
000000e0: 46a3 bf3c 2ad0 3ebe e8a5 c7be 8204 d0be
000000f0: 78b8 8abe c2c2 953c c96a c8be 8fab c6be

encoder_s.attn_layers.0.conv2.weight f4 [8, 64, 1]
0.14502874 -0.108849436 0.085348435 0.3886771 -0.102812804 0.090997554 -0.08690949 0.10296016
-0.014257888 0.0022975742 -0.19368158 0.006050531 -0.06557212 -0.17176048 -0.022110725 -0.16973722
0.10735195 -0.18319796 -0.026498163 -0.026724255 0.007539851 0.10299006 0.31012225 0.083918154
0.01824764 -0.05369084 0.11768153 -0.075022824 0.05336308 0.12561029 -0.18275993 0.12390754
-0.02584976 -0.0057088207 0.12326306 0.0733232 0.063065104 0.14254116 -0.0012613077 0.019704545
-0.03264747 -0.024732666 0.08701844 0.13887182 -0.123211935 0.13168794 -0.13887149 -0.09399211
0.05018601 0.04295315 0.009804216 0.19612817 0.017640447 -0.22205915 -0.00064388616 -0.015316359
-0.05423597 -0.078647934 -0.044337153 0.34916434 -0.20907363 0.076504245 0.09238316 -0.060103547
0.002684704 0.33422652 0.03911686 0.023483144 0.0019010246 -0.0130512165 -0.042200968 0.008226181
0.013721064 -0.032653943 0.11948915 0.21524122 0.003879249 0.015603941 0.0042115725 -0.012529099
-0.015342783 0.0059120012 0.006340614 -0.06335677 0.11895895 0.048930407 -0.04691763 -0.055134524
-0.030068459 0.014251285 0.057950735 0.11862722 0.121960424 -0.0200827 0.07664013 -0.023388783
0.024015129 0.06824582 -0.008257267 0.112677924 0.09575074 -0.025488187 -0.028183209 0.061017074
-0.025007483 -0.02620273 0.029744081 0.051972896 0.11594062 0.038686637 -0.07329809 -0.016924504
-0.028135449 0.10063618 -0.06752942 0.07929694 -0.0456552 -0.07947923 6.814902e-05 -0.02675781
0.3086861 0.0085234 -0.023194175 -0.093010604 0.012392617 0.042062815 0.038638707 0.32200018
0.017081115 -0.110191226 0.10834711 0.045941338 -0.1041327 -0.103289284 -0.0132417735 0.115915745
-0.053605318 0.19161008 -0.13412316 -0.06182203 -0.093109116 0.10377853 0.019851953 0.07842236
0.05311943 -0.038571946 0.023775619 -0.016386855 0.132483 -0.013061487 -0.020993384 0.003763375
0.09323313 -0.0074272146 -0.13246095 0.07644255 0.15846895 0.053121354 0.109755315 -0.037448887
0.023630247 0.025978366 -0.07482357 0.09143992 0.12387114 0.13367079 0.04523057 0.00517362
-0.07287624 0.015142609 -0.051399834 0.021616569 0.01105103 -0.16407472 -0.08286182 0.053271893
-0.24236771 0.17951152 -0.015663225 0.12028928 -0.053229406 0.13123608 0.049227364 -0.006239271
0.37420082 0.09633523 -0.12092843 0.00077466277 0.007948375 -0.05952342 -0.12646638 0.099012166
0.021515096 -0.52471066 0.32259285 0.22914065 0.08804526 0.2544183 -0.07674335 -0.2009515
0.18114091 -0.55007374 0.180626 0.09514049 0.2469334 -0.25393027 -0.12983064 -0.04447102
-0.20979892 -0.0027328094 -0.012406765 -0.060159784 0.054853432 -0.056200966 -0.021566791 0.32913354
0.060562234 -0.036485 0.106397256 0.30381182 0.055747878 0.30814734 -0.2551496 -0.03276816
-0.008059981 0.095862135 0.043107502 -0.3085884 -0.32831267 0.1336149 -0.17698665 -0.12582505
0.0083774105 0.084462486 0.10985871 -0.12756622 -0.04739849 0.16086568 -0.11099189 -0.094463184
0.20064443 -0.3209216 -0.0074213073 -0.2105724 -0.03796477 -0.038872976 -0.08437189 -0.084711045
0.41569582 -0.26852882 0.42918408 0.17349441 0.16756843 0.0041482127 0.080691546 -0.46798137
00000000: 6a82 143e 74ec debd 29cb ae3d af00 c73e
00000010: 858f d2bd ed5c ba3d 9afd b1bd c7dc d23d
00000020: eb99 69bc e692 163b 7754 46be 8843 c63b
00000030: ad4a 86bd fbe1 2fbe 8d21 b5bc 98cf 2dbe
00000040: 57db db3d 3f98 3bbe ad12 d9bc d3ec dabc
00000050: db10 f73b 74ec d23d 58c8 9e3e 48dd ab3d
00000060: 137c 953c edea 5bbd 0403 f13d 91a5 99bd
00000070: 3f93 5a3d fc9f 003e 6b25 3bbe 3dc3 fd3d
00000080: e0c2 d3bc 0f11 bbbb 5871 fc3d 792a 963d
00000090: 4728 813d 4ff6 113e 7752 a5ba 6d6b a13c
000000a0: 5ab9 05bd 299c cabc b936 b23d 6a34 0e3e
000000b0: 8a56 fcbd 34d9 063e 5434 0ebe ef7e c0bd
000000c0: d88f 4d3d a4ef 2f3d dda1 203c d3d5 483e
000000d0: b382 903c 7963 63be 78ca 28ba 77f1 7abc
000000e0: 8926 5ebd 2b12 a1bd e09a 35bd abc5 b23e
000000f0: 6617 56be 42ae 9c3d 6233 bd3d 232f 76bd
00000100: dcf1 2f3b bd1f ab3e 0039 203d b95f c03c
00000110: cd2b f93a c5d4 55bc ecda 2cbd 1bc7 063c
00000120: 50ce 603c 24c0 05bd bab6 f43d 3268 5c3e
00000130: 003b 7e3b aca7 7f3c 3b01 8a3b da46 4dbc
00000140: 4c60 7bbc 76b9 c13b edc4 cf3b 32c1 81bd
00000150: c0a0 f33d 406b 483d b32c 40bd bdd4 61bd
00000160: 2152 f6bc 397e 693c c05d 6d3d d4f2 f23d
00000170: 63c6 f93d 7984 a4bc 80f5 9c3d d599 bfbc
00000180: 60bb c43c 77c4 8b3d 7d49 07bc afc3 e63d
00000190: f718 c43d 9acc d0bc 79e0 e6bc 0aed 793d
000001a0: 7edc ccbc 1ca7 d6bc dca9 f33c 88e1 543d
000001b0: 4772 ed3d e175 1e3d 4f1d 96bd 42a5 8abc
000001c0: 507c e6bc 571a ce3d dd4c 8abd 6f66 a23d
000001d0: f200 3bbd 02c6 a2bd 3aeb 8e38 3233 dbbc
000001e0: 1b0c 9e3e bba5 0b3c b601 bebc 587c bebd
000001f0: 670a 4b3c 0f4a 2c3d 9f43 1e3d 35dd a43e
00000200: b2ed 8b3c f0ab e1bd 17e5 dd3d fc2c 3c3d
00000210: 8643 d5bd 5589 d3bd 06f4 58bc 3c65 ed3d
00000220: 4091 5bbd 6f35 443e 9557 09be 1939 7dbd
00000230: feaf bebd d789 d43d 90a0 a23c e79b a03d
00000240: c293 593d 9efd 1dbd 16c5 c23c ba3d 86bc
00000250: a0a9 073e d9ff 55bc 51fa abbc f5a2 763b
00000260: 03f1 be3d fe5f f3bb d8a3 07be e98d 9c3d
00000270: af45 223e c795 593d 65c7 e03d 0164 19bd
00000280: 3894 c13c 95d0 d43c 1a3d 99bd da44 bb3d
00000290: 27b0 fd3d ffe0 083e b143 393d 7887 a93b
000002a0: 2340 95bd b518 783c a288 52bd 3b15 b13c
000002b0: 610f 353c 3403 28be 75b3 a9bd a133 5a3d
000002c0: 3e2f 78be ded1 373e 2a50 80bc 3a5a f63d
000002d0: 1407 5abd c062 063e a2a2 493d cc72 ccbb
000002e0: 4097 bf3e 684b c53d 53a9 f7bd bd12 4b3a
000002f0: e739 023c d4ce 73bd 6780 01be e4c6 ca3d
00000300: 6d40 b03c 7053 06bf e42a a53e d9a3 6a3e
00000310: 1351 b43d 1e43 823e 9e2b 9dbd 3bc6 4dbe
00000320: 017d 393e a2d1 0cbf 06f6 383e 04d9 c23d
00000330: 1cdc 7c3e 2603 82be 53f2 04be 3f27 36bd
00000340: 87d5 56be ef18 33bb be45 4bbc 1b6a 76bd
00000350: fead 603d fc32 66bd d7ac b0bc 3184 a83e
00000360: 1b10 783d 4c71 15bd cee6 d93d 398d 9b3e
00000370: e357 643d 7dc5 9d3e f8a2 82be e837 06bd
00000380: 030e 04bc 5e53 c43d 7e91 303d 4cff 9dbe
00000390: 9918 a8be 58d2 083e fd3b 35be 48d8 00be
000003a0: 6841 093c abfa ac3d 9afd e03d b8a0 02be
000003b0: eb24 42bd f9b9 243e b74f e3bd ea75 c1bd
000003c0: bc75 4d3e d64f a4be 702e f3bb 4ba0 57be
000003d0: f280 1bbd 4539 1fbd 2bcb acbd fc7c adbd
000003e0: 15d6 d43e 9c7c 89be 04be db3e 85a8 313e
000003f0: 0f97 2b3e bbed 873b 9c41 a53d 419b efbe

encoder_s.attn_layers.0.conv2.bias f4 [8]
-0.038783044 0.050511304 -0.018314365 0.10469429 -0.10024352 0.042184707 -0.08716112 -0.06809577
00000000: f8da 1ebd f1e4 4e3d 0208 96bc f669 d63d
00000010: 7a4c cdbd dfc9 2c3d 8781 b2bd cc75 8bbd

encoder_s.attn_layers.0.norm1.weight f4 [8]
0.94741106 1.4880956 1.3347323 0.66702545 0.89064646 0.59675694 1.0740566 1.3303286
00000000: 8889 723f eb79 be3f 82d8 aa3f 2ec2 2a3f
00000010: 6801 643f 10c5 183f b07a 893f 3548 aa3f

encoder_s.attn_layers.0.norm1.bias f4 [8]
-0.06644114 0.014251043 -0.14504056 0.018898569 0.00021875299 -0.1127993 -0.24450973 0.28139958
00000000: 4b12 88bd 357d 693c 8385 14be 2cd1 9a3c
00000010: 0f61 6539 5203 e7bd c260 7abe 9b13 903e

encoder_s.attn_layers.0.norm2.weight f4 [8]
0.94999665 1.2644082 0.97714096 0.8593652 0.6977764 0.69637066 1.0646641 1.0772858
00000000: fb32 733f 21d8 a13f e925 7a3f 5cff 5b3f
00000010: 79a1 323f 5945 323f ea46 883f 80e4 893f

encoder_s.attn_layers.0.norm2.bias f4 [8]
-0.029651877 0.15751728 -0.077249356 -0.005393648 -0.1446048 -0.0074244905 -0.039183646 0.19570328
00000000: 7ee8 f2bc 364c 213e e934 9ebd 33bd b0bb
00000010: 4813 14be 2449 f3bb 087f 20bd 7166 483e

encoder_s.attn_layers.1.attention.query_projection.weight f4 [8, 8]
0.063774556 0.08566547 0.17113116 -0.07929763 -0.60709375 0.28304112 -0.10937407 -0.18987724
-0.6069862 0.41635063 -0.22409613 -0.10949911 -0.3134835 -0.058564495 0.19964255 0.25721136
0.02276837 0.15790176 0.41699618 -0.58312964 0.12834695 0.14111969 0.43190718 0.23970929
0.40354714 -0.32105207 -0.08744558 0.11139914 -0.029174834 -0.09647544 0.124351226 -0.6744353
0.3201943 -0.3679639 -0.13672434 0.2422273 -0.14239077 0.47160387 -0.12578374 -0.2754819
0.3750129 0.5452614 0.12584314 -0.20998351 -0.78810334 -0.48666614 -0.3442864 0.25984687
-0.38516748 0.21544145 0.3238081 -0.49541435 0.107607976 -0.20783617 0.3279765 0.033114217
-0.64501256 0.30583653 -0.24304305 -0.1766243 0.2631039 0.2554641 -0.06958555 0.13529682
00000000: 3c9c 823d 6171 af3d 023d 2f3e cc66 a2bd
00000010: 7f6a 1bbf c4ea 903e 83ff dfbd 2e6f 42be
00000020: 7363 1bbf e92b d53e 7579 65be 1241 e0bd
00000030: e980 a0be 53e1 6fbd 196f 4c3e 35b1 833e
00000040: bc84 ba3c 00b1 213e 8680 d53e fc47 15bf
00000050: 626d 033e ae81 103e f022 dd3e 5a76 753e
00000060: bb9d ce3e f060 a4be ab16 b3bd 3b25 e43d
00000070: 1000 efbc ea94 c5bd dbab fe3d cba7 2cbf
00000080: 82f0 a33e c465 bcbe 7701 0cbe 6f0a 783e
00000090: e3ce 11be 1076 f13e 74cd 00be f70b 8dbe
000000a0: b101 c03e 4096 0b3f 06dd 003e eb05 57be
000000b0: 24c1 49bf 4e2c f9be 4f46 b0be a60a 853e
000000c0: ac34 c5be af9c 5c3e 2dca a53e f3a6 fdbe
000000d0: 9261 dc3d 01d3 54be 89ec a73e c6a2 073d
000000e0: 8b1f 25bf 9b96 9c3e 47e0 78be 00dd 34be
000000f0: 8eb5 863e 31cc 823e de82 8ebd 408b 0a3e

encoder_s.attn_layers.1.attention.query_projection.bias f4 [8]
-0.5541912 0.13251515 0.27034622 -0.83277345 -0.37221256 -0.037685126 -0.42476112 0.6976211
00000000: 79df 0dbf 0db2 073e d26a 8a3e a430 55bf
00000010: a592 bebe b85b 1abd 4a7a d9be 4c97 323f

encoder_s.attn_layers.1.attention.key_projection.weight f4 [8, 8]
0.021844026 0.1515785 0.28458214 -0.1469744 -0.2443498 0.39963824 0.22579077 0.08870764
0.08116622 -0.12015659 0.2266039 -0.32050046 0.11586186 -0.7791833 -0.31398857 0.8688201
-0.30047545 -0.3164325 0.2684886 -0.17938925 -0.06923524 -0.33576533 0.4487671 0.06893403
-0.22963491 -0.19542979 -0.4276797 0.25070792 0.48590428 0.2901557 -0.29459637 -0.33502534
0.25136608 0.46426657 0.3373921 -0.007192693 -0.16887109 -0.2073997 0.41047788 -0.06952835
0.3144461 -0.34627366 -0.13866039 -0.35937652 0.9879779 0.01740772 0.2070418 0.18933399
0.14998384 -0.848381 -0.0062179533 0.02854651 -0.29202643 -0.097222105 -0.13607143 -0.2477728
0.20299152 0.02266868 -0.008189662 0.58020616 0.61294276 0.27204034 -0.079461336 -0.360567
00000000: 3ef2 b23c 6537 1b3e c0b4 913e 7580 16be
00000010: d536 7abe 629d cc3e b235 673e 5aac b53d
00000020: 7a3a a63d a914 f6bd da0a 683e a318 a4be
00000030: fc48 ed3d 8f78 47bf 1cc3 a0be fe6a 5e3f
00000040: ebd7 99be 7103 a2be 5677 893e d1b1 37be
00000050: 35cb 8dbd 6fe9 abbe cdc4 e53e 492d 8d3d
00000060: 6a25 6bbe bf1e 48be d5f8 dabe ca5c 803e
00000070: 72c8 f83e 4a8f 943e 56d5 96be 7188 abbe
00000080: 0eb3 803e 59b4 ed3e a8be ac3e afb0 ebbb
00000090: 8bec 2cbe 9660 54be 282a d23e e164 8ebd
000000a0: 14ff a03e c84a b1be fdfc 0dbe 3300 b8be
000000b0: 1fec 7c3f a39a 8e3c c402 543e c5e0 413e
000000c0: 5d95 193e 7f2f 59bf f9bf cbbb 5fda e93c
000000d0: 7d84 95be 621c c7bd 4f56 0bbe 27b8 7dbe
000000e0: 02dd 4f3e abb3 b93c ef2d 06bc 6488 143f
000000f0: d1e9 1c3f df48 8b3e a0bc a2bd 3d9c b8be

encoder_s.attn_layers.1.attention.key_projection.bias f4 [8]
0.19290458 0.10398741 0.07580882 -0.1460937 -0.26551947 0.10139586 0.34143743 0.04263371
00000000: c788 453e 5af7 d43d a841 9b3d 9699 15be
00000010: 2bf2 87be a2a8 cf3d e3d0 ae3e afa0 2e3d

encoder_s.attn_layers.1.attention.value_projection.weight f4 [8, 8]
0.54574573 -0.06237747 0.14480735 0.69586426 0.51154095 0.029770376 -0.4512487 -0.39583427
0.0040424517 -0.2984228 -0.0636582 0.21500598 0.049481582 0.118854 -0.78207684 0.16351584
-0.22841944 -0.9551058 -0.056107067 0.5482349 0.41374603 0.24779703 0.064348236 -0.16403072
0.33573776 -0.090183355 -0.1792151 -0.38308677 0.7436764 -0.28270975 0.061613224 0.35137233
0.1581168 -0.024809133 -0.18698788 0.63766354 0.34067717 0.3156445 -0.05399131 -0.17492168
-0.24183586 0.17664614 -0.22168031 0.6026857 -0.62895554 -0.16545013 -0.36198238 -0.09676436
-0.08787975 0.39005318 -0.56927186 0.17940691 0.23082209 0.57611054 -0.57675433 -0.19912617
0.85707384 0.27911142 0.020090828 -0.013492778 0.0043313927 0.16117057 -0.12281609 -0.73547477
00000000: feb5 0b3f 857f 7fbd 6148 143e 2924 323f
00000010: 59f4 023f 01e1 f33c 120a e7be caaa cabe
00000020: 8b76 843b e0ca 98be 3b5f 82bd 872a 5c3e
00000030: 33ad 4a3d ba69 f33d 3036 48bf b270 273e
00000040: c9e6 69be d081 74bf 86d0 65bd 1f59 0c3f
00000050: 85d6 d33e 81be 7d3e 02c9 833d abf7 27be
00000060: d2e5 ab3e 0db2 b8bd 2a84 37be f323 c4be
00000070: 9461 3e3f 55bf 90be 265e 7c3d 13e7 b33e
00000080: 5fe9 213e 863c cbbc c079 3fbe eb3d 233f
00000090: 3d6d ae3e 289c a13e fe25 5dbd ab1e 33be
000000a0: d2a3 77be bae2 343e 2a00 63be 9c49 1a3f
000000b0: 3b03 21bf c26b 29be c155 b9be 652c c6bd
000000c0: 4cfa b3bd 0db5 c73e cdbb 11bf 72b6 373e
000000d0: a05c 6c3e fb7b 133f 2ca6 13bf bbe7 4bbe
000000e0: 3169 5b3f b1e7 8e3e 8595 a43c d010 5dbc
000000f0: 5bee 8d3b e609 253e 0187 fbbd 1348 3cbf

encoder_s.attn_layers.1.attention.value_projection.bias f4 [8]
-0.29534614 -0.02275469 -0.38204992 -0.34167343 0.040785827 0.30678853 -0.36186942 0.53868145
00000000: 9c37 97be 0b68 babc 0c9c c3be d2ef aebe
00000010: 0a0f 273d 6313 9d3e f346 b9be 07e7 093f
