SimMTM-main/SimMTM-main/SimMTM_Forecasting/outputs/pretrain_checkpoints/ETTh1/ckpt_best.pth (torch, 396951 bytes, 71 tensors)

enc_embedding.value_embedding.tokenConv.weight f4 [16, 1, 3]
00000000: a407 f13e 6c3e 83bf 330c ba3e 3266 45bf
00000010: f2ce ca3f 46e5 7a3f 07e1 f53e 5563 21bf
00000020: 3f6d c53d 2975 5cbf 8058 1fbf 97ee 6abf
00000030: bf2d b33e f4f2 a1bc 8e92 fb3e 2d66 dcbe
00000040: 42c6 003f 738b 2abe fde8 9e3e 417f 6c3e
00000050: 39e5 3bbf 3349 de3e 3fdd fe3f ac34 4e3f
00000060: 64f3 2bbf 218c 203f 3a4c 3d3e b0ef efbd
00000070: f5ff 1ebe aae5 f5bd cbcc 6dbe 88bc c5bf
00000080: 280b a4bd 6b43 83bf a4d5 933e 3c9d 21bf
00000090: 9c18 633f 022b d03f 1c47 73bc f20d a5bd
000000a0: 7968 98be 95f0 5b3e 167b b83f 953e 11bf
000000b0: 4054 a33f fc24 0f3f 1031 a03f 66bf 083f
0.47076142 -1.0253425 0.36337432 -0.7710906 1.5844405 0.98006094 0.48023245 -0.63042194
0.09639978 -0.8611627 -0.62244415 -0.9177031 0.3499584 -0.01976917 0.4913525 -0.43046704
0.5030252 -0.16654758 0.3103713 0.23095419 -0.7339664 0.43415222 1.9911269 0.8054912
-0.6716826 0.6271382 0.1848611 -0.11715639 -0.15527327 -0.120066956 -0.23222654 -1.544816
-0.080099404 -1.0254949 0.28873932 -0.63130546 0.88709426 1.6263125 -0.014848497 -0.080593005
-0.29767206 0.21478494 1.4412563 -0.5673612 1.2760086 0.5591581 1.2514973 0.5341705

enc_embedding.position_embedding.pe f4 [1, 5000, 16]
00000000: 0000 0000 0000 803f 0000 0000 0000 803f
00000010: 0000 0000 0000 803f 0000 0000 0000 803f
00000020: 0000 0000 0000 803f 0000 0000 0000 803f
00000030: 0000 0000 0000 803f 0000 0000 0000 803f
00000040: a46a 573f 4151 0a3f 3e39 9f3e 6b4e 733f
00000050: 7675 cc3d 98b8 7e3f 5b81 013d 3cdf 7f3f
00000060: 57d6 233c b9fc 7f3f 1c3e 4f3b acff 7f3f
00000070: 6d12 833a f8ff 7f3f 61cb a539 ffff 7f3f
00000080: b7c7 683f 3311 d5be 1b54 173f ec7b 4e3f
00000090: f86f 4b3e a5e5 7a3f c870 813d f97c 7f3f
000000a0: 3ed4 a33c e5f2 7f3f d83d cf3b b1fe 7f3f
000000b0: 6812 033b dfff 7f3f 60cb 253a fdff 7f3f
000000c0: c381 103e 2670 7dbf c209 503f 582f 153f
000000d0: 6c4e 973e ef90 743f c0ff c13d 4fd9 7e3f
000000e0: 1fb9 f53c 83e2 7f3f 0d6e 1b3c 0dfd 7f3f
000000f0: 929b 443b b5ff 7f3f 10b1 783a f9ff 7f3f
00000100: cfbd 41bf 3055 27bf de1d 743f b12e 9a3e
00000110: d761 c73e a7ca 6b3f 882e 013e 69f4 7d3f
00000120: dbcb 233d 94cb 7f3f c93c 4f3c c2fa 7f3f
00000130: 5712 833b 7aff 7f3f 5ecb a53a f3ff 7f3f
00000140: 107c 75bf 2c3c 913e 7ffc 7f3f e972 29bc
00000150: 4377 f53e 40a9 603f 1d3c 213e 81ce 7c3f
00000160: f4b6 4c3d 19ae 7f3f 7e85 813c cff7 7f3f
00000170: ddd6 a33b 2eff 7f3f 333e cf3a ebff 7f3f
00000180: 8c0f 8fbe b8cd 753f 4e78 723f 6d3f a4be
00000190: 688c 103f 3249 533f 6e20 413e e367 7b3f
000001a0: d19c 753d 128a 7f3f 436c 9b3c 34f4 7f3f
000001b0: 589b c43b d2fe 7f3f 08b1 f83a e2ff 7f3f
000001c0: 4630 283f bdff 403f 6ee8 4c3f bc74 19bf
000001d0: 72eb 243f b3cc 433f 50d3 603e eac0 793f
000001e0: 323e 8f3d 815f 7f3f a252 b53c f2ef 7f3f
000001f0: c55f e53b 65fe 7f3f ed11 113b d7ff 7f3f
00000200: 9546 7d3f f6fd 14be 7e06 133f e591 51bf
00000210: a5a4 373f 5f5b 323f 5126 803e 02da 773f
00000220: 50aa a33d 652e 7f3f 8a38 cf3c 08eb 7f3f
00000230: 1212 033c e7fd 7f3f 55cb 253b caff 7f3f
00000240: 3201 d33e d53f 69bf ee1f 953e a2e6 74bf
00000250: 1c88 483f d521 1f3f 2dc2 8f3e a9b3 753f
00000260: 3e12 b83d c2f6 7e3f ea1d e93c 76e5 7f3f
00000270: 3a74 133c 59fd 7f3f bc84 3a3b bcff 7f3f
00000280: f844 0bbf 64cd 56bf 9770 a9bc fbf1 7fbf
00000290: a46a 573f 4151 0a3f 3d39 9f3e 6b4e 733f
000002a0: 7675 cc3d 98b8 7e3f 5981 013d 3cdf 7f3f
000002b0: 57d6 233c b9fc 7f3f 223e 4f3b acff 7f3f
000002c0: 5cff 7fbf 7205 913b 1f41 a9be 8d9b 71bf
000002d0: 2a26 643f c33d e83e 8b87 ae3e e4aa 703f
000002e0: 72d3 e03d e873 7e3f 6873 0e3d 5bd8 7f3f
000002f0: 6938 343c 09fc 7f3f 87f7 633b 9bff 7f3f
00000300: d85c 09bf d006 583f 2491 1bbf 564f 4bbf
00000310: 1d9a 6e3f f786 b93e 2ca9 bd3e c3c9 6d3f
00000320: ac2b f53d b528 7e3f 1965 1b3d d2d0 7f3f
00000330: 709a 443c 48fb 7f3f ebb0 783b 87ff 7f3f
00000340: 2220 d73e 6f4e 683f 4c14 53bf 9dd9 10bf
00000350: c0ab 763f 9df5 883e 3f9a cc3e c3ab 6a3f
00000360: d0be 043e 00d7 7d3f 6556 283d a1c8 7f3f
00000370: 6afc 543c 76fa 7f3f 26b5 863b 72ff 7f3f
00000380: 7298 7d3f d704 0c3e b3a8 75bf 0a0d 90be
00000390: 6f46 7c3f e70b 2e3e f456 db3e b151 673f
000003a0: 64e4 0e3e cc7e 7d3f 4347 353d c9bf 7f3f
000003b0: 555e 653c 94f9 7f3f d611 913b 5cff 7f3f
000003c0: 4479 263f e87a 42bf 75e0 7fbf 9622 fe3c
000003d0: d55b 7f3f bade 903d 83db e93e 68bc 633f
000003e0: 4f06 193e 1a20 7d3f aa37 423d 49b6 7f3f
000003f0: 32c0 753c a1f8 7f3f 856e 9b3b 43ff 7f3f
0.0 1.0 0.0 1.0 0.0 1.0 0.0 1.0
0.0 1.0 0.0 1.0 0.0 1.0 0.0 1.0
0.84147096 0.54030234 0.3109836 0.9504153 0.099833414 0.9950042 0.031617504 0.99950004
0.009999833 0.99995 0.0031622713 0.999995 0.0009999998 0.9999995 0.00031622782 0.99999994
0.9092974 -0.41614684 0.5911271 0.8065784 0.19866931 0.9800666 0.063203394 0.9980007
0.019998666 0.9998 0.006324511 0.99998003 0.0019999985 0.99999803 0.0006324556 0.9999998
0.14112 -0.9899925 0.8126489 0.58275366 0.2955202 0.9553365 0.094726086 0.99550337
0.0299955 0.99955004 0.009486687 0.999955 0.0029999954 0.9999955 0.00094868336 0.9999996
-0.7568025 -0.6536436 0.95358074 0.30113748 0.38941833 0.921061 0.12615407 0.99201065
0.039989334 0.9992001 0.01264877 0.99992 0.003999989 0.999992 0.0012649109 0.9999992
-0.9589243 0.2836622 0.99994653 -0.010342338 0.47942552 0.87758255 0.15745588 0.987526
0.049979165 0.99875027 0.015810724 0.999875 0.004999979 0.9999875 0.0015811383 0.99999875
-0.2794155 0.96017027 0.9471482 -0.3207964 0.5646424 0.8253356 0.18860027 0.98205394
0.059964005 0.99820054 0.018972522 0.99982 0.0059999637 0.999982 0.0018973658 0.9999982
0.6569866 0.75390226 0.8004216 -0.5994375 0.6442176 0.7648422 0.2195561 0.9755999
0.06994285 0.997551 0.022134129 0.999755 0.006999942 0.9999755 0.0022135929 0.99999756
0.98935825 -0.14550003 0.5743178 -0.8186324 0.717356 0.6967067 0.25029233 0.9681703
0.07991469 0.9968017 0.025295515 0.99968004 0.007999914 0.999968 0.0025298197 0.9999968
0.4121185 -0.91113025 0.29125923 -0.9566442 0.78332686 0.62161 0.28077832 0.95977265
0.089878544 0.9959527 0.028456647 0.99959505 0.008999879 0.9999595 0.0028460464 0.99999595
-0.5440211 -0.8390715 -0.02068357 -0.9997861 0.84147096 0.54030234 0.31098357 0.9504153
0.099833414 0.9950042 0.031617496 0.99950004 0.009999833 0.99995 0.0031622727 0.999995
-0.9999902 0.004425698 -0.33057496 -0.94377977 0.89120734 0.4535962 0.34087786 0.9401076
0.1097783 0.9939561 0.03477803 0.9993951 0.010999777 0.9999395 0.003478499 0.999994
-0.53657293 0.84385395 -0.6076834 -0.7941793 0.9320391 0.36235783 0.3704313 0.9288599
0.119712204 0.99280864 0.03793821 0.9992801 0.011999711 0.999928 0.0037947248 0.9999928
0.42016703 0.9074468 -0.82452846 -0.5658205 0.9635582 0.26749888 0.3996143 0.9166834
0.12963414 0.9915619 0.041098017 0.9991551 0.012999633 0.9999155 0.00411095 0.99999154
0.9906074 0.13673721 -0.9596054 -0.28134948 0.98544973 0.16996728 0.42839777 0.90359026
0.13954312 0.990216 0.044257414 0.99902016 0.013999541 0.999902 0.004427175 0.9999902
0.65028787 -0.7596879 -0.9995187 0.031022351 0.997495 0.07073732 0.45675287 0.8895936
0.14943813 0.9887711 0.047416367 0.9988752 0.014999436 0.9998875 0.0047433996 0.99998873

enc_embedding.temporal_embedding.embed.weight f4 [16, 4]
00000000: 646f 5dbe 703f b33d 2ccd a8be 2641 a53e
00000010: da14 863e 04e8 31be c080 863d 343f 3f3e
00000020: ac45 94be c0cb 3ebe 28fd bcbd f685 93be
00000030: 6413 c8be ce43 973e ac24 69be 56e3 cfbe
00000040: c01d 583c 9042 3e3d b698 f03e 442d 5c3e
00000050: 96f8 e33e 4035 aebe 104b 00bd c03d cabd
00000060: 306b 3ebd 285a b33e 504e 173d c033 613d
00000070: 9e66 cabe 600f d7bc d8d2 213e 0841 8f3d
00000080: b876 e93d c286 e83e 1050 febe 52aa d43e
00000090: 0029 cc3c acb5 dabe 3688 b5be 6e02 d23e
000000a0: 000c 37bb 38b3 46be 1051 9a3e 905b febe
000000b0: eeb0 c7be 0072 3d3d 30fa 0b3e 8c67 69be
000000c0: 2474 0cbe ac79 87be 58ce 713e c0ca 4a3d
000000d0: 5aaf 91be b46d 323e d80c 11be 002a ddbb
000000e0: 8411 b43e ca6b ccbe 5463 0a3e 3eb5 d03e
000000f0: d06e 6ebd 742a 51be 7c62 be3e c04e 75bd
-0.21624523 0.08752334 -0.32969034 0.32276267 0.26187783 -0.17373663 0.06567526 0.18676454
-0.28959405 -0.18632412 -0.09227973 -0.28813142 -0.39077294 0.29543918 -0.22767895 -0.4060313
0.013190687 0.046450198 0.4699151 0.21501642 0.44525594 -0.34025002 -0.031321585 -0.09875059
-0.04648894 0.3502972 0.03693992 0.054980993 -0.39531416 -0.026252449 0.15803087 0.069948256
0.11399597 0.45415312 -0.49670458 0.41536194 0.024921894 -0.4271673 -0.35455483 0.4101748
-0.0027930737 -0.19404304 0.3013997 -0.49679232 -0.39002174 0.046251297 0.13669658 -0.22793406
-0.13716179 -0.26460016 0.2361387 0.049509764 -0.28454095 0.17424661 -0.14165056 -0.0067493916
0.35169613 -0.39925987 0.13514453 0.40763277 -0.058211148 -0.20426351 0.37184513 -0.059889555

encoder_s.attn_layers.0.attention.query_projection.weight f4 [16, 16]
00000000: 1d1c 31be 0784 4abe 3f08 a03e e8f6 343c
00000010: d9fb 29be 1409 abbd 8e8e b03e 3f19 993c
00000020: 8d46 2b3e 59d8 9bbc f442 1c3e 485c 37be
00000030: f81f 393d cdfd 68bd aba7 45be 7f5d 893d
00000040: b0e8 08be 8354 ee3c 1106 b53d ff34 c93d
00000050: 4762 673e 4f0e 8e3e 72cc 563e c80a e93c
00000060: 26c1 b5bd 80b1 91bd 0854 1d3e 90bf 193e
00000070: 02a6 69bc 54e6 163e e0c1 393e 414e 1d3e
00000080: 0222 97be 1538 8a3e d91c 33be b119 4a3e
00000090: 7c52 97bd 1d53 243e 7c4c a23e 5edb 543c
000000a0: adb4 8dbd 6169 31bc 5b01 2e3e 02e6 493e
000000b0: 3527 0bbd 9cee 6b3d 64af 9c3d 0c70 5d3e
000000c0: d26b e9bd c8bc 02be fe7e 98be 6217 4bbe
000000d0: 2ead b8bd f234 89be 90c3 05bd 3fd6 52bc
000000e0: 247f f6bd ef5c b1bd 4a0d 023e 1e2b 06be
000000f0: f71b 84be c266 2e3e 9814 9f3d 6239 483b
00000100: 2ff4 f7bd 6a4e 80be 4f9e 04be c206 08be
00000110: c49a 323e e1ed 10be 1af7 36be 31ca 133e
00000120: aee4 b7bd 982c f1bc 64e7 2abe 8470 443e
00000130: 7825 7cbe 16fd 243c c735 923d 182f 10bd
00000140: 4924 b7bd 2bc4 07be 995e 0dbe 3db1 12bc
00000150: 1bb4 d6bd d15d 1b3e 07ce 8cbe f646 943c
00000160: 60a3 a4bd 2277 ee3d a8c6 f2bd 0e03 b83d
00000170: 06a2 1fbe 171b e8bb d361 99bd c59f 5ebd
00000180: fe88 6bbb 91d3 9a3d 579b 933d 487e f4bd
00000190: ef87 a63b f4a7 9d3d 4733 97bd 3987 63be
000001a0: 977a 89be ae16 0b3e fda2 ff3d 06fc 92bd
000001b0: 4684 2f3e faa1 793d a923 52bc e030 3b3e
000001c0: e4f5 a93e d829 0d3d 5ae0 12bc 001d 943d
000001d0: 807f 083e 54eb 183d 0cc7 4d3e db82 093d
000001e0: b483 223e afe7 723e 2c69 433d 7589 8abc
000001f0: 65de 0d3e ae04 2fbe ac7a 6b3d 1bad 12be
00000200: 823b cfbe 5210 253d fa78 ccbd 4f7b c33c
00000210: fd9c 0fbd 98b5 24be c912 773d 2aec 30be
00000220: fd4c 0fbe 5fa7 cb3d ec3a d6bd 779f 5fbe
00000230: 82cb a93d c0a9 82be 8d94 88bc a7f0 d5bd
00000240: b153 df3c b03c b93d 7482 5dbe 3602 4ebe
00000250: 57a8 3cbe 944c 933e 6507 e83d ab82 5abd
00000260: 5385 91bd 932c e7bc b47a 813d f785 c63d
00000270: c82a eb3d f7dc 44be 4529 2fbe ef59 73bd
00000280: 66a1 0c3e e57d 18be d81d 063f 4f1e 7abe
00000290: 2c99 573e e4f2 413d 85d3 fb3c bfe4 ffbd
000002a0: b1ad 82be 4acf 72be 769e 203e 77d6 623d
000002b0: 2d8f e9bd 1b1a 01be 509b eb3d acd6 253e
000002c0: 76e6 bebe c3d4 6c3d ee68 333e 715d a33d
000002d0: 4f5b 9d3d a078 4c3c 3fe2 a3be 6231 b3bd
000002e0: d63f d63d 744f 44be bd1f 0cbe 0548 4abc
000002f0: f824 543e fa88 9abd 6768 9d3d d6ab 143d
00000300: 6e4a 8dbd 8fe0 ec3d 4e76 f0bc 2af3 b7bd
00000310: af61 7bbb f365 7dbe 1667 8f3c 9fdc 25be
00000320: 62fd 80bb 3e8e 42be c1d1 38be 6b79 923d
00000330: 8c05 c9be d03a 213d 63cc c0bd c14e 8a3e
00000340: b77a 813d fb2e 7ebd 9f30 a8be 4c0e b6bc
00000350: a461 1cbe daeb 91bc 1b25 98bd d5af debd
00000360: 33ff 07be b287 8abe 38b2 9d3d d374 adbc
00000370: 06d6 263d d771 23bd b5f3 abbc fe09 403e
00000380: 2ee5 28be 1fa7 9ebd a537 653e c8ca a13d
00000390: d1f8 40bd 2435 b9bc 5812 75bd 81bd 7ebe
000003a0: d836 9abd 0a29 b1bd 1bab e1bd 5518 ba3d
000003b0: 0809 26be 8180 193b 19d6 50be c2e1 0d3e
000003c0: 41ea 253c 7cf6 fa3d eaa7 46be 9836 493d
000003d0: 3829 a2bd 5933 003d 6d53 183e d666 1d3d
000003e0: e2c0 0f3e 8a94 3fbe a3c7 f03d bb2e 12be
000003f0: 1695 1a3d fb03 0e3e 47c0 f93d 1467 ddbd
-0.1729588 -0.19776927 0.3125629 0.011045195 -0.16599979 -0.08351341 0.3448376 0.018688796
0.16726132 -0.019024061 0.15259916 -0.17906296 0.045196503 -0.05688267 -0.19302242 0.06707286
-0.13370013 0.029093033 0.08839048 0.09824561 0.22596084 0.27745292 0.20976427 0.028447524
-0.08874731 -0.071139336 0.15364087 0.15014482 -0.014260771 0.147363 0.18140364 0.15361883
-0.29518133 0.26995912 -0.17491473 0.19736363 -0.073887795 0.1604733 0.31698978 0.012991754
-0.06919227 -0.010828347 0.16992705 0.19716647 -0.033972938 0.057600603 0.076506406 0.21624774
-0.11397518 -0.12767327 -0.29784387 -0.19833139 -0.090174064 -0.26798207 -0.032657206 -0.012868463
-0.12035969 -0.08660304 0.12700382 -0.13102385 -0.25802585 0.17031386 0.077676 0.003055178
-0.12107121 -0.25059825 -0.12951015 -0.13283828 0.17441851 -0.14153244 -0.178677 0.14432599
-0.08979164 -0.02944021 -0.16689831 0.19183546 -0.24623668 0.010070106 0.071391635 -0.035201162
-0.08942468 -0.13258426 -0.13805617 -0.00895339 -0.10483571 0.15172507 -0.27500936 0.018100243
-0.08038974 0.116438165 -0.11854297 0.08984958 -0.15589151 -0.0070833075 -0.074893616 -0.054351587
-0.0035939808 0.07559884 0.07207363 -0.11938149 0.0050821225 0.0769805 -0.07382827 -0.22219552
-0.2685134 0.1358287 0.124822594 -0.07176976 0.17140302 0.06094549 -0.012825885 0.18280363
0.33195412 0.034463733 -0.008964622 0.07232094 0.13329887 0.0373338 0.20095462 0.03357206
0.15870553 0.23721193 0.04770772 -0.016911248 0.13854368 -0.17091629 0.057490036 -0.14323847
-0.40475088 0.040298767 -0.09984012 0.023862509 -0.035061825 -0.16084898 0.06032065 -0.1727759
-0.13994212 0.09944033 -0.10460457 -0.21838175 0.08290769 -0.25520134 -0.016672397 -0.104462914
0.027261587 0.09044778 -0.21631795 -0.20118031 -0.18423592 0.28769362 0.113295354 -0.05334727
-0.07105508 -0.028219497 0.06322232 0.096935205 0.11482769 -0.19224916 -0.17105587 -0.05941194
0.13733444 -0.14891775 0.5238929 -0.24425624 0.21054524 0.04735078 0.030740509 -0.12494802
-0.2552314 -0.23711887 0.15685448 0.05538031 -0.11404262 -0.12607615 0.11504233 0.16195172
-0.37285203 0.057820093 0.17520496 0.07976807 0.07683431 0.012479931 -0.3200855 -0.087496534
0.104613945 -0.19170934 -0.13683982 -0.012346272 0.20717227 -0.075456575 0.07685929 0.036296688
-0.06898962 0.11566269 -0.029353287 -0.08981927 -0.0038357785 -0.24745922 0.01750521 -0.16197442
-0.0039364556 -0.18999574 -0.18048765 0.07152065 -0.39262044 0.03936273 -0.09413984 0.2701321
0.06322234 -0.062056523 -0.32849595 -0.022223614 -0.15271622 -0.017812658 -0.07428952 -0.10873381
-0.13280945 -0.27056652 0.07700008 -0.02117387 0.040731452 -0.039903488 -0.020990232 0.18753812
-0.16493675 -0.077467196 0.22384508 0.079000056 -0.04711229 -0.022608347 -0.059831947 -0.24876978
-0.07529992 -0.08650406 -0.11018964 0.09086672 -0.16214383 0.0023422542 -0.20394172 0.13855651
0.010126651 0.122540444 -0.19399992 0.04912433 -0.07918018 0.03129897 0.14875574 0.03842815
0.14038423 -0.18709007 0.11756828 -0.14275639 0.037739836 0.13868706 0.12194877 -0.10810676

encoder_s.attn_layers.0.attention.query_projection.bias f4 [16]
00000000: 7d6f 8cbd 86c3 a4bd 30be 9d3c 3ab2 8b3d
00000010: f1e2 873e 5b97 46bd 6d64 39be ed25 a63c
00000020: 84bf a7be 8942 253e 8e8b 66bb b92c febd
00000030: c4be 22be d3d8 a0be 1bcc 683e eb64 173e
-0.06857202 -0.08045106 0.019255728 0.068211034 0.2654033 -0.048484188 -0.18104716 0.020281756
-0.32763302 0.16138662 -0.0035178396 -0.12410874 -0.15893084 -0.31415424 0.2273411 0.14784591

encoder_s.attn_layers.0.attention.key_projection.weight f4 [16, 16]
00000000: 9dc9 64be 3847 f13d 8f54 c2bd 063c 673e
00000010: 8e32 d5bd 3ae6 653d 4ded 92be 44bd 633d
00000020: 1d4e 02bd 4512 be3d 8e04 12bc b616 293e
00000030: 64ee a0bd 8580 583e 4007 713d 9b97 01be
00000040: 7fac 383e 8c9b bbbd 8ea1 08bd a1b4 ea3d
00000050: d022 313d 4156 bbbe 0d1f 6dbe 0daa 1d3e
00000060: d699 adbd 970a 2e3e 65c9 dd3d 634f b5bd
00000070: 2f78 51be 276a 003f d6e1 033a b511 65be
00000080: 7778 1cbe 3e6a 4bbe 9086 353e 1365 033e
00000090: 653a ae3d 380b 813d 68cb 163c af9a b3bd
000000a0: e44c af3e b7fe 6fbe c0fb 74be 9ea0 eb3d
000000b0: fe1b 653e 19dd 03be 007b 0abe 317c 7b3e
000000c0: feaf 2cbe 8a15 57be f825 853e ea53 eabd
000000d0: 3055 7bbd e0e2 b9be aacb 0b3e e593 52bd
000000e0: d420 b73d 605f ab3e 8780 a13d b5db 9fbd
000000f0: 685d 0c3e 4942 b0bc 88ee d1bc c0bb 4abd
00000100: f2b1 03bd d564 fb3c 82b8 72be 546c 99bd
00000110: 910c dd3a d2ad 68bd 13fa 5a3e 2bc1 0f3e
00000120: f2ea cb3d d041 b9bd af56 32be b336 0b3e
00000130: 09e7 6cbd e477 38be c03e 113e b38e 0e3d
00000140: 5860 c9bd 7a70 233e 3876 81bd da75 ab3d
00000150: 1902 283e ea17 79be c26f 86be 0591 0fbe
00000160: e697 733e ea76 05be 8e79 28be b916 8e3d
00000170: f6bc 293e 0b27 073e df1e 793d 0f62 9f3d
00000180: 5686 3dbe 8d8e bc3b d742 713e 316b 99bd
00000190: dc9e ae3a 6a8c 2c3e 35a7 eabd 5ddc f3bd
000001a0: 18c1 373e 9ed2 dabd 5eff f2bd 7338 1b3d
000001b0: 2815 24bc 53ee 343e 9398 44be 1b1a 7abe
000001c0: 3150 ffbc 4d22 4d3c f061 6b3e 23eb 8b3d
000001d0: 3895 12be 9903 a6bd bdd8 d53e 8353 68be
000001e0: 1389 ddbe b3c1 89be cfa8 013d 1a0d 24be
000001f0: 7bfb a6bd 9c99 773e c71b 113d b554 04bd
00000200: 02cc 2c3d bc72 ca3d d112 57be 43bb 8a3c
00000210: feec 183e 3b22 b23c 6040 9dbe e17e 003d
00000220: 723a af3e c4bb 2f3e 277b 533d 503f 843e
00000230: f40f 36be 9936 e83c f660 57bd a488 7d3c
00000240: f156 a9bc 1be9 3dbe f366 ecbd 54f2 0a3e
00000250: 7e80 4cbd d30e dabb 6386 eabd 10d4 46be
00000260: 95ad 133e ed3c bebd 27f3 dabd 550c 83be
00000270: dd5d ec3d 349e 203e 401b 383e ae96 2b3e
00000280: ea8b bf3e 1e41 36be 2cb1 af3e 4d29 6d3d
00000290: 8b2b 8b3b 3974 cebd ab7f a2be 84da 89be
000002a0: ef82 e4bd 222c a4bd f891 06be e0fe b5bc
000002b0: e598 c1be 1641 6c3e 79ae 363e 6b98 a4bc
000002c0: ba22 3b3c 35cc 98bd 8d2c 42be 12eb 373b
000002d0: 7eb7 03be e8d2 72be 3452 43be ee96 543d
000002e0: 2d6a a83c 5747 f2bd 2963 8a3d c25e 48be
000002f0: 8ab3 073d d3aa 7abc fc42 d53c f411 4d3e
00000300: a51f f63d 7617 8f3d 2ebe af3e c0bb f53d
00000310: a25f 153e 43fc 0e3e 01c3 5d3e cfc3 28be
00000320: a970 ee3c 97f4 53be 99b2 3abe cfb9 f43d
00000330: d4c9 b93d 94ee 82be 51a0 acbd ceab 51bd
00000340: 6c28 ea3a 177f b2be 57a8 4c3e d6fd 473d
00000350: 924f 423e e249 843d 0bd9 d93e da82 a63d
00000360: 34b1 86bd e79e ab3d 4a76 1d3e 2840 723e
00000370: 99a4 083e c963 a7be d994 9abd 0b93 34be
00000380: 4eae 3abc 887a 553d 986c 303e ed14 33be
00000390: 799c a53d 1e02 6c3e a048 a43e e9c4 62bd
000003a0: 29de 2ebe 83ae 56be a847 4ebd 6792 d7bd
000003b0: 9429 613e 63b2 b43d e5bd 64bd f9c6 7d3d
000003c0: 9aa3 11be 9b11 aebd 3111 2dbe 112f e63d
000003d0: 95ce 8ebc 29f0 fbbd ab25 9a3d cfdd 993d
000003e0: 0497 17be 6996 35be a9d1 ef3c d830 113e
000003f0: 1238 a5bc 4572 a7bd 974f 9e3d 3965 2fbe
-0.22342534 0.11781162 -0.094887845 0.22581491 -0.10410033 0.056127764 -0.2869667 0.05560042
-0.031812776 0.092808284 -0.008912219 0.1651257 -0.078579694 0.21142776 0.058844805 -0.12655489
0.18034552 -0.091605276 -0.033357196 0.114602335 0.04324609 -0.36589244 -0.23156376 0.153969
-0.084766075 0.16996227 0.108294286 -0.088530324 -0.20456003 0.50161976 0.00050309056 -0.22370036
-0.15280329 -0.19864747 0.17727113 0.12831526 0.085072316 0.06300968 0.009203769 -0.08769738
0.3423835 -0.2343701 -0.2392416 0.11505245 0.2237396 -0.12877311 -0.13523483 0.24559094
-0.1686401 -0.2100431 0.2600553 -0.114417866 -0.061360538 -0.36305904 0.1365191 -0.051410574
0.08941808 0.33471203 0.07885843 -0.07805578 0.13707507 -0.021515982 -0.025626436 -0.04949546
-0.032152124 0.030687729 -0.23703197 -0.07491365 0.0016864707 -0.056806393 0.21384458 0.14038531
0.09956922 -0.09045756 -0.1741588 0.13595085 -0.05783752 -0.18014485 0.14184093 0.034804057
-0.09832829 0.15960875 -0.063213766 0.08372088 0.1640705 -0.24325529 -0.2625714 -0.14020164
0.23788413 -0.13033643 -0.1645262 0.06937928 0.16575989 0.13198487 0.060820457 0.07782375
-0.18508276 0.005754298 0.23560654 -0.07491148 0.001332249 0.16850439 -0.114576735 -0.11907265
0.17944753 -0.10684703 -0.11865114 0.03789563 -0.01001481 0.17669038 -0.19198827 -0.24424021
-0.031166168 0.012520385 0.22986579 0.06831958 -0.14314735 -0.08106155 0.4176692 -0.22688107
-0.43268642 -0.26905593 0.03165513 -0.16020623 -0.08153435 0.24179691 0.03542688 -0.032307345
0.042186745 0.09885165 -0.21003272 0.016934996 0.14934155 0.021744838 -0.30713177 0.031371
0.34224278 0.1716147 0.05163112 0.25829554 -0.17779523 0.028346347 -0.052582704 0.015474472
-0.02067134 -0.18545954 -0.115430735 0.13569003 -0.049927227 -0.006654599 -0.114514135 -0.19416833
0.14421685 -0.092889644 -0.10690909 -0.25595346 0.115413405 0.1568535 0.17979145 0.16756698
0.37411433 -0.17798278 0.3431486 0.057900716 0.004247134 -0.100807615 -0.31738028 -0.26924527
-0.11157786 -0.0801623 -0.1314162 -0.02221626 -0.37811962 0.23071703 0.17839994 -0.02009221
0.011421854 -0.074608244 -0.18962307 0.0028063697 -0.12862965 -0.23713267 -0.19074327 0.05190175
0.020558441 -0.11830013 0.067571945 -0.19567397 0.033130206 -0.015299517 0.026032917 0.2002638
0.120177545 0.06986897 0.34324783 0.11998701 0.14587262 0.13963418 0.2165642 -0.16480945
0.029106455 -0.20698772 -0.18232192 0.11949503 0.09071699 -0.25572646 -0.084290154 -0.051189236
0.001786483 -0.34862587 0.19986092 0.04882606 0.18975666 0.064594045 0.42548403 0.08130427
-0.065767676 0.083799176 0.15377155 0.23657286 0.13344039 -0.32693318 -0.07547922 -0.17634217
-0.011394097 0.052118808 0.17228925 -0.17488451 0.080864854 0.23047683 0.32086658 -0.05536357
-0.17076935 -0.20965008 -0.050361305 -0.10525971 0.21988517 0.08823087 -0.05584516 0.061957333
-0.14222565 -0.08499452 -0.16901089 0.11239446 -0.01743249 -0.12301666 0.07526716 0.0751301
-0.14803702 -0.17733158 0.029274778 0.14178789 -0.020168338 -0.08176092 0.07730024 -0.17128457

encoder_s.attn_layers.0.attention.key_projection.bias f4 [16]
00000000: 1377 873e ebea 263e ffae 7f3d cd94 8a3e
00000010: 8738 8f3d 86e9 2abe edb0 63bd c437 643e
00000020: 5d14 0d3e fdef 0abe bef5 6bbe 19b0 3d3e
00000030: beec 783c 96de 2e3e e3ed 383e b575 0cbe
0.26458034 0.16300552 0.06242275 0.2706665 0.069932036 -0.16690645 -0.05558865 0.22286898
0.13777299 -0.13568111 -0.23042962 0.18524207 0.0151931625 0.17077097 0.18059497 -0.13716777

encoder_s.attn_layers.0.attention.value_projection.weight f4 [16, 16]
00000000: 142e 4cbe d180 813b 6550 9ebe 1c0c 403e
00000010: 97c4 a03c bb62 0fbd 19ac 0abe 9f85 673b
00000020: 277d 7a3e c056 9cbd b322 d0bc 585c 12be
00000030: 91a9 54be 243a 763d c3c3 95bc a1d1 d0bd
00000040: d279 48be 0994 18bd ba79 433d 4ae8 b1bd
00000050: fb25 a4bc 51cd 713d 1f6e 63bd cf32 323e
00000060: f79d 183b 6e6d c1ba 0a27 0ebd aed1 293e
00000070: 92f6 1a3e 264c c23d d9f7 16be d37d 543e
00000080: 38ea 5ebd bbce 00be c40b 793e c01d 7a3d
00000090: 1678 4e3e 67d1 753a 07f2 743e 1b56 70bd
000000a0: b561 74be a8d7 4f3d 9f61 49bd 03d7 1a3e
000000b0: 1698 95be 105f d3bd c7ed a53c 305f 3dbc
000000c0: 9caa 543d f39f 843e 4715 18be ce32 cb3d
000000d0: 411d 7fbc 85b6 da3e 63f0 4cbe 7f42 52bd
000000e0: f6e5 2e3c 93ae 99be d44c 8abd bd97 183e
000000f0: a5b6 41be c0a3 8e3b e447 88bd 5b41 8c3c
00000100: 79a2 24be 1b30 8d3e cd69 9dbe 333b 59be
00000110: f767 f73d c9c4 7f3d 9317 37be 37db 7f3e
00000120: 4226 35bd acdf 2abd 14f6 01be 5cf7 3bbd
00000130: 2836 15be 3dad 093e 4f56 9c3d 6855 80be
00000140: eeb3 263e 2c67 873b 23a0 a4bd 62e2 843d
00000150: 4437 eebd 3a9e 1d3c 8feb 053d 899a 4c3e
00000160: 0457 4b3d ed12 03bc e3ae 223e 765b 4fbe
00000170: c792 053e 3c73 133e b85e c3bd 97c5 0f3e
00000180: dc27 203e 3b6a 92bd b3f0 633e 2922 40be
00000190: 7993 bdbd 85e8 c43d acfa 77be f856 d83d
000001a0: d0fa 4f3e c3ef e0bd b803 cdbc b066 aebd
000001b0: 221e 61be 37ee 63bd 9953 c43d 5508 acbd
000001c0: 5b26 403d 919e 72be 0611 c03b a868 623c
000001d0: 6622 563c b984 30be cafd c23e e91c 0dbe
000001e0: b3a7 ecbd 1c21 32be 50dd a03e 1777 823e
000001f0: 5f05 2d3d 4a3a a33d 6d3b 143e 9eb9 03be
00000200: 4627 1abe 72cc ef3d ef3f e8bd 7869 a13d
00000210: 7fac 20be b308 883e 478e 90be 83ab a8bd
00000220: e6b2 073a fc7c 48be 2764 123e bba2 373e
00000230: fedd b3bd 4a34 923e 0315 0fbe 3b9e 2cbe
00000240: c499 1c3d fd98 a63d c746 71bd f888 fabd
00000250: 57e6 0a3e 8d66 4cbe e939 b03c f5cf 1f3e
00000260: 1ac3 59be fd86 e6bd b4b2 15be f160 64be
00000270: c040 46bc d061 c8bd 3bc7 69ba 2c43 d4bd
00000280: 6174 72bd 0fd6 40bd 1b37 13be 2242 543d
00000290: d822 c63d 7792 423d 74e9 f33d b605 9d3d
000002a0: 6228 ec3d 1720 0f3d 0e04 a23a 472d e93d
000002b0: 665b 753e 8c4a 443e 96a1 c03c 3063 8cbd
000002c0: 8afd 8a3d 8750 8d3c 3b03 15be 5b7b 8cbd
000002d0: 168b eebd b16f aa3c ea69 173e df8e 8ebe
000002e0: 89e6 86be af40 07be b532 9bbd a081 6e3e
000002f0: 380b ee3d 17d9 15be 2078 3abe 69a5 103e
00000300: cf4d 243c cbb0 cabd 4cd7 b6be c1c1 2bbe
00000310: d8c4 313e 1445 64be 774e 9cbc 18d0 633e
00000320: ce15 7c3e d716 f03d ecd3 823e fe91 583e
00000330: ea30 19bd 8c0c 173e dd0f af3d faf1 c53d
00000340: 2023 bd3d 0256 9fbe 2728 8a3e a26b db3d
00000350: 5c98 41bd b0bd 2cbe 43d6 a73e 5833 c5bd
00000360: 368d 54bc cfa9 583e b4a9 5dbe f3b3 283d
00000370: 9d79 b2bd 0e6c 46be 813d 3fbe 0e84 97bd
00000380: 2dce 833d d7c4 0f3e ffb1 1cbe f047 213e
00000390: 8454 37be e738 45bd 11aa 783c 5713 b4bd
000003a0: a884 ddbd 2f99 663d 2215 6abd 4c69 e4bd
000003b0: 042e 163e 9f87 57be d604 4ebe 3cf4 85bd
000003c0: e48e e13c 9ce2 0fbe e9f0 94bd 29c9 813c
000003d0: e8bf 673e 952b 08bc 7b82 353e 6dd7 84be
000003e0: f149 dcbd 94fd dc3d 4afc a23c 6888 ccbd
000003f0: d57a 4f3e 57c2 c03d 7390 f2bd ed33 dfbd
-0.19939452 0.0039521237 -0.3092071 0.1875462 0.019624991 -0.035006266 -0.13542213 0.0035327447
0.24461804 -0.07633734 -0.02540717 -0.14293039 -0.2076781 0.06011404 -0.018281823 -0.101962335
-0.19577721 -0.037250552 0.04772351 -0.08686884 -0.020037642 0.059033696 -0.05552494 0.17402194
0.0023287514 -0.0014757344 -0.0347052 0.16583893 0.15133122 0.094871804 -0.14742984 0.20751123
-0.054422587 -0.12578861 0.24320894 0.061063528 0.20162997 0.00093772117 0.23920451 -0.058675867
-0.23865397 0.050742775 -0.049165364 0.15121083 -0.29217595 -0.10320866 0.020254983 -0.011558339
0.05192052 0.25903282 -0.14851867 0.099217996 -0.0155709395 0.42717376 -0.20013575 -0.051332947
0.010674944 -0.30016002 -0.06752935 0.14901634 -0.1891733 0.0043530166 -0.06654337 0.017121008
-0.16077603 0.27575764 -0.30744782 -0.21213989 0.120803766 0.06244353 -0.17880087 0.24985968
-0.04422594 -0.041717216 -0.12691528 -0.045890197 -0.1457144 0.13444991 0.076336496 -0.2506516
0.16279575 0.004132172 -0.08038356 0.064884916 -0.11631635 0.009620244 0.03269535 0.19980825
0.04964353 -0.008000118 0.15887026 -0.20249733 0.13044272 0.14399427 -0.095395505 0.14040218
0.15640205 -0.07149168 0.22259788 -0.18763031 -0.09256644 0.09614662 -0.24216717 0.10563463
0.20310521 -0.10983231 -0.025026187 -0.0851568 -0.21984151 -0.0556471 0.095862575 -0.08400027
0.04691158 -0.23693301 0.0058614044 0.013818897 0.013069725 -0.1723813 0.3808425 -0.1378056
-0.115554236 -0.17395443 0.31418848 0.25481483 0.04224145 0.07970102 0.14475794 -0.12863776
-0.15054044 0.11708917 -0.11340319 0.07881445 -0.15690802 0.26569137 -0.2823355 -0.08235838
0.0005176499 -0.19578928 0.14296018 0.1793317 -0.08782576 0.28555518 -0.13972859 -0.16857235
0.03823258 0.08134649 -0.05890539 -0.12233156 0.1356443 -0.19960995 0.021511989 0.15606673
-0.21265832 -0.11256216 -0.14618951 -0.22302605 -0.012100399 -0.09784281 -0.0008917932 -0.103643745
-0.05919302 -0.047079142 -0.1437649 0.05182088 0.09674615 0.04750296 0.11909762 0.07667105
0.1153114 0.034942713 0.0012360828 0.11385589 0.23960647 0.19169062 0.02351455 -0.06854856
0.0678664 0.017250312 -0.14552014 -0.06859466 -0.11647622 0.020805212 0.14786497 -0.27843377
-0.2634776 -0.13208269 -0.07578031 0.23291636 0.116232336 -0.14633594 -0.18209887 0.14125599
0.010028317 -0.09897002 -0.35711133 -0.1677313 0.17360246 -0.22291976 -0.019080384 0.2224735
0.24617693 0.11723106 0.2555231 0.21149442 -0.037400164 0.1475088 0.085479476 0.09665294
0.09235215 -0.31120306 0.2698376 0.10713889 -0.04726444 -0.16869235 0.32780656 -0.09628934
-0.01297312 0.21158527 -0.21646768 0.041187238 -0.08714602 -0.19377157 -0.18675806 -0.07398234
0.06435809 0.14039932 -0.15302275 0.15750098 -0.17903334 -0.04814997 0.015177266 -0.08792751
-0.10816318 0.05629843 -0.05714906 -0.11152896 0.14665991 -0.21047829 -0.20119032 -0.06540725
0.027533956 -0.14051288 -0.072725125 0.015842991 0.226318 -0.008311172 0.17725556 -0.25945607
-0.10756291 0.10790554 0.019895691 -0.09986955 0.202617 0.094120674 -0.11843958 -0.10898576

encoder_s.attn_layers.0.attention.value_projection.bias f4 [16]
00000000: 6953 5a3e ae51 e53d f484 cd3d 0099 30be
00000010: 1914 053e 2834 2bbe 81c7 66be b210 1dbe
00000020: fe79 593e c113 d53d 0002 3e3d 826d da3d
00000030: e777 523e 64c3 133e 8e7d c0bd 209f a13d
0.21320881 0.1119722 0.100351244 -0.17245865 0.12995948 -0.16719115 -0.22537042 -0.153384
0.21237943 0.104041584 0.046388626 0.10665418 0.20553552 0.14430004 -0.09398948 0.07891679

encoder_s.attn_layers.0.attention.out_projection.weight f4 [16, 16]
00000000: 836f 843c df7e a9bb 0cde a63d 2e27 55be
00000010: 6713 2cbc 26ea 9fbd dfa4 e73d adf2 d93d
00000020: 8002 0bbe f01c 323c 5904 d43c ee0d 173e
00000030: 5b80 06be fcd0 8d3d 8334 f93d f52a 6b3e
00000040: 5d2c 383e 071b 35bd e87c 3c3e 74fb 17be
00000050: 2d65 8abe 2b36 33be 0b12 87bd b3a5 14bc
00000060: 3864 993e 708f 28be 3119 14be 2220 81be
00000070: 7b40 2d3d 2aa0 c13e 36b4 debd 8892 e73d
00000080: 51d7 273e 8c6f 44bd d181 94bc 222d 2d3e
00000090: 734b 3abd fa7a 6fbd 7453 57bd 066b abbd
000000a0: d5c4 96bd 5839 51be 7d16 b5bd 49ed 3abe
000000b0: 2919 11bd dcdf dcbd 3f72 afbd 9139 65bd
000000c0: 9d4a ff3d 7185 9b3b 595b e5bd 232e 65be
000000d0: b8c5 7f3e f142 413c 433d 693e bf98 81bd
000000e0: 0e21 9f3c 2c93 953d 0bdb 443c 4b3e 61be
000000f0: c567 79bc edaa 2f3d e464 a33c 245e ce3d
00000100: 1dbb a2bd 4d04 e1bd e6cd ae3d 6566 cdba
00000110: 0665 43bd 4fc4 28bd 84d2 403e 8b8f 08be
00000120: 9a97 39bd 62ff 0ebe 51f4 49bc e17d 0bbe
00000130: 84eb a63d 88fa acbb a2d9 c53c 3cd2 35bd
00000140: 5d7f d8bd e935 0bbe f9e4 ab3c f3f4 ee3c
00000150: 6ad1 4bbd d571 f73d 641e 85bc 2c89 b63c
00000160: 074a 99ba 8137 513e 9435 58bd 3d41 1d3d
00000170: aeb4 603e 40e8 dd3d 8628 e8bd c4f6 aebd
00000180: 6b45 423d 9c08 e83d ffa5 4fbe a6c3 d03d
00000190: a201 2e3c ce0c e7bd 528d 073e 53fb 60bc
000001a0: 7e6b 4ebe 4e77 87bd 2b24 413d 0645 303e
000001b0: 9f8f 28bd c1cc 6bbd 9117 e53d f7fa 43bc
000001c0: dd91 3c3e d41c 4dbe 2aa0 443e 002a 933d
000001d0: 8008 4ebe ecb1 c63d 84bd 723e 44f7 673d
000001e0: aa65 7a3e 5a1f 38be 9512 4fbe b158 573e
000001f0: 7b90 2c3e 0f3e 643e accf 0bbe ea18 593e
00000200: 8c13 6cbd 3e73 22bd d00d ec3c d6ab 823e
00000210: 6ba1 94bb adf8 043e 5fdb 293e 78e5 18bd
00000220: be7d 28be 627a 17be a0c6 d13d 893c 213e
00000230: 9d76 073e a07c 0ebc f276 75bd 9c11 a9bd
00000240: 07d7 17be b4f6 953d a46e e3bc 8655 a7bd
00000250: 8903 e33a 39d8 093e ba30 59bd 2404 e439
00000260: 54e6 f0bb db39 b0bc 0170 993d f383 073c
00000270: e374 10bd b4de 7bbc 76ee a03d ad87 6abe
00000280: 5678 66be 34de 453e db5b a8bd 7be2 15bd
00000290: 6b78 833e 6fe1 1a3d 469a c63d 34b2 a2be
000002a0: e5c7 57be 78e0 f23c 6e3a e23d 46e3 ecbc
000002b0: b968 07be d87a 07be e445 003e d7f3 403e
000002c0: d9d7 883e 518f d53d 0ea7 a13e 1d76 a7bd
000002d0: 00f4 6e3d 6b98 01be bc79 a8bc d0b6 c83d
000002e0: 98ad 4e3e 89fb de3c 7080 2bbe d028 5abc
000002f0: 647a 9abc 276b 43bd 2281 a9bd 8bf9 6bbe
00000300: 37de 6cbd df3a 4b3e 9287 f2bd dfb3 e7bc
00000310: bab5 3b3e b9f4 693e 0821 ec3d c075 11be
00000320: af1b edbd c222 71be cd4b c1bd 5d7c 9b3d
00000330: 4c7f 58be 490c cb3d 7ee0 37be f9ee cebd
00000340: 7028 ab3d ae06 af3d c6e5 9d3d ab11 13be
00000350: 6836 9bbd a0c8 15be b5eb 58be 2a3a 433e
00000360: e094 793e 8fe9 81be 18a8 18be 223a d4bd
00000370: 80d3 583e 3a0b 64bd e125 8fbe 6210 c1bc
00000380: 0e0e b2bc 0768 ef3c 2e42 bb3d c3d8 f4bd
00000390: e686 b93c 0a80 1b3e 60b9 383e 6b0d 963b
000003a0: e6d4 1a3e 495a 893e 702c afbd 162d 24be
000003b0: c629 203e 0145 a23c cb15 54be 6b36 3eba
000003c0: f26c 72be 818b 1cbe 19a6 0dbe dfdc 353e
000003d0: 6d8f 36be 1863 3c3e 4b86 003e b0c5 173e
000003e0: f52a 633d 77d9 dfbd 5477 453e 3b36 77bd
000003f0: 5b8c 7a3e 4d57 8cbe 03aa c73c 2627 723e
0.016166454 -0.005172595 0.08147821 -0.20815727 -0.010502673 -0.07808332 0.113107435 0.1064199
-0.13575172 0.010871157 0.02588098 0.14751408 -0.13134901 0.06924626 0.12168219 0.22965606
0.17985673 -0.04421523 0.18407023 -0.14842016 -0.27030316 -0.17501132 -0.06595238 -0.009072709
0.29959273 -0.16460967 -0.14462735 -0.25219828 0.04229782 0.37817508 -0.10874216 0.113072455
0.1639073 -0.047957942 -0.018128308 0.16911748 -0.04548211 -0.05846689 -0.05256982 -0.083700225
-0.073617615 -0.20432031 -0.0884218 -0.1825458 -0.035424385 -0.10784885 -0.085667126 -0.055963103
0.12465403 0.004746132 -0.11199064 -0.22380881 0.24977767 0.011795745 0.22777276 -0.06327962
0.019424941 0.073034614 0.012015115 -0.21996419 -0.0152224945 0.042887617 0.01994557 0.1007655
-0.07945845 -0.109871484 0.08535366 -0.0015670775 -0.047703765 -0.04120284 0.18830305 -0.13336007
-0.045310594 -0.13964608 -0.012326316 -0.13622238 0.0815039 -0.005278889 0.024151627 -0.04438995
-0.105711676 -0.13594784 0.020983206 0.029169535 -0.04976026 0.120822586 -0.016249843 0.022282206
-0.0011695036 0.2043133 -0.05278547 0.038392294 0.21943924 0.10835314 -0.11335854 -0.085431606
0.047429483 0.11329767 -0.20278166 0.10193567 0.0106205065 -0.11281739 0.13237503 -0.013731795
-0.20158193 -0.066145524 0.047153633 0.1721383 -0.041152593 -0.057568315 0.111861356 -0.01196169
0.18415017 -0.20030528 0.19201723 0.07185745 -0.2012043 0.09701905 0.23705107 0.056632295
0.24452844 -0.1798071 -0.20221932 0.21029927 0.1685199 0.22289298 -0.1365344 0.2120091
-0.05763583 -0.039660685 0.02881518 0.25521725 -0.004535844 0.12985487 0.1658759 -0.037328213
-0.16454217 -0.14792779 0.10242963 0.15745749 0.13228841 -0.008696705 -0.05992789 -0.08255312
-0.1482812 0.073224455 -0.027762718 -0.08170609 0.0017319779 0.13461389 -0.053024985 0.00043490634
-0.007351676 -0.021511963 0.07492066 0.008271205 -0.03526772 -0.015372921 0.07857983 -0.22903319
-0.22506842 0.19323045 -0.08220645 -0.03659294 0.2567781 0.037812646 0.09697394 -0.31776583
-0.21072347 0.02964805 0.11046301 -0.028916966 -0.13223542 -0.13230455 0.12526661 0.18843018
0.2672718 0.10427726 0.31572765 -0.08176825 0.058338165 -0.12655799 -0.02056586 0.09800494
0.20183408 0.02721955 -0.16748214 -0.0133153945 -0.018857189 -0.04770961 -0.08276583 -0.23044412
-0.057829108 0.19846676 -0.11842264 -0.028284011 0.18331042 0.2284726 0.11529738 -0.14205074
-0.11577546 -0.23548415 -0.09438286 0.0759208 -0.2114231 0.099144526 -0.1795673 -0.10104174
0.08357322 0.08546196 0.077098414 -0.14362209 -0.075787365 -0.14627314 -0.21183665 0.19065157
0.24373198 -0.25373504 -0.14907873 -0.103626505 0.21174431 -0.05567477 -0.27958587 -0.023567382
-0.021735217 0.029224409 0.09143482 -0.119554065 0.022647332 0.15185562 0.18039465 0.0045792363
0.15120277 0.26826695 -0.08553398 -0.16032824 0.15640935 0.019808294 -0.20711438 -0.0007256034
-0.23674372 -0.15287592 -0.13832892 0.17760037 -0.1782815 0.18397176 0.12551229 0.14821506
0.05546089 -0.1093015 0.19283801 -0.060354453 0.24467604 -0.27410355 0.02437306 0.23647746

encoder_s.attn_layers.0.attention.out_projection.bias f4 [16]
00000000: 5792 313e b090 1b3c 91e0 63be 18b5 2e3d
00000010: 4d4f 263d 254b 81bd d420 0cbe b5ec 9c3b
00000020: a20d 3bbe 4e54 0ebe b81f 283e d9c4 063e
00000030: d57a 0abe 3f56 133e 98f8 093e b5d8 0fbe
0.1734098 0.009494945 -0.22253634 0.042653173 0.04060297 -0.06313161 -0.13684398 0.00478896
-0.1826692 -0.13899347 0.1641835 0.13161029 -0.13523419 0.14388369 0.13473737 -0.14047511

encoder_s.attn_layers.0.conv1.weight f4 [64, 16, 1]
00000000: ac4c 3c3e b2e1 bfbc cc74 74bb b5d6 a93c
00000010: 7853 063e 4722 7b3e 9d09 babd cbd7 293d
00000020: 3747 b0bc 7574 01be bb5f 963b d764 cf3d
00000030: c49e 94bd e8bc 3a3e 4c66 47bd 2a34 e63d
00000040: aada 1dbd 2308 4dbd e9a2 59ba 7337 6bbb
00000050: fa75 7b3b 8797 ec3d a3d7 e73d cc0f 9c3e
00000060: 3a02 e6be 5db2 073f 366c 91be c157 0cbe
00000070: 0fef 5abd 7a84 3dbe 686d 3c3e 05c9 2fbe
00000080: 7a0c bfbc 8067 f73d bced 31bc 3a3c 253e
00000090: feb5 623e 47b9 a43d b0a7 fbbd 1b44 0ebe
000000a0: 0efa 02be 3e4c 3a3c 3a49 65be bded 2f3c
000000b0: ba50 9cbe 6fae 853d 8b37 cdbd 9b29 88be
000000c0: 33c9 4bbe cdec d73d 0808 963e 49b8 293e
000000d0: ec00 52be e881 2d3d f822 85bd c876 2cbd
000000e0: 81df 5dbe 9240 873d 12d9 4e3c 86d2 1b3e
000000f0: 5e03 773d c09b 803d 47ef 9a3e 7a99 43be
00000100: 50be 983d f629 933e 8dd5 923e 6285 363e
00000110: 1069 76bb 35b1 1ebd 269f acbe f1da 9a3d
00000120: 1172 693e b9ab 213d 8eb2 b63c 2b2d 873d
00000130: cbf3 11bd 07cb 4cbe ae31 5c3d 42f1 2abd
00000140: 4a0b 37be 7342 0fbe 4e5f d5bc 53da 4bbe
00000150: 9ba5 963d f4b9 3abe 9820 b0bc c098 32be
00000160: c0d1 10be c1e6 57be ac7f 0dbe b57f 3f3e
00000170: a640 0c3e 3a91 15be afb4 1bbe bc8c 743e
00000180: 2ea1 09bd 0f2c b53d 8c6e 67bd c0f7 e23d
00000190: 9a2f 393e 2063 f93d 484a d0bd 08da 8d3e
000001a0: 213d 08bd 606a 613e b0b6 433e 0154 2abe
000001b0: 7b95 d43d 5f50 173e e155 183e ffbc 4b3d
000001c0: b871 2abd 592c 7dbd 8833 873d cbf4 333e
000001d0: ba43 6c3e 8a9c 53be 9316 e3bd f614 e1bd
000001e0: c29c 1e3e 3e9d 0abe aa88 4e3d 3d1e 1dbe
000001f0: ab5c a63d 133b c33d 247e 0abe d85b 8f3d
00000200: b91d 853e 0a72 f7bd 100f 833d 960c 20be
00000210: 097d 233e ad21 003e b4c8 983e 2188 4b3c
00000220: d695 393e ed88 183c 443b 14bd b6a2 b8be
00000230: 2d4e 92bd 9dd8 2d3e f89e 87be 0ae7 5c3d
00000240: f332 1bbe 9aef 72bd 0938 57be e2d7 d43d
00000250: 4bb6 9fbc 784f 273d 11a3 223d 1bec 1abe
00000260: 2c43 8a3e 9fdf e13c 3d9b a7be 1afc 1d3d
00000270: a949 d23e 13ac 8fbe a32e 7dbc 7273 7a3e
00000280: e357 86be 4fe7 633d bd32 39be 0dfd 8ebd
00000290: 4950 933e 7a3c 953e a61c 37bc be3a 0ebe
000002a0: dd82 ff3d d627 663d d9ca cd3d 648b 1f3e
000002b0: 7d64 07be dd92 d4bd 2bff 4a3e ee2d 333c
000002c0: a981 28be c9c1 67bc 0978 8fbd 0a07 aebe
000002d0: a394 0b3e dec0 7d3d ec8a e33d b7a6 0bbd
000002e0: 35d2 383c 8344 213e 25aa 2a3e 0f38 1b3e
000002f0: 081b 603d 3cef fcbd 2adc b5bd b497 a7bd
00000300: f986 143e e932 623d eb12 3b3c 52ec 0cbe
00000310: 2f30 a63e 12df 05be 2ce9 06be fe50 ab3e
00000320: 89fe d0be 50d9 d73d a04d 68bc 63f0 90be
00000330: 0c07 06be 41f5 74be 8eb7 ed3d 6b1a 54be
00000340: 207b e33d 7920 593e 3ddd d1ba ac86 f23d
00000350: 33a4 653e 483a a13e 3384 89bd f7de 04be
00000360: 5909 54be 9321 41be a8d7 013e 5dd3 5ebe
00000370: 95db 883e 0380 d63c 9bb3 71bd e809 80be
00000380: 7c37 f33d 2916 93bc de17 10be dc59 353e
00000390: c7b3 dcbc 189b a73d 3dc0 2cbe de4a 7abb
000003a0: 4c90 aabe 4b0e d5bd 26c8 17be ce74 853e
000003b0: e938 acbe e2cc 93bc 62ed 0b3e c379 f0bb
000003c0: 56bd b83d 54aa 473e ccf8 97bc 9a83 06be
000003d0: db57 323e 3ed6 3c3e 2284 f1bc c1b7 203e
000003e0: 19cb 343e 59ad 20bd 45ca 1abe 56a9 4c3d
000003f0: 61dd 93bd 94bc b53b b174 8abe afe8 27be
0.18388623 -0.02342305 -0.0037301062 0.020732263 0.13117778 0.24524795 -0.09083865 0.04146556
-0.021518333 -0.12642081 0.0045890487 0.101266555 -0.07256845 0.18236125 -0.048681542 0.11240418
-0.038538612 -0.050056588 -0.00083021686 -0.0035891205 0.003836988 0.11552339 0.11320426 0.30480802
-0.44923574 0.53006536 -0.2840287 -0.1370535 -0.05345064 -0.18507567 0.1840111 -0.17166527
-0.023321379 0.12080288 -0.010859903 0.16136256 0.22139737 0.08043151 -0.12287843 -0.13893168
-0.12790701 0.011370717 -0.22391215 0.010737834 -0.3053034 0.06527411 -0.100203596 -0.26594242
-0.1990097 0.10543213 0.29303002 0.16574205 -0.20508164 0.042360216 -0.065008104 -0.042105466
-0.21667291 0.06604113 0.012624996 0.15217027 0.060305946 0.06279707 0.3026068 -0.19101515
0.07458174 0.2874295 0.2867855 0.17824319 -0.0037599243 -0.038743217 -0.3371517 0.07561291
0.22797419 0.039470408 0.022301938 0.06600412 -0.03563289 -0.19999324 0.053758316 -0.041733988
-0.178754 -0.13990192 -0.026046421 -0.19907503 0.073558055 -0.18234998 -0.021499917 -0.17441082
-0.14142513 -0.2108412 -0.13818234 0.1870106 0.13696536 -0.14606181 -0.15205644 0.23881811
-0.03360098 0.08846294 -0.05650191 0.11082411 0.18084565 0.1217711 -0.10170418 0.27705407
-0.033261422 0.22013235 0.19112659 -0.16633607 0.10380074 0.14776753 0.1487651 0.049740788
-0.041612357 -0.06180987 0.06601626 0.1757385 0.2307271 -0.20665184 -0.1108829 -0.10990326
0.15489486 -0.13536546 0.0504233 -0.15343566 0.08123144 0.09532752 -0.13524681 0.0699994
0.2599924 -0.12082298 0.06399357 -0.15629801 0.15965666 0.12512846 0.29840624 0.012422592
0.18123564 0.009309989 -0.036189333 -0.3606164 -0.07143817 0.16977163 -0.2648847 0.053931274
-0.15156154 -0.059310533 -0.2101747 0.10392739 -0.019496104 0.04084727 0.039706293 -0.1512913
0.27004373 0.027572451 -0.32735625 0.0385705 0.41071823 -0.2806097 -0.015453014 0.24458101
-0.26238927 0.055640515 -0.18085761 -0.06981859 0.2877219 0.29147702 -0.011176264 -0.13889596
0.12476132 0.056190334 0.10048456 0.15580517 -0.13221927 -0.103795744 0.19823901 0.010936243
-0.16455711 -0.014145323 -0.07005317 -0.33989745 0.13630919 0.06195151 0.111104816 -0.03409454
0.011280586 0.15748791 0.16666467 0.15158103 0.05471328 -0.12350318 -0.088798836 -0.08183232
0.14504613 0.055224333 0.011418085 -0.13762024 0.32458636 -0.13073376 -0.13174886 0.3346023
-0.40819195 0.10539496 -0.0141786635 -0.283084 -0.13088626 -0.23921682 0.11607276 -0.20713203
0.111074686 0.21203794 -0.0016011369 0.11842093 0.22425918 0.31489778 -0.06714668 -0.1297568
-0.20706691 -0.18860464 0.12679923 -0.21760316 0.26730028 0.026184088 -0.059009176 -0.25007558
0.11875817 -0.017954903 -0.14071605 0.1771006 -0.026941193 0.08183879 -0.16870208 -0.0038191597
-0.33313215 -0.10403117 -0.14822444 0.26065677 -0.3363717 -0.018042032 0.13664773 -0.007338734
0.09020488 0.19498569 -0.018551253 -0.1313614 0.17416327 0.18441102 -0.029481951 0.15695097
0.176556 -0.039227817 -0.15116222 0.04996618 -0.07219959 0.005546162 -0.27042153 -0.16397355

encoder_s.attn_layers.0.conv1.bias f4 [64]
00000000: b7a5 38bd c3bc 3e3e b238 ba3d ac9c 193d
00000010: 0bb3 7e3e 053e 39be 6be1 ba3d 144f fb3d
00000020: e877 eebd 6c4c 0bbe a8bb d6bc 33ed 583d
00000030: a583 893d 2cea 403e 62bb fcbd 0e9f 283e
00000040: 95e1 c53d 540e 18be e868 8cbe dddf 83bd
00000050: b915 333e 2be8 ff3d e90f 243e 7a77 84be
00000060: d414 14bd 9137 f53a 9a8b b7bd 438c c23d
00000070: 1fc8 78bc 2732 e83d c436 eebc 340b c23d
00000080: de13 35be 0ad8 713d 7cc9 1bbe 8797 753e
00000090: 81d3 cd3d cadd 483e c80d 8c3c 8512 10bd
000000a0: ee0c 903d 9407 83be ffbc 64be 2bce 6dbe
000000b0: de84 093e a831 803d ee2d 283e 0486 a83d
000000c0: 8ce6 4f3e 9f50 febd 4601 7e3d bcf3 f9bc
000000d0: 37b1 8bbd 4499 b6bd 5bda 2abe 69ee c9bc
000000e0: 582c 6fbe f5e7 a3bd 4c75 14be 59d3 1a3c
000000f0: ec49 253e 8c6b 2f3e 66e7 f43c edbc 433e
-0.045079913 0.18626694 0.09092845 0.03750293 0.24872987 -0.18090065 0.09125026 0.12270942
-0.11643964 -0.13603371 -0.026212528 0.052960586 0.06714562 0.1883933 -0.12340428 0.16466925
0.09662167 -0.14849216 -0.27423787 -0.06439183 0.17488755 0.124954544 0.16021694 -0.25872403
-0.036152676 0.0018708577 -0.08962174 0.09499409 -0.015184431 0.11337691 -0.029078849 0.09474793
-0.1768336 0.05904392 -0.15213579 0.23983584 0.10050107 0.19615856 0.017096415 -0.03517391
0.07033716 -0.2559172 -0.22337721 -0.23223178 0.13429591 0.06259471 0.16423771 0.082286865
0.2030279 -0.12417721 0.062012933 -0.03051173 -0.068209104 -0.08915952 -0.16684859 -0.024649816
-0.2335676 -0.08003227 -0.1449787 0.009449803 0.1614148 0.1713087 0.029895496 0.19115038

encoder_s.attn_layers.0.conv2.weight f4 [16, 64, 1]
00000000: 7c92 263d e1c4 c5bb ea08 c3bd c0eb b4bd
00000010: 7b89 393b 0bde e1bd 48c9 32bd 66bf 3c3c
00000020: 8d8b 4a3c 50a6 4f39 865a f1bd 478c 8bbd
00000030: c0dd dd3d 9049 003d 494d a83d b195 943d
00000040: de02 55bd bf1b 823c 71cc 1cbd 6403 723d
00000050: d503 a53d 119f b73d d122 edbc 16d0 a5bc
00000060: d532 a2bc 597f 7f3d 1838 14bd 96b9 043d
00000070: b0be 66bd 420e 223d dc32 d63c 05e4 763d
00000080: 822e 913d 6137 81bd 74c8 953c db2f b8bd
00000090: be88 0f3d 92c9 fc3b bbac 8dbc 07a7 a2bd
000000a0: a72e 07bd 985b 993c d6db 993d a070 3a3d
000000b0: 88fd 3a3d beed a5bd a47f 66bd f2d3 1ebd
000000c0: de43 61bd 5568 4b3d b361 adbd 0ed1 dcbc
000000d0: 1d8c 833c 26f6 a73d fbd8 203d fc60 a3bd
000000e0: 48bc 2bbd 2110 f1b7 b0d7 f03c c229 f4bc
000000f0: f0b4 c9bc 5954 943d 93a1 953c 6e17 ec3c
00000100: 4541 04bd f52a 5dbe 6905 b53c f11c b2bc
00000110: 1f02 14be d18e 983d e1f4 e9bc df6f 753c
00000120: 411e bc3d f952 ec3d 2a94 c3bd 4eb3 27be
00000130: e751 18be befa 813c 6f64 6c3d 5327 febd
00000140: 8569 8f3d 972f ae3d aad4 a23e 1fd8 c9bd
00000150: 283c 73bd 968f 0e3e 9b60 803e 1a38 213d
00000160: 37df e53d 3815 50bd d3a7 e6bc d39d 363d
00000170: b51e ad3d 4ebd a83d 10d9 c1bd db66 3b3c
00000180: 06c9 943c 929e fb3d ae8f 903b 7179 1b3e
00000190: 8cac 1bbe 796e 913d 782f c0bd e727 8ebd
000001a0: a59c e9bd 97bc 5d3d 163f babd 0891 bb3d
000001b0: d11b 8d3d a72d 49be fac9 a03d 5af0 083d
000001c0: b59c f13c 7041 523d d45e b83d 50da bcbd
000001d0: fa80 8abc 64ed 0b3d 76ab edbd b4e1 55bd
000001e0: 4a51 383d 6552 babd 7e45 8abd bf0f 0c3e
000001f0: 899d 2e3e 20f5 8f3d 35a3 74bb 476a 6cbe
00000200: f8b2 a83c ec06 083d b4d4 9cbd 6cd1 c43d
00000210: dbfa 1e3e 5505 87bb 5038 323c ac48 87bc
00000220: 580e e5bd 6464 3bbd 5db8 2fbd 7c37 213d
00000230: c3de 8c3c 67a6 a9bc eb56 28be de65 133d
00000240: 69ce 323e 4cc4 153c d5b8 b4bb accd 22bd
00000250: febc cc3b d22a 453d 1e90 8cbd 1cc5 d6ba
00000260: 4e4a a73d ca41 a43d 87cf 103d 2a28 e6bb
00000270: d9c0 b4ba 8f54 0a3e 31df 4d3d 957e 673c
00000280: 334f 813d fe2f cfbd eee2 d43c f065 783c
00000290: c2f4 3b3d e34e 0ebc 0cef 043d df28 8ebd
000002a0: e52d 903d ac14 b1bd 8078 a5bc 37bd c03d
000002b0: 5e22 bc3d eb13 573d 86f4 59bd 2bf3 473d
000002c0: f8c8 6e3c 13cb e6bb 3d04 923c 41e6 52bd
000002d0: e12b 1cbd 40fc 85bd 348c 8cbd dd6a 0e3e
000002e0: d5c0 0cbd 1c09 0dbe d3d5 2ebd c58f 633d
000002f0: dded 043c 1a9f 32bc 5d68 e53d 8dcc b43d
00000300: 7c66 55bd 8f21 31bd 847a fdbd cd4c c5bd
00000310: a05a 03bd 6718 693d d1c5 103d 433c 843d
00000320: 23e4 cebd 4e2f c43c bf4e cdbc 514d 5f3d
00000330: f382 9e3d 7fdb 3b3b 0c17 08be 4a8d 403d
00000340: 87e3 193d 3b0b 463d c70e b1bd 3ff9 7f3d
00000350: fc6b 7f3d ef14 1d3c 4c9b 11bd bbbd 12bd
00000360: 41b6 2fbd 10bd 823d 5c69 84bd df1f 243d
00000370: c8ce 103d 5b67 153e 8724 e4bb f726 9abd
00000380: 78cd 4a3d f2c9 0cbe 8391 a0bc fb0c 87bc
00000390: 7f7f 5fbd 7971 2bbc b80a e4bd e7c4 3abd
000003a0: fca9 1bbd fc8d 36bd 17ff 9ebd 509e a63e
000003b0: e616 243c 44b5 303d 52f8 493d 006c 14bc
000003c0: 7651 b1bd 76d9 f63d 71c7 973d 69aa 1cbe
000003d0: 07ec 85bd 4604 b0bd 2540 153d 5839 0e3c
000003e0: 91eb 33be 98a9 efbd ab30 343d 7bed ac3c
000003f0: ac68 d2bd 2ab0 d73d c835 8e3d 85b8 a43d
0.040667042 -0.0060354327 -0.095231846 -0.08834028 0.0028310705 -0.110286795 -0.043648988 0.011520242
0.012362373 0.00019803015 -0.11784844 -0.06813865 0.10833311 0.031320155 0.08217866 0.07255114
-0.052004687 0.015882371 -0.038280908 0.059085265 0.080573715 0.089658864 -0.028947266 -0.020240825
-0.01979963 0.062377308 -0.036186308 0.03240355 -0.056334198 0.03956438 0.026147299 0.06027605
0.07088949 -0.06309391 0.01828406 -0.08993503 0.035042517 0.0077144587 -0.017294278 -0.07942014
-0.033003476 0.018720433 0.075126335 0.045517564 0.045651942 -0.08101986 -0.05627407 -0.038776346
-0.054996364 0.049660046 -0.084659 -0.026955154 0.016058022 0.08201246 0.03926943 -0.07977483
-0.041927606 -2.873695e-05 0.029399723 -0.029805068 -0.02462241 0.072426505 0.018265521 0.028819766
-0.03228881 -0.21598418 0.022097306 -0.021742316 -0.14453934 0.07449115 -0.02855915 0.014980285
0.09185458 0.11539263 -0.095497444 -0.16376993 -0.14874993 0.015866634 0.05771297 -0.12409844
0.07002548 0.08505171 0.31802875 -0.09855675 -0.05938354 0.13921961 0.25073704 0.039360143
0.112242155 -0.050801486 -0.028156197 0.044584107 0.084531225 0.08239232 -0.094652295 0.011438097
0.018162262 0.12286104 0.004411659 0.15183045 -0.1520254 0.07101149 -0.09384054 -0.069412045
-0.11406831 0.05413493 -0.09094064 0.09158522 0.06890071 -0.19646321 0.07851024 0.033432342
0.029493669 0.051331937 0.09002462 -0.09221327 -0.016907204 0.03416194 -0.11604969 -0.0522172
0.0449994 -0.09097747 -0.06751536 0.13677882 0.17052282 0.07029176 -0.0037328724 -0.23087417
0.020593151 0.033209726 -0.076577574 0.096102566 0.15525381 -0.0041205087 0.010877684 -0.016514145
-0.111843765 -0.045750037 -0.042900432 0.039359555 0.017196065 -0.02070923 -0.16439407 0.03598582
0.17461552 0.009141039 -0.0055151978 -0.039746925 0.0062481156 0.04813654 -0.06863426 -0.0016385647
0.08168469 0.08020361 0.035354163 -0.007023831 -0.0013790383 0.13508819 0.05026168 0.014129301
0.06313934 -0.10116576 0.025987115 0.015161023 0.045887716 -0.0086858 0.032454535 -0.06941389
0.07040004 -0.08646521 -0.02019906 0.0941109 0.091862425 0.05250923 -0.05321171 0.048815887
0.014574282 -0.0070432513 0.017824287 -0.05148912 -0.038127784 -0.065422535 -0.06862679 0.13907953
-0.034363586 -0.13773006 -0.042684387 0.05555703 0.008113352 -0.010902191 0.11201546 0.088280775
-0.05209969 -0.043244895 -0.123768836 -0.09633789 -0.03206885 0.056908038 0.035344902 0.064568065
-0.101021074 0.023948338 -0.025061963 0.054517094 0.0773982 0.0028664765 -0.13290042 0.047009744
0.037570503 0.048350554 -0.08645397 0.06249356 0.06235884 0.0095875105 -0.035548493 -0.035825472
-0.04289842 0.06383717 -0.06465408 0.040069457 0.035353452 0.14590208 -0.006962362 -0.07526963
0.049512357 -0.13748911 -0.019600635 -0.016485682 -0.05456495 -0.010464066 -0.11134857 -0.045597937
-0.038003907 -0.044569 -0.07763498 0.32542658 0.010015225 0.04314162 0.049309082 -0.009058952
-0.086581156 0.12053196 0.07411087 -0.15299381 -0.06539159 -0.08594565 0.036438126 0.008680664
-0.1757033 -0.11702269 0.043991726 0.021109333 -0.10273871 0.105316475 0.06943852 0.08043007

encoder_s.attn_layers.0.conv2.bias f4 [16]
00000000: fc42 a23d c451 9f3b 2981 d3bc 1d93 a7bc
00000010: e590 393d 0569 8abb e911 cf3c b7a7 81bd
00000020: a185 963d 0cbf d13d 75ac ddbb 7609 953d
00000030: e573 d3bc 29a3 92bd bed3 7f3c 742b 40bd
0.079229325 0.004862042 -0.025818424 -0.020455891 0.045304198 -0.004223945 0.025277095 -0.06330817
0.073497064 0.102415174 -0.0067649432 0.07277195 -0.025812099 -0.071600266 0.015614448 -0.04691644

encoder_s.attn_layers.0.norm1.weight f4 [16]
00000000: dd4e 8c3f e284 693f 789b 9c3f 9d4b 563f
00000010: 7751 843f 5271 9c3f 1529 813f a851 503f
00000020: 8806 853f 7f26 983f aa64 823f b3e0 6d3f
00000030: f83d 6f3f 8940 7d3f 81f9 783f 10ce 683f
1.0961567 0.9121839 1.2234945 0.83709127 1.0337361 1.2222083 1.0090662 0.813746
1.0392618 1.1886748 1.018697 0.9292099 0.9345393 0.989266 0.9725571 0.90939426
