SimMTM-main/SimMTM-main/SimMTM_Forecasting/outputs/pretrain_checkpoints/ETTh1/ckpt_best.pth (torch, 517153 bytes, 61 tensors)

enc_embedding_s.value_embedding.tokenConv.weight f4 [8, 1, 3]
00000000: 370c e9be 80c5 273f 43fa 353f ef92 be3f
00000010: 63e0 023e 45ef 08c0 3653 c43f 3b62 c3be
00000020: 6d1e 953e 3b8d 0a3f 13fe 1b3f 8575 bd3e
00000030: 2945 98be e704 9fbd 9a4a 383f 8bbb 503f
00000040: 82cb 76bf fe57 f6be f579 923f 72d6 e4bf
00000050: 1c06 90bf 6779 43bd 70b2 2b3f c3c0 f43f
-0.45517132 0.65535736 0.71084994 1.488859 0.12780909 -2.1396039 1.5337894 -0.3816088
0.29124776 0.5412175 0.6093456 0.37003723 -0.29740265 -0.07764607 0.7198883 0.8153617
-0.9640428 -0.48114008 1.1443468 -1.7877944 -1.1251864 -0.0477232 0.6706915 1.9121326

enc_embedding_s.position_embedding.pe f4 [1, 5000, 8]
00000000: 0000 0000 0000 803f 0000 0000 0000 803f
00000010: 0000 0000 0000 803f 0000 0000 0000 803f
00000020: a46a 573f 4151 0a3f 7675 cc3d 98b8 7e3f
00000030: 57d6 233c b9fc 7f3f 6d12 833a f8ff 7f3f
00000040: b7c7 683f 3311 d5be f86f 4b3e a5e5 7a3f
00000050: 3ed4 a33c e5f2 7f3f 6812 033b dfff 7f3f
00000060: c381 103e 2670 7dbf 6c4e 973e ef90 743f
00000070: 1fb9 f53c 83e2 7f3f 929b 443b b5ff 7f3f
00000080: cfbd 41bf 3055 27bf d761 c73e a7ca 6b3f
00000090: dbcb 233d 94cb 7f3f 5712 833b 7aff 7f3f
000000a0: 107c 75bf 2c3c 913e 4377 f53e 40a9 603f
000000b0: f4b6 4c3d 19ae 7f3f ddd6 a33b 2eff 7f3f
000000c0: 8c0f 8fbe b8cd 753f 688c 103f 3249 533f
000000d0: d19c 753d 128a 7f3f 589b c43b d2fe 7f3f
000000e0: 4630 283f bdff 403f 72eb 243f b3cc 433f
000000f0: 323e 8f3d 815f 7f3f c55f e53b 65fe 7f3f
00000100: 9546 7d3f f6fd 14be a5a4 373f 5f5b 323f
00000110: 50aa a33d 652e 7f3f 1212 033c e7fd 7f3f
00000120: 3201 d33e d53f 69bf 1c88 483f d521 1f3f
00000130: 3e12 b83d c2f6 7e3f 3a74 133c 59fd 7f3f
00000140: f844 0bbf 64cd 56bf a46a 573f 4151 0a3f
00000150: 7675 cc3d 98b8 7e3f 57d6 233c b9fc 7f3f
00000160: 5cff 7fbf 7205 913b 2a26 643f c33d e83e
00000170: 72d3 e03d e873 7e3f 6938 343c 09fc 7f3f
00000180: d85c 09bf d006 583f 1d9a 6e3f f786 b93e
00000190: ac2b f53d b528 7e3f 709a 443c 48fb 7f3f
000001a0: 2220 d73e 6f4e 683f c0ab 763f 9df5 883e
000001b0: d0be 043e 00d7 7d3f 6afc 543c 76fa 7f3f
000001c0: 7298 7d3f d704 0c3e 6f46 7c3f e70b 2e3e
000001d0: 64e4 0e3e cc7e 7d3f 555e 653c 94f9 7f3f
000001e0: 4479 263f e87a 42bf d55b 7f3f bade 903d
000001f0: 4f06 193e 1a20 7d3f 32c0 753c a1f8 7f3f
00000200: 1068 93be 2c29 75bf 0ee4 7f3f a333 efbc
00000210: 5024 233e edba 7c3f 0011 833c 9df7 7f3f
00000220: 251e 76bf 36e2 8cbe bfdd 7d3f cbef 03be
00000230: 233e 2d3e 494f 7c3f dd41 8b3c 88f6 7f3f
00000240: b340 40bf 840a 293f 144e 793f a7a7 68be
00000250: 8753 373e 2edd 7b3f b272 933c 62f5 7f3f
00000260: 6979 193e bf1b 7d3f ba40 723f 3186 a5be
00000270: 3a64 413e a164 7b3f 7da3 9b3c 2cf4 7f3f
00000280: c8b6 693f 22f0 d03e b8c7 683f 2f11 d5be
00000290: f86f 4b3e a5e5 7a3f 3ed4 a33c e5f2 7f3f
000002a0: 102f 563f fc37 0cbf 4bfb 5c3f 973d 01bf
000002b0: 8376 553e 3c60 7a3f f304 ac3c 8df1 7f3f
000002c0: 1505 11bc 6ffd 7fbf a1f9 4e3f 00a8 16bf
000002d0: 9677 5f3e 6ad4 793f 9e35 b43c 24f0 7f3f
000002e0: e6a1 58bf bf67 08bf 8ae6 3e3f 1091 2abf
000002f0: f072 693e 3442 793f 3d66 bc3c abee 7f3f
00000300: fcd3 67bf fe2d d93e 29eb 2c3f d4c5 3cbf
00000310: 5168 733e 9ba9 783f d096 c43c 20ed 7f3f
00000320: 3887 07be 78bf 7d3f 7c35 193f bd17 4dbf
00000330: 7757 7d3e a50a 783f 56c7 cc3c 85eb 7f3f
00000340: 0837 433f 819c 253f e7f7 033f 0f5d 5bbf
00000350: 10a0 833e 5665 773f cef7 d43c dae9 7f3f
00000360: 0ed5 743f 3893 95be 8fd1 da3e 4471 67bf
00000370: 0591 883e b1b9 763f 3928 dd3c 1de8 7f3f
00000380: 2ab4 8a3e 576d 76bf 9a83 ab3e 7a35 71bf
00000390: 7d7e 8d3e bb07 763f 9458 e53c 50e6 7f3f
000003a0: e9e3 29bf b380 3fbf d0fd 743e b690 78bf
000003b0: 5468 923e 794f 753f e188 ed3c 72e4 7f3f
000003c0: a4ef 7cbf 18f4 1d3e d381 103e 2570 7dbf
000003d0: 6c4e 973e ef90 743f 1eb9 f53c 83e2 7f3f
000003e0: 06de cebe 8e2c 6a3f 9650 2a3d 52c7 7fbf
000003f0: a530 9c3e 22cc 733f 4be9 fd3c 83e0 7f3f
0.0 1.0 0.0 1.0 0.0 1.0 0.0 1.0
0.84147096 0.54030234 0.099833414 0.9950042 0.009999833 0.99995 0.0009999998 0.9999995
0.9092974 -0.41614684 0.19866931 0.9800666 0.019998666 0.9998 0.0019999985 0.99999803
0.14112 -0.9899925 0.2955202 0.9553365 0.0299955 0.99955004 0.0029999954 0.9999955
-0.7568025 -0.6536436 0.38941833 0.921061 0.039989334 0.9992001 0.003999989 0.999992
-0.9589243 0.2836622 0.47942552 0.87758255 0.049979165 0.99875027 0.004999979 0.9999875
-0.2794155 0.96017027 0.5646424 0.8253356 0.059964005 0.99820054 0.0059999637 0.999982
0.6569866 0.75390226 0.6442176 0.7648422 0.06994285 0.997551 0.006999942 0.9999755
0.98935825 -0.14550003 0.717356 0.6967067 0.07991469 0.9968017 0.007999914 0.999968
0.4121185 -0.91113025 0.78332686 0.62161 0.089878544 0.9959527 0.008999879 0.9999595
-0.5440211 -0.8390715 0.84147096 0.54030234 0.099833414 0.9950042 0.009999833 0.99995
-0.9999902 0.004425698 0.89120734 0.4535962 0.1097783 0.9939561 0.010999777 0.9999395
-0.53657293 0.84385395 0.9320391 0.36235783 0.119712204 0.99280864 0.011999711 0.999928
0.42016703 0.9074468 0.9635582 0.26749888 0.12963414 0.9915619 0.012999633 0.9999155
0.9906074 0.13673721 0.98544973 0.16996728 0.13954312 0.990216 0.013999541 0.999902
0.65028787 -0.7596879 0.997495 0.07073732 0.14943813 0.9887711 0.014999436 0.9998875
-0.2879033 -0.9576595 0.9995736 -0.029199427 0.15931821 0.98722726 0.015999317 0.999872
-0.96139747 -0.27516335 0.9916648 -0.12884443 0.16918235 0.9855848 0.01699918 0.9998555
-0.75098723 0.6603167 0.9738476 -0.22720204 0.17902957 0.9838437 0.017999027 0.999838
0.1498772 0.9887046 0.94630015 -0.32328942 0.1888589 0.9820042 0.018998856 0.9998195
0.9129453 0.40808207 0.90929747 -0.41614673 0.19866931 0.9800666 0.019998666 0.9998
0.8366556 -0.54772925 0.8632094 -0.50484604 0.2084599 0.9780309 0.020998454 0.9997795
-0.008851309 -0.99996084 0.80849653 -0.588501 0.21822962 0.97589743 0.021998223 0.999758
-0.8462204 -0.53283304 0.74570525 -0.666276 0.22797751 0.9736664 0.02299797 0.99973553
-0.9055784 0.42417902 0.67546326 -0.7373936 0.23770262 0.971338 0.023997694 0.999712
-0.13235176 0.99120283 0.59847236 -0.80114347 0.24740396 0.9689124 0.024997395 0.9996875
0.76255846 0.6469193 0.51550144 -0.8568887 0.25708055 0.96639 0.025997069 0.99966204
0.95637596 -0.29213881 0.42738006 -0.90407205 0.2667314 0.9637709 0.026996719 0.9996355
0.2709058 -0.9626059 0.33498842 -0.94222224 0.27635565 0.96105546 0.027996339 0.99960804
-0.6636339 -0.74805754 0.23924947 -0.9709581 0.2859522 0.9582439 0.028995933 0.99957955
-0.9880316 0.15425146 0.14112024 -0.98999244 0.2955202 0.9553365 0.029995497 0.99955004
-0.40403765 0.91474235 0.04158076 -0.99913514 0.30505863 0.95233357 0.030995032 0.9995195

enc_embedding_s.temporal_embedding.embed.weight f4 [8, 4]
00000000: 5083 e73d b821 b63e 12b1 fd3e 04be ccbe
00000010: e6bc dabe 5015 61bd 807e e8bd ea5e c1be
00000020: 60af edbd b0d1 903d 5ca1 24be ec1b 663e
00000030: 6c7a 4ebe e850 f83d 1cbb 92be 80b4 923b
00000040: 6ca7 873e f8e4 fa3e 400f eabc 8c91 61be
00000050: cad4 b63e c40e 7a3e 3cfc b93e b67e 8a3e
00000060: 5e49 edbe 8c50 e63e dafd afbe 0c7d 04be
00000070: 1893 573e d476 21be 6245 a13e 48ef 54be
0.11304343 0.355726 0.49549156 -0.3998872 -0.42722243 -0.054951966 -0.11352253 -0.37767726
-0.11605716 0.07071245 -0.16077179 0.22471589 -0.20163888 0.12124807 -0.28658378 0.0044770837
0.2649492 0.49002814 -0.028571725 -0.22028178 0.3570922 0.24419695 0.36325252 0.27049798
-0.46345037 0.44983327 -0.3437336 -0.12938327 0.21052206 -0.15767986 0.31498247 -0.20794404

enc_embedding_t.value_embedding.tokenConv.weight f4 [8, 1, 3]
00000000: 945f 8ebf d55c 4cbf 6d88 ac3f b03d fc3e
00000010: 2e5e f3bc b88e 803d 3e0d ddbd cde8 883e
00000020: 1b80 9d3f 6084 ca3e 237b 67bf 7d31 4a3f
00000030: ab9b 6bbe 981b 89be 7755 983d 56b2 1e3f
00000040: d8c0 933f 63e5 3d3f 26c6 2bbf 82ea 8f3f
00000050: 5bd5 81be 8926 b53e 2ede 05bd ed15 283e
-1.1122918 -0.7982915 1.3479134 0.49265814 -0.029707994 0.062772214 -0.10793541 0.26740113
1.230472 0.3955412 -0.90422267 0.78981763 -0.23008601 -0.26778865 0.07438176 0.6199087
1.1543226 0.7417814 -0.67099226 1.1243441 -0.2535809 0.35380962 -0.03268259 0.16414614

enc_embedding_t.position_embedding.pe f4 [1, 5000, 8]
00000000: 0000 0000 0000 803f 0000 0000 0000 803f
00000010: 0000 0000 0000 803f 0000 0000 0000 803f
00000020: a46a 573f 4151 0a3f 7675 cc3d 98b8 7e3f
00000030: 57d6 233c b9fc 7f3f 6d12 833a f8ff 7f3f
00000040: b7c7 683f 3311 d5be f86f 4b3e a5e5 7a3f
00000050: 3ed4 a33c e5f2 7f3f 6812 033b dfff 7f3f
00000060: c381 103e 2670 7dbf 6c4e 973e ef90 743f
00000070: 1fb9 f53c 83e2 7f3f 929b 443b b5ff 7f3f
00000080: cfbd 41bf 3055 27bf d761 c73e a7ca 6b3f
00000090: dbcb 233d 94cb 7f3f 5712 833b 7aff 7f3f
000000a0: 107c 75bf 2c3c 913e 4377 f53e 40a9 603f
000000b0: f4b6 4c3d 19ae 7f3f ddd6 a33b 2eff 7f3f
000000c0: 8c0f 8fbe b8cd 753f 688c 103f 3249 533f
000000d0: d19c 753d 128a 7f3f 589b c43b d2fe 7f3f
000000e0: 4630 283f bdff 403f 72eb 243f b3cc 433f
000000f0: 323e 8f3d 815f 7f3f c55f e53b 65fe 7f3f
00000100: 9546 7d3f f6fd 14be a5a4 373f 5f5b 323f
00000110: 50aa a33d 652e 7f3f 1212 033c e7fd 7f3f
00000120: 3201 d33e d53f 69bf 1c88 483f d521 1f3f
00000130: 3e12 b83d c2f6 7e3f 3a74 133c 59fd 7f3f
00000140: f844 0bbf 64cd 56bf a46a 573f 4151 0a3f
00000150: 7675 cc3d 98b8 7e3f 57d6 233c b9fc 7f3f
00000160: 5cff 7fbf 7205 913b 2a26 643f c33d e83e
00000170: 72d3 e03d e873 7e3f 6938 343c 09fc 7f3f
00000180: d85c 09bf d006 583f 1d9a 6e3f f786 b93e
00000190: ac2b f53d b528 7e3f 709a 443c 48fb 7f3f
000001a0: 2220 d73e 6f4e 683f c0ab 763f 9df5 883e
000001b0: d0be 043e 00d7 7d3f 6afc 543c 76fa 7f3f
000001c0: 7298 7d3f d704 0c3e 6f46 7c3f e70b 2e3e
000001d0: 64e4 0e3e cc7e 7d3f 555e 653c 94f9 7f3f
000001e0: 4479 263f e87a 42bf d55b 7f3f bade 903d
000001f0: 4f06 193e 1a20 7d3f 32c0 753c a1f8 7f3f
00000200: 1068 93be 2c29 75bf 0ee4 7f3f a333 efbc
00000210: 5024 233e edba 7c3f 0011 833c 9df7 7f3f
00000220: 251e 76bf 36e2 8cbe bfdd 7d3f cbef 03be
00000230: 233e 2d3e 494f 7c3f dd41 8b3c 88f6 7f3f
00000240: b340 40bf 840a 293f 144e 793f a7a7 68be
00000250: 8753 373e 2edd 7b3f b272 933c 62f5 7f3f
00000260: 6979 193e bf1b 7d3f ba40 723f 3186 a5be
00000270: 3a64 413e a164 7b3f 7da3 9b3c 2cf4 7f3f
00000280: c8b6 693f 22f0 d03e b8c7 683f 2f11 d5be
00000290: f86f 4b3e a5e5 7a3f 3ed4 a33c e5f2 7f3f
000002a0: 102f 563f fc37 0cbf 4bfb 5c3f 973d 01bf
000002b0: 8376 553e 3c60 7a3f f304 ac3c 8df1 7f3f
000002c0: 1505 11bc 6ffd 7fbf a1f9 4e3f 00a8 16bf
000002d0: 9677 5f3e 6ad4 793f 9e35 b43c 24f0 7f3f
000002e0: e6a1 58bf bf67 08bf 8ae6 3e3f 1091 2abf
000002f0: f072 693e 3442 793f 3d66 bc3c abee 7f3f
00000300: fcd3 67bf fe2d d93e 29eb 2c3f d4c5 3cbf
00000310: 5168 733e 9ba9 783f d096 c43c 20ed 7f3f
00000320: 3887 07be 78bf 7d3f 7c35 193f bd17 4dbf
00000330: 7757 7d3e a50a 783f 56c7 cc3c 85eb 7f3f
00000340: 0837 433f 819c 253f e7f7 033f 0f5d 5bbf
00000350: 10a0 833e 5665 773f cef7 d43c dae9 7f3f
00000360: 0ed5 743f 3893 95be 8fd1 da3e 4471 67bf
00000370: 0591 883e b1b9 763f 3928 dd3c 1de8 7f3f
00000380: 2ab4 8a3e 576d 76bf 9a83 ab3e 7a35 71bf
00000390: 7d7e 8d3e bb07 763f 9458 e53c 50e6 7f3f
000003a0: e9e3 29bf b380 3fbf d0fd 743e b690 78bf
000003b0: 5468 923e 794f 753f e188 ed3c 72e4 7f3f
000003c0: a4ef 7cbf 18f4 1d3e d381 103e 2570 7dbf
000003d0: 6c4e 973e ef90 743f 1eb9 f53c 83e2 7f3f
000003e0: 06de cebe 8e2c 6a3f 9650 2a3d 52c7 7fbf
000003f0: a530 9c3e 22cc 733f 4be9 fd3c 83e0 7f3f
0.0 1.0 0.0 1.0 0.0 1.0 0.0 1.0
0.84147096 0.54030234 0.099833414 0.9950042 0.009999833 0.99995 0.0009999998 0.9999995
0.9092974 -0.41614684 0.19866931 0.9800666 0.019998666 0.9998 0.0019999985 0.99999803
0.14112 -0.9899925 0.2955202 0.9553365 0.0299955 0.99955004 0.0029999954 0.9999955
-0.7568025 -0.6536436 0.38941833 0.921061 0.039989334 0.9992001 0.003999989 0.999992
-0.9589243 0.2836622 0.47942552 0.87758255 0.049979165 0.99875027 0.004999979 0.9999875
-0.2794155 0.96017027 0.5646424 0.8253356 0.059964005 0.99820054 0.0059999637 0.999982
0.6569866 0.75390226 0.6442176 0.7648422 0.06994285 0.997551 0.006999942 0.9999755
0.98935825 -0.14550003 0.717356 0.6967067 0.07991469 0.9968017 0.007999914 0.999968
0.4121185 -0.91113025 0.78332686 0.62161 0.089878544 0.9959527 0.008999879 0.9999595
-0.5440211 -0.8390715 0.84147096 0.54030234 0.099833414 0.9950042 0.009999833 0.99995
-0.9999902 0.004425698 0.89120734 0.4535962 0.1097783 0.9939561 0.010999777 0.9999395
-0.53657293 0.84385395 0.9320391 0.36235783 0.119712204 0.99280864 0.011999711 0.999928
0.42016703 0.9074468 0.9635582 0.26749888 0.12963414 0.9915619 0.012999633 0.9999155
0.9906074 0.13673721 0.98544973 0.16996728 0.13954312 0.990216 0.013999541 0.999902
0.65028787 -0.7596879 0.997495 0.07073732 0.14943813 0.9887711 0.014999436 0.9998875
-0.2879033 -0.9576595 0.9995736 -0.029199427 0.15931821 0.98722726 0.015999317 0.999872
-0.96139747 -0.27516335 0.9916648 -0.12884443 0.16918235 0.9855848 0.01699918 0.9998555
-0.75098723 0.6603167 0.9738476 -0.22720204 0.17902957 0.9838437 0.017999027 0.999838
0.1498772 0.9887046 0.94630015 -0.32328942 0.1888589 0.9820042 0.018998856 0.9998195
0.9129453 0.40808207 0.90929747 -0.41614673 0.19866931 0.9800666 0.019998666 0.9998
0.8366556 -0.54772925 0.8632094 -0.50484604 0.2084599 0.9780309 0.020998454 0.9997795
-0.008851309 -0.99996084 0.80849653 -0.588501 0.21822962 0.97589743 0.021998223 0.999758
-0.8462204 -0.53283304 0.74570525 -0.666276 0.22797751 0.9736664 0.02299797 0.99973553
-0.9055784 0.42417902 0.67546326 -0.7373936 0.23770262 0.971338 0.023997694 0.999712
-0.13235176 0.99120283 0.59847236 -0.80114347 0.24740396 0.9689124 0.024997395 0.9996875
0.76255846 0.6469193 0.51550144 -0.8568887 0.25708055 0.96639 0.025997069 0.99966204
0.95637596 -0.29213881 0.42738006 -0.90407205 0.2667314 0.9637709 0.026996719 0.9996355
0.2709058 -0.9626059 0.33498842 -0.94222224 0.27635565 0.96105546 0.027996339 0.99960804
-0.6636339 -0.74805754 0.23924947 -0.9709581 0.2859522 0.9582439 0.028995933 0.99957955
-0.9880316 0.15425146 0.14112024 -0.98999244 0.2955202 0.9553365 0.029995497 0.99955004
-0.40403765 0.91474235 0.04158076 -0.99913514 0.30505863 0.95233357 0.030995032 0.9995195

enc_embedding_t.temporal_embedding.embed.weight f4 [8, 4]
00000000: 6e7a 833e 000b ab3c 7ce1 a73e 0207 83be
00000010: b838 9abe 9ca6 ce3e 7899 f5be 3cbc 02be
00000020: 80a9 29bc d4b2 243e f44a 7a3e 406a 583c
00000030: 1882 233e c011 8ebd f000 aa3e 707a 503e
00000040: ece9 af3e d4ba e73e 20c5 36bd 889a 373e
00000050: 4864 ef3d c07c 503c 80d4 8f3d 2055 5e3d
00000060: fc7e 433e 96f0 803e f861 05be 0c5d a0be
00000070: 0090 6f3c 7ce9 ddbe 9caf fdbe b079 bf3d
0.25679344 0.020879269 0.32789218 -0.25591284 -0.30121398 0.40361488 -0.4796865 -0.12767118
-0.010355353 0.16083843 0.24442655 0.013208926 0.15967596 -0.06936979 0.3320384 0.20359206
0.34358156 0.45259726 -0.044621587 0.17930043 0.11689049 0.012725055 0.07022953 0.0542804
0.1909141 0.25183553 -0.13025653 -0.3132099 0.014621735 -0.43342197 -0.49548042 0.09349382

enc_embedding.value_embedding.tokenConv.weight f4 [8, 1, 3]
00000000: 1177 2dc0 f9a3 66c0 cb61 62c0 dade e53f
00000010: 37c5 523d 7cdb 73c0 0b16 1940 d144 083e
00000020: 9fd0 2640 901d 683f a32f ac3f 6e4d 713f
00000030: 4e68 62c0 64c3 81bf 231a c840 e45c 28bf
00000040: 41ab 9c40 0bb4 69c0 e403 5740 d202 8140
00000050: 97d9 7e3f dae3 4cbf de4b 2040 b001 72bf
-2.7103922 -3.603758 -3.5372188 1.7958634 0.05145761 -3.8102713 2.3919704 0.13307501
2.6064832 0.9067011 1.3452038 0.94258773 -3.5376163 -1.0137753 6.2531905 -0.6576674
4.895905 -3.651614 3.3596125 4.0315943 0.99550766 -0.80035174 2.5046306 -0.94533825

enc_embedding.position_embedding.pe f4 [1, 5000, 8]
00000000: 0000 0000 0000 803f 0000 0000 0000 803f
00000010: 0000 0000 0000 803f 0000 0000 0000 803f
00000020: a46a 573f 4151 0a3f 7675 cc3d 98b8 7e3f
00000030: 57d6 233c b9fc 7f3f 6d12 833a f8ff 7f3f
00000040: b7c7 683f 3311 d5be f86f 4b3e a5e5 7a3f
00000050: 3ed4 a33c e5f2 7f3f 6812 033b dfff 7f3f
00000060: c381 103e 2670 7dbf 6c4e 973e ef90 743f
00000070: 1fb9 f53c 83e2 7f3f 929b 443b b5ff 7f3f
00000080: cfbd 41bf 3055 27bf d761 c73e a7ca 6b3f
00000090: dbcb 233d 94cb 7f3f 5712 833b 7aff 7f3f
000000a0: 107c 75bf 2c3c 913e 4377 f53e 40a9 603f
000000b0: f4b6 4c3d 19ae 7f3f ddd6 a33b 2eff 7f3f
000000c0: 8c0f 8fbe b8cd 753f 688c 103f 3249 533f
000000d0: d19c 753d 128a 7f3f 589b c43b d2fe 7f3f
000000e0: 4630 283f bdff 403f 72eb 243f b3cc 433f
000000f0: 323e 8f3d 815f 7f3f c55f e53b 65fe 7f3f
00000100: 9546 7d3f f6fd 14be a5a4 373f 5f5b 323f
00000110: 50aa a33d 652e 7f3f 1212 033c e7fd 7f3f
00000120: 3201 d33e d53f 69bf 1c88 483f d521 1f3f
00000130: 3e12 b83d c2f6 7e3f 3a74 133c 59fd 7f3f
00000140: f844 0bbf 64cd 56bf a46a 573f 4151 0a3f
00000150: 7675 cc3d 98b8 7e3f 57d6 233c b9fc 7f3f
00000160: 5cff 7fbf 7205 913b 2a26 643f c33d e83e
00000170: 72d3 e03d e873 7e3f 6938 343c 09fc 7f3f
00000180: d85c 09bf d006 583f 1d9a 6e3f f786 b93e
00000190: ac2b f53d b528 7e3f 709a 443c 48fb 7f3f
000001a0: 2220 d73e 6f4e 683f c0ab 763f 9df5 883e
000001b0: d0be 043e 00d7 7d3f 6afc 543c 76fa 7f3f
000001c0: 7298 7d3f d704 0c3e 6f46 7c3f e70b 2e3e
000001d0: 64e4 0e3e cc7e 7d3f 555e 653c 94f9 7f3f
000001e0: 4479 263f e87a 42bf d55b 7f3f bade 903d
000001f0: 4f06 193e 1a20 7d3f 32c0 753c a1f8 7f3f
00000200: 1068 93be 2c29 75bf 0ee4 7f3f a333 efbc
00000210: 5024 233e edba 7c3f 0011 833c 9df7 7f3f
00000220: 251e 76bf 36e2 8cbe bfdd 7d3f cbef 03be
00000230: 233e 2d3e 494f 7c3f dd41 8b3c 88f6 7f3f
00000240: b340 40bf 840a 293f 144e 793f a7a7 68be
00000250: 8753 373e 2edd 7b3f b272 933c 62f5 7f3f
00000260: 6979 193e bf1b 7d3f ba40 723f 3186 a5be
00000270: 3a64 413e a164 7b3f 7da3 9b3c 2cf4 7f3f
00000280: c8b6 693f 22f0 d03e b8c7 683f 2f11 d5be
00000290: f86f 4b3e a5e5 7a3f 3ed4 a33c e5f2 7f3f
000002a0: 102f 563f fc37 0cbf 4bfb 5c3f 973d 01bf
000002b0: 8376 553e 3c60 7a3f f304 ac3c 8df1 7f3f
000002c0: 1505 11bc 6ffd 7fbf a1f9 4e3f 00a8 16bf
000002d0: 9677 5f3e 6ad4 793f 9e35 b43c 24f0 7f3f
000002e0: e6a1 58bf bf67 08bf 8ae6 3e3f 1091 2abf
000002f0: f072 693e 3442 793f 3d66 bc3c abee 7f3f
00000300: fcd3 67bf fe2d d93e 29eb 2c3f d4c5 3cbf
00000310: 5168 733e 9ba9 783f d096 c43c 20ed 7f3f
00000320: 3887 07be 78bf 7d3f 7c35 193f bd17 4dbf
00000330: 7757 7d3e a50a 783f 56c7 cc3c 85eb 7f3f
00000340: 0837 433f 819c 253f e7f7 033f 0f5d 5bbf
00000350: 10a0 833e 5665 773f cef7 d43c dae9 7f3f
00000360: 0ed5 743f 3893 95be 8fd1 da3e 4471 67bf
00000370: 0591 883e b1b9 763f 3928 dd3c 1de8 7f3f
00000380: 2ab4 8a3e 576d 76bf 9a83 ab3e 7a35 71bf
00000390: 7d7e 8d3e bb07 763f 9458 e53c 50e6 7f3f
000003a0: e9e3 29bf b380 3fbf d0fd 743e b690 78bf
000003b0: 5468 923e 794f 753f e188 ed3c 72e4 7f3f
000003c0: a4ef 7cbf 18f4 1d3e d381 103e 2570 7dbf
000003d0: 6c4e 973e ef90 743f 1eb9 f53c 83e2 7f3f
000003e0: 06de cebe 8e2c 6a3f 9650 2a3d 52c7 7fbf
000003f0: a530 9c3e 22cc 733f 4be9 fd3c 83e0 7f3f
0.0 1.0 0.0 1.0 0.0 1.0 0.0 1.0
0.84147096 0.54030234 0.099833414 0.9950042 0.009999833 0.99995 0.0009999998 0.9999995
0.9092974 -0.41614684 0.19866931 0.9800666 0.019998666 0.9998 0.0019999985 0.99999803
0.14112 -0.9899925 0.2955202 0.9553365 0.0299955 0.99955004 0.0029999954 0.9999955
-0.7568025 -0.6536436 0.38941833 0.921061 0.039989334 0.9992001 0.003999989 0.999992
-0.9589243 0.2836622 0.47942552 0.87758255 0.049979165 0.99875027 0.004999979 0.9999875
-0.2794155 0.96017027 0.5646424 0.8253356 0.059964005 0.99820054 0.0059999637 0.999982
0.6569866 0.75390226 0.6442176 0.7648422 0.06994285 0.997551 0.006999942 0.9999755
0.98935825 -0.14550003 0.717356 0.6967067 0.07991469 0.9968017 0.007999914 0.999968
0.4121185 -0.91113025 0.78332686 0.62161 0.089878544 0.9959527 0.008999879 0.9999595
-0.5440211 -0.8390715 0.84147096 0.54030234 0.099833414 0.9950042 0.009999833 0.99995
-0.9999902 0.004425698 0.89120734 0.4535962 0.1097783 0.9939561 0.010999777 0.9999395
-0.53657293 0.84385395 0.9320391 0.36235783 0.119712204 0.99280864 0.011999711 0.999928
0.42016703 0.9074468 0.9635582 0.26749888 0.12963414 0.9915619 0.012999633 0.9999155
0.9906074 0.13673721 0.98544973 0.16996728 0.13954312 0.990216 0.013999541 0.999902
0.65028787 -0.7596879 0.997495 0.07073732 0.14943813 0.9887711 0.014999436 0.9998875
-0.2879033 -0.9576595 0.9995736 -0.029199427 0.15931821 0.98722726 0.015999317 0.999872
-0.96139747 -0.27516335 0.9916648 -0.12884443 0.16918235 0.9855848 0.01699918 0.9998555
-0.75098723 0.6603167 0.9738476 -0.22720204 0.17902957 0.9838437 0.017999027 0.999838
0.1498772 0.9887046 0.94630015 -0.32328942 0.1888589 0.9820042 0.018998856 0.9998195
0.9129453 0.40808207 0.90929747 -0.41614673 0.19866931 0.9800666 0.019998666 0.9998
0.8366556 -0.54772925 0.8632094 -0.50484604 0.2084599 0.9780309 0.020998454 0.9997795
-0.008851309 -0.99996084 0.80849653 -0.588501 0.21822962 0.97589743 0.021998223 0.999758
-0.8462204 -0.53283304 0.74570525 -0.666276 0.22797751 0.9736664 0.02299797 0.99973553
-0.9055784 0.42417902 0.67546326 -0.7373936 0.23770262 0.971338 0.023997694 0.999712
-0.13235176 0.99120283 0.59847236 -0.80114347 0.24740396 0.9689124 0.024997395 0.9996875
0.76255846 0.6469193 0.51550144 -0.8568887 0.25708055 0.96639 0.025997069 0.99966204
0.95637596 -0.29213881 0.42738006 -0.90407205 0.2667314 0.9637709 0.026996719 0.9996355
0.2709058 -0.9626059 0.33498842 -0.94222224 0.27635565 0.96105546 0.027996339 0.99960804
-0.6636339 -0.74805754 0.23924947 -0.9709581 0.2859522 0.9582439 0.028995933 0.99957955
-0.9880316 0.15425146 0.14112024 -0.98999244 0.2955202 0.9553365 0.029995497 0.99955004
-0.40403765 0.91474235 0.04158076 -0.99913514 0.30505863 0.95233357 0.030995032 0.9995195

enc_embedding.temporal_embedding.embed.weight f4 [8, 4]
00000000: 1414 0f3e 3cf0 1b3e 445d 1fbe 24f7 d2be
00000010: 5a2c d33e c863 73be 7078 aebe 00b8 e13a
00000020: 48d1 4c3e 5403 93be 7c50 893e c4c2 8cbe
00000030: f0f2 3c3d 38b7 b2bd 18bd 333e 343f 2f3e
00000040: 6c54 703e 4cc4 0fbe dcd8 0cbe 84fe a4be
00000050: 48ae 80bd 20b9 313d 803d 873b 4639 d73e
00000060: 4813 2cbe 8030 273c 8e37 f0be d4aa 3fbe
00000070: 9c50 0b3e b8af c23e a441 f23e 84b8 c9be
0.13972503 0.15228361 -0.15562922 -0.41204178 0.41244775 -0.23768532 -0.34076262 0.0017220974
0.2000171 -0.28713477 0.26819217 -0.27492344 0.04613012 -0.087263525 0.17552602 0.17113954
0.23469704 -0.14039725 -0.137546 -0.3222543 -0.062832415 0.04338944 0.0041272044 0.42035884
-0.1680423 0.010204434 -0.46917385 -0.1871751 0.13604969 0.38024688 0.47315705 -0.39398587

encoder_s.attn_layers.0.attention.query_projection.weight f4 [8, 8]
00000000: 25b7 3bbe 8f2d 663c 40bf d6bd 2c98 88bd
00000010: fc24 d9bd f7ca 8dbe e1b9 acbc 74b6 3e3e
00000020: bdbb b0bd b201 02bd 28df 16be 5748 1c3e
00000030: bcc2 71bd e6fc 17bd 2ae1 4fbd c7c9 1ebe
00000040: 9e9a fc3d f866 9cbd 3f72 773d 5df8 973e
00000050: 5ec2 a9bc 45c8 78bc a4a0 0b3d fa99 033e
00000060: ddcb 0cbc ec3b b3bd 9ec1 6d3d 5e62 89be
00000070: 4a1c 1fbc 84c6 343e 4a7b 673c 5e95 ddbe
00000080: d99c 733c cc13 b53d cf61 c7b9 aceb 0d3d
00000090: c748 9cba 7ad6 65bd 47fb 2b3c 958f 863e
000000a0: 98dc 3b3c a8d8 633e b790 42bd 1252 89bd
000000b0: eea8 433e c680 143d 57e8 fd3d 68bb a1bc
000000c0: 403d 0dbd b298 d03c 246a c1bd de34 e4bb
000000d0: 2e7b 28bd 4f8c 86be aebd d0bc 2ce2 c33e
000000e0: 105d e63d a8d1 69bb 749e 043e c007 373e
000000f0: 8490 3d3d 805f 413e 313d 27bb 5c7c acbe
-0.18331583 0.014048948 -0.10485697 -0.066696495 -0.10602757 -0.27693912 -0.021084728 0.18624288
-0.08629558 -0.031739898 -0.14733565 0.1526197 -0.059023604 -0.037106417 -0.050751843 -0.1550666
0.123341784 -0.07636827 0.060411688 0.29681674 -0.020722564 -0.015184467 0.034088746 0.12851706
-0.008593527 -0.087516636 0.058045976 -0.2683286 -0.0097113345 0.17653853 0.0141285155 -0.4327802
0.014868938 0.088416666 -0.0003802911 0.034648582 -0.0011923545 -0.056112744 0.010496921 0.2628142
0.011466168 0.22250617 -0.047501292 -0.06705107 0.1910741 0.03625562 0.12397831 -0.019742683
-0.03448224 0.025463436 -0.09444073 -0.00696431 -0.0411331 -0.26278922 -0.025481071 0.38258493
0.11248219 -0.0035677943 0.1295107 0.1787405 0.0462804 0.18884087 -0.002551865 -0.3368863

encoder_s.attn_layers.0.attention.query_projection.bias f4 [8]
00000000: dc6b 9fbf cb7e ce3e bf80 083c d9ee dfbc
00000010: bea8 a4be 3eff 3ebf 9997 0abf 4de7 773e
-1.2454791 0.4033111 0.008331477 -0.027335571 -0.3215999 -0.7460822 -0.5413757 0.24209328

encoder_s.attn_layers.0.attention.key_projection.weight f4 [8, 8]
00000000: da09 29bd 37b9 30bd ef4f 4e3e a153 3c3f
00000010: d987 d8be dda0 ca3c d997 b63c 0e7c 96be
00000020: fd6f b8bb 0fd5 4b3e e765 233d 7185 04b8
00000030: 6c15 0d3d 6a6b 75bc afc2 cbb9 a7d2 733c
00000040: 9cfa fa3b 75e7 403e c8a7 203d 22da 023c
00000050: 7c01 633c 2b5d 57bc b9a3 0e3d a59b 69bc
00000060: 2e2c 50bd d474 10bc 37d5 a23b cc10 1d3d
00000070: 4dd1 d1bd d0e2 71bd 330d be3c 42e9 83bd
00000080: fd59 c5bb ef46 b03d 3a63 9d3c 2946 37bc
00000090: 56e0 0a3d 266c a33d cacd 553d c170 573c
000000a0: 2f1b debc a8f8 09bd 4491 2e3c 3a94 65bb
000000b0: 85ad 8c3e 502f db3d 2619 c53e 6f46 d9bc
000000c0: 66ac 9abd b77b b5bc 3efb 8fbc 20a5 a63c
000000d0: dee6 2fbd 1fb7 ec3c 1b38 08bb a21f 7cbe
000000e0: d5b8 af3b 9cee eebd 4840 edbc f10c a63c
000000f0: c2e0 edbc 62fb e9ba 7ffb 8eba 731a c83c
-0.04126916 -0.043145385 0.2014768 0.7356511 -0.42291144 0.024734909 0.022289203 -0.2939152
-0.0056285844 0.19905494 0.039892104 -3.159553e-05 0.034444258 -0.014979223 -0.00038864228 0.014881766
0.0076592695 0.18838294 0.03922251 0.007986577 0.013855334 -0.013144772 0.034824107 -0.0142583
-0.050823383 -0.0088169165 0.004969265 0.038346097 -0.10244999 -0.059054196 0.023199653 -0.06440975
-0.0060226903 0.086072795 0.019212354 -0.011186161 0.03390535 0.07979612 0.05219821 0.013149441
-0.027112572 -0.033684403 0.010654751 -0.0035030977 0.27476135 0.107023835 0.3849575 -0.026522843
-0.07552414 -0.022153718 -0.017575856 0.02034241 -0.04294478 0.028895913 -0.0020785395 -0.24621442
0.00536261 -0.11666605 -0.028961316 0.020269843 -0.029037837 -0.0017851407 -0.0010908692 0.024426674

encoder_s.attn_layers.0.attention.key_projection.bias f4 [8]
00000000: d2cc 60be 8385 96bd 5fbd 053e 9e80 873e
00000010: 1d58 343e 4ecf 7b3d 4bba ffbd 65eb a9bc
-0.21953133 -0.07349684 0.1306052 0.26465315 0.17611738 0.061476998 -0.124867044 -0.020742128

encoder_s.attn_layers.0.attention.value_projection.weight f4 [8, 8]
00000000: 0726 84bb df86 0b3c 2db4 45bd cf33 7fbe
00000010: 00cd 193e 8763 203d 2efd 0abb 6b86 76bd
00000020: 039e 9b3d ad9b cf3f c363 ff3e cb42 f63b
00000030: 22ca 57be ae5e a33d 6777 873e 2d1b 5f3e
00000040: 2119 1bbe f334 9cbf 540f 97be 6053 abbb
00000050: 7210 ce3e fc34 9dbd c527 f7bd 664c 6ebc
00000060: 48ee f93e 5dd8 4dbe 6ad8 2fbd 8f60 bebd
00000070: bfbc 0a3f feb2 acbc acfc 683e 265f 8d3f
00000080: cc3e 113e 69b5 11bf 2d2b e1bd 35a2 81be
00000090: 0d1e 37be 5c57 56bf e087 acbe 1308 803c
000000a0: b0b9 b93c f738 553d b4c1 b5bc 5fd7 a5ba
000000b0: a901 3c3e 5edf 723c 20be 4b3e d3ea 403d
000000c0: 7cae e0bd 8515 9bbe 8b42 a13d 04c6 a03d
000000d0: cfea 4fbe dd9f 343e ea7e ba3d 08c3 50bf
000000e0: 425d 64be 7385 a0bf 3dac c6be 4918 653e
000000f0: 7a43 403e f945 bd3e bba6 ca3d 4a28 983e
-0.0040328535 0.0085160425 -0.048267532 -0.24922107 0.15019608 0.039157417 -0.0021208036 -0.060186785
0.07598498 1.6219383 0.498808 0.0075152866 -0.21073201 0.07977043 0.26458284 0.2178771
-0.15146305 -1.2203659 -0.29503882 -0.005228445 0.40246922 -0.076761216 -0.12068132 -0.014544582
0.48814607 -0.20102067 -0.042930998 -0.09295761 0.54194254 -0.021081444 0.22752637 1.1044662
0.14184111 -0.56917435 -0.10994563 -0.25319067 -0.17882557 -0.8372705 -0.33697414 0.01562885
0.02267155 0.05205628 -0.022187091 -0.0012652687 0.18360008 0.014823763 0.19896746 0.047098946
-0.1097078 -0.30289856 0.0787402 0.078502685 -0.20304416 0.17639108 0.09106238 -0.81547594
-0.223012 -1.2540725 -0.38803282 0.22372545 0.1877574 0.36967447 0.098950826 0.29718238

encoder_s.attn_layers.0.attention.value_projection.bias f4 [8]
00000000: 9259 e1be e39a 143f 664d 453e 5461 833f
00000010: 7714 9a3b b8a4 88be 75f3 b9be 7aeb 9b3e
-0.4401365 0.5804884 0.19267806 1.0264077 0.0047021466 -0.2668817 -0.36318555 0.30453092

encoder_s.attn_layers.0.attention.out_projection.weight f4 [8, 8]
00000000: e11f b1bd 9726 143f 13e0 493f 66f1 06be
00000010: b984 623e 4d2d 9e3c e7ba b13e 3b87 b3bd
00000020: 7e39 173e f852 803e ec90 9e3d f330 d7be
00000030: 18c8 bc3e 8ea7 ebbe a77d 11bf 052b 033f
00000040: 3932 e0be 168a 953f c230 a3be bfdc 9ebe
00000050: 76b9 07bd 606c 913e ce81 e53e dddb 50bb
00000060: 57df 21be 19f4 74bf 1548 673d eab5 55bf
00000070: e121 533e 1251 af3e fc6a 0d3f d410 56bf
00000080: 2c65 223d 80f3 0dbe 751d a1be cdb5 ffbd
00000090: e76c fb3e c1f8 53be a541 dd3e d87c ddbe
000000a0: 4500 f3bc c24b dabe caf9 efbd 03e4 d13e
000000b0: e58f 48bf 02a5 37bd abd2 0a3f 304a 26bf
000000c0: 4f11 3f3b 8860 77be dc60 93be 7c37 f8bb
000000d0: 0e67 e13d c1f5 8cbc 85ce 583d 25d0 383e
000000e0: ab9f cc3d 39d4 e3bd 84e0 813b fdde 88bd
000000f0: f800 2cbe bcad 42bc 6b48 e4be a991 8b3e
-0.086486585 0.57871383 0.78857535 -0.13178024 0.22120942 0.01930871 0.34712908 -0.087660275
0.14768025 0.250633 0.077424854 -0.42029533 0.3687141 -0.46026272 -0.56832355 0.5123752
-0.43788317 1.1682765 -0.31873137 -0.3102779 -0.033135854 0.28402996 0.44825596 -0.003186933
-0.15807854 -0.95684963 0.056465227 -0.83480704 0.20618393 0.3424154 0.5524137 -0.8361943
0.039647266 -0.13862419 -0.31467786 -0.124858476 0.49106523 -0.20700361 0.43214145 -0.4325931
-0.029663214 -0.42635924 -0.11717565 0.40994272 -0.78344566 -0.044835098 0.54227704 -0.6495695
0.0029154604 -0.24157917 -0.28784835 -0.0075749736 0.11005984 -0.017207028 0.052931327 0.18048151
0.09991392 -0.11124463 0.003963532 -0.06683157 -0.16797245 -0.011882242 -0.445865 0.27259567

encoder_s.attn_layers.0.attention.out_projection.bias f4 [8]
00000000: b279 9fbd 9a98 2cbe 5496 13bf 6b95 c7bf
00000010: f134 533f 3a04 2dbf 69a8 673e 6848 023f
-0.077868834 -0.16855088 -0.5765126 -1.5592474 0.8250266 -0.67584574 0.22622837 0.50891733

encoder_s.attn_layers.0.conv1.weight f4 [64, 8, 1]
00000000: caa6 6bbe 80f8 a33d c0d5 14bf b94b da3e
00000010: 052b c9bd 8483 b8be 94a0 75be 67f4 b2bd
00000020: 183c 053d fb61 e03e 79f4 f4bd 5481 753e
00000030: 4062 463c b715 1ebe 1b98 4bbe 12d0 833c
00000040: 59d2 28be 3adf 33be 9b8f 39be 4135 8d3c
00000050: 1c38 033c 1ab1 eebc 79a6 c03e dfe9 52bd
00000060: 46d4 bd3e b4ff 03be f2d8 88be 2ea1 103e
00000070: b335 923d 0f07 353c 4a5b 5e3f 6c87 04be
00000080: a95d f1bd 30f3 05bf 4992 473e ac83 163e
00000090: 95f7 b73e cf41 793e 9b23 08bf 35ae 8fbf
000000a0: 9f39 73be 1189 43bf 2cfc 9bbd c299 ff3d
000000b0: 4279 bebd 320a 6d3f 41cd aabd 13d4 eb3e
000000c0: ab94 d83d 40ab 13be eec9 e43e 0990 2bbf
000000d0: 6a62 173d e50b 7d3e 5c33 93bc 988e 78be
000000e0: bd3b 1c3e 086a 11bf 4f89 5e3d 140f d4bd
000000f0: 777b eb3e 6d2d 833c fa48 2fbe 2a8a ecbd
00000100: 6845 9ebc dbd5 2e3d 83f0 8cbe 9830 633e
00000110: 704e 9d3d 252e 47be 00d0 853e 5f1d 853d
00000120: 1793 003d 54c2 9e3d 3c49 083f 5d7f 12be
00000130: 7982 163d 94c9 e5be 294a 8d3e c215 323e
00000140: 9421 86be df0b 8e3e 9794 123e 5ea4 143d
00000150: 47b1 c33e 9f69 203e 2d87 4fbf 4a4c bb3d
00000160: 2cef 813e c75d 7bbe f0e9 553f d91e ff3e
00000170: 4673 23bf c195 843e f91f f53e 0498 1cbf
00000180: 983a 8dbe 9179 8dbf f6eb 42be cb2f 4cbe
00000190: 1506 1c3f 2010 2b3f c0ac 8ebe 727c 163f
000001a0: 5ae1 71bc bc97 f43c bc6a 97be a780 ab3e
000001b0: d7b0 373d 4ef9 973e 9c58 9f3e f804 b8bd
000001c0: a8c9 043f 7b98 70be 3965 ef3d 4757 103e
000001d0: dad5 5e3d fa21 c7bd cca3 6abe 4430 d2bf
000001e0: 5721 53bd 2dc3 843e acc9 c8be cfcf 03be
000001f0: 90eb ef3d 768a 64bc 8d1d a63e 788c aebe
00000200: 8ed8 fd3d 8c1a 45bf 6ae4 8fbe 28b5 77bd
00000210: cf80 ae3e 108a 80bd c6c4 9c3d f303 2fbe
00000220: dbc1 0abe e371 a23e 8f4a c8bd b944 853e
00000230: f4cb 5c3e a0a4 1a3e f38c 6eba 3084 80bc
00000240: 5735 7bbe b029 8d3d 7131 8abf 9acc 0b40
00000250: 245b 48be 2513 b5be cc33 4abe c4fa 8ebd
00000260: 009b 22be 7bcb 913e 039e 753e 53f7 ed39
00000270: 8fbe f33d fb21 a23d 2536 28bf 5ba8 933e
00000280: 0f77 053e e5a2 363e 29f3 b23d 1afc 87be
00000290: f865 dbbe 4a2e adbe ea21 1b3e fbfc 9c3d
000002a0: bc43 21bd f01c 58be 0247 2c3d 2750 0bbe
000002b0: 57c1 3fbf cd15 a03d 12dd 1b3f d431 f33e
000002c0: eac8 c63c ddb4 5a3e c143 df3e fbe2 90be
000002d0: df87 0cbe d264 56bd a981 3fbe fbb9 823e
000002e0: ca75 bbbe e771 64bd b825 853d 11c7 153e
000002f0: 112c 233d 271f 113f d75f 023f 61b4 7bbf
00000300: 0184 423e 213e a3bd e884 ff3e 1f12 8cbf
00000310: 2643 643e 3fcf 003f 6f61 803e c6d3 43bf
00000320: dac5 a43e e279 04bf 01dc d13e bae7 d53d
00000330: fb87 60be cbbf babd 3ff5 49bf 90bc f3be
00000340: 2edd d9bc 014c 92bf 0c64 5b3f c7d5 69bc
00000350: 2c2e 173f 659f 7cbe eff7 723d dbbb 053d
00000360: 4836 3e3e 5732 b0bf 24b3 a4be dc64 d3bc
00000370: a7b0 ad3e 3bb0 9b3e 5e01 09bf 555c c43e
00000380: cea1 013f 70f8 abbe a0c0 363f fd5a e1be
00000390: 4e8f 6fbc 0d0e dc3e 0cb4 10be 8635 8fbb
000003a0: 97a5 3abe 13a5 9c3e 5385 0bbe 7702 8d3d
000003b0: 96d4 5e3e 453d 7b3e 7197 a1bd 361e 74be
000003c0: b4f9 d83e 5596 98bd 66c5 093e caf4 923d
000003d0: 3bfb 44bf a7dc e63e a973 acbd 5e7c c6bc
000003e0: 1791 87bd 9f58 5cbe 0d2f e6be 85a3 81be
000003f0: 026e a1bd 124f aabe 38e5 063f 59ee c23d
-0.23012844 0.08006382 -0.58138657 0.42635897 -0.098226584 -0.36037838 -0.23987037 -0.08738022
0.032528013 0.43824753 -0.11960692 0.23975116 0.012108386 -0.15437971 -0.19882242 0.016090427
-0.16486491 -0.17565623 -0.18121187 0.017237308 0.008008983 -0.029137183 0.3762701 -0.051492568
0.37076014 -0.12890512 -0.26728016 0.14123985 0.071391486 0.011049046 0.86858046 -0.12942284
-0.117854424 -0.523242 0.19489397 0.14698666 0.35931078 0.2434151 -0.5317933 -1.1225039
-0.2375245 -0.7638102 -0.07616457 0.12480499 -0.09300472 0.9259368 -0.0833993 0.46060237
0.10575231 -0.14420795 0.4468531 -0.67016655 0.03695909 0.24711569 -0.017968826 -0.24273145
0.15257163 -0.56802416 0.054330166 -0.103544384 0.45992634 0.016012872 -0.17117682 -0.1154979
-0.019320205 0.042684417 -0.27527246 0.22186506 0.076809764 -0.19451196 0.26135254 0.06499743
0.031390276 0.07751909 0.53236747 -0.14306398 0.036745522 -0.44880354 0.27595642 0.17391112
-0.26197493 0.27743432 0.14314495 0.036289565 0.3822119 0.15665291 -0.81065637 0.0914541
0.25377786 -0.24547492 0.83560085 0.49828222 -0.6384777 0.25895503 0.47875956 -0.6116946
-0.27583766 -1.1052724 -0.19035324 -0.19940107 0.6094678 0.6682148 -0.27866173 0.5878364
-0.014763201 0.029857509 -0.2957362 0.3349659 0.044846382 0.29682392 0.3112229 -0.08985323
0.51870203 -0.23495667 0.116892286 0.14095794 0.054403163 -0.097232774 -0.22914046 -1.642098
-0.051545467 0.25930157 -0.39216363 -0.12872241 0.11714852 -0.013949027 0.3244442 -0.34091544
0.1239482 -0.7699363 -0.28103954 -0.0604755 0.34082648 -0.06276333 0.07654719 -0.1709135
-0.13550512 0.31727514 -0.09779846 0.26028994 0.21562177 0.15101862 -0.00090999826 -0.015688032
-0.24532066 0.06892717 -1.0796338 2.184363 -0.19566017 -0.3536617 -0.19746321 -0.069814235
-0.1587944 0.28475556 0.23986058 0.00045388434 0.119015805 0.079166375 -0.6570762 0.28839383
0.13033698 0.17835577 0.08737785 -0.26559526 -0.42851233 -0.33824378 0.15149656 0.0766544
-0.039371237 -0.21104789 0.042059906 -0.13604794 -0.7490439 0.07816658 0.608842 0.47498953
0.024265725 0.21358056 0.4360638 -0.28298172 -0.13723706 -0.052342243 -0.18701805 0.25532517
-0.36613303 -0.05577269 0.06501335 0.14626719 0.039836947 0.5668816 0.5092749 -0.9832211
0.18995668 -0.079708345 0.49906087 -1.094303 0.2229124 0.5031623 0.25074336 -0.76495016
0.321822 -0.5174848 0.40988162 0.10444589 -0.21926872 -0.09118613 -0.7888984 -0.476048
-0.026594725 -1.1429445 0.85699534 -0.01427216 0.5905483 -0.24670179 0.05931848 0.032649856
0.18575394 -1.3765363 -0.32167923 -0.02580493 0.33923838 0.3040789 -0.5351771 0.38351694
0.5063752 -0.3358798 0.7138767 -0.4401473 -0.014621569 0.4297947 -0.14131182 -0.004370394
-0.1822723 0.30594692 -0.13625078 0.06885236 0.21760783 0.24535091 -0.07890213 -0.2383965
0.42378008 -0.074505486 0.13454208 0.07175596 -0.7694585 0.4509022 -0.08420498 -0.024229225
-0.066194706 -0.21518181 -0.44957772 -0.25320068 -0.078823105 -0.3326345 0.5269351 0.095181175

encoder_s.attn_layers.0.conv1.bias f4 [64]
00000000: fd46 103b c20c 96be 5530 6dbe c4f4 7a3d
00000010: 78cb 9f3e e43d debe 2ff8 803c 8d20 0bbe
00000020: 6454 4ebe db7c 1ebf 906a bcbe bddb d1bd
00000030: d52f 4ebf 727f 73bd 492d edbe d44b 03be
00000040: 20e8 54be 892f f33d 1df8 51bf 3996 8fbe
00000050: b4cb 18bf 82b2 2cbf be82 46be 9999 6a3c
00000060: fe35 00bb e637 8a3e d093 29bf 17c2 4dbf
00000070: a021 87bd 8674 bc3d a2f0 48bf 8802 0bbf
00000080: 7944 61be 612a 20bf ff72 bb3e c6d8 073e
00000090: 233f 70be b6d7 29bf 6607 bbbd 7b9b a3be
000000a0: eb98 2ebf 941d 483e 7a1b 8d3d 4298 f1be
000000b0: 345f 9cbe a9b0 15bf f718 5dbf 2dfc e2bd
000000c0: a782 51bf 8e07 f5be 93ca cbbe d42b 6dbf
000000d0: 0ddf 003e 8341 70bd 4705 f3be 02e7 3bbf
000000e0: 316e a5be 99ea 97be 4487 e9be 2831 43be
000000f0: a09f 94be b173 ec3c fe36 bbbe ee2c 9fbe
0.0022014969 -0.29306608 -0.23162968 0.061268583 0.31209922 -0.43406594 0.015743343 -0.13586636
-0.2014938 -0.61909264 -0.3680005 -0.1024699 -0.80541736 -0.059447713 -0.46323612 -0.12821895
-0.20791674 0.11874301 -0.82019216 -0.28044298 -0.59685826 -0.6745988 -0.19385812 0.014318847
-0.0019563432 0.26995772 -0.6624117 -0.8037428 -0.0659821 0.092019126 -0.78492177 -0.5430074
-0.21998776 -0.62564665 0.36611173 0.13266286 -0.23461585 -0.66344774 -0.091322705 -0.3195456
-0.68202084 0.19542533 0.06890006 -0.47186476 -0.30541384 -0.58472687 -0.8636622 -0.11083255
-0.81839985 -0.47857326 -0.3980299 -0.92645 0.12585087 -0.058656227 -0.47464964 -0.73399365
-0.32310632 -0.2967117 -0.45611012 -0.1906172 -0.29028034 0.02886376 -0.36565393 -0.31088966

encoder_s.attn_layers.0.conv2.weight f4 [8, 64, 1]
00000000: 84a2 3e3d b048 a73d d54c 47bd bdca 43be
00000010: 8da0 bbbc ea89 49be 721a a9bd 57b2 1cbc
00000020: 0de9 6c3c cb17 243c 28ea 213e b975 c03d
00000030: 5dd5 e0bc b335 953c 5a02 6d3d e18e c5bd
00000040: e349 a63c d889 273e 784f 31be bea3 683e
00000050: 6e35 f0bc 43d3 2bbd 7830 703d 9716 833e
00000060: 565c 5dbe c142 6bbe 1068 b7bd f12c 033d
00000070: 52cd 413e b334 1b3e 8ae0 f33d bbc9 91bd
00000080: fa06 69bd bb6f 4dbd 82a0 79bd e31c 3a3e
00000090: 494c 1dbe dbee 693d f04f 4ebe 100f b73c
000000a0: d072 9b3c 928a c63c 6484 393e cfc3 07be
000000b0: 4abc 7f3d f651 2ebe 4211 983e e7df c13b
000000c0: da08 083d c778 b239 c0ea 24be 35ab c3be
000000d0: bb3a 6e3d 4a98 ed3d 5402 08be e3a2 edbc
000000e0: c6a4 ac3d 28b1 88bd e833 09bd 3a45 963d
000000f0: 7859 dabc 223e 83be 77fd 20bd 6ad7 803d
00000100: 4ec3 ddbd 348d 3ebb 3686 0c3e c82d 433e
00000110: 919b 38bf d000 c43e b269 4c3d a322 653e
00000120: 08d5 e7bc 1829 cf3d 12e2 573e c2c8 13bf
00000130: 11bf 0f3f 796a 213e 62bf 17bf 72d7 27be
00000140: e3b8 373e ae08 9bbd 84a2 4f3e fd56 5e3d
00000150: 513e da3c afea cf3e d93f b7bb 0101 3bbe
00000160: 7fc6 013e 87fc c7be c47c 1dbf 1345 763e
00000170: bb00 48bc 0ab1 b9bd 174b 3b3d 6920 153d
00000180: aa3a c6be 8c27 7abd 1859 95be d080 193d
00000190: e73f a7be e515 553e bb49 d4bc f5a9 45bf
000001a0: 176e 12be 27ce a93d 66ed 0abf 8e8c cfbe
000001b0: f611 7fbe 5083 013f 1a2c 3f3c cb92 0c3e
000001c0: f8b2 903e 86b0 963c 2691 61be 9786 4f3e
000001d0: 106d 90be 5c30 cd3d 6559 993d 45d5 903d
000001e0: b0e6 ddbd 6008 e63d cee0 fc3c a836 ae3e
000001f0: 124b dfbe 5b75 3d3e 4a1c 1a3e 310b 963e
00000200: 99a0 29bd e8cd 2dbe 3ca2 343d 4a3d 293e
00000210: f4e7 393e 9903 1cbc 4f3d a6be dda0 ac3d
00000220: 2148 1d3e 02ba 1dbe ae04 63bd 07a8 523e
00000230: 0408 a13d 8ef2 b23d e079 123f 745e cf3d
00000240: 5e5f 0b3e ae32 e83d 4ba8 7ebe d55d 6bbe
00000250: 1f65 6abc 4eec f83c 106f 7cbd eb7c f4bd
00000260: 0feb e5be cdfc 893d c7fb 6a3d fa4e a0be
00000270: 1f0e aabd 3d88 b53d d626 90bd 4550 2f3e
00000280: a182 53be b53f 8a3c 71a4 75bd 712a eb3d
00000290: ba68 b1bd 82a4 9bbd 4720 83be 587e e7bd
000002a0: 0e3b 23be 9e62 dc3d 83b1 b63d 9a74 cbbd
000002b0: c938 f5bb 9bc8 113e 70e6 043e 6439 e1bd
000002c0: 4fbb 37be 8feb 29be 7c47 0f3e eb59 373e
000002d0: e014 493e 84f9 193d 762d 0a3e eb0b 4c3c
000002e0: 4f74 7cbe 7de7 b23c 7532 90bd 248d 013d
000002f0: e090 033d 3416 983d 5652 c2bd a4f5 e23c
00000300: c51c c2be c75f fcbc dc30 c7bd a07c 553e
00000310: 6a99 6a3f 14ee 25bc 53fe 1c3e fdc3 153e
00000320: 3c55 50be a7c4 25be 81e4 593d 5cae 5a3e
00000330: 8d72 54be 7445 a1bd c49d 203f 54d5 e03d
00000340: ad01 913d eb22 b23d 7c08 e6be 9c13 6e3e
00000350: a7d8 f33e 4da0 cebd 3d0c d03e 0a4a 153c
00000360: 1168 4fbe 2cb3 f33c 2d0b a93e 328d 3abe
00000370: aa6d b4be de92 9a3d 6cad afbe 16ee 5b3e
00000380: c5d3 2e3e 2f7f b23e 07cb a73e f37e 3dbd
00000390: 2b96 a53e a25e 8abe b88f ae3d 25be e63e
000003a0: 366c f13e 1cb5 893e f3a0 283e b7cd b03e
000003b0: 4f62 2dbe a3c4 82ba 682f 6abe 003a 69bd
000003c0: 1940 99be ea9b e6be b3b1 aa3e 6083 febd
000003d0: e083 633c a9c5 5bbd d9c6 89be 58ab 85be
000003e0: 870f 813e 2029 44be 8c1b af3e 6551 503e
000003f0: 418f 32be a8cb 363e e207 c93d 2385 583d
0.046541706 0.08168161 -0.048657257 -0.19120307 -0.022903705 -0.19681516 -0.08256997 -0.009564004
0.0144598605 0.010015438 0.1581198 0.09397454 -0.02744549 0.018214082 0.05786357 -0.096463926
0.020298904 0.16361177 -0.17315471 0.22718713 -0.029322352 -0.04194952 0.058639973 0.25603172
-0.21617255 -0.22974683 -0.08955395 0.03202528 0.1892598 0.15156822 0.11908062 -0.07118555
-0.05689142 -0.050155383 -0.060944088 0.18175082 -0.15361132 0.057112556 -0.20147681 0.02234605
0.018975645 0.024235997 0.1811691 -0.13258289 0.062435426 -0.17023453 0.29700667 0.005916584
0.033211567 0.00034040792 -0.16105175 -0.38216558 0.05816148 0.116013125 -0.13282138 -0.029008335
0.084298655 -0.06674415 -0.033496767 0.07337423 -0.02665399 -0.2563334 -0.039304223 0.06291087
-0.10828267 -0.0029075863 0.13723072 0.19060433 -0.72112375 0.3828187 0.049905486 0.22376494
-0.028299823 0.1011526 0.21082333 -0.5772821 0.5615092 0.15763272 -0.592764 -0.1639078
0.17941622 -0.07570015 0.20276839 0.054282177 0.026641043 0.40608737 -0.005592328 -0.18262102
0.12673377 -0.3905985 -0.615185 0.24049787 -0.012207205 -0.09066971 0.045725908 0.03640786
-0.38716632 -0.06107287 -0.29169536 0.03747636 -0.3266594 0.20809133 -0.025914064 -0.7721246
-0.14299808 0.082912736 -0.5426849 -0.40536922 -0.24909195 0.5059099 0.0116682295 0.13727872
0.28261542 0.01839472 -0.22028026 0.20266186 -0.28208208 0.100189894 0.07487754 0.07071928
-0.10835016 0.11232066 0.030868914 0.34026074 -0.43611962 0.18501799 0.15049854 0.29305413
-0.041412923 -0.16973078 0.04410003 0.16527286 0.1815489 -0.009522342 -0.3246865 0.0842912
0.15359546 -0.15402988 -0.055424385 0.2057191 0.07862857 0.0873767 0.57217216 0.101254374
0.13610598 0.113377914 -0.24868886 -0.22985013 -0.014306336 0.030386116 -0.061629355 -0.11937889
-0.44905898 0.06737671 0.05736902 -0.31310254 -0.08303475 0.08863876 -0.07038657 0.17120464
-0.206553 0.016876081 -0.059971277 0.114827044 -0.08662553 -0.07599737 -0.25610563 -0.11303395
-0.15940496 0.10760997 0.089205764 -0.09934349 -0.007483576 0.14236681 0.1297853 -0.109972745
-0.17942546 -0.16593765 0.13992113 0.17905395 0.1963687 0.037591472 0.13493904 0.012454013
-0.24653743 0.021838898 -0.07040874 0.031628743 0.032120585 0.0742611 -0.094883606 0.027705021
-0.37912574 -0.030807389 -0.09726116 0.20848322 0.9164034 -0.010127563 0.15331392 0.14625545
-0.20345014 -0.16188298 0.053196434 0.21355575 -0.20746823 -0.07874575 0.6274073 0.10978189
0.07080398 0.08698066 -0.44928348 0.23249668 0.4762623 -0.10089169 0.40634337 0.009111891
-0.20254542 0.029748522 0.3301634 -0.18217924 -0.35239917 0.07547544 -0.34311998 0.21477541
0.17072971 0.34862658 0.32772085 -0.046263646 0.32341132 -0.27025324 0.08523506 0.45066944
0.4715287 0.26895988 0.16467647 0.34531948 -0.16932033 -0.0009976815 -0.22869647 -0.05694008
-0.29931715 -0.45040828 0.333387 -0.124274015 0.013886422 -0.0536553 -0.2690952 -0.26107287
0.2520716 -0.19156313 0.34200704 0.2034355 -0.1743746 0.17851126 0.09815957 0.052861344

encoder_s.attn_layers.0.conv2.bias f4 [8]
00000000: 5ed9 c23d a171 08be 8927 e8bc fc66 2a3e
00000010: 999c 45bd d4c7 4dbd ba6c 043c f8e1 2aba
0.09514116 -0.13324596 -0.028339164 0.16640848 -0.048245046 -0.0502394 0.008082563 -0.00065186573

encoder_s.attn_layers.0.norm1.weight f4 [8]
00000000: 08c4 b83f 9c22 6f3f 647c 813f b14b 493f
00000010: 88c4 aa3f 6390 cf3f f609 7d3f a97a ba3f
1.4434824 0.93412185 1.0116086 0.7863112 1.3341227 1.6215938 0.98843324 1.4568683

encoder_s.attn_layers.0.norm1.bias f4 [8]
00000000: 99bb 82be bb11 963e d73c 78be f91c a93e
00000010: 5294 1fbe 9d7b 9ebd 2ba5 5d3d 314c a8bd
-0.2553375 0.29310402 -0.24241959 0.33029917 -0.15583923 -0.07738421 0.054112595 -0.08217657

encoder_s.attn_layers.0.norm2.weight f4 [8]
00000000: b6b2 ac3f 4b5e 263f ce38 833f 236c 4d3f
00000010: da49 333f b465 353f 58e6 573f 18fd bd3f
1.3492038 0.6498763 1.025171 0.8024313 0.70034564 0.7085831 0.8433585 1.4842863

encoder_s.attn_layers.0.norm2.bias f4 [8]
00000000: ce51 c73c 3739 323d 3992 83be 1f16 a73e
00000010: 324e 36be a1d2 12ba c234 d2bd 42c6 ac3c
0.024331 0.043511596 -0.25697497 0.32634065 -0.17803267 -0.0005600844 -0.10263969 0.02109063

encoder_s.attn_layers.1.attention.query_projection.weight f4 [8, 8]
00000000: 82a9 b4be a567 6e3e 3b9f 9bbe d3c1 0c3f
00000010: b76e 82be b33f 4abe 41f5 be3e cde4 083f
00000020: 9c28 593f b0de 17be 65cd e0be 64f5 483e
00000030: 6c13 85be fbe2 25be 4188 123e f54f 63bd
00000040: e948 993e 81ce b13e e734 3abf 37e4 04bf
00000050: b856 40bf c7ee ac3e a998 e73e 6a4d c43e
00000060: ed88 d43e 835a 213f 6fa0 673d df45 16be
00000070: 437b babe e56d 0abf 47b3 b1be f723 253e
00000080: 6603 063f fb21 ca3d a1ee b4bd 2cf6 fa3d
00000090: 51de 29bf 805c efbe 7f5e ccbe 8dbd 053e
000000a0: ecf5 02be da9e 80be 7091 26bd 6335 923e
000000b0: 183d 1b3f 2f68 0ebf 8e0a 43be eb6d c83b
000000c0: 7ceb 38be e1a8 243e 041c 77be edf7 77be
000000d0: 64db 503e d9c5 d73d a5e3 3c3f 276b 613e
000000e0: 1cf8 15bf 56b3 31bd 5e63 8b3e d6eb 953e
000000f0: 2694 78bf 0ee5 033f 53f9 5c3f 3a00 f9bd
-0.35285574 0.23281725 -0.3039492 0.5498325 -0.25475094 -0.19750862 0.3729649 0.5347412
0.8482759 -0.14831042 -0.43906704 0.19624859 -0.2599138 -0.16199867 0.14309789 -0.055496175
0.2993844 0.34727862 -0.7273697 -0.5191073 -0.7513232 0.33775923 0.45233658 0.38340312
0.41510716 0.63028735 0.056549486 -0.14675091 -0.36422166 -0.54073936 -0.3470709 0.16127001
0.52348936 0.098697625 -0.08834577 0.12253985 -0.6635485 -0.4675026 -0.39915845 0.13060589
-0.12789124 -0.25121194 -0.040666044 0.28556356 0.60640097 -0.5562772 -0.19046995 0.006116619
-0.1805858 0.16080047 -0.24131781 -0.2421567 0.20396191 0.10535783 0.7378486 0.22013532
-0.5858171 -0.04338392 0.2722425 0.2928149 -0.97101057 0.51521385 0.8631794 -0.12158246

encoder_s.attn_layers.1.attention.query_projection.bias f4 [8]
00000000: 12db 483f 1877 d33e d530 a0be d792 113f
00000010: ff10 babe b651 763e f13e 04bf 64e3 47be
0.78459275 0.413018 -0.31287256 0.56864685 -0.36341092 0.24054608 -0.5165854 -0.19520336

encoder_s.attn_layers.1.attention.key_projection.weight f4 [8, 8]
00000000: e3e5 513e 383d 53bf da20 2dbe c416 99be
00000010: 4da6 1abe 3be0 b0be 3d73 2bbe 6a18 a63e
00000020: 8698 cdbe 828a 633f 2e4b 603e c36a b23e
00000030: 89a3 aebe 7a9c 283f 1378 713f 9dc1 e0bd
00000040: 4af1 6f3e b8e7 313f 3d66 d7be 72cf cfbe
00000050: 245b 90be d3e2 d43e bd3b 653d eac6 c9be
00000060: 2a5a 65be 6b5c f0be b385 4cbc 9e82 18be
00000070: 33d7 a13d c49b 6fbe e8d6 3e3e a463 de3e
00000080: 9999 8a3e 3812 57be 3beb a63e b1f7 103c
00000090: ff2d 703d b562 37be 7f6c b3bd 6f6b ecbe
000000a0: 1cd1 4dbe a6a9 efbe 7d3d e0bc 6ce3 60bd
000000b0: 9e06 a43e 02ac ad3e cee3 a1bb 08b9 dfbb
000000c0: d4cf 383e 05c5 9d3e 60dd 4f3f b9c2 0f3f
000000d0: d798 763e 0e26 29be 262d 72be 41e3 2bbf
000000e0: 872b af3f 6903 7c3e 8193 ea3d 158d 16bd
000000f0: 9fe9 53bc 3a95 03bf c7e3 dcbe c891 563e
0.20497851 -0.8251529 -0.16907063 -0.2990018 -0.15102501 -0.34546074 -0.16743179 0.324405
-0.4015543 0.8888322 0.21903679 0.34847078 -0.34109142 0.65863764 0.94323844 -0.10974429
0.23431888 0.694942 -0.4207019 -0.40587956 -0.28194535 0.41579303 0.055965174 -0.39409572
-0.22397676 -0.4694551 -0.012483048 -0.14893577 0.07902374 -0.23399264 0.18636668 0.43435395
0.2707031 -0.21003044 0.32601342 0.008848117 0.058637615 -0.17908747 -0.08760928 -0.46175715
-0.200993 -0.4680912 -0.02737307 -0.054904386 0.320363 0.33920294 -0.0049404865 -0.0068274774
0.1804803 0.30814376 0.81197166 0.561565 0.24081741 -0.16518423 -0.23650035 -0.67143637
1.3685158 0.24610676 0.114539154 -0.03675564 -0.012934118 -0.51399577 -0.4314253 0.20954049

encoder_s.attn_layers.1.attention.key_projection.bias f4 [8]
00000000: 4d99 0a3d d61a 31be ffd1 b2bd 6989 29be
00000010: 789b ae3e 1721 163e f031 debd 7829 96bd
0.033837605 -0.17295393 -0.0873146 -0.16556324 0.34102988 0.1466106 -0.108493686 -0.07332128

encoder_s.attn_layers.1.attention.value_projection.weight f4 [8, 8]
00000000: f53e 543f e445 8cbe 0016 b13e eb44 a6bd
00000010: 00ab 8dbe 7092 1a3d aac2 663e 9ce3 ebbd
00000020: 2ddb 80bd 04b5 0dbf 006d bfbe f032 f0be
00000030: d3dc 183f 2aef 96be 48d2 273d 1b18 d53e
00000040: 4c12 a0be 5cd6 253c f61a 88bd d625 2f3d
00000050: 39c1 c0be 4b7b 593f 89d6 5ebd 8b9c 4ebe
00000060: f286 fb3e 1e67 c93d 79f2 b4be f93d 89be
00000070: 207a c6be 0c4d 2b3e e4e9 a6be 92c0 7c3e
00000080: a230 b33e 2a7e eebd 8bc4 e13e 16e8 073f
00000090: befc 9f3d 58be adbe 5e28 16bf c425 b73e
000000a0: 4e36 9a3e 6ce4 b23e 2f6c fdbd df2a d4be
000000b0: 6b43 103e ac90 8dbe 67f8 aa3d 0cda 8cbe
000000c0: 4b14 e5be 5107 81be 8462 6cbe 793c 5e3d
000000d0: e2ea 46be 081c e33e 18bd d33e b1a4 e03d
000000e0: e7ba 943b 4527 bc3b 781c ff3d c657 f43d
000000f0: bb4f 7fbf 586d ac3e e61b 713d efcd ebbe
0.82908565 -0.27397072 0.34587097 -0.08118614 -0.27669525 0.03773731 0.22535196 -0.115180224
-0.062918045 -0.5535433 -0.37387848 -0.46913862 0.5971195 -0.29479343 0.040972024 0.41619954
-0.3126396 0.010121908 -0.066457674 0.042760693 -0.37647417 0.84953755 -0.054403815 -0.20176904
0.49126393 0.09834121 -0.35341242 -0.26805094 -0.3876505 0.1672861 -0.3260032 0.24682835
0.3499804 -0.11645158 0.44095263 0.5308851 0.078118786 -0.33934283 -0.58655345 0.35771
0.30119556 0.34939897 -0.1237415 -0.41438958 0.14088218 -0.27649438 0.0834816 -0.27510107
-0.44742045 -0.25200894 -0.23084456 0.05425689 -0.19425538 0.44357324 0.41355205 0.109689124
0.004538882 0.005741986 0.12456602 0.11930804 -0.99731034 0.33677173 0.058864497 -0.46055552

encoder_s.attn_layers.1.attention.value_projection.bias f4 [8]
00000000: 3a12 913d fa86 41be 811e ed3d bd29 77be
00000010: 6efd f63d 477a b3be 1fba 03be 525d ae3e
0.070835546 -0.18899146 0.11578084 -0.24137016 0.120600566 -0.35054228 -0.12863968 0.34055573
